project_files/saved_models/backup_exp7/ppo_policy_camera_cnn_whole_circle.pth (torch, 851485 bytes, 16 tensors)

action_var f4 [2]
00000000: 0000 803e 0000 803e
0.25 0.25

cnn_base.0.weight f4 [16, 1, 3, 3]
00000000: 6f64 bc3e 5ceb 4ebd 2668 923e 346a 1c3e
00000010: 6b96 ac3d cdab 743d baef ad3e 1cfb 99be
00000020: 6434 273e 8b8c a23e 08d4 82be a2b5 8bbe
00000030: 7be0 743d 7412 b23e e2ab 03bd 2a75 f23d
00000040: 6e1a ad3e d71b 47bd 064d 51bd 3c5e 9cbc
00000050: 28dd 2f3e f259 f23c 2ce1 4b3e 8523 43bd
00000060: 1873 913e bda4 923e 6318 c53c 22c3 8abe
00000070: e7a9 9d3e 0e5b 453e 6ef3 a7be 18e2 aabe
00000080: 1266 47bd 8be7 353e ef7a f8bd 14c8 713d
00000090: be2f c6bc 4b23 8bbe adc9 88be 9c51 7bbc
000000a0: 50f2 0f3e 193e 3dbd 75bd 6fbe 8a24 aabe
000000b0: 15f7 903d f747 5d3e 4817 5d3e 06c1 13be
000000c0: 2f16 e7bd a499 043e 12c1 323e e02d febb
000000d0: cd92 76be ea4a ce3d f584 2a3d 1a3d 8d3e
000000e0: d529 6dbe a505 093e d224 e63c 4477 473e
000000f0: 2d25 aebe 5590 0cbe 1261 cdbc 6a2c 103e
00000100: 0ab3 0d3e 367a 84be db6f 8a3e cfff 83be
00000110: 28ad 8c3c cf28 e0bd 5f8d 483b ee3e 85be
00000120: 9978 7c3e d3f1 a6be 679b 1fbe b976 883d
00000130: 20d4 ad3d cfab fcbd c170 12be 336b 6ebc
00000140: 9745 49bd fb90 0b3d faab 443d 2373 6cba
00000150: 4abc 0c3d 0711 123d 68fd 893c 0d31 fe3d
00000160: 096d 163e 40f1 88be 789b e33d d50a 4b3c
00000170: e5aa a7bd 0cd8 9c3e 01f6 a53e cc31 03be
00000180: d5d3 3cbe 6f82 243e 2e5d ab3e b529 d5bd
00000190: 9507 c63d 1a9f 41be 2dbe a73e f56c 7a3d
000001a0: 52fd 553e 78a2 b03c f33a eabd 25b6 163e
000001b0: e0a0 473d 92b8 1f3e 7ad8 5ebe e3c8 823e
000001c0: 97d4 15be 1146 aabe 8b21 71be 901b 273e
000001d0: 0a3e 51be 846b d73d d7dc 973e 395c 3f3e
000001e0: d6fd 143e 219f 563e b432 2cbe a33f 86bd
000001f0: 1c84 b23d 5f93 ecbd 3895 43be ab6e 7dbe
00000200: 0a86 ecbd 3119 f33d 524f 6d3e 4223 7c3d
00000210: 7cb4 a23e 81ca 123e 7793 9c3d 44fe 363e
00000220: 1558 863e 32d5 55be 50fe 3a3e 8fc8 e8bd
00000230: 45d4 99bd fcc6 513e 1094 81be 174b 73be
0.36795375 -0.050517425 0.28595084 0.15274888 0.084271275 0.059734154 0.3397196 -0.30074394
0.16328579 0.3174785 -0.25552392 -0.27287012 0.059784394 0.34779704 -0.032146342 0.118387535
0.33809227 -0.048610535 -0.051098846 -0.019087903 0.17174208 0.029583905 0.19910115 -0.047641296
0.28408122 0.2864131 0.02405948 -0.27102 0.30793688 0.19273016 -0.3280291 -0.3337562
-0.048681326 0.17764108 -0.12132823 0.0590287 -0.024192687 -0.27175364 -0.26716366 -0.015339281
0.14057279 -0.0462018 -0.23412116 -0.33231002 0.07078377 0.21609484 0.21590912 -0.14429101
-0.11283528 0.12949234 0.17456463 -0.0077569336 -0.24079438 0.100728825 0.041630704 0.2758568
-0.23160489 0.1338106 0.02809373 0.1947909 -0.34012738 -0.13726933 -0.0250707 0.14079443
0.13837829 -0.2587449 0.27038464 -0.25781104 0.017172411 -0.109452836 0.0030601842 -0.26024574
0.2465538 -0.32606372 -0.15586625 0.066632695 0.08487725 -0.123374574 -0.14300825 -0.0145519255
-0.04913863 0.03407381 0.048015572 -0.0009019842 0.034359254 0.03566077 0.016844466 0.124116994
0.14690031 -0.2674656 0.11113638 0.012392719 -0.081868924 0.3063358 0.3241425 -0.12811965
-0.18440183 0.16065381 0.33469528 -0.104083456 0.09669415 -0.18908349 0.3276228 0.061139066
0.20897415 0.021561846 -0.11437025 0.1471792 0.048737407 0.15597752 -0.21762267 0.2554389
-0.14631878 -0.3325658 -0.23547952 0.16319108 -0.20433822 0.10518554 0.29660675 0.18687524
0.14549956 0.2095914 -0.16816217 -0.065551065 0.08716604 -0.11551546 -0.19099891 -0.24749248
-0.115490034 0.11870039 0.2317479 0.061557062 0.31778324 0.14335062 0.07645314 0.17870432
0.26239076 -0.20882109 0.18261075 -0.113663785 -0.0751119 0.20486063 -0.25308275 -0.23759113

cnn_base.0.bias f4 [16]
00000000: b4c9 e2bb b0a1 673e 10ce 80bb 177d 853e
00000010: f733 3b3e 4d17 983c fefc c33d ba4c 3b3d
00000020: 706f 61be 1121 b2be 2d6e 8bbe 859c 233d
00000030: 2b60 223e 19e7 07be 2827 e2bd f1cb b5bc
-0.0069210175 0.22620273 -0.0039308146 0.26071998 0.18281542 0.018565798 0.09569739 0.04572747
-0.22015166 -0.34790853 -0.27232495 0.03994419 0.15856998 -0.1327175 -0.11042625 -0.022191973

cnn_base.3.weight f4 [32, 16, 3, 3]
00000000: d69e a2bc 7d38 ab3d d9a9 973d 263b 0e3e
00000010: fbc2 f13d 3410 993d 0c59 363c 5c8c cb3c
00000020: d509 d1bb b3c8 bd3c bb63 b1bc 6117 e23c
00000030: 8ce9 df3c 0025 2cbd 8bd7 8f3d 3aaa 8cbd
00000040: 2be8 973d 9728 2ebd f143 033e 5cef e23d
00000050: 3743 a83d 2338 763c 58dc ddbc bd8a d93d
00000060: b789 693d e2d6 b6bc a881 823d 3491 d6bb
00000070: 7b31 483d 6c39 693d 2ea9 c53b 073a 08bd
00000080: 5074 babd 9ac3 6cbd 2116 8abd b00f 503d
00000090: f37d 89bd f89d ebbc 6991 c7bd 6bc1 8dbc
000000a0: 302a 91bd 31e8 c43c 6158 8cbb ac52 7e3d
000000b0: 0d21 8a3d fc99 92bb 2abc 1d3d 96b2 71bc
000000c0: 732e 903d 7ddf d93d 36ac 973c 7aa1 7e3d
000000d0: 9e55 e33d 6b1e 22bd b6d5 83bd 168c 3ebd
000000e0: 4ab3 12bb a67f 8abd 45cc 9e3c 4dc3 ab3d
000000f0: 6d8c 7abd 9710 833c 8d5f 843d ea92 04be
00000100: 6414 823d e3cc 833d 3ca8 083c a498 043d
00000110: 574e 413d 9c53 2f3d 55be fd3c cb55 c13d
00000120: 5255 93bc 076c 9ebd 3f4b 643d 8c8e d2bc
00000130: 58e6 5ebb 1c78 08bd 138f 9dbd 2c1e 543d
00000140: 5d33 923d 493d a5bd 00e3 583c c1e2 d7bc
00000150: 8d06 963d 7587 20bd faca aebb c060 7b3c
00000160: 63bb 8d3d 079d 8b3c 007e fe3d 7256 a23d
00000170: 95dd 133d 7163 d03d cb46 613d 7ede 8c3d
00000180: 0238 37be fd87 16bd ec24 e13d a36e 8b3d
00000190: 8fd7 443c c915 e9bc 35a3 313d 8e9c ca3c
000001a0: 8bef 19bc f358 57bd 24ce 113d 51b8 22bc
000001b0: 084c 1abd a3f7 68bd bc0a 953d 1773 babd
000001c0: 4ad8 a5bd 1500 6fbb 85ea 6c3b c41a f43c
000001d0: 6159 37bc 1c9a ba3d a592 873d 478e 8db9
000001e0: 4cc2 863c 51ba d13d 855e 023c d1b1 8d3c
000001f0: bb12 6cbd 0993 a53c 0a76 d23d 6fd5 f23d
00000200: fe6e 463d f093 093d 4d9f be3d 11c8 89bb
00000210: 03d6 32be 0207 50bd 2c33 76bd bf22 8fbc
00000220: 2827 a23d 547a 063c 5413 a3bd 3868 043d
00000230: 192b 723d 5eaa 093c 8c21 aebc bc59 223d
00000240: f5c2 f7bc bb73 a13c 24d5 893d 8fa2 79ba
00000250: 5904 98bd 1ace 42bc fa7d 32bd 5df9 193d
00000260: 3463 efbc bf97 b53c 8021 c93c ac34 a5bd
00000270: 5c07 87bd 7935 aa3b 7a4f 26bd 2b7c bebd
00000280: 96af 303d adc1 16bd ab5c 67bd feab 1fbd
00000290: 9058 61bd 3af5 23bd 8134 a43d 5d40 aa3d
000002a0: 44d1 3d3d cfb1 39bc 7b9b 38bd 5ceb 3dbd
000002b0: 9168 1fbd e2e2 d6bc baf2 863d 5445 bcbd
000002c0: 590c 89bc f1bd 963c 5fb9 163c e965 d73c
000002d0: b96e 69bd 8ce5 47bd 9271 b7bd bff5 d7bc
000002e0: d5c4 80bd 44c8 5b3b fd8d 5bbd 5842 963c
000002f0: e589 c0bd f98f 4bbc 7b5e be3b e2a7 073d
00000300: 35eb 34bd 068e ae3c f91a 3fbd 6a15 a2bd
00000310: 8769 53bd b255 8abd b93e 8a3d 2a4e c2bb
00000320: 8aa0 fa3c 3674 8abc 904d afbd bb39 403a
00000330: a7f5 cebc dd5a a2bd fdf9 6bbd 5cf0 333d
00000340: f315 9c3d 2160 4ebd 6726 fd3b 3631 783b
00000350: 93f9 c8bc 8400 79bd b20f 173d 0e8d 983d
00000360: ae80 273d 6078 963c e8fe 6dbd fed5 0bbd
00000370: 6b53 00bd c8a5 19bd ab7b ab3b 76fa 2fbd
00000380: 00d0 ae38 4086 e1bc b848 24bd f6dd 803d
00000390: a83b 4a3d f6fc 33bc 7065 f5bc 8eb4 423d
000003a0: 8f81 97bd 704a 10bd 8fe4 5e3d 81fd 893b
000003b0: 828f 943d a806 dfbc bdd5 97bc 1b24 1f3d
000003c0: 62b3 7b3d 3946 8cbd e51d 1bbd c43d 4cbd
000003d0: d575 06bc 4d06 933d 8f82 873d 9d34 9d3d
000003e0: 389a 023d a7db e7bc 8068 143d 2920 4c3d
000003f0: 0f2d 7abd 26e8 50bd d05d 1a3d 9caf 883c
-0.01985113 0.08360384 0.07405443 0.13889751 0.11804768 0.074737936 0.011129629 0.024847202
-0.006379346 0.02316699 -0.021654 0.027599039 0.027333044 -0.042027473 0.070235334 -0.06868406
0.074173294 -0.04251918 0.12818886 0.110808104 0.08215945 0.0150280325 -0.027082607 0.10622165
0.0570161 -0.022319261 0.06372386 -0.0065480713 0.048875313 0.056939527 0.0060321307 -0.033258464
-0.09104216 -0.057803728 -0.06742502 0.05079621 -0.06713476 -0.028761849 -0.09744532 -0.017304143
-0.07088125 0.024036499 -0.0042829965 0.06209056 0.06744585 -0.004473923 0.038509525 -0.014752051
0.070401095 0.1063833 0.018514734 0.062165715 0.111003146 -0.03957979 -0.064372465 -0.046520315
-0.0022384697 -0.06762628 0.019384513 0.0838686 -0.061169077 0.015999122 0.06463537 -0.12946668
0.063515455 0.064355634 0.008340891 0.032372132 0.04719385 0.042804345 0.030974546 0.09440192
-0.01798502 -0.07735448 0.055735823 -0.025702737 -0.0034011807 -0.03331767 -0.07693305 0.051786587
0.07138703 -0.0806833 0.013237715 -0.026353242 0.07325468 -0.039191682 -0.0053342553 0.015342891
0.06920507 0.01704265 0.12426376 0.079266444 0.03609999 0.10175217 0.054999154 0.068783745
-0.17892459 -0.036750782 0.109933704 0.06808212 0.012014284 -0.02845277 0.043368537 0.024732854
-0.00939549 -0.052575063 0.03559698 -0.00993164 -0.037670165 -0.05687679 0.07277438 -0.09103983
-0.080978945 -0.0036468555 0.0036150527 0.02979792 -0.011190743 0.09111425 0.06619767 -0.0002699962
0.01645007 0.10240615 0.0079571055 0.017296704 -0.05763505 0.020211713 0.102764204 0.118571155
0.048445694 0.03358835 0.09307728 -0.004204758 -0.17464451 -0.050787933 -0.060107395 -0.017472623
0.07917625 0.008207876 -0.07962671 0.032325953 0.059123132 0.008402435 -0.02125623 0.03963636
-0.03024433 0.019708505 0.067301065 -0.00095228193 -0.07422704 -0.011889959 -0.04357717 0.037591327
-0.029222108 0.022167085 0.024552107 -0.08066687 -0.065932006 0.0051943627 -0.04060314 -0.09301027
0.0431362 -0.036805797 -0.05648486 -0.038982384 -0.0550161 -0.04002879 0.08017827 0.083130576
0.04634215 -0.011333897 -0.045070153 -0.046367034 -0.03891808 -0.026231233 0.06589265 -0.09192911
-0.01672952 0.018401118 0.009199469 0.026293712 -0.05699036 -0.048802897 -0.08957209 -0.026362298
-0.06287543 0.0033536116 -0.053602207 0.018342182 -0.09401301 -0.0124244625 0.005809603 0.03311909
-0.044169623 0.021307956 -0.046656583 -0.07914241 -0.05161431 -0.06754626 0.06750245 -0.005929728
0.03059413 -0.016901117 -0.08559716 0.0007332821 -0.02526362 -0.07927487 -0.057611454 0.043930396
0.07621374 -0.050384644 0.007725525 0.003787113 -0.024533069 -0.060791507 0.036880203 0.07448779
0.040894203 0.018367946 -0.058104426 -0.034139626 -0.031329554 -0.037511617 0.005233248 -0.042963468
8.3357096e-05 -0.027529836 -0.040108413 0.06292336 0.0493733 -0.010985604 -0.029955596 0.04753547
-0.07397758 -0.03522724 0.05441719 0.004211128 0.072539344 -0.027224854 -0.018534536 0.038852792
0.06145037 -0.068493314 -0.037870307 -0.04986359 -0.008206804 0.07178936 0.06616699 0.07676051
0.031885356 -0.02830298 0.03623247 0.049835358 -0.061078127 -0.051002644 0.037687123 0.0166853

cnn_base.3.bias f4 [32]
00000000: dc15 b5bc 269e b53c f067 c4bc 5bc1 4e3c
00000010: 5ae8 3fbd f7bf 3e3d 9e5b 7b3d fdba 433b
00000020: 4cec dfbb 20fa e1bc 00af 9e3c 6a65 aabd
00000030: 1c1d adbd c4c1 02bd ee0f 74bd fe4c dd3c
00000040: 6ff7 03bd 380b 993d 8245 da3c ed4b 143d
00000050: bbc0 0b3c 4616 3e3d 0798 c73c 6926 9b3c
00000060: 264f e339 17c5 3e3c 8405 b5bc 5d80 d9bc
00000070: c7c6 bb3c 86f9 393d 4b84 873c 0daf e53c
-0.02210515 0.022170138 -0.023975343 0.012619342 -0.046852447 0.04656979 0.06136667 0.0029866092
-0.0068335887 -0.02758509 0.019370556 -0.083201244 -0.08452818 -0.03192307 -0.059585504 0.027014252
-0.032218393 0.07472843 0.026644472 0.03620522 0.008529837 0.04640796 0.024364484 0.018939214
0.00043355784 0.01164367 -0.022097357 -0.026550466 0.022921933 0.04540398 0.016542574 0.028037572

mlp_base.0.weight f4 [32, 2]
00000000: 4bad 00bd 79a1 1f3f d308 b33e c76a 973e
00000010: b91f 08be c1f1 26bf f6c3 48be fa7c c03e
00000020: e3f4 15bf 1b10 b83e 4f98 103f 51df 223d
00000030: b8ac fb3e a785 553e 8ba3 89be 87b1 2d3f
00000040: 2124 d3be ccc3 243f e485 e43c 50d1 f73e
00000050: 9d7b 083f 63ea 133f 840f 243f e460 a2bd
00000060: 794b 1fbd 40d3 13bf d308 1dbf c284 8fbe
00000070: 7e10 4cbd ec2a 0bbd b502 e1be 478a 82be
00000080: 7c12 cbbe c91a ccbe 73b3 143e b314 91be
00000090: dc7c 223e 277c 11bf f267 9e3e 583c 083f
000000a0: e000 ca3d f06a f33e b36b 2fbe 932a 1ebe
000000b0: e4b8 803e a8fd 123f 68d7 17bf b047 d2be
000000c0: acaf 29bf cd8f e83e 9e5d 2dbf f7af 42be
000000d0: f4ab 18bf c14b 23be 419d 25bf 4a6a 03bb
000000e0: 7f91 c73e e77d 1f3f 6578 1ebe 093a 1f3f
000000f0: 9d87 13bf f595 8ebd 2c96 9ebe 2442 363f
-0.031415265 0.6235576 0.3496767 0.29573652 -0.13293351 -0.6521264 -0.19606003 0.3759535
-0.5857679 0.35949787 0.56482404 0.039763752 0.4915521 0.20851766 -0.26882586 0.6784901
-0.41238502 0.6436126 0.027895875 0.4840188 0.5331362 0.5777952 0.64086175 -0.07928637
-0.038890336 -0.57744217 -0.6134159 -0.28030974 -0.049820416 -0.03397648 -0.43947378 -0.25496122
-0.3966254 -0.39864185 0.1452158 -0.28336105 0.15867943 -0.56830066 0.3093868 0.5321708
0.09863448 0.47542524 -0.17130928 -0.15445928 0.2514106 0.574183 -0.5931306 -0.41070318
-0.6628368 0.4542221 -0.67720973 -0.19012438 -0.5963738 -0.15946867 -0.64693075 -0.0020052367
0.38978192 0.62301487 -0.15475614 0.6219793 -0.57628804 -0.06962196 -0.30973947 0.7119467

mlp_base.0.bias f4 [32]
00000000: 938c 163f 6854 303f a74d a93e 8834 433e
00000010: 6796 75bd 89c2 943e cec7 08be 0ca1 ab3d
00000020: c467 d93e 41fb d13e 65b7 cd3e 7b1b 123f
00000030: f970 13bf 85ad 163d 60c5 11bf 3806 9dbe
00000040: 6b51 8ebe cacb 5b3e 4359 823e eb6c e13e
00000050: c343 1dbe 3df6 943e f0d8 1ebc 5804 91bd
00000060: a41b 243f 011a 043f dbd8 61be e303 143f
00000070: 10c4 b13d b0b4 bbbe f5c8 10bf a406 1c3e
0.5880825 0.68878794 0.33067057 0.19063008 -0.059957888 0.2905467 -0.1335747 0.08380327
0.4246198 0.41012004 0.4017898 0.5707318 -0.5759426 0.036786575 -0.56941795 -0.30668807
-0.27796492 0.21464458 0.25458726 0.4402841 -0.1535788 0.29094115 -0.009695277 -0.07080907
0.64104676 0.5160218 -0.2205538 0.5781843 0.08679974 -0.3666129 -0.56556636 0.15236908

mlp_base.2.weight f4 [32, 32]
00000000: f31d 273c f4b2 c9bd 5356 cbbd 1b9f 86bd
00000010: 9c7e df3d 26c9 dcbd 1977 25bd bace 1b3e
00000020: 19ac 25bd 1332 dabd 1687 11be ef63 babb
00000030: b611 103e 6e16 84bd 6e0d 1e3e 61c6 09be
00000040: cf25 903c 40db e63d 4ec6 cdbd a0c5 1dbe
00000050: cc27 023e 9fe2 473c 4cfd 2ebe 162b 753d
00000060: 5cd2 23be 0eb7 873d fa9c 0ebe e62d 1d3d
00000070: c6e3 1d3e 2f93 6abd cf1c c53d fbed f33d
00000080: 916c 903c 6d20 fbbd cb9b c23c 7895 c7bb
00000090: 5b57 d1bd 4c2f bcbc ef63 33be b4d1 1d3e
000000a0: e458 2cbe c92d c53d 41a7 223e 2d34 923c
000000b0: d2b5 d6bc 802b d33d 1384 7b3d 35bf e63d
000000c0: ad7c 49bc 5318 18be 1379 adbd ffd0 b33c
000000d0: 9ed0 103e ced8 11bd c5f3 af3c aae8 903d
000000e0: cf1d 3dbc 1cd9 b4bb b3d5 3f3d c361 083e
000000f0: ce82 5d3b 5331 fc3c 2d9a 153e 0030 143d
00000100: 340f 9e3c d56c 0cbe f2e2 bcbd 330d d3bd
00000110: a36e 22be a506 d9bd 5383 1bbe 8db6 07bd
00000120: 6a31 9f3d 00fc 173e 39f5 7bbd 9498 163e
00000130: 09a7 f9bd 3ef7 963d dac1 183c 7760 7abd
00000140: ccfe a23d 8c9a 4c3d 4abf 753d 882b 4bbd
00000150: cfce 063e 24c9 1f3c 4b9c 5e3d a73a fc3c
00000160: 4fc5 29bd 9d1c 203e 45df 46bd c964 3abd
00000170: 882a f83c 8e38 30bd 0bc0 1b3e e061 873d
00000180: 7e7a 023e 6792 0c3d 6322 e33d d493 eebc
00000190: 8e94 083e 17a1 18be 5d19 36bd d96f c4bc
000001a0: b6a6 22bd 09bf e33d bc41 8e3d e2b9 16bc
000001b0: e037 663d 2981 1bbe 1d80 263c e40a e83d
000001c0: 2fcc 1bbe cc60 0cbd ff99 1bbe 0d10 18be
000001d0: a8de fcbd 4feb 9dbc 3584 86bd 1923 323d
000001e0: 0da3 d03d 0595 953c 4756 e53d f6f2 0cbe
000001f0: 806c 0e3e db91 1fbe 68ce 223e d78c 70bd
00000200: 59d5 023e 421a 78bd e243 eabc cc67 b2bd
00000210: abda 59bc 85cd f4bb ccea 9fbb 0ef8 18bd
00000220: f721 cebd 2af8 02be 4ce7 ef3d 9632 10bd
00000230: 7113 163d c99f 153d e42b 0f3d 74d4 80bd
00000240: 6ea6 213e 2776 fcbd c5f8 bbbd 7658 23bd
00000250: d1eb 45bd f3d7 393e b4ba 473d 4b97 5bba
00000260: bfbf 60bd a563 86bc 21b3 2dbe bd88 c43d
00000270: 5769 c23d 1e4f 443d 192c 1b3e c10f 9c3d
00000280: ff43 573d 4308 173e 98fd 1cbe 46f8 e43c
00000290: fb19 43be 6a8d 063e 76f7 11be c4f9 063e
000002a0: 4093 373b a50a 32be c377 6abc 8c10 b23c
000002b0: c66f bf3d 4c2c 023e 9bc7 0f3e 7325 8a3d
000002c0: 101a 04be f8c3 053e d747 943d ad37 5fbd
000002d0: 8248 f9bc a358 0a3e 53f1 8f3d db48 b03d
000002e0: 7edb 93bd 75f2 00be 649b b63d 2b41 283e
000002f0: 2c9f b1bc 8ab4 183e 28c5 0dbe 0b4b 29be
00000300: 0385 db3d a563 20be d779 cfbc 00a3 4cbd
00000310: 24e7 b83c 91ef a6bd 8c9d 29bd 11f0 9b3b
00000320: ba6a d9bd f62c f5bc 79e6 80bd 20d4 de3d
00000330: 83e7 14be ba0d b8bd 4d67 d1bd 0fce 5a3d
00000340: da25 333e 7a4d d8bd 0bd0 353d 9bc5 b03d
00000350: 6aee a0bd 0163 d9bd 85f2 06be db0b bbba
00000360: 014d 68bd 3f92 983d 30ff cebd 3679 c43c
00000370: a65b bf3d 354c 1ebe c4af 34bd 784e acbc
00000380: fbd6 143e 4166 7abd 00a0 0ebe dc41 38be
00000390: eb79 8fbd f7cf 343e ac95 1bbe 2185 cf3a
000003a0: 8358 b03b 1cc5 9f3d e147 d8bd ae3d 273d
000003b0: df42 0ebb ec7c 013e c6d3 63bd 4af7 353e
000003c0: f44c c93d 80ca 38be 3812 0abe 30fd c23d
000003d0: e1e9 163e a88b d9bd ad06 0bbe 1624 0b3e
000003e0: 5255 b33d 9471 1dbe 43af 09be 2482 8f3d
000003f0: befc 26be aee1 77bd 5a1e 89bd db07 663d
0.010200012 -0.09848586 -0.099285744 -0.06573316 0.10912821 -0.107805535 -0.040396784 0.15215579
-0.04044733 -0.10654082 -0.14211687 -0.0056881825 0.14069256 -0.064495906 0.1543481 -0.13454582
0.017596154 0.11272287 -0.10047589 -0.15407419 0.12710494 0.012200027 -0.17088813 0.059855543
-0.15998214 0.06626712 -0.1392707 0.03837385 0.1541892 -0.05726927 0.096246354 0.119106255
0.017629893 -0.12262044 0.023755929 -0.006090816 -0.1022174 -0.022971772 -0.1751859 0.15412027
-0.16830784 0.096278735 0.15884115 0.017847145 -0.026209746 0.10311031 0.061405253 0.112669386
-0.012297791 -0.14853029 -0.08470359 0.021950243 0.14142081 -0.03560715 0.021478543 0.07075627
-0.011542751 -0.0055190455 0.04683466 0.13318543 0.003379989 0.030785238 0.14609595 0.03617859
0.019294359 -0.13713391 -0.09222974 -0.10305252 -0.15862517 -0.105969705 -0.15186815 -0.03313308
0.07773097 0.14842224 -0.06151316 0.14706641 -0.121900626 0.073713765 0.009323562 -0.061127152
0.07958755 0.049952075 0.05999688 -0.04960206 0.13164829 0.0097525455 0.05434827 0.030789686
-0.041447934 0.15635915 -0.04855277 -0.045506272 0.030293718 -0.043022685 0.15209977 0.06610465
0.1274204 0.034319308 0.11090543 -0.029123224 0.13337919 -0.14905201 -0.044457782 -0.023979114
-0.03970977 0.111204214 0.069461316 -0.009199591 0.05620563 -0.1518599 0.0101623805 0.11330202
-0.15214609 -0.034272 -0.15195464 -0.14849873 -0.12347156 -0.019277243 -0.06568185 0.043490503
0.101873495 0.018259535 0.11198097 -0.13764557 0.13908577 -0.15582983 0.1589905 -0.058728065
0.12776698 -0.060571916 -0.028596822 -0.08711204 -0.013296763 -0.007470789 -0.004880285 -0.03734594
-0.10065072 -0.1278998 0.11714038 -0.035204493 0.036639635 0.036529336 0.034953967 -0.06290522
0.15786144 -0.12327223 -0.091783084 -0.039879285 -0.048320595 0.18148784 0.04876204 -0.00083767314
-0.054870363 -0.016404936 -0.16962864 0.09596393 0.09492748 0.047927015 0.1515354 0.07620192
0.05255508 0.14749245 -0.15331113 0.027950417 -0.1905288 0.13139883 -0.14254555 0.13181216
0.0028011352 -0.17386873 -0.01431078 0.021736406 0.09347491 0.1271221 0.14040987 0.06745424
-0.12900567 0.13063037 0.07240265 -0.054496456 -0.030430082 0.13510375 0.07028451 0.08607646
-0.07219599 -0.1259249 0.08916357 0.1643111 -0.021682344 0.1491262 -0.1384474 -0.16532533
0.10718729 -0.15663011 -0.025326652 -0.049960136 0.022571154 -0.081511624 -0.041410014 0.0047588428
-0.106160596 -0.029928666 -0.06293959 0.108803034 -0.1454144 -0.08986993 -0.10224781 0.05341917
0.17494908 -0.105616525 0.04438786 0.0863144 -0.07857974 -0.106145866 -0.13178451 -0.0014270501
-0.05671406 0.07449769 -0.10107267 0.02398358 0.093436524 -0.15458758 -0.044112936 -0.02103351
0.14535134 -0.061132673 -0.13928223 -0.17993873 -0.07005676 0.17657457 -0.15193814 0.0015832522
0.005381645 0.078012675 -0.10560585 0.040830307 -0.0021707339 0.1264531 -0.055621885 0.17770115
0.09829131 -0.18045998 -0.13483512 0.09520948 0.14737655 -0.106223404 -0.13576765 0.13587984
0.08756508 -0.15375358 -0.13445763 0.07007244 -0.16307351 -0.06051796 -0.06695242 0.056159835

mlp_base.2.bias f4 [32]
00000000: 0f44 3c3d b7ab e4bd e882 02be f2b4 00be
00000010: 3303 873d fe32 a0bd fa44 d4bc 80d6 0cbd
00000020: 3528 2d3e 3f7a 0d3e 652c 0ebe c422 543c
00000030: 90a9 d7bc b69e b63d 1e66 e43d 183b b3bc
00000040: 115d 79bb c8b0 be3c 79fe e6bd 6051 84bd
00000050: 703e 0bbe 5f0a ce3d a968 f0bd 1459 293e
00000060: a7fa 22be 1ee0 90bd 8340 8abd 4f36 803d
00000070: d98e c8bd be96 c7bd 8621 793c bb93 c4bc
0.045963343 -0.111655645 -0.1274525 -0.12569025 0.06592407 -0.07822226 -0.025911797 -0.03438425
0.16909869 0.13816164 -0.13884123 0.012947742 -0.02632597 0.089169905 0.1115229 -0.021878764
-0.0038049857 0.023277655 -0.112790056 -0.064608335 -0.13598037 0.10060572 -0.11738712 0.16537887
-0.15915929 -0.07073997 -0.06750586 0.062603585 -0.09792871 -0.09745549 0.0152057465 -0.023996225

actor_head.0.weight f4 [64, 1600]
00000000: 3bf9 c0bb 14c5 603b f906 603c 654e 233c
00000010: e0ab 823c fcf0 813c 8a06 98bb 1a57 a73c
00000020: 9934 aebc 14f7 9b3b 2d80 aa3b 5b90 6e3c
00000030: ec66 a5bc 6abe 8e3b c14a a7bc 28db 00bc
00000040: b188 0d3c e3c4 19bd 16bf abba de91 5e3c
00000050: 37e2 173c ed23 0bbc e7e9 9dbc b2fe 1abd
00000060: 3fdc b93c 835c f6bb cb2e 40bd ffb4 833b
00000070: 2475 9abc b704 3cbc ec04 adbc a576 b2bb
00000080: c0cf 823c e810 5bbd beb1 8c3c 16fb c83c
00000090: 77b6 b0bc 2888 393c d80b 89bc 96b0 e63b
000000a0: c605 9cbc 7679 81bc ad84 99bc 0603 c73b
000000b0: 2b90 eebb 1d6a 853c 8657 8fbc 4aa3 a938
000000c0: 0872 ddba 095c 47bc 326c e33c d869 22bc
000000d0: 6b3b 70bb 16b6 e53c 8204 623c e1f1 c23c
000000e0: e73d 8aba f3b1 bcbb 675f 98ba e736 fe3a
000000f0: eba2 2d3c 2bd2 82bc 5373 853b 67b0 8239
00000100: e7b2 073c 4b46 493a b127 7e3c 69aa 00bc
00000110: 9efe 0abd faf1 47bc ad56 b83c 4e66 e2ba
00000120: 1b20 87bb 9a3f 043c ec1e bf3b 2c94 c2bb
00000130: 5a90 0dbb 602e 36bc 4e43 a9bc bf10 b2bc
00000140: 0e01 913c 4c32 10bc fce5 c9bc c3ae a43c
00000150: 3344 793c cdcc e73c 9d3f 7a3c ae69 debc
00000160: 0c94 b6bc 4c25 c6bc 2237 863c 9314 cdbb
00000170: e78f a53a c3c3 c83c e179 593b d146 623c
00000180: 738e 4f3c 6020 ce3b b3d1 babc e4a6 c63c
00000190: 7350 ea3b 3080 a53b bfda 793c c875 be3c
000001a0: 0e1c 63bc 9410 623c 7fd6 0abc c98c d5bb
000001b0: f8b1 393c 1447 ea3b 0511 b23b cf7a 973c
000001c0: f394 543c 4997 a63a c301 d0bb b084 a13c
000001d0: a4b7 d23c 655e febb 4faa 883b 6bd5 a03c
000001e0: a1c9 67bc 4282 6fbc 3512 8fbb d8df 9f3c
000001f0: c195 b4bc 7523 9d3c 76f8 73bb b284 a43c
00000200: ecad 9c3b 5418 aabc 837e 5a3c 2c74 0e3c
00000210: 90cc 313c 9ed7 e23a ad57 73bc 3abd bf3c
00000220: 9033 a33c 1f2e 2c3b 5814 a3bc 75cf 9b3c
00000230: 0e8f 293c d2ed eebb 266a 3d3c 933e 753c
00000240: fe61 08bc 5406 9abc 99af 5a3c 5724 6ebc
00000250: 8e43 3f3c 42ca 12bc ff1c fd3b 507b edba
00000260: ff7f c33c fced 733c f1da cc3b 249b 273c
00000270: 2b18 0cbc efbb 27bb b8d7 2c3b 1349 433c
00000280: edbb b7bc 2d9e 343c 0b88 8e3c 8f52 20bd
00000290: 5eaa 80bb bd83 59bd 3638 05bd e644 cabc
000002a0: 6ac0 5c3c 099b 973c 6956 14bb 2d53 08bc
000002b0: 8bd5 96bc ce83 aebc b9b6 21ba 0a91 9a3c
000002c0: 1523 b9bc 115c 5dbc 907a 80bc 271d babc
000002d0: 55da 85bd dcf7 493b e5fc 1abb 0da3 b73c
000002e0: ebd1 42bc 1cc5 8f3b 955e a33b 88c8 9ebb
000002f0: 5560 92bb a231 833c 162b 8d3b 4507 97bb
00000300: 0765 89bc a6c2 aebc 579c 61ba cd40 003c
00000310: e8ca 8d3c 3068 123c 5f1b c9bc 2823 95bc
00000320: 8dbc 083b 4aa0 4b3c c387 363c 0d1d 17bb
00000330: 93d5 a5bc 500b 923c ea77 c33c 38e6 88bc
00000340: 4d1f 21bb 57dc bf3c c0b0 3ebb 0a7a 93bc
00000350: ed45 ca3b 40d9 0e3c 2ad5 d93c 0051 7c3b
00000360: 40e7 87bc 8a4c 753c 3d43 b5bc cd04 3c3b
00000370: a756 8dbb 15b8 d83c 13e5 8d3b 15f5 82bc
00000380: 13e4 943c 4d79 763c 8df3 87bb a346 42bc
00000390: 92dd af3c 136f a4bb 802c fa3a 30dd 973c
000003a0: 7538 a13c 07be 203c 031f bdbc e2fc 8bbc
000003b0: 00b2 68bc 1713 153c b3ac c43c 0d3e 45bb
000003c0: 4a20 b8bc 471c 68bc adc5 033c ff86 9cbc
000003d0: 7b5e bebc 0055 32bb 4395 c73c cb05 473b
000003e0: 54fd 9dbc 6256 943c baac 74bb 9d14 61bb
000003f0: a309 a339 df55 3fbc c8c5 26bc bd4b 9abc
-0.0058890856 0.0034297155 0.013673537 0.009967421 0.015951097 0.01586198 -0.0046394514 0.020427275
-0.021265315 0.0047596786 0.005203268 0.014560784 -0.020190679 0.004356195 -0.020421388 -0.007864751
0.008638547 -0.03754128 -0.0013103213 0.013584582 0.009270242 -0.008492452 -0.019276572 -0.037840553
0.02268803 -0.0075183525 -0.046919625 0.004019379 -0.018854685 -0.0114757335 -0.021120511 -0.0054462724
0.015968204 -0.05348292 0.017174598 0.02453379 -0.021571381 0.011323966 -0.01672928 0.0070400937
-0.019045722 -0.015804987 -0.018740023 0.0060733585 -0.0072803698 0.01628595 -0.01749779 8.088963e-05
-0.0016894946 -0.012167939 0.027761552 -0.00991293 -0.003665651 0.028040927 0.01379502 0.023796977
-0.0010547013 -0.005758518 -0.0011625112 0.0019395024 0.010597925 -0.015969357 0.0040725856 0.00024926962
0.0082824 0.0007678016 0.015512393 -0.007853129 -0.033934228 -0.012203688 0.022502268 -0.0017272921
-0.0041237003 0.008071804 0.0058325436 -0.0059380736 -0.0021600933 -0.011119455 -0.020661976 -0.0217365
0.017700698 -0.008801054 -0.024645798 0.020102864 0.015214014 0.028295899 0.015273956 -0.027150001
-0.022287391 -0.024187706 0.016383711 -0.006258556 0.0012631387 0.024507409 0.0033184218 0.013810829
0.01266824 0.0062904805 -0.02280507 0.024249502 0.0071507036 0.0050506815 0.015249907 0.023249522
-0.013861669 0.013797898 -0.008473991 -0.006517027 0.011333935 0.0071495865 0.005434158 0.018491177
0.012974965 0.0012709881 -0.0063478663 0.01971659 0.025722332 -0.0077627175 0.004170693 0.019633016
-0.014147193 -0.014618458 -0.004366184 0.019515917 -0.022044064 0.019181946 -0.0037226952 0.020082805
0.0047814753 -0.020763554 0.013335827 0.00869469 0.010851994 0.001730669 -0.0148524465 0.02340566
0.019922048 0.0026272608 -0.019907162 0.019019822 0.010349048 -0.007291534 0.011560952 0.014968532
-0.008324144 -0.018801846 0.01334753 -0.014535031 0.011673821 -0.008959355 0.007724404 -0.0018118415
0.023864744 0.014888283 0.006251686 0.0102298595 -0.008550684 -0.0025594195 0.0026373696 0.011919278
-0.022428477 0.01102404 0.017398855 -0.039141234 -0.0039265594 -0.05310415 -0.03252431 -0.024691056
0.013473609 0.018506544 -0.0022634512 -0.008320612 -0.018412372 -0.021303084 -0.00061688904 0.018867988
-0.022599736 -0.01351072 -0.015683442 -0.022718979 -0.06535784 0.0030817902 -0.0023649272 0.022416616
-0.011890869 0.004387511 0.0049856403 -0.0048456825 -0.00446705 0.016014878 0.0043081148 -0.004609021
-0.016771806 -0.02133305 -0.00086063653 0.00782795 0.017308667 0.008935973 -0.024549184 -0.01820524
0.0020864338 0.012428353 0.011140767 -0.0023058087 -0.020243442 0.01782766 0.02386089 -0.01671134
-0.0024585307 0.023420496 -0.002909705 -0.018002529 0.0061728866 0.008718789 0.026590902 0.0038500428
-0.01658976 0.014971862 -0.022126788 0.0028689385 -0.0043133083 0.026454965 0.0043302863 -0.015986005
0.01817516 0.015043569 -0.0041489066 -0.011857661 0.021467958 -0.005018124 0.0019086748 0.018538088
0.019680241 0.009810931 -0.023086077 -0.017088357 -0.014202595 0.00909879 0.02400813 -0.00300968
-0.022476334 -0.014166898 0.008042735 -0.01910734 -0.023238411 -0.0027211308 0.024363166 0.0030368443
-0.019285835 0.018107597 -0.0037334398 -0.0034344562 0.00031096963 -0.011678188 -0.010178991 -0.018834943

actor_head.0.bias f4 [64]
00000000: eda1 333c fba8 133d fc68 ab3b fb23 403c
00000010: ef0d 923c 3984 c43c 3021 933b 7778 b73c
00000020: 6865 6a3c 05c1 bdbc 201e 89bc 0698 edba
00000030: 6673 86bc f22b 163c f1a5 63bc 87c7 a33c
00000040: 0687 7c3c 7ea6 dabc 1c73 d6bc 3bf1 263c
00000050: 088c 4fbc d460 c43b ba29 143b f2f5 313c
00000060: 6553 90bc 9abf 9b3c 67cc 623c c34f a53c
00000070: 205e 73bc f134 e8bc 1b0f 923c 7055 a2bc
00000080: 6981 e2bb e09f 89bc c32b 793c 62e6 76bc
00000090: 60b5 b1bc 954d 103c 895b 523c 0ea5 70bc
000000a0: ab35 933c 1251 203b 0d40 b3bc 6498 debb
000000b0: 7682 823b 6a58 57bc 77f3 bdbc 2034 cf3b
000000c0: d0bc dd3c d142 c6bc bc43 2bbc 043d 553c
000000d0: 1285 993c f258 89b9 d379 abbc 2d17 e83b
000000e0: 1604 d0bb a548 833c 26d5 d13b 8495 0e3b
000000f0: aed2 0d3c 044f 67bc dec8 693b ae44 aabc
0.010963899 0.036049824 0.005231021 0.011727328 0.01782891 0.02398883 0.0044900402 0.02239631
0.014306404 -0.023163328 -0.016737998 -0.0018126972 -0.016412448 0.009165751 -0.013894544 0.019992603
0.0154130515 -0.026690718 -0.026177935 0.01018935 -0.012667663 0.005992988 0.0022607879 0.010861861
-0.01761789 0.019012261 0.013842679 0.020179635 -0.014853984 -0.028345557 0.017829468 -0.01981613
-0.0069123995 -0.016799867 0.0152081875 -0.015069576 -0.021692932 0.0088075595 0.0128392065 -0.01468779
0.017969927 0.0024462384 -0.021881128 -0.0067930687 0.0039828373 -0.013143638 -0.023187382 0.0063233525
0.027067572 -0.024201782 -0.010453161 0.013015036 0.01874021 -0.00026196946 -0.020932114 0.007082841
-0.0063481433 0.01602585 0.006403583 0.0021756599 0.008656187 -0.01411796 0.0035672705 -0.020784702

actor_head.2.weight f4 [2, 64]
00000000: 7920 7ebc db0f ddbc 8a4d b13d 051f 35bd
00000010: 917b 9c3d 180b 0c3e 4879 9c3d a568 90bd
00000020: 474c c8bd 8ba3 37bd 43ad 6dbd 655b debd
00000030: e30e a1bd 3492 b13d 8d59 303c d118 b7bd
00000040: dac2 593c 1fca a2bd 27dc 30bb 2154 e63d
00000050: 7ec0 1c3d 7fb8 fa3d 7cf8 9abd 5778 923b
00000060: 6668 e53c 25b9 e6bd 8257 c9bd 1550 483d
00000070: f336 983d c802 e5bd a2ae ee3c 1a5b da3d
00000080: 2d40 83bd 9c38 fe3d 0c85 dcbd d051 573d
00000090: e460 2dbd 6e16 5a3c 7b27 f9bd 67ca 563d
000000a0: a90d a9bd 4479 02be fda0 593d 15c9 ccbd
000000b0: 54d3 c7bd 7f3f bf3d 524f cc3d 9378 9f3d
000000c0: 1f7b f5bd 931d e2bd a251 003d a906 5fbd
000000d0: 3fee 89bd 4833 65bd 4e52 813d 1325 513d
000000e0: f1f1 cebd af3a 403d 5e15 ba3d c75a dabd
000000f0: 1491 62bd a569 cbbd 8e17 a1bd baab d9bd
00000100: fd23 e33d 7a2e bc3d e6df cabd c9ae debd
00000110: 8821 193d 44fc 8e3d e4ea 62bd e2d4 bfbd
00000120: 1d2d 39bc 0814 9dbd a74a 81bd 2555 f8bb
00000130: 0c23 483d d917 a2bd eede c13d fdd4 95bd
00000140: c42a c53d 69f5 383c 099f 5e3d 5b9e d03d
00000150: 5a77 a13d 09d8 e33d d398 83bd 5a1e 1d3d
00000160: 33b9 99bd a527 d53d e06e abbd 3e66 c73d
00000170: fb33 023d 3917 a03d efa4 ebbc 3912 1ebd
00000180: 3f32 3ebc 0105 33bc 385d 8cbc 9b93 8e3b
00000190: ef98 7dbd 317b 933c 5429 3cbd 24c8 0cbd
000001a0: 5cd5 92bd 727e 16bd 0e16 94bd a325 f8bd
000001b0: 5fec b2bd 6d58 a03d 07dc 00bd 4271 9f3d
000001c0: 5962 b73d 8dca 313d 8554 a53c 79dc 013d
000001d0: 955b 57bd e942 3fbd 8e65 8ebd 6fc6 31bd
000001e0: eda9 9dbd dfb8 de3c b8cc 93bd 68a3 20bd
000001f0: a843 043c 2f5c bf3d 2568 013e ada7 94bd
-0.015510672 -0.0269851 0.086573675 -0.044219036 0.07640756 0.13676107 0.0764032 -0.07051209
-0.09780174 -0.0448337 -0.058026563 -0.10857276 -0.078641675 0.08670464 0.010763538 -0.0894028
0.013291085 -0.07948708 -0.002698669 0.11246515 0.038269512 0.12242221 -0.07566926 0.004469912
0.028003883 -0.11265782 -0.09831144 0.048904497 0.07432356 -0.11182171 0.029136006 0.106619075
-0.06408725 0.12413141 -0.10767564 0.052568257 -0.04232873 0.013311012 -0.121657334 0.05243912
-0.082545586 -0.12741572 0.053132046 -0.09999291 -0.097571045 0.09338283 0.09976067 0.077866696
-0.11986374 -0.11040797 0.03132785 -0.05444971 -0.06734895 -0.05595711 0.063145265 0.051060747
-0.101047404 0.046930965 0.09086107 -0.10661846 -0.05531414 -0.099322595 -0.07865821 -0.10628457
0.110908486 0.09188552 -0.099059865 -0.108731814 0.037385494 0.069817096 -0.05539979 -0.09366776
-0.01130226 -0.07669836 -0.06313067 -0.0075785094 0.04886155 -0.07914705 0.094663486 -0.07316015
0.096272975 0.011288979 0.054350886 0.10186454 0.07884093 0.1112519 -0.06425633 0.038359024
-0.07506027 0.10407952 -0.08370757 0.09736298 0.031787854 0.07816929 -0.02876517 -0.038591597
-0.011608659 -0.010926486 -0.017134294 0.004351092 -0.061913427 0.018003078 -0.04593785 -0.034370556
-0.07169601 -0.03674168 -0.07230769 -0.12116554 -0.087364905 0.07829366 -0.031459834 0.07785274
0.08954305 0.043406058 0.020181904 0.0317044 -0.052577574 -0.04669467 -0.06952964 -0.04340213
-0.076984264 0.027187763 -0.072167814 -0.039218336 0.008072771 0.093437545 0.12637384 -0.07258544

actor_head.2.bias f4 [2]
00000000: f0d8 d0bd 1e94 13bd
-0.101976275 -0.036029927

critic_head.0.weight f4 [64, 1600]
00000000: 3aec bcbc da57 9c3c 4d7d 1f3c a723 31bc
00000010: 4a0f 54bc 6d1e e33b 9a75 afbc 39bf 593c
00000020: 8a25 b43c 7a81 fe3b cd95 3f3a fd74 26bc
00000030: 9796 413c ebf8 953c 991f 68bc d054 83bc
00000040: cd10 69bc 261c 8eb9 ed53 92bb 9a05 bcbb
00000050: fa23 a4bc f56f c2bc e7e7 b93a 9dc8 373c
00000060: d75b 853b 4192 2bbc 8fc0 f1bb 535c c8bb
00000070: 9576 c4bc 8818 85bc 021b d7bc 0b02 9cbc
00000080: 1831 0dbb c334 d63c 8d36 cfbb 87da ebbc
00000090: abd7 aebc a595 ad3c e681 19bb 37b3 48bc
000000a0: 78a8 b53c fa39 2a3c 6338 63bb 3a5d 5ebc
000000b0: 2f72 babc 1562 83bc 3a8f 00bc 1048 69bc
000000c0: 2d52 a93b 6096 64bc fd5b 1f3c 5b99 8a3c
000000d0: 330d 8db9 c259 933c 1d44 053c 87b9 1abc
000000e0: 95a2 903c 1d37 96bc 8042 7a3b 671f 803c
000000f0: 0088 3fba 5b06 bfbc 5f14 b6bc f3fd 2fbb
00000100: f352 08bb 33e2 243b 2a94 76bc 9d68 51bc
00000110: 3d7c a33c 409d 333c e737 cabc 2da1 98bc
00000120: ed52 ab3b 2dd0 1dbc 502b bebc 93f5 bc3c
00000130: 1a11 b6bc a725 a93c 839a cb3c 3d4b 4fbc
00000140: f361 8d3c e7e4 cb3a e771 0bbb ea74 863c
00000150: 6abd 64bc 43cf 16bc 1838 92bc 033d 513c
00000160: 5330 4b3c 6723 c83c 75e2 b53c 538f 1cbc
00000170: aa45 8cbc 4d72 1d3c c3f8 1fbc 13f2 143c
00000180: 97b4 55bc 6798 8d3b db4b 54bb a0c4 853b
00000190: 6983 e0bc c08d d0bc 00ce 0dbc e802 6bbc
000001a0: b2be 163c bfff efbc a2ab 69bc 858f a3bc
000001b0: 0c6b bebc 8a90 2c3c eae1 01bb dede 84bc
000001c0: 0ed0 02bd 1a8a 5a3c 9bff fabc 7d40 193c
000001d0: c563 a83b d662 63bc 1e27 00bc 911b a7bc
000001e0: 68c0 87bc a40d 033c 3330 873a 8f4f ed3a
000001f0: fc0d 503a 9d09 08bd b20c 4cbc 734c d3bc
00000200: 4da3 1d3c 29a1 92bc e0c0 36bb 34b8 f8bb
00000210: 1801 aabc 4878 7f3c 2ab3 0a3c 2e1e f53a
00000220: fc81 c0bc b406 e4bc 73cb c03a 9360 a5bc
00000230: f479 0fbc 4ec6 6d3c 636b c2bb bf9f c7bc
00000240: b835 b0bc 9757 c9ba be78 6dbc c022 0e3b
00000250: 5f38 b93c 3a1b 1d3c 9ae9 d5b9 0f88 81bc
00000260: 20ce d23b cdea 4b3a 0d36 87bb 7315 f2bb
00000270: 801d 9abb 9794 0c3c e0c9 8dbb 8062 a6bc
00000280: 63c7 183c bae2 c53b 0df7 603b 8f2d 373c
00000290: 6337 433c c14b 033d bdc5 51bc 2b15 af3c
000002a0: 332c 61bc 4330 adbc 93f9 a73c 96e3 543b
000002b0: 463d 0bbd ffe2 b53c b320 903c 8f01 87bc
000002c0: f862 adbc da4c 283b 1add e1ba 66ca a2bc
000002d0: 7a70 913c 1a2a cc3a d372 e73b 7399 febb
000002e0: 27b9 523b 402c a6bc 3350 a9bc 8042 13bb
000002f0: a781 c1bc 4acd 9dbc 733b af3b a0f7 573c
00000300: 3fbd ae3c 0098 553b 2b33 c0bc 17b6 ae3c
00000310: e067 1d3c 0b17 9ebc 6326 be3c 1000 9a3c
00000320: 3592 943c 5af9 823c d752 9bbc 009b c83c
00000330: 33a3 05bb e30c 1abc 7d44 b5bc abf8 a0bc
00000340: e752 e2ba 58eb c73c 7dc8 b0bc b0ea 273c
00000350: edb8 9a3b 27e3 26bc 2d31 e0bb 3d81 533c
00000360: f20e c93c 13a3 803c 5af7 103c a76a 383b
00000370: b536 c73c 533b 0abc 0db6 b1bc e7cb c5bb
00000380: 436e bcbc 8020 0bbb 6a2a 0abc 5a03 06bb
00000390: bfb8 ac3c 2d99 f43b f37d c3bb 9a7f 133a
000003a0: f060 223c 2dda 8a3c cd40 d939 4024 1dbb
000003b0: c08b 77bb cd68 7c3a 000e 9aba 802e 883b
000003c0: ad61 f83b 277f 203b 5dc1 bd3c 5da1 ab3c
000003d0: 25c0 91bc 3144 5dbb 5c4c 51bc 43be 563c
000003e0: 43a8 d9bc 10d7 efbc 428f 7cbc 3b7d 6e3c
000003f0: 8eec 193c 8914 353c 77db 01bd df7c f23b
-0.02306186 0.01908486 0.009734464 -0.010811723 -0.012943098 0.0069311173 -0.021418381 0.01329022
0.021990556 0.0077668997 0.0007308394 -0.010159728 0.011815689 0.01830717 -0.01416769 -0.016031653
-0.014225197 -0.00027105323 -0.004465571 -0.0057379724 -0.020036686 -0.023735026 0.0014183492 0.0112172635
0.004069786 -0.010471881 -0.007377691 -0.0061145215 -0.023982326 -0.016247049 -0.026257996 -0.019043943
-0.0021544155 0.026148206 -0.0063236416 -0.028790725 -0.021343073 0.02118952 -0.0023423373 -0.012249759
0.022175059 0.010389799 -0.003467106 -0.013572032 -0.022759525 -0.01603798 -0.007846648 -0.014238372
0.005167267 -0.013951868 0.009726522 0.016918829 -0.0002690345 0.017987136 0.008133915 -0.009443647
0.01765565 -0.018336827 0.003818661 0.015639974 -0.00073063374 -0.02331846 -0.02222651 -0.0026854246
-0.0020801395 0.002515924 -0.0150499735 -0.012781289 0.019956702 0.010962784 -0.02468486 -0.018631542
0.0052283914 -0.0096321525 -0.023214012 0.023066318 -0.022224952 0.020647837 0.02485395 -0.012652216
0.01725862 0.0015555889 -0.0021277608 0.01641317 -0.013961175 -0.0092046885 -0.017849013 0.012770894
0.012401658 0.024430944 0.02220271 -0.0095556555 -0.017123062 0.009609771 -0.009763899 0.009090918
-0.013043544 0.0043211463 -0.0032393846 0.0040822774 -0.027406411 -0.025458217 -0.008655071 -0.014343955
0.009200739 -0.029296754 -0.014262112 -0.019965896 -0.023244403 0.010532508 -0.0019818493 -0.016219553
-0.031936698 0.01333859 -0.03063946 0.009353754 0.0051388466 -0.013878545 -0.007821826 -0.020398887
-0.016571239 0.007998858 0.0010314047 0.0018105375 0.0007936654 -0.033212293 -0.012454199 -0.02579329
0.0096214535 -0.017899113 -0.0027885959 -0.007590318 -0.020752475 0.015592642 0.008465568 0.0018701011
-0.023499481 -0.027835228 0.001470907 -0.020187652 -0.008757103 0.014512612 -0.0059332117 -0.024368165
-0.02150999 -0.0015361187 -0.014494119 0.0021688193 0.022609888 0.009589011 -0.00040800573 -0.015811948
0.0064332634 0.00077788235 -0.0041263164 -0.007387811 -0.0047032237 0.008580348 -0.004327044 -0.02031064
0.009324881 0.006038991 0.0034326941 0.011180296 0.011915061 0.032054666 -0.012803492 0.021372398
-0.013743448 -0.021141177 0.020504748 0.0032484285 -0.03399398 0.022202967 0.017593717 -0.016480235
-0.021165356 0.0025680573 -0.0017232031 -0.019871902 0.017753828 0.0015576512 0.0070632487 -0.0077697574
0.0032153816 -0.020284772 -0.020668125 -0.0022470057 -0.023621393 -0.019262929 0.005347663 0.013181597
0.021330474 0.003259182 -0.023461899 0.021327062 0.009607285 -0.019298097 0.023211664 0.018798858
0.018136123 0.01598804 -0.0189604 0.024487972 -0.0020391464 -0.0094024865 -0.022127384 -0.019649824
-0.0017267138 0.024404213 -0.021579975 0.010248825 0.004721752 -0.010185993 -0.0068417997 0.012909231
0.02454326 0.01570276 0.008848036 0.0028139742 0.024318079 -0.008436996 -0.021693254 -0.00603627
-0.023001796 -0.0021229088 -0.008432964 -0.0020448775 0.021084188 0.007464549 -0.005965942 0.0005626619
0.009910807 0.016949737 0.00041437746 -0.0023977906 -0.0037772506 0.00096286536 -0.001175344 0.004155934
0.0075800032 0.0024489851 0.023163492 0.020950967 -0.017791817 -0.003376257 -0.012774553 0.013106885
-0.026569491 -0.029277354 -0.015415015 0.014556224 0.009394778 0.011052259 -0.03170344 0.0074001397

critic_head.0.bias f4 [64]
00000000: 9c70 bebc 40fa 5dbc 3307 42bc da81 de3c
00000010: 5152 a7bb 8f64 b4bb 8f0b 6f3c 4cbc 1abd
00000020: 5c22 8ebc c72f 913b 6988 2bbc ea68 fdbc
00000030: b1c8 863b fdb9 e1bb 31cb 663a 213f 5cbb
00000040: bbaa bfbb c688 893c 5c66 213d ab14 cfbc
00000050: 625a 683c c8c6 923c e870 393c 25dd 2cbd
00000060: d48b 2bbd 2872 6c3d d090 77bb 296c acbb
00000070: 52e8 4a3c 15c8 973c 8309 bb3c 0a0f 42bc
00000080: d007 8dbc e185 0bbd f171 aabc 96da 183c
00000090: 5031 213c 678c 0d3c 7fc0 d83c d08a ebbc
000000a0: fbc8 16bc 9019 d8bc 9cb9 acbc 9e9a b6bc
000000b0: d50e 9cbc a5f0 a3bc 08ee edbc 6157 99ba
000000c0: 30b2 123d 260c 283b 37ec a1bc 57a1 edbc
000000d0: f8c8 833c b06b bc3c a7ca 03bc c49f 24bb
000000e0: 0f3f eabc 1294 71bb f759 b8bc 2cd1 313d
000000f0: e932 8a3c 3820 97bc 242b 543c 1d39 82bc
-0.023247056 -0.013548434 -0.011842537 0.027161527 -0.0051062484 -0.0055051516 0.014590158 -0.03777723
-0.017350368 0.0044307443 -0.010469534 -0.030933816 0.0041132797 -0.0068886266 0.00088040816 -0.0033606964
-0.00584921 0.016788851 0.039404258 -0.02527841 0.014181705 0.017917052 0.011318423 -0.042203087
-0.041881397 0.057726055 -0.0037775524 -0.005261917 0.012384491 0.018528024 0.022831684 -0.011844406
-0.01721564 -0.034063224 -0.020806285 0.009329459 0.009838417 0.008639432 0.026458977 -0.028752714
-0.009203191 -0.026379377 -0.0210846 -0.022290524 -0.019050041 -0.02001221 -0.029044166 -0.0011699015
0.035814464 0.0025642007 -0.019765956 -0.029007597 0.01608704 0.023000568 -0.008043922 -0.0025119642
-0.028594522 -0.0036861938 -0.022503836 0.043412372 0.016869979 -0.01844798 0.012949739 -0.015896374

critic_head.2.weight f4 [1, 64]
00000000: 498c 95bd 508e 5fbb b6c7 c2bd dcf4 48bd
00000010: 155c e8bd 3152 1cba 0384 263d fb01 b6bb
00000020: a8d4 e0bd ffff 583d 07d9 e737 7c4e c4bc
00000030: 47e5 8f3d 581b fe3c 6e98 533b 1598 783c
00000040: 32fd 7a3d 9c4e 1e3c a5cf b5bd b532 12bc
00000050: 66ca c9bd 35df ae3d 0adc 15bc 276f 203d
00000060: 63e6 8e3b 97f6 adbc 7fdf 12bc fbbf 6b3b
00000070: 24dc 8cbd 2826 6a3d f28e 21bd 9512 bebc
00000080: cf4f 393c 79ea 533d e7ea 183d 8189 1bbc
00000090: 2832 b5bc 5809 9f3d 9afe 15bc ee7f 7bbd
000000a0: 2717 1abd dd9d 463d 1cab 47bd b89a eabd
000000b0: 212e 8abd 9848 203c edf3 c63c 9cae 71bc
000000c0: 01b6 f4bc 8492 b83c 73dc b73b 023c 2dbc
000000d0: e82e 8bbd cfd9 c9bd a000 aeba 9d96 96bb
000000e0: 41bb 2b3d 17c2 17bc cfeb 823c 607d c6bc
000000f0: ebc4 c8bc 141c 7fbd 2625 2abb 33e0 623d
-0.07302148 -0.0034111924 -0.09510748 -0.04906164 -0.11345688 -0.0005963175 0.04065324 -0.0055544353
-0.10978061 0.052978512 2.7638407e-05 -0.023963206 0.07026153 0.031018898 0.00322869 0.015172978
0.061276622 0.009662297 -0.08877496 -0.008923222 -0.098530576 0.08538667 -0.0091467 0.039168503
0.0043609603 -0.021235747 -0.008964418 0.0035972584 -0.06877926 0.057165295 -0.039442964 -0.02320222
0.011310532 0.051737282 0.037333395 -0.009493233 -0.022118643 0.07765454 -0.00915494 -0.0614013
-0.037619736 0.048490394 -0.048747167 -0.114552915 -0.0674708 0.009782933 0.024286235 -0.014751103
-0.029871942 0.022530802 0.0056109964 -0.010573389 -0.06796056 -0.09855997 -0.0013275333 -0.004595591
0.041926626 -0.009262583 0.015981583 -0.024229705 -0.02450796 -0.062282637 -0.0025962084 0.055389594
