project_files/runs/Sep09_11-32-48_kiveli.ics.forth.gr/ppo_policy_camera_cnn_whole_circle.pth (torch, 851205 bytes, 15 tensors)

cnn_base.0.weight f4 [16, 1, 3, 3]
0	0xbe6f0dea	-0.23345152
1	0xbe2baecc	-0.16765898
2	0xbe926815	-0.28595033
3	0xbe4bb25e	-0.1989226
4	0x3de983f3	0.114021204
5	0x3de355e2	0.11100365
6	0x3e2ed0e3	0.17071871
7	0x3cd1cc1e	0.025610026
8	0xbdb220bd	-0.086976506
9	0x3c382d19	0.011241221
10	0x3e85e3d6	0.26150388
11	0x3e06a798	0.1314987
12	0xbdecded6	-0.1156594
13	0x3e81cd82	0.25352103
14	0x3e31f4cf	0.17378543
15	0x3e5fba84	0.21848494
16	0x3d61e838	0.0551531
17	0xbe9281dc	-0.286147
18	0x3d604f38	0.05476305
19	0x3cd99dad	0.026564443
20	0xbd9e88ae	-0.07740913
21	0xbe08353a	-0.13301554
22	0x3e6e81f0	0.23291755
23	0xbe02d3d2	-0.12776116
24	0x3e67fe25	0.22655542
25	0x3e9433ad	0.28945675
26	0x3e9ec86f	0.31012294
27	0x3d33d145	0.043900747
28	0x3e507ba0	0.20359659
29	0x3cf57399	0.029962348
30	0xbdfe136f	-0.124060504
31	0x3e91a90c	0.28449285
32	0xbe883a76	-0.26607102
33	0x3e9510e5	0.29114452
34	0xbe8aa405	-0.27078262
35	0xbe9c2954	-0.3050028
36	0x3d4647d2	0.048408337
37	0x3da28974	0.07936373
38	0x3e8363f2	0.2566219
39	0x3dc76793	0.09736552
40	0x3c8cfa4a	0.01720919
41	0x3df5537f	0.11978816
42	0xbdc4240a	-0.095771864
43	0x3e8f5a2d	0.27998486
44	0x3e29cf2d	0.16582938
45	0x3e57821b	0.21045725
46	0xbd28e9df	-0.04123866
47	0xbe01ded0	-0.12682652
48	0x3cc28c4c	0.02374854
49	0xbe9f0a0e	-0.3106236
50	0xbe96d8ba	-0.29462224
51	0x3e8921e5	0.26783672
52	0xbd2a3863	-0.04155768
53	0xbe84e9bf	-0.25959584
54	0x3d9313aa	0.07181485
55	0x3e95918a	0.292126
56	0x3d8de8ff	0.06929206
57	0x3e4fe26e	0.2030122
58	0xbd090c93	-0.033459257
59	0xbda406a4	-0.08009079
60	0x3d7f9502	0.062397964
61	0x3e7f559e	0.24935004
62	0x3d23b7fa	0.039970376
63	0x3e7ff379	0.24995221
64	0x3ea0e8c6	0.31427592
65	0x3dbcf9ff	0.092273705
66	0xbe802c37	-0.25033733
67	0xbe95054b	-0.291056
68	0xbe054abb	-0.13016789
69	0x3e908e56	0.28233594
70	0x3daf6619	0.085643955
71	0xbbe11816	-0.0068693263
72	0xbe99b736	-0.3002259
73	0x3e9834fd	0.29727927
74	0x3d06e8f2	0.032936998
75	0x3e101109	0.14068998
76	0x3e27fb9b	0.16404574
77	0x3da85a35	0.082203306
78	0x3b4aebbe	0.0030963267
79	0x3e1bd5d9	0.15218295
80	0x3ca002e5	0.01953263
81	0x3df80a6e	0.12111364
82	0x3de04920	0.109514475
83	0xbe8091bb	-0.25111184
84	0x3e58519c	0.21124882
85	0xbe48f1f2	-0.19623545
86	0x3e32cf17	0.17461811
87	0x3d35ba94	0.044367388
88	0x3e1e5b50	0.1546452
89	0xbda87513	-0.08225455
90	0xbdacdada	-0.0844018
91	0xbe3ba019	-0.18322791
92	0xbe0f0b70	-0.13969207
93	0xbe5a3682	-0.21309856
94	0x3d68c2ca	0.05682639
95	0xbe64dd9e	-0.22350165
96	0x3bb4bc0e	0.005515582
97	0xbe115f19	-0.14196433
98	0xbe564e51	-0.20928313
99	0xbe445a96	-0.19175181
100	0xbdeca899	-0.11555595
101	0x3c62b667	0.013837433
102	0xbc95499c	-0.018223576
103	0xbe74e602	-0.23915866
104	0xbcf61f58	-0.030044243
105	0xbddb9a4b	-0.107227884
106	0xbe4f5d14	-0.2025035
107	0x3bfa3e42	0.0076368162
108	0xbea10e72	-0.31456333
109	0x3e59ca72	0.21268633
110	0xbe483dc2	-0.19554809
111	0xbe8c8462	-0.2744475
112	0xbe459d83	-0.19298367
113	0x3e1b99a9	0.15195335
114	0xbd97898e	-0.07399283
115	0x3e55a9e2	0.20865586
116	0xbd6c19ee	-0.057641916
117	0xbe141600	-0.14461517
118	0x3e268b12	0.16263989
119	0x3e878bcc	0.26473844
120	0x3e8db515	0.27677217
121	0xbe84fde5	-0.25974956
122	0x3d723117	0.059128847
123	0xbe216c63	-0.15764003
124	0x3e749479	0.23884763
125	0xbdd454ff	-0.10367774
126	0xbe5674aa	-0.20942941
127	0xbe517da4	-0.20458084
128	0xbe5722c7	-0.2100936
129	0x3e9feb88	0.31234384
130	0xbd9cc285	-0.07654289
131	0x3ea42314	0.32058012
132	0xbca3fd29	-0.020018177
133	0xbe3cfdf4	-0.1845625
134	0x3e0201d4	0.1269601
135	0xbdc17c05	-0.09447483
136	0xbe692d31	-0.22771145
137	0xbe8dfc95	-0.27731767
138	0x3d8c4c6d	0.068505146
139	0xbe886cf8	-0.26645637
140	0x3e8d8d6f	0.27646968
141	0x3ea69194	0.32532942
142	0x3e62c3fb	0.22145073
143	0x3e058807	0.13040172

cnn_base.0.bias f4 [16]
0	0xbea55a42	-0.32295424
1	0x3ea1658c	0.31522787
2	0x3de863f3	0.11347189
3	0xbd36e769	-0.044654284
4	0x3e97a303	0.29616556
5	0xb8395c41	-4.4193355e-05
6	0xbe559f42	-0.20861533
7	0x3e805c03	0.250702
8	0x3e981d78	0.29709983
9	0xbd69a21b	-0.05703936
10	0xbe17fe67	-0.1484314
11	0x3d8889b6	0.06666891
12	0xbe3a8562	-0.18214944
13	0xbd3cbb0f	-0.04607683
14	0xbe74cf41	-0.23907186
15	0xbea1ac3b	-0.31576714

cnn_base.3.weight f4 [32, 16, 3, 3]
0	0xbc99cd3d	-0.018774623
1	0x3ba95234	0.00516727
2	0xbc252a70	-0.010080919
3	0xbb8836c9	-0.0041569215
4	0x3d47bd2e	0.0487644
5	0xbd7f2e36	-0.06229993
6	0xbd43ae17	-0.047773447
7	0xbd0243b3	-0.031802844
8	0xbd8427a2	-0.06452872
9	0x3bf376de	0.0074299416
10	0xbcc809f9	-0.024418818
11	0xbd6388d4	-0.05555041
12	0xbcf8316b	-0.030297002
13	0x3d9dbe2b	0.07702287
14	0xbd551fd2	-0.0520323
15	0xbca50c6f	-0.02014753
16	0xbd170162	-0.036866553
17	0xbd15b152	-0.03654606
18	0xbd9e249f	-0.07721829
19	0xbd48add3	-0.048993897
20	0xbda76d82	-0.08175184
21	0x3d0a8335	0.033816535
22	0x3d5f8248	0.054567605
23	0xbd02c31f	-0.031924363
24	0xbda123b9	-0.07868142
25	0x3d37101d	0.0446931
26	0x38e3fea0	0.00010871631
27	0x3d49a36d	0.04922812
28	0xbd23ad9a	-0.03996048
29	0x3c0a8da2	0.008456619
30	0xbcdc871d	-0.026919896
31	0x3c80064b	0.015628
32	0x3d01f9cd	0.03173237
33	0x3da0dcd8	0.078546226
34	0x3ad5ddde	0.0016316732
35	0x3d1114b5	0.03542014
36	0x3d88d423	0.06681087
37	0xbc260443	-0.010132852
38	0x3d84b592	0.06479944
39	0xbd35037a	-0.04419277
40	0x3d87a17d	0.06622598
41	0xbd244486	-0.04010441
42	0x389b6cac	7.411218e-05
43	0xbd295575	-0.041341264
44	0xbd6c0304	-0.057620063
45	0x3d604c6e	0.05476039
46	0x3ccfa0d5	0.025345245
47	0x3d133e43	0.03594805
48	0x3d5bbc17	0.053646173
49	0xbd19d67d	-0.037558068
50	0x3d800651	0.06251205
51	0x3d135583	0.035970222
52	0x3d8ccb6c	0.06874737
53	0xbd2acdbd	-0.041700114
54	0xbbc8af48	-0.006124411
55	0xbd50e5bd	-0.051000345
56	0x3ccfe8ba	0.025379527
57	0x3da2fe38	0.07958645
58	0x3da028be	0.07820271
59	0xb9081d2b	-0.00012980837
60	0xbd34a98e	-0.044107012
61	0xbcaff854	-0.021480717
62	0x3bd814a0	0.0065942556
63	0xbd088e5a	-0.033338882
64	0x3ab62975	0.0013897853
65	0x3d2d8804	0.042366043
66	0x3da182cc	0.07886276
67	0x3c62de0c	0.013846885
68	0xbd94e44a	-0.07270105
69	0xbd196086	-0.037445568
70	0xbd72770d	-0.059195567
71	0xbcf28d71	-0.02960846
72	0x3b8c67e1	0.0042848443
73	0x3bc45d27	0.00599255
74	0x3c68508f	0.014179363
75	0xbd94b54c	-0.07261142
76	0xbd57468b	-0.05255751
77	0xbc0d9035	-0.008640339
78	0x3affc022	0.0019512216
79	0xbd32c7ad	-0.043647457
80	0x3d8b2f01	0.06796075
81	0x3d963d76	0.073359415
82	0x3d162c79	0.036663506
83	0x3d1ddcf4	0.038540795
84	0x3a5911ec	0.00082805636
85	0x3d90b42a	0.070656136
86	0x3c28996e	0.010290487
87	0xbd46f1d1	-0.048570458
88	0xbd6375af	-0.055532154
89	0x3d82460f	0.06361019
90	0xbd23cf4c	-0.039992616
91	0xbd3e4025	-0.04644789
92	0xbd753580	-0.059865475
93	0xbda54ea7	-0.08071642
94	0x3d3af667	0.045645144
95	0xbcf3ad04	-0.029745586
96	0x3cd4e2ed	0.025987113
97	0xbd34ca9f	-0.044138547
98	0xbda87318	-0.082250774
99	0x3d0ae08d	0.033905555
100	0xbd4a79b0	-0.049432456
101	0xbd32e7fd	-0.043678273
102	0xbc746cf3	-0.014918554
103	0xbc90ec32	-0.017690752
104	0xbc996d96	-0.018729012
105	0xbc909c5c	-0.017652683
106	0xbd9ab7f3	-0.07554617
107	0x3d04ba65	0.032404322
108	0x3d5f510a	0.054520644
109	0xbcfd691c	-0.03093391
110	0x3c8a942c	0.016916357
111	0x3d4a472e	0.04938429
112	0x3c9de3f5	0.019273737
113	0x3d6b9c2d	0.057521988
114	0xbd87dbb2	-0.066337004
115	0x3d7a8b7d	0.061168183
116	0xbcf8c4e3	-0.03036732
117	0x3da49101	0.0803547
118	0x3caac9f9	0.020848261
119	0x3b9a94e1	0.004717455
120	0xbb0e8354	-0.0021745758
121	0x3d4a0601	0.049322132
122	0x3cecc838	0.028904065
123	0xbd482ed7	-0.048872795
124	0xbd253161	-0.040330295
125	0x3d72e34c	0.0592988
126	0xbc996550	-0.018725067
127	0xbd87a153	-0.06622567
128	0x3d9594f3	0.073038004
129	0xbd97f4fb	-0.07419773
130	0x3d361942	0.04445768
131	0xbd6b77e2	-0.057487376
132	0xbcb0b8b5	-0.02157245
133	0xbade6879	-0.0016968391
134	0xbd9cf1fe	-0.07663344
135	0x3c03a201	0.00803423
136	0x3d883706	0.0665112
137	0xbda7335b	-0.08164092
138	0x3d9f7e50	0.07787764
139	0x3d44b891	0.04802758
140	0xbc83e5a1	-0.016100707
141	0xbd2c5a67	-0.042078402
142	0x387b0102	5.9844002e-05
143	0xbc6c6a0e	-0.014429582
144	0x3da8aae8	0.08235723
145	0x3ca21eb2	0.019790027
146	0xbd5a9822	-0.05336774
147	0x3ca431d2	0.020043287
148	0xbd4e3e10	-0.050352156
149	0x3d8fa406	0.07013707
150	0xbcd91939	-0.026501285
151	0xbc55ca41	-0.013048709
152	0x3d759629	0.059957657
153	0xbd7b4fcc	-0.061355397
154	0x3d381fa2	0.044952042
155	0x3c639e65	0.013892745
156	0x3d9a968a	0.07548244
157	0x3d37a024	0.044830456
158	0x3d8d7861	0.06907726
159	0x3d33b8f9	0.043877576
160	0x3d69c1ed	0.057069708
161	0xbd09c63d	-0.03363632
162	0x3da8b6c6	0.08237986
163	0x3d3152a6	0.04329171
164	0xbd8ce7b7	-0.068801336
165	0xbd8ed2d8	-0.06973809
166	0xbba35b71	-0.004985266
167	0x3949bf8d	0.00019240212
168	0xbc233f38	-0.009963803
169	0xbd80ef81	-0.06295682
170	0xbd78e1d4	-0.06076224
171	0x3c1d6dc1	0.009608687
172	0xbd94bdec	-0.07262787
173	0x3d987410	0.07444012
174	0xbd8db7ad	-0.06919799
175	0x3a2fce9a	0.0006706506
176	0xbd045d04	-0.03231527
177	0xbd664ee6	-0.056227587
178	0xbcd3ead1	-0.025868805
179	0x3d70ae14	0.058759764
180	0x3cbdbb6d	0.02316066
181	0x3d95d41d	0.07315848
182	0xbd7e3045	-0.062057752
183	0xbd89eaa7	-0.067342095
184	0x3d86014a	0.065432146
185	0xbd35a332	-0.04434509
186	0x3bd3347b	0.006445465
187	0xbd5b7726	-0.053580426
188	0x3c948be3	0.01813311
189	0xbc559c8a	-0.01303781
190	0x3bb0d2a8	0.005396206
191	0xbc9e1e34	-0.019301511
192	0xbd70a7e7	-0.058753874
193	0xbd4faa53	-0.050699543
194	0xbd30533f	-0.04304814
195	0x3da1afd0	0.07894862
196	0x3c0b9bed	0.008521062
197	0xbce0e14e	-0.027451184
198	0x3a31313c	0.00067593507
199	0xbbbac7ec	-0.005700102
200	0xba47f8ef	-0.00076283416
201	0xbd1b8f19	-0.037978265
202	0xbcb2b2f8	-0.021813855
203	0x3d59a8b0	0.05313939
204	0x3d295151	0.041337315
205	0xbd7200cb	-0.059082787
206	0x39f2e2e2	0.00046326878
207	0x3be46b65	0.0069708102
208	0xbcabfb86	-0.02099396
209	0xbbb27375	-0.0054458925
210	0xbd93b700	-0.07212639
211	0x3ce53528	0.027979448
212	0x3d5b0f8d	0.053481627
213	0x3c2ccbe7	0.010546661
214	0x3c2bc875	0.010484804
215	0x39c3aac5	0.00037320532
216	0x3da4d031	0.08047522
217	0xbcf7399c	-0.030178837
218	0x398ce403	0.00026872763
219	0xbc20cf60	-0.009815067
220	0xbc82cb8e	-0.015966203
221	0x3d3b1bfd	0.04568099
222	0xbbcff570	-0.006346397
223	0xbd65ba1d	-0.056085695
224	0x3b1197dc	0.002221576
225	0x3d2c1704	0.042014137
226	0xbd83343a	-0.06406446
227	0x3d852092	0.06500353
228	0xbd54e270	-0.05197376
229	0x3c796a58	0.015223108
230	0xbc40a3c9	-0.011757799
231	0xbc531254	-0.012882788
232	0x3cd1be47	0.025603427
233	0x3d9d88d6	0.07692115
234	0xbcad6ff3	-0.021171546
235	0x3d16e2d8	0.03683743
236	0x3a6704f9	0.00088126917
237	0xbb938ea6	-0.004503089
238	0x3d5f61ac	0.054536507
239	0xbc628b11	-0.013827101
240	0x3b2a1eae	0.0025958228
241	0x3cec1539	0.028818714
242	0x3d30f194	0.043199137
243	0xbd9d93e1	-0.07694221
244	0xbd993bb4	-0.074820906
245	0x3d22f8ee	0.03978818
246	0xbd285f04	-0.04110624
247	0xbd3c8a76	-0.046030484
248	0xbd930ccb	-0.071801744
249	0x3c646d39	0.013942056
250	0xbcfbd87f	-0.030742882
251	0x3c65dc79	0.014029616
252	0xbbaacd62	-0.005212472
253	0xbd888b7a	-0.06667228
254	0xbcb09b3e	-0.0215584
255	0xbd193b78	-0.03741023

cnn_base.3.bias f4 [32]
0	0xbd9a6127	-0.075380616
1	0xbd794448	-0.060856134
2	0x3d044858	0.032295555
3	0xbc4f13ac	-0.0126389675
4	0xbc4b2961	-0.012400002
5	0xbd436011	-0.047699038
6	0xbd6311b1	-0.055436794
7	0xbdaa33f7	-0.08310693
8	0xbcc51905	-0.024059782
9	0x3c2bf4d1	0.0104953805
10	0x3d880a5c	0.06642601
11	0x3c870d0d	0.016485715
12	0xbda0c877	-0.07850736
13	0xbda6ee2c	-0.081508964
14	0xbc83d56e	-0.016092982
15	0xbd5bf2a2	-0.05369819
16	0x3d930c08	0.07180029
17	0x3d57bcaf	0.052670177
18	0xbd20c21d	-0.03924762
19	0xbd65ba85	-0.056086082
20	0x3bbd1520	0.0057703406
21	0xbd1e50b1	-0.038651172
22	0x3d896c6e	0.067101344
23	0xbd84bb9d	-0.06481097
24	0x3d420b7b	0.04737423
25	0x3d97f291	0.07419313
26	0x3d55543c	0.052082285
27	0x3d99c034	0.07507363
28	0xbb2937ac	-0.0025820537
29	0xbd9d7a0e	-0.07689296
30	0xbd0dfac0	-0.034662962
31	0xbb95fdcf	-0.0045773755

mlp_base.0.weight f4 [32, 2]
0	0x3f31957c	0.6936872
1	0xbf28210d	-0.6567543
2	0xbec5f13c	-0.3866061
3	0x3f2ee351	0.6831561
4	0xbec86168	-0.39136815
5	0xbd2f6182	-0.0428176
6	0x3f0b44c3	0.544018
7	0xbde429c0	-0.11140776
8	0x3e884230	0.26612997
9	0xbeb33f87	-0.35009405
10	0xbe9ab558	-0.3021648
11	0x3ec2753f	0.37980077
12	0x3f16fbb9	0.5897785
13	0xbd2d464c	-0.04230337
14	0xbd8036a8	-0.06260425
15	0x3e879e6d	0.26488057
16	0xbefeef0e	-0.4979176
17	0xbea1d755	-0.31609598
18	0xbee4cc89	-0.44687298
19	0x3e853d3b	0.26023278
20	0x3d50f379	0.051013444
21	0xbf28ae08	-0.6589055
22	0x3d6527fc	0.055946335
23	0x3ce66981	0.02812648
24	0x3f0a3923	0.53993434
25	0x3eea5118	0.45764995
26	0xbf21886a	-0.63098776
27	0xbf0ad631	-0.5423308
28	0xbb84b2bb	-0.0040496266
29	0xbd573d13	-0.05254848
30	0x3f0b415b	0.543966
31	0x3f0d9803	0.55310076
32	0x3e7df90d	0.24802037
33	0x3ec93468	0.39297795
34	0x3dc5a46c	0.096505016
35	0xbed17973	-0.4091297
36	0x3b7529ec	0.003740902
37	0x3f319289	0.6936422
38	0x3e6d96da	0.23202077
39	0x3f0d29aa	0.551417
40	0xbf14378d	-0.57897264
41	0x3ec18054	0.3779322
42	0xbea76726	-0.32695884
43	0x3f33f267	0.7029175
44	0x3f15d51a	0.5852829
45	0x3e8743f5	0.26419035
46	0xbcd5422f	-0.026032535
47	0x3e961238	0.29310775
48	0x3e5c2aa3	0.2150064
49	0xbf1de7db	-0.6168191
50	0xbea84cef	-0.32871196
51	0x3e7d8454	0.2475751
52	0x3f0f9da7	0.56099933
53	0x3e4f43f8	0.20240772
54	0xbe246a87	-0.16056262
55	0x3ed4a8fa	0.4153517
56	0xbe61b30c	-0.22040957
57	0xbe2856a6	-0.16439304
58	0x3c078091	0.008270399
59	0xbea677f2	-0.32513386
60	0x3f062be8	0.52410746
61	0xbeef2d15	-0.46714082
62	0xbea2a831	-0.31768945
63	0x3ec71e37	0.3889024

mlp_base.0.bias f4 [32]
0	0xbf22eac5	-0.6363948
1	0xbf3108a9	-0.6915384
2	0x3e93dfb9	0.28881624
3	0x3e2710de	0.16315028
4	0xbf2ca0d9	-0.67432934
5	0xbe31cc15	-0.17363007
6	0x3df2f15a	0.118624404
7	0xbf1fad78	-0.6237407
8	0xbf19e995	-0.6012204
9	0x3f0d004a	0.55078566
10	0xbe6100f4	-0.2197302
11	0xbeb09335	-0.3448731
12	0xbebc2d2c	-0.36753213
13	0xbee724bd	-0.45145217
14	0x3e5e81aa	0.2172915
15	0xbe959195	-0.29212633
16	0xbf2b4686	-0.66904485
17	0xbf0f8882	-0.5606767
18	0xbdc2927e	-0.095005974
19	0xbe3de79f	-0.18545388
20	0x3ec80794	0.39068282
21	0xbe4502c2	-0.19239333
22	0x3f14056b	0.5782077
23	0xbed17f09	-0.40917233
24	0xbf2f0a59	-0.68375164
25	0x3ed1aa6a	0.40950328
26	0x3e9d4852	0.3071924
27	0x3ec9631c	0.39333427
28	0x3dfe5bbe	0.12419842
29	0xbe2a4429	-0.16627564
30	0x3e99b42a	0.30020267
31	0x3ebe541e	0.3717355

mlp_base.2.weight f4 [32, 32]
0	0x3dfb7639	0.122784086
1	0x3d93efa9	0.07223446
2	0x3dace342	0.084417835
3	0x3dc6cf76	0.09707539
4	0x3d1abbbf	0.037776705
5	0xbcfa81d5	-0.030579487
6	0x3d424e96	0.047438227
7	0x3dd8caf0	0.10585582
8	0xbb59a0c1	-0.003320739
9	0x3e23156b	0.15926139
10	0x3cccbe92	0.024993215
11	0xbe26f703	-0.16305165
12	0xbddb4e13	-0.10708251
13	0xbd8124d7	-0.06305855
14	0x3e26fa8e	0.16306517
15	0x3d7b49cf	0.061349686
16	0xbde7e2f3	-0.11322584
17	0x3d31e7c1	0.04343391
18	0xbe0f013c	-0.13965315
19	0xbdb4366d	-0.087994434
20	0xbd1c7320	-0.03819573
21	0x3ca75cb3	0.020429945
22	0x3e27a3d2	0.16371086
23	0x3ce62249	0.02809252
24	0xbdaa0daf	-0.08303391
25	0x3e0d5a2a	0.13803926
26	0x3dc509f8	0.09621042
27	0xbd86db71	-0.06584824
28	0xbda94c1c	-0.0826647
29	0xbe06cf85	-0.131651
30	0xbc04a3f7	-0.008095733
31	0x3d96eb3f	0.073690884
32	0xbe1d86f9	-0.15383519
33	0x3dec1ff5	0.11529533
34	0x3e04a8a0	0.1295495
35	0x3ca3c0b1	0.019989343
36	0x3e2e2aa8	0.1700846
37	0xbdad531e	-0.08463119
38	0xbdc64a25	-0.09682111
39	0xbe02e01a	-0.127808
40	0x3de4b43c	0.111671895
41	0x3d650535	0.05591317
42	0xbdd901fa	-0.1059608
43	0x3da91545	0.0825601
44	0xbe0322f6	-0.12806305
45	0x3da7991e	0.08183502
46	0xbe2cdd8e	-0.16881391
47	0xbe306910	-0.17227578
48	0xbd7f0c06	-0.062267326
49	0xbdf9a077	-0.12188809
50	0x3e0ba6f2	0.13637903
51	0x3d03a640	0.03214097
52	0xbca073aa	-0.019586403
53	0x3e0721a1	0.13196422
54	0xbe331d92	-0.17491749
55	0x3e051e1f	0.12999772
56	0xbe26b185	-0.16278656
57	0xbd8841f6	-0.06653206
58	0xbd831e24	-0.06402233
59	0xbd1d0b6f	-0.038340982
60	0xbdbb0103	-0.09131052
61	0x3d1a763e	0.03771042
62	0x3e2ce7c2	0.16885284
63	0x3d9478b4	0.07249585
64	0xbded0dfa	-0.115749314
65	0x3da971fc	0.08273694
66	0x3db01ffd	0.08599851
67	0xbe248994	-0.16068107
68	0x3e1377b2	0.14401129
69	0x3d7e8244	0.06213595
70	0xbddf3ee9	-0.10900671
71	0xbd0c6c86	-0.034283184
72	0x3d94554c	0.072428316
73	0x3da334ac	0.07969031
74	0x3da4ec3b	0.0805287
75	0x3d2f8ff9	0.042861912
76	0xbdb4da65	-0.08830718
77	0x3e2baa57	0.16764198
78	0x3bf38dcf	0.0074326764
79	0xbdaf376e	-0.08555494
80	0x3bdb1c88	0.006686751
81	0xbd84253a	-0.06452413
82	0xbe3140d8	-0.17309892
83	0xbd93c5f2	-0.072154894
84	0x3df0b606	0.11753468
85	0x3dbd6486	0.09247689
86	0xbe204f9a	-0.15655366
87	0xbe02c510	-0.12770486
88	0xbdb52a7e	-0.08845995
89	0xbe23c3e9	-0.15992703
90	0x3c87277b	0.016498318
91	0x3e07b1d8	0.13251436
92	0x3e27124f	0.16315578
93	0xbcfec887	-0.031101478
94	0x3e19c56a	0.15016714
95	0xbe20eb54	-0.1571477
96	0xbdeddfc5	-0.11614946
97	0x3e13a4ab	0.14418285
98	0x3d84e757	0.06489437
99	0xbd92c3e5	-0.0716627
100	0x3de6042f	0.11231267
101	0xbe0b46ac	-0.13601178
102	0x3dce4f1f	0.10073685
103	0x3da358b8	0.07975906
104	0xbe102607	-0.14077006
105	0xbbfeab56	-0.0077718897
106	0xbd4f3d6b	-0.050595682
107	0xbdb28910	-0.08717549
108	0xbbeae317	-0.0071681845
109	0x3c551ccc	0.013007354
110	0x3d9ce051	0.076599725
111	0x3cf2873b	0.029605499
112	0x3d365c95	0.044521887
113	0x3d12583d	0.03572868
114	0xbd26d24c	-0.0407279
115	0x3cfba403	0.030717855
116	0x3dfad627	0.122478776
117	0xbdbfa712	-0.09358038
118	0x3e34aebb	0.1764478
119	0x3e295e98	0.16539991
120	0xbdb453fe	-0.08805083
121	0x3d3b6987	0.045754936
122	0xbce85cae	-0.028364506
123	0xbd89724d	-0.06711254
124	0x3e280446	0.1640788
125	0xbe1d0fac	-0.1533801
126	0x3dfba57b	0.12287422
127	0x3dd7f08e	0.10543929
128	0xbd3ed4f6	-0.046589814
129	0x3e2b7455	0.16743596
130	0x3d76b411	0.06023032
131	0x3d112753	0.035437893
132	0xbe310b88	-0.17289555
133	0x3e32e2f7	0.17469393
134	0x3d9deb01	0.07710839
135	0xbdf9e63e	-0.12202118
136	0x3e17a6ef	0.14809774
137	0x3d1b2582	0.037877567
138	0xbd74332e	-0.05961912
139	0xbdb94908	-0.09047133
140	0xbdf07cda	-0.117425635
141	0x3c12d5fe	0.0089621525
142	0xbe2b80af	-0.16748308
143	0x3df10590	0.11768639
144	0xbdea5952	-0.11442818
145	0xbc5d02a4	-0.013489399
146	0xbd7a3516	-0.061085783
147	0xbe1f8c89	-0.15580954
148	0x3dd65bec	0.104667515
149	0xbccdee78	-0.025138125
150	0x3c1ab67b	0.009442921
151	0x3c466c3f	0.012110769
152	0xbdc129ed	-0.09431825
153	0xbd1459b7	-0.03621837
154	0x3e1557bd	0.14584251
155	0xbe0fe2e2	-0.14051393
156	0x3e15ad3d	0.14616866
157	0xbd963f25	-0.073362626
158	0x3d2a3360	0.0415529
159	0xbddbb45e	-0.10727762
160	0x3e296796	0.16543421
161	0x3defaebd	0.117032506
162	0x3e0e22a2	0.13880399
163	0xbe16ed62	-0.14738992
164	0xbdf64636	-0.120251104
165	0xbe049f29	-0.1295134
166	0x3db42425	0.087959565
167	0xbd15667c	-0.03647469
168	0x3d4ec672	0.05048222
169	0xbe1258e0	-0.14291716
170	0x3d0ab0c4	0.033859983
171	0xbdc7bac9	-0.09752423
172	0x3c472c36	0.012156537
173	0x3cd46b13	0.025929963
174	0xbe0b840b	-0.13624589
175	0x3d198ef4	0.037489846
176	0xbe2c411b	-0.16821711
177	0xbd4ac716	-0.04950627
178	0x3e214f57	0.15752922
179	0xbe319809	-0.17343153
180	0x3decedd0	0.11568797
181	0xbdc0848f	-0.094002835
182	0xbcf5ca73	-0.030003762
183	0xbd15c567	-0.03656521
184	0xbc82e517	-0.01597838
185	0xbe334ab0	-0.1750896
186	0xbd80da35	-0.0629162
187	0xbe208f9b	-0.15679781
188	0xbe0dd36f	-0.13850187
189	0xbc862f1f	-0.016379891
190	0xbd2b97fe	-0.041892998
191	0x3e116bb9	0.14201249
192	0x3d56fddb	0.05248819
193	0x3de83971	0.11339081
194	0x3d7e0437	0.06201574
195	0xbc5b18a1	-0.013372571
196	0xbddca4d5	-0.10773627
197	0xbe377cf1	-0.17918755
198	0x3dac370b	0.08408936
199	0x3e21823b	0.15772335
200	0xbd226084	-0.039642826
201	0x3cef6713	0.029223954
202	0xbe01d03f	-0.12677096
203	0xbe12abb3	-0.1432331
204	0x3ca3e309	0.02000572
205	0xbd7b01d3	-0.061281037
206	0xbdf10f2a	-0.117704704
207	0xbe2797ea	-0.16366544
208	0x3dae4119	0.0850851
209	0x3dd454c4	0.1036773
210	0x3d59d114	0.053177908
211	0xbc1a9de3	-0.009437057
212	0xbe081c88	-0.13292134
213	0xbe1c9c67	-0.15294038
214	0x3e2b1498	0.16707075
215	0x3d6b3f3c	0.057433352
216	0x3df411e3	0.11917474
217	0xbcf35c05	-0.029706964
218	0xbde22b5a	-0.11043425
219	0x3e1072a6	0.14106235
220	0x3e200554	0.15627033
221	0x3d9ce123	0.07660129
222	0x3cf84f0b	0.030311128
223	0xbe02ba32	-0.1276634
224	0xbc3e96ff	-0.01163268
225	0xbd68e101	-0.056855205
226	0xbd995c18	-0.074882686
227	0x3e24169b	0.16024248
228	0xbc89abf7	-0.016805632
229	0x3cd97d0b	0.026548883
230	0xbe30cf7f	-0.17266653
231	0xbd9fb15d	-0.07797501
232	0xbe3012da	-0.17194691
233	0x3c3435dc	0.010999169
234	0xbe339aec	-0.17539567
235	0xbc8f518c	-0.01749494
236	0xbc765713	-0.015035409
237	0x3d9e07ae	0.077163085
238	0xbc1413a2	-0.009037884
239	0x3d7564c3	0.059910547
240	0x3dd1ef21	0.10250688
241	0xbdff4b37	-0.12465518
242	0xbd1d93e0	-0.038471103
243	0xbd345a9f	-0.044031736
244	0xbc9c2388	-0.019059911
245	0x3e1af2cc	0.15131682
246	0x3de436af	0.111432426
247	0xbd7d681f	-0.061866876
248	0xbd310f43	-0.043227445
249	0x3ca3d2ed	0.019998038
250	0xbc88d9a3	-0.01670534
251	0x3e0b9560	0.13631201
252	0xbe14c0c3	-0.14526658
253	0xbcd59ce7	-0.026075793
254	0xbd92e28b	-0.07172116
255	0x3e22958a	0.15877357

mlp_base.2.bias f4 [32]
0	0x3d47bbf5	0.048763234
1	0xbdb04a22	-0.0860789
2	0x3da46e74	0.0802888
3	0xbe2e1c5f	-0.1700301
4	0xbda2a0e0	-0.07940841
5	0x3d168201	0.036745075
6	0xbe1bb196	-0.15204462
7	0xbdc6c24b	-0.09705027
8	0x3dcd5bf9	0.10027308
9	0x3d1b5776	0.037925206
10	0xbdc6dd5a	-0.09710188
11	0xbe2f8cac	-0.17143506
12	0xbdccf3e2	-0.100074545
13	0x3d249019	0.040176485
14	0xbc967f98	-0.018371388
15	0xbd184d87	-0.03718331
16	0x3e0c2c01	0.13688661
17	0xbd619a1b	-0.055078607
18	0x3ca0f098	0.019645974
19	0x3df49116	0.119417354
20	0xbe1b2c21	-0.15153553
21	0xbe0f2f65	-0.13982923
22	0x3e15c089	0.14624228
23	0xbdd74d82	-0.1051283
24	0x3e0128ca	0.12613216
25	0x3ccdedcf	0.02513781
26	0x3db2a7df	0.08723425
27	0x3d521518	0.051289648
28	0x3ccf48d3	0.02530328
29	0x3e12a727	0.14321576
30	0xbe01eb81	-0.12687494
31	0x3dce21ee	0.10065065

actor_head.0.weight f4 [64, 1600]
0	0xbc3ce623	-0.011529478
1	0x3caaf2aa	0.020867664
2	0xbca9fa98	-0.020749375
3	0xbc39e897	-0.011346958
4	0x3c155ee8	0.009116866
5	0x3c0eb33f	0.008709728
6	0x3cabb787	0.020961536
7	0x3cd09f41	0.025466563
8	0x3b411607	0.0029462592
9	0xbc80214f	-0.015640883
10	0xbc05dd38	-0.008170418
11	0xbc9ff1cd	-0.01952448
12	0xb9c48e67	-0.0003749013
13	0xbca47130	-0.020073503
14	0xbc53e82a	-0.01293377
15	0xbc1518a0	-0.009100109
16	0xb9f95067	-0.00047552885
17	0x3b981a30	0.0046417937
18	0xbb872674	-0.004124457
19	0xbc1e468a	-0.0096603725
20	0x3c88df24	0.016707964
21	0xbcc49862	-0.023998443
22	0x3cc84aef	0.024449794
23	0x3c114310	0.008866087
24	0x3bbf3f64	0.005836414
25	0xbcb1aa74	-0.021687724
26	0xbc2473c7	-0.010037369
27	0xbbd187c3	-0.006394358
28	0xbc90c42f	-0.017671673
29	0xbbd8a448	-0.0066113807
30	0xbc90e013	-0.017684972
31	0xbc947884	-0.018123873
32	0x3cc8be47	0.024504794
33	0x3aef289e	0.0018246358
34	0x3c353d2d	0.011061949
35	0x3c1168b0	0.008875057
36	0xbc632c45	-0.013865535
37	0xbc0b027f	-0.008484482
38	0x3abbabfa	0.0014318221
39	0x3cb98b8c	0.022649549
40	0xbc8bf99e	-0.0170868
41	0x3cb0b160	0.021568954
42	0xbb355c8d	-0.0027673573
43	0x3b5c692c	0.0033632023
44	0x3ade4890	0.0016958881
45	0xbbac4458	-0.0052571706
46	0xbcb48a2f	-0.022038547
47	0xbae14676	-0.0017187137
48	0xbc38ed37	-0.011287025
49	0x3ccab87a	0.024746168
50	0x3c514061	0.012771697
51	0xbb4f560b	-0.003163698
52	0x3ccd7fc9	0.025085347
53	0xbbc63584	-0.00604886
54	0xbbca77f3	-0.00617885
55	0x3c7c497e	0.015398381
56	0x3b11ba2d	0.0022236214
57	0x3cbe3f98	0.023223683
58	0xbbc9af8f	-0.0061549614
59	0xbca7ef5d	-0.02049988
60	0x3c7ce944	0.015436474
61	0xbc4ae3de	-0.012383429
62	0xbb99afce	-0.004690147
63	0xbbfb35fb	-0.007666347
64	0x3c62a3bc	0.013832983
65	0xbc9f5147	-0.019447936
66	0x3c0fed74	0.008784641
67	0xbc861138	-0.016365632
68	0xbc878411	-0.016542466
69	0xb8edbf97	-0.00011336727
70	0xbbbba8ed	-0.0057269246
71	0x3c9a98d1	0.018871697
72	0x3c38d9a3	0.011282357
73	0xbb98ccc5	-0.0046630823
74	0x3ca460b0	0.020065635
75	0xbb614bcd	-0.0034377456
76	0x3c21aa66	0.009867286
77	0x3cabb6c2	0.02096117
78	0x3c547202	0.012966635
79	0xbc9b2802	-0.018939976
80	0x3c1c8b8e	0.009554757
81	0xbac1ba38	-0.0014780229
82	0x3a30a36b	0.00067382184
83	0x3c860370	0.016359061
84	0x3cd06504	0.025438793
85	0xbcb35e04	-0.021895416
86	0x3ca61a7e	0.020276304
87	0xbb389fc3	-0.0028171397
88	0xbc2e3467	-0.010632611
89	0x3cc97d5e	0.024595913
90	0x3b808f0f	0.003923304
91	0x3cdf97a4	0.027293988
92	0x3c63a267	0.0138937
93	0x3c985b2c	0.018598162
94	0x3b4cca10	0.0031248368
95	0xbc1af2d4	-0.009457309
96	0x3bd30710	0.006440051
97	0xbcbf38fb	-0.0233426
98	0xbc81b7f5	-0.015834788
99	0xbc9f6e70	-0.01946184
100	0xbc8d383a	-0.017238725
101	0x3b9e4207	0.0048296484
102	0x3c293804	0.010328297
103	0xbbb9139e	-0.0056480905
104	0x3beb96e2	0.0071896175
105	0xbc43eb5c	-0.0119579695
106	0xb7724716	-1.4440875e-05
107	0xbba6186d	-0.0050688297
108	0x3c370185	0.011169796
109	0x3cc086c6	0.023501765
110	0x3cb8103c	0.022468679
111	0x3b6626e4	0.0035118395
112	0x3c8e627f	0.017380951
113	0xbc691dee	-0.014228327
114	0xbc9ff5af	-0.01952633
115	0xbc4acee0	-0.012378424
116	0x3cb8fe8c	0.022582315
117	0xbca59424	-0.02021224
118	0x3cd1306c	0.025535785
119	0x3ac4eba7	0.0015023843
120	0x3c73c5a4	0.014878664
121	0xbb7a081a	-0.0038151802
122	0xbc9be78c	-0.019031309
123	0x3cbf6f23	0.023368424
124	0xbbe71e36	-0.007053162
125	0x3c1f9f36	0.009742549
126	0x3cd66411	0.026170762
127	0x3b7fa108	0.0039005894
128	0xbc400043	-0.011718812
129	0x3cbe319b	0.023217013
130	0x3cb8b60a	0.02254774
131	0x3c2abad9	0.0104205245
132	0x3cd58923	0.026066368
133	0xbc7b6a5e	-0.015345184
134	0x3c2f4268	0.010696985
135	0x3caab11d	0.020836407
136	0xbc4d70c5	-0.012539093
137	0x3ae22831	0.001725441
138	0x3c888594	0.016665258
139	0x3ae22758	0.0017254157
140	0xbb877622	-0.0041339556
141	0x3c2a6f04	0.010402445
142	0xbccdafc3	-0.025108224
143	0xbcbe1bed	-0.023206675
144	0xba9c002e	-0.0011901909
145	0x3b72bbb6	0.0037038154
146	0xb90016f9	-0.00012215589
147	0xbacdff26	-0.0015716299
148	0xba928b9a	-0.001118052
149	0xbc04d222	-0.00810674
150	0xbc9d1ca0	-0.019178689
151	0x3c8db53c	0.017298333
152	0x3cabfe68	0.020995334
153	0xba884baa	-0.0010398526
154	0x3cb95607	0.022624029
155	0x3cae36e7	0.021266414
156	0xbb928588	-0.0044714846
157	0xba391ec3	-0.0007061774
158	0xbbd0a123	-0.0063668652
159	0x3c36fd18	0.011168741
160	0xbbe2ad2a	-0.0069176154
161	0xbb22d4c7	-0.0024846063
162	0x3c4f82ff	0.012665509
163	0x3c8cfe58	0.017211124
164	0x3bc8e9a4	0.0061313678
165	0x3c439abd	0.011938748
166	0x3c1c9842	0.0095577855
167	0xbc204843	-0.009782854
168	0xb946ef34	-0.00018971862
169	0x3c48d720	0.012258321
170	0x3bc74c8b	0.0060821227
171	0x3b9e1928	0.004824776
172	0x3badce3b	0.0053041256
173	0xbc4cdb82	-0.012503507
174	0x3c4d3889	0.012525686
175	0x3c9a947d	0.018869633
176	0x3c252021	0.010078461
177	0xbb12c648	-0.0022396017
178	0xbbc40a91	-0.005982705
179	0xbbe16bc8	-0.0068793036
180	0xbcae3648	-0.021266118
181	0xbc9c5b47	-0.019086493
182	0x3c3101d4	0.0108036585
183	0xbcb95553	-0.022623694
184	0xbbfe4395	-0.0077595212
185	0xbba0bca0	-0.0049052984
186	0xbc8c3397	-0.017114444
187	0xbcbc20f3	-0.02296493
188	0xbcac2ded	-0.021017993
189	0x3c9964ed	0.018724883
190	0x3c428032	0.011871384
191	0x39808975	0.00024516476
192	0xbc5f547c	-0.0136309825
193	0xbc8f6a78	-0.017506823
194	0x3be119c5	0.006869527
195	0xbc2ed17e	-0.010670064
196	0xbc1e8ef4	-0.009677637
197	0x3c1cabf9	0.009562486
198	0xb8763959	-5.870438e-05
199	0x3c02462b	0.0079513
200	0xbc8fb415	-0.017541924
201	0xbcadcefc	-0.021216862
202	0xbb253a7a	-0.0025211857
203	0x3c2df185	0.010616665
204	0x3b44cbd8	0.0030028727
205	0xbc5a8708	-0.013337858
206	0x3b574811	0.0032849351
207	0x3ccfb568	0.025355056
208	0xbb830357	-0.003998201
209	0x3b0c65ad	0.0021422908
210	0x39b1442e	0.0003381087
211	0xbc1f33e3	-0.009716961
212	0xbc83312b	-0.016014656
213	0x3cb4c56a	0.02206679
214	0xbc42e0de	-0.011894433
215	0xbc773c77	-0.0150901
216	0xbc851e46	-0.016249787
217	0xbbe07908	-0.0068503655
218	0x3bccfcac	0.006255707
219	0x3cd00f38	0.025397882
220	0x3bce1b20	0.0062898546
221	0x3bc4bd6d	0.0060040266
222	0xbc6bc3d2	-0.014389949
223	0x3ca6dbd1	0.020368489
224	0xbc86381a	-0.016384173
225	0xbc13623e	-0.008995591
226	0xbb7598b2	-0.0037475047
227	0x3c540908	0.012941606
228	0x3c3d67b9	0.011560374
229	0x3c249939	0.010046297
230	0x3ae75ce1	0.0017651581
231	0x3c4e842d	0.012604755
232	0xbb65103a	-0.0034952299
233	0xbbf28709	-0.0074013514
234	0x3ca03369	0.019555764
235	0x3b7e2771	0.0038780833
236	0x3c80fe29	0.015746193
237	0xbca444b7	-0.020052297
238	0x3c297647	0.010343141
239	0x3ca101a4	0.019654103
240	0x3c94b0b8	0.018150672
241	0x3ab1c11c	0.0013561579
242	0xbc2ec3a6	-0.010666763
243	0xbcc0715f	-0.02349156
244	0xbc0cc793	-0.008592504
245	0xbc6d86c1	-0.01449746
246	0xbc88ce66	-0.016699981
247	0xbba7de1a	-0.005122912
248	0xbbcf332b	-0.0063232384
249	0xbcaf7487	-0.02141787
250	0x3c4d8188	0.01254309
251	0xbc818870	-0.015812129
252	0x3caf0a12	0.021367107
253	0x3cb5a297	0.022172255
254	0xbc3a2dae	-0.01136343
255	0x3c9b626f	0.018967835

actor_head.0.bias f4 [64]
0	0x3c66d37f	0.014088511
1	0x3c1529d3	0.00910421
2	0xbc8c9941	-0.01716292
3	0xbc244338	-0.010025792
4	0x3a0343e8	0.0005007372
5	0xbb9b170d	-0.0047329725
6	0xbc84f0c2	-0.016228084
7	0x3c474d05	0.012164359
8	0xbc070e43	-0.008243146
9	0xbc96a89c	-0.018390946
10	0xbb9075aa	-0.004408558
11	0x3bd9260a	0.006626849
12	0x3c207bf5	0.009795179
13	0x3cc3610d	0.023849988
14	0xbc8cdd65	-0.017195413
15	0xbbf81652	-0.00757102
16	0x3bcdb527	0.0062776986
17	0xbc8638a4	-0.01638443
18	0x3c324838	0.010881476
19	0x3c5da58d	0.01352824
20	0x3c159c3f	0.00913149
21	0x3c9c0f67	0.019050313
22	0x3c70a5f9	0.014688008
23	0x3ca5079e	0.020145234
24	0x3c69728d	0.014248502
25	0x3c6ef182	0.014583947
26	0xbca71b2e	-0.020398702
27	0x3bbfb7bc	0.0058507603
28	0x3a26b0e7	0.0006358758
29	0xbcaf5471	-0.02140257
30	0x3a7bd52e	0.00096066564
31	0x3c779f27	0.0151136285
32	0xbcb0cdf4	-0.021582581
33	0xbb9a58a6	-0.0047102747
34	0x3b6e8a20	0.0036398247
35	0x3c9022b0	0.017594665
36	0x3c3bcea2	0.011462839
37	0x3c872c57	0.016500635
38	0xbc7dac13	-0.01548292
39	0x3caddd17	0.021223588
40	0xbb74c371	-0.0037347937
41	0x3cbdae7e	0.023154493
42	0xbc6f606f	-0.014610394
43	0x3c7775ad	0.01510374
44	0xbb031af4	-0.002000508
45	0x3c586226	0.013206994
46	0xbcabe08b	-0.020981094
47	0x3bfec3e5	0.0077748173
48	0xbc1ac4f3	-0.00944637
49	0x3ae5ef69	0.0017542663
50	0x3bb54569	0.005531956
51	0xbc3ba2f2	-0.011452423
52	0xbcbcec5d	-0.023061926
53	0x3ca099b9	0.01960455
54	0x3be7f35f	0.0070785726
55	0xbc96c641	-0.018405082
56	0xbc984c49	-0.018591063
57	0xbbb9ef30	-0.0056742653
58	0xbb096c61	-0.002096914
59	0xbc4b8f43	-0.012424293
60	0xbcb389c5	-0.02191628
61	0x3c9530be	0.018211719
62	0xbc0a1fc0	-0.008430421
63	0xbc439609	-0.011937627

actor_head.2.weight f4 [2, 64]
0	0x3de0642f	0.109566085
1	0xbdfa082d	-0.12208591
2	0x3df15bf4	0.11785117
3	0x3d2f7a10	0.042841017
4	0x3de4eff0	0.11178577
5	0x3d807429	0.06272156
6	0x3d886b6e	0.066611156
7	0xbcd2323e	-0.025658723
8	0xbdc5aa80	-0.09651661
9	0xbdb6458f	-0.08899986
10	0x3d9f568b	0.07780179
11	0x3df6ff7f	0.12060451
12	0xbce996b6	-0.028514247
13	0xbd85c58b	-0.06531819
14	0xbdba0505	-0.09082989
15	0xbd6068a2	-0.054787286
16	0xbdfa13b9	-0.12210793
17	0x3d1aed41	0.03782392
18	0xbd8171a0	-0.063205004
19	0x3d286241	0.041109327
20	0xbd111093	-0.035416197
21	0xbd7e054f	-0.06201678
22	0x3c9ecac9	0.019383805
23	0x3dd00b70	0.101584315
24	0xbc781378	-0.01514136
25	0x3db579ba	0.08861108
26	0x3dee39a5	0.116320886
27	0xbd09aabd	-0.033610094
28	0xbd32bccc	-0.043637082
29	0x3d0984a1	0.03357375
30	0xbb746e91	-0.0037297348
31	0xbd426a00	-0.04746437
32	0xbdad88ef	-0.08473384
33	0x3c92daaa	0.017926533
34	0xbdbe104f	-0.09280454
35	0x3d90ccbd	0.07070301
36	0x3c5f4a57	0.013628564
37	0x3d556e98	0.052107424
38	0x3d899ebb	0.067197286
39	0xbd0e6198	-0.03476104
40	0x3da76ce2	0.081750646
41	0x3d2fba3d	0.04290222
42	0x3c8ce765	0.017200181
43	0xbc70e060	-0.014701933
44	0x3d25767b	0.040396195
45	0x3d319074	0.04335065
46	0x3d8a414c	0.06750736
47	0xbd88f19b	-0.066867076
48	0xbdef32b4	-0.11679593
49	0x3da28236	0.07934992
50	0x3d853995	0.065051235
51	0x3cf43c64	0.029813953
52	0xbdaf2fc0	-0.085540295
53	0xbdbed1e2	-0.09317376
54	0xbda526e8	-0.080640614
55	0x3cd361d9	0.025803493
56	0x3cfdccd6	0.030981462
57	0xbdc86e92	-0.097867146
58	0xbd066b60	-0.032817245
59	0x3de97eff	0.11401176
60	0x3dffbed4	0.124875695
61	0xbce2ce75	-0.027686337
62	0xbd86ec0f	-0.06587993
63	0xbde38b72	-0.111105815
64	0x3cdf06aa	0.027224857
65	0xbd85e7d0	-0.06538355
66	0xbd442727	-0.0478889
67	0x3ce73696	0.02822427
68	0xbdf6423d	-0.12024353
69	0x3af05e0f	0.0018338579
70	0xbc50bbc0	-0.012740076
71	0xbd841256	-0.0644881
72	0xbc9b112d	-0.018929088
73	0x3d32048d	0.04346137
74	0x3def7b09	0.11693389
75	0xbd4d19ab	-0.050073307
76	0x3cffcc25	0.031225273
77	0xbdb39d2e	-0.08770214
78	0x3d47870f	0.048712786
79	0x3dccb329	0.099951096
80	0xbc3c5d7e	-0.0114969
81	0xbdb854b4	-0.09000531
82	0xbc71bf30	-0.014755055
83	0xbdbf0e6c	-0.09328923
84	0xbda6244b	-0.08112391
85	0x3dee6dd5	0.116420425
86	0x3ce08866	0.02740879
87	0x3de56b8f	0.11202156
88	0xbdb125ba	-0.08649774
89	0xbd35fd0a	-0.04443077
90	0x39864138	0.00025607063
91	0xbdf0881a	-0.11744709
92	0xbdb56535	-0.08857194
93	0xbcfebea8	-0.031096771
94	0xbdb1ef0e	-0.08688174
95	0x3d74c829	0.0597612
96	0x3dcd0a09	0.1001168
97	0x3d8c3c8f	0.06847488
98	0x3d5f7ef2	0.054564424
99	0x3df77f14	0.12084785
100	0xbd4755ea	-0.04866592
101	0xbdeacdc4	-0.11465028
102	0x3dac5695	0.08414952
103	0x3dd64177	0.10461705
104	0xbdc3e5e9	-0.09565336
105	0x3bedfcd8	0.0072628073
106	0xbd9b941b	-0.07596608
107	0xbd534100	-0.05157566
108	0x3dd2bed9	0.102903076
109	0xbde491bd	-0.1116061
110	0x3cb45e4c	0.02201762
111	0x3dc1633c	0.094427556
112	0x3da0bde8	0.07848722
113	0x3dbca930	0.092119575
114	0xbdfeaf50	-0.12435782
115	0xbd6e0e78	-0.058119267
116	0xbd8d5ab3	-0.06902065
117	0xbbb33817	-0.005469333
118	0x3df27001	0.11837769
119	0xbd897d93	-0.067134045
120	0xbdbeb387	-0.09311586
121	0x3dc42101	0.095766075
122	0x3dce566a	0.10075076
123	0x3d05a97e	0.032632343
124	0x3dadc52e	0.08484875
125	0x3dd8546b	0.105629764
126	0x3dfc206e	0.12310873
127	0xbd458056	-0.048218094

actor_head.2.bias f4 [2]
0	0xbc957bac	-0.018247448
1	0xbdcab6d5	-0.09898154

critic_head.0.weight f4 [64, 1600]
0	0xb8d8ee67	-0.000103440885
1	0x3ccb90e5	0.024849365
2	0x3c794cea	0.015216092
3	0xbcbac71b	-0.022800019
4	0x3ccf1d95	0.02528266
5	0xbd1a6946	-0.037698053
6	0x3b17d608	0.0023168344
7	0x390a6b5c	0.000132007
8	0x3d04d46f	0.032429155
9	0xbc5a935a	-0.013340795
10	0xbc304c85	-0.010760431
11	0x3c44b651	0.012006358
12	0xbb105c96	-0.0022027842
13	0x3ced1987	0.028942836
14	0xbcc0d417	-0.023538632
15	0x3c8001fd	0.015625948
16	0x3bf396c7	0.0074337455
17	0x3c9362ad	0.017991388
18	0xbc4fbbf8	-0.012679093
19	0x3c6a5f6d	0.014304978
20	0x3b9ea5f3	0.00484156
21	0x3c2b6fc3	0.010463658
22	0xbc82479b	-0.015903285
23	0x3d4641c3	0.04840256
24	0xbccb87cf	-0.024845032
25	0x3caf995a	0.021435428
26	0x3d02ca32	0.03193111
27	0x3cd070a1	0.02544433
28	0xbc030a77	-0.0079981005
29	0xbcd95256	-0.026528519
30	0x3cbab8d5	0.022793213
31	0xbb65626b	-0.0035001289
32	0xbc957288	-0.01824309
33	0x3d4c6a27	0.049905922
34	0x3c80b27f	0.015710114
35	0xbcc4b6a7	-0.024012877
36	0x3d1fd764	0.039023772
37	0x3c53865e	0.012910454
38	0x3b31b2d4	0.0027114647
39	0x3b816f7f	0.003950059
40	0x3b9e53b7	0.004831757
41	0x3c736dfc	0.014857765
42	0x3c9c3cbd	0.019071931
43	0x3b40314c	0.0029326258
44	0x3d20e757	0.039283123
45	0x3c1ea178	0.009682052
46	0x3bf410ba	0.007448283
47	0x3d008c03	0.031383526
48	0x3ba99964	0.0051757563
49	0x3ccf6c6d	0.025320256
50	0x3c62b36b	0.013836722
51	0x3d2d90bc	0.042374358
52	0x3c5e68fa	0.013574833
53	0x3caddb4a	0.02122273
54	0x3d126377	0.03573939
55	0x3d270046	0.040771745
56	0x3b3e81c5	0.0029069048
57	0x3ac9d7c5	0.0015399387
58	0x3b9aefdb	0.0047283
59	0x3c879957	0.01655261
60	0x3d1de34f	0.038546856
61	0x3d217fef	0.039428648
62	0x3d48acf7	0.048993077
63	0x3c04da50	0.00810869
64	0x3c84893c	0.01617872
65	0x3d24dff2	0.040252633
66	0xbc955ccd	-0.018232727
67	0x3aec248b	0.0018016262
68	0x3cb8f502	0.022577766
69	0x3d062ccd	0.03275757
70	0x3d10fd1a	0.035397626
71	0x3b8ab258	0.004232686
72	0x3c2038dc	0.009779181
73	0x3c993e12	0.018706355
74	0xb98a7167	-0.00026405902
75	0x3ab3778d	0.0013692245
76	0x3d41a9f7	0.04728123
77	0x3d03e362	0.03219927
78	0x3ceade4b	0.02867045
79	0x3d6167c9	0.055030618
80	0xbc324273	-0.010880101
81	0x3a5407ee	0.000808834
82	0x3cae8c0d	0.021307016
83	0x3cef861e	0.029238757
84	0xbc33e337	-0.010979465
85	0xbb16eae3	-0.0023028187
86	0x3d08e83b	0.033424597
87	0x3d0b20c0	0.03396678
88	0x3c251d89	0.0100778425
89	0x3c752b09	0.014963874
90	0x3be3340b	0.0069336942
91	0x3b9dd494	0.004816601
92	0x3c37a4d2	0.01120873
93	0x3ce3acf7	0.027792437
94	0xb9ff9eae	-0.00048755616
95	0x3b275649	0.0025533608
96	0xbb1d3c17	-0.0023992115
97	0x3c72eb75	0.014826645
98	0x3a5fc90c	0.0008536733
99	0xbcafee5f	-0.021475969
100	0xbc93fad2	-0.018063936
101	0x3cd0eba9	0.025502997
102	0xbca0d76c	-0.019633971
103	0x3cb299c5	0.021801839
104	0x3c78309b	0.015148307
105	0x3c86ff41	0.016479136
106	0x3b82c8c0	0.0039912164
107	0x3d234a7c	0.039865956
108	0x3c907de2	0.01763815
109	0x3c69ba86	0.014265662
110	0x3c4633a1	0.01209727
111	0x3c9a34ac	0.018823944
112	0x3a0a5787	0.0005277325
113	0x3cf387ab	0.029727777
114	0xbac04674	-0.0014669434
115	0x3c2e48a8	0.01063744
116	0x3cb82985	0.022480736
117	0x3caaebac	0.02086433
118	0x3cfca00a	0.030838031
119	0xbac4d920	-0.0015018322
120	0x3ca2e76f	0.019885747
121	0xbbaf3abf	-0.0053475793
122	0x3c8a2d61	0.016867341
123	0x3c80846a	0.01568814
124	0x3d57573a	0.05257342
125	0x3cd5a68e	0.026080396
126	0x3c57886e	0.013155086
127	0x3cf43fac	0.029815517
128	0x3c987eaa	0.018615086
129	0xbc97850d	-0.01849606
130	0x3c1639c5	0.009169047
131	0x3d302863	0.043007266
132	0xbabef38d	-0.0014568433
133	0x39b9e27d	0.00035454697
134	0x3cd03822	0.025417391
135	0x3cbd7212	0.023125682
136	0x3ad1e02e	0.0016012245
137	0x3af075b1	0.0018345622
138	0x3d0f88dd	0.035042632
139	0x3d086e0c	0.033308074
140	0x3c2087c7	0.009797997
141	0x3d27ee96	0.040999018
142	0x3c93e48f	0.018053321
143	0x3cd2bc46	0.025724541
144	0x3cb99520	0.022654116
145	0x3c713cb8	0.014723949
146	0x3b3ad6f0	0.002850946
147	0x3a83f2a1	0.0010066816
148	0xbc94620e	-0.018113162
149	0x3ca941d0	0.020661265
150	0x3cd3d1b5	0.025856832
151	0xbc59d445	-0.013295238
152	0xbc061460	-0.008183569
153	0xbca56550	-0.020189911
154	0x3c550447	0.013001508
155	0x3cea31e4	0.028588243
156	0x3bbab7de	0.005698188
157	0x3930bd94	0.00016855291
158	0xbbd3584a	-0.006449734
159	0xbc5c1aec	-0.013434153
160	0xb9c33c20	-0.00037238095
161	0xbc3a1d0d	-0.011359465
162	0xbc78682e	-0.015161557
163	0xbc14e161	-0.009086938
164	0xbb9d3180	-0.0047971606
165	0x3c4a8033	0.012359667
166	0xbc8768c6	-0.016529452
167	0x3cdffe62	0.027342979
168	0x3cc101f7	0.023560507
169	0xbbfee64e	-0.0077789193
170	0xbccd46e4	-0.025058217
171	0x3cc04f21	0.023475232
172	0xbcb2330f	-0.021752862
173	0x3ccb6b52	0.024831448
174	0x3b5eef22	0.0034017046
175	0x3c044127	0.008072174
176	0xbc8482b7	-0.016175611
177	0xbc685738	-0.014180951
178	0xbbaea9bb	-0.005330292
179	0xbc91c2c9	-0.017793076
180	0x3c92dafe	0.01792669
181	0x3c58059e	0.013184933
182	0xbcaa48b6	-0.020786624
183	0xba52dc5e	-0.00080437015
184	0x3c911fa3	0.01771528
185	0x3c2bbfd7	0.01048275
186	0x3aff98ce	0.0019500495
187	0xbc91186f	-0.017711846
188	0xbc25c5c8	-0.0101179555
189	0xbc9fa104	-0.019485958
190	0x3c6c972c	0.014440339
191	0x3c37a10b	0.011207829
192	0x3bc3f1a2	0.0059797326
193	0x3c5f945c	0.0136462115
194	0xbc8b1b27	-0.01698072
195	0x3c90feac	0.017699562
196	0xbbeb22e1	-0.0071757887
197	0xbc87b15e	-0.016564067
198	0xbcaa300d	-0.020774866
199	0xbb9fb65b	-0.0048740334
200	0xbc11ee57	-0.008906922
201	0xbc260bef	-0.010134681
202	0xbc4b87f5	-0.012422551
203	0xbbec0a18	-0.0072033517
204	0xbb800ff4	-0.0039081518
205	0x3c4e93e8	0.012608506
206	0x3cb302d7	0.02185194
207	0xbc609d57	-0.013709388
208	0x3c483c4e	0.012221409
209	0x3bcd0d54	0.0062576924
210	0x3ceb9931	0.02875957
211	0xbb76523f	-0.0037585644
212	0x3c5fbbc8	0.01365561
213	0x3bd3a4cf	0.0064588557
214	0x3c8fd8ea	0.017559487
215	0x3b18f1d7	0.0023337507
216	0x3c41d983	0.011831644
217	0x3cadfe2d	0.021239365
218	0xbc6d260e	-0.014474405
219	0x3c01591f	0.007894783
220	0x3c9539e1	0.018216075
221	0xbca62f43	-0.020286208
222	0x3cd5c18e	0.02609327
223	0x3b962e26	0.004583138
224	0xbb21cb1a	-0.0024687708
225	0x39937425	0.0002812456
226	0x3b081c02	0.0020768647
227	0x3c958b81	0.018254997
228	0xbc0ded0b	-0.0086624725
229	0x3ce9fde9	0.028563457
230	0x3cbca621	0.023028435
231	0xbbf74e6a	-0.0075471895
232	0xbb30a11b	-0.0026951495
233	0x3ba00a8c	0.00488407
234	0x3cdb7d8e	0.026793268
235	0xbc71d11d	-0.014759329
236	0x3aec7732	0.0018040894
237	0xbb211e9e	-0.00245849
238	0x3bab2d51	0.005223908
239	0xbc287607	-0.010282046
240	0x3aeadeaa	0.0017919142
241	0x3c2ec98a	0.010668168
242	0x3c94ec9c	0.01817923
243	0x3a08e05f	0.0005221422
244	0x3c9eb39b	0.019372752
245	0x3c3e2ced	0.011607391
246	0xbc249235	-0.010044624
247	0x38889ca6	6.5141634e-05
248	0xbc75b59f	-0.014996915
249	0x3c875ad7	0.016522808
250	0x3bdbe431	0.006710552
251	0x3ba94e76	0.005166824
252	0xbc3ec44d	-0.011643481
253	0x3c605729	0.013692656
254	0x3bdc6905	0.0067263865
255	0xbc98780c	-0.01861193

critic_head.0.bias f4 [64]
0	0x3c8e4422	0.017366473
1	0x3c80183b	0.015636554
2	0x3c9c2f8c	0.01906564
3	0xbb46be53	-0.0030325844
4	0x3c4d2e58	0.012523256
5	0xbc8319b9	-0.016003476
6	0x3af645b5	0.0018789085
7	0x3c91fb04	0.017819889
8	0xbd282913	-0.041054796
9	0xbcda043f	-0.026613353
10	0xbc3fc597	-0.011704824
11	0x3c151efb	0.009101625
12	0xbc76b251	-0.015057162
13	0xbcd2b9d1	-0.02572337
14	0x3c956486	0.01823641
15	0xbcdeb798	-0.027187154
16	0x3bc960f1	0.0061455895
17	0xbb7b25a2	-0.0038321991
18	0xbc47eac6	-0.01220197
19	0xbb19e1a8	-0.002348045
20	0xbc1184a0	-0.008881718
21	0x3ca37497	0.019953055
22	0x3a44c3a4	0.00075059594
23	0xbce119f3	-0.027478194
24	0xbccaf07e	-0.024772879
25	0xbcb1821d	-0.021668488
26	0x3c106df3	0.008815276
27	0x3c9be8ee	0.019031968
28	0x3b97a811	0.0046281894
29	0x3cb13223	0.021630352
30	0x3c235886	0.009969836
31	0xbc5b5038	-0.013385825
32	0x3bee6782	0.0072755227
33	0x3aecab2e	0.0018056387
34	0x3c62c4c7	0.013840861
35	0xbc8b36e9	-0.016993957
36	0x3c32cc34	0.010912944
37	0xbc4783b0	-0.012177393
38	0x3a70f5c1	0.00091918936
39	0x3cc31eb6	0.023818355
40	0xbc105ae7	-0.008810735
41	0xbcb88865	-0.022525975
42	0xbc58d8e8	-0.013235308
43	0x3ca00375	0.019532898
44	0xbcbf0d97	-0.02332191
45	0x3c4fab73	0.012675154
46	0x3c333201	0.010937215
47	0x3bdcbccb	0.006736373
48	0xba42f014	-0.0007436287
49	0x3c2effff	0.010681151
50	0x3c26c75f	0.01017937
51	0x3ad4308f	0.0016188788
52	0xbb4fb4d2	-0.003169347
53	0xbc25e062	-0.010124298
54	0x3b7ba214	0.0038396167
55	0xbca207b1	-0.019779058
56	0xbca005c9	-0.019534009
57	0xbb669176	-0.0035181916
58	0xbcc83f0f	-0.024444131
59	0xbcd6c8ab	-0.026218733
60	0x3c25b698	0.0101143345
61	0xbc325757	-0.010885081
62	0xbccb1b17	-0.02479319
63	0xbb67d915	-0.0035377194

critic_head.2.weight f4 [1, 64]
0	0x3da6efd8	0.08151215
1	0xbc432882	-0.011911513
2	0xbd324bdf	-0.043529388
3	0xbd698212	-0.05700881
4	0xbdc034d9	-0.0938508
5	0x3c966842	0.01836026
6	0x3da247f2	0.07923879
7	0xbd39352f	-0.045216735
8	0xbde9c6af	-0.11414849
9	0x3d00e5f8	0.031469315
10	0xbdf3170e	-0.11869632
11	0xbd27a25d	-0.040926326
12	0xbce48575	-0.027895669
13	0xbcf0be6d	-0.029387677
14	0x3d8a1cb1	0.06743754
15	0x3df25275	0.11832134
16	0x3de958cd	0.113938905
17	0xbdb71109	-0.08938796
18	0xbd8b3f13	-0.0679914
19	0xbda64936	-0.08119433
20	0x3dc70ff9	0.097198434
21	0xbdca791a	-0.098863795
22	0xbd990fb7	-0.074737005
23	0x3dbc70c5	0.092011966
24	0xbdb954d1	-0.090493806
25	0xbd434856	-0.047676407
26	0x3c8d7ad9	0.017270492
27	0xbddaaeca	-0.106778696
28	0xbc763866	-0.015028095
29	0xbc87f48a	-0.016596097
30	0x3ddb4998	0.10707396
31	0x3b1c0c90	0.0023811199
32	0x3cf5319c	0.029930882
33	0xbd3cb5ef	-0.046071943
34	0x3d750ce2	0.05982674
35	0x3d5b824b	0.053591054
36	0xbda9700b	-0.082733236
37	0x3de8d442	0.1136861
38	0xbb3d099f	-0.0028844846
39	0x3db28531	0.087168105
40	0x3dc79af9	0.097463556
41	0x3ddf5889	0.109055586
42	0xbd9adbed	-0.07561479
43	0xbce87a70	-0.028378695
44	0xbd6bdb82	-0.057582386
45	0x3dbb9117	0.09158533
46	0x3da0b36f	0.07846724
47	0xbd8424be	-0.064523205
48	0x3dc465fb	0.09589764
49	0xbc98227a	-0.018571127
50	0x3d456945	0.048196096
51	0xbb87d52a	-0.004145284
52	0x3dd77b61	0.105215795
53	0x3ce12859	0.02748506
54	0xbddefb65	-0.108877935
55	0x3b9d81f8	0.0048067532
56	0xbdb2e324	-0.0873473
57	0xbc6c0f7f	-0.014407991
58	0xbd926a3d	-0.071491696
59	0xbdb0c96a	-0.08632167
60	0xbd53a006	-0.051666282
61	0xbda6c377	-0.08142751
62	0x3dd91c7c	0.10601136
63	0x3da5914a	0.08084352
