project_files/runs/Sep09_13-13-37_kiveli.ics.forth.gr/ppo_policy_camera_cnn_whole_circle.pth (torch, 851205 bytes, 15 tensors)

cnn_base.0.weight f4 [16, 1, 3, 3]
0	0xbe28683f	-0.16446017
1	0x3a7ca151	0.0009637075
2	0xbe350d49	-0.17680849
3	0x3e98ac25	0.29818836
4	0x3e618086	0.22021684
5	0x3d64cd9e	0.055860154
6	0xbe33d41d	-0.17561384
7	0x3ea86ae5	0.32894054
8	0x3e46b354	0.19404346
9	0xbe6a54aa	-0.2288386
10	0x3cb4c8c5	0.02206839
11	0x3e222321	0.15833713
12	0x3d806e50	0.062710404
13	0x3d6974e0	0.056996226
14	0x3d9a0157	0.07519787
15	0xbe81debb	-0.25365242
16	0xbe50fef6	-0.2040976
17	0xbe52fbec	-0.20603913
18	0xbe79c229	-0.24390472
19	0xbdae530d	-0.085119344
20	0xbe7ca33f	-0.24671648
21	0x3da10745	0.07862715
22	0x3e31832c	0.17335194
23	0xbe905dae	-0.28196472
24	0xbe8442a2	-0.25832087
25	0x3e1e4877	0.1545733
26	0xbdfb4a52	-0.12270035
27	0x3dad9527	0.08475714
28	0xbd80cff8	-0.06289667
29	0x3e008090	0.12549043
30	0xbe8d070d	-0.27544442
31	0xbea036e3	-0.31291875
32	0x3e83c1e9	0.2573388
33	0x3df1fcb6	0.11815779
34	0x3e48dd23	0.19615607
35	0x3dc07a47	0.093983226
36	0x3d98b6b3	0.07456722
37	0xbe5a80b7	-0.21338163
38	0xbcf6fc4b	-0.0301496
39	0x3cc311c1	0.023812177
40	0x3d469b24	0.048487797
41	0x3dac105a	0.08401556
42	0x3e87c6a3	0.26518735
43	0x3e56ad46	0.20964536
44	0xbca711bc	-0.020394199
45	0xbe999cc7	-0.30002424
46	0x3d513ddd	0.051084388
47	0x3ea817af	0.3283057
48	0xbd848a36	-0.06471674
49	0xbe1e3b3f	-0.15452288
50	0x3e385553	0.18001299
51	0x3dcf22be	0.101140484
52	0xbd84df19	-0.06487865
53	0xbd98f49e	-0.07468532
54	0xbdc1b659	-0.09458608
55	0x3d91173b	0.07084509
56	0x3e3e364d	0.18575402
57	0xbea353ed	-0.31899968
58	0x3dd9742e	0.10617863
59	0xbea95778	-0.33074546
60	0xbea15a17	-0.31514046
61	0xbe88b786	-0.26702517
62	0x3e11967c	0.14217561
63	0xbe56ea7d	-0.20987888
64	0x3e3b7726	0.1830717
65	0x3e61ce0e	0.2205126
66	0xbb9af411	-0.004728802
67	0x3e5b869b	0.21438067
68	0xbe3d1e32	-0.1846855
69	0xbe4cb55d	-0.1999106
70	0xbd944147	-0.07239013
71	0x3ea7356f	0.32657954
72	0xbe6e7088	-0.23285115
73	0xbdd94dea	-0.10610564
74	0x3e3640f9	0.17798223
75	0x3dd0c3bc	0.10193583
76	0x3e9c67ff	0.30548093
77	0xbe220367	-0.1582161
78	0xbe837a21	-0.25679114
79	0xbe42b7f3	-0.19015484
80	0xbe18539c	-0.14875644
81	0x3e5afe41	0.21386053
82	0x3e915182	0.28382498
83	0xbe2e5a6b	-0.17026679
84	0x3e1fc2e4	0.15601689
85	0x3e956c47	0.29184172
86	0xbd8a40f9	-0.06750674
87	0xbe8cd1c4	-0.27503788
88	0xbdd9ed77	-0.10640996
89	0xbe81dfc7	-0.2536604
90	0xbd0464b0	-0.032322586
91	0x3decbe78	0.115597665
92	0x3e889cd5	0.26682153
93	0xbcd8f275	-0.0264828
94	0xbe4cecd3	-0.20012216
95	0xbe7ed0fa	-0.24884406
96	0x3c935627	0.017985417
97	0xbe04fa7d	-0.12986179
98	0x3ea7d237	0.3277757
99	0x3e3d8466	0.18507537
100	0x3e9d6666	0.30742186
101	0x3cc5c293	0.024140632
102	0xbe4c918c	-0.19977397
103	0xbe3555dd	-0.17708535
104	0xbc930aef	-0.01794955
105	0x3e99e37b	0.30056366
106	0x3de4a8cf	0.1116501
107	0x3de9a24c	0.11407909
108	0xbdf65db2	-0.1202959
109	0x3e146f57	0.14495598
110	0xbe1edd8b	-0.155142
111	0x3d68958e	0.05678325
112	0x3ddc64bd	0.10761402
113	0xbe2ebf18	-0.17065084
114	0x3e9eeff6	0.3104245
115	0xbe8ff9f6	-0.28120393
116	0xbe0056e7	-0.1253315
117	0x3e869e76	0.2629277
118	0x3e718f0a	0.23589721
119	0xbd1b0154	-0.037843063
120	0x3e008bc6	0.1255332
121	0xbdbd456c	-0.09241757
122	0x3e765db1	0.24059178
123	0xbdbeb6de	-0.09312223
124	0xbd8a0f48	-0.06741196
125	0xbea47c99	-0.3212631
126	0xbe1c6c13	-0.15275602
127	0x3e699788	0.22811711
128	0x3e555644	0.20833689
129	0x3ea5ae4c	0.3235954
130	0xbe8d69fd	-0.27619925
131	0xbbfbe390	-0.0076870397
132	0x3d450171	0.048097078
133	0xbe8b8f44	-0.2725774
134	0x3ca9fb1c	0.020749621
135	0xbd2305f4	-0.0398006
136	0x3e36a699	0.1783699
137	0xbc82fb64	-0.015989013
138	0x3d185c19	0.037197206
139	0xbe4089d8	-0.18802583
140	0xbdbf2cb4	-0.09334698
141	0x3e2f1011	0.17095973
142	0xbcb6afc0	-0.022300601
143	0xbdf8389d	-0.12120173

cnn_base.0.bias f4 [16]
0	0x3e3e951b	0.18611567
1	0x3db35f3e	0.087584004
2	0x3e8df371	0.27724794
3	0x3e82dbe5	0.2555839
4	0xbd575902	-0.05257512
5	0x3ea0d1c9	0.31410053
6	0x3dcd2141	0.10016108
7	0x3cca4a0c	0.024693511
8	0xbe3fcc28	-0.18730223
9	0xbda090b3	-0.07840099
10	0xbe7f8d83	-0.24956326
11	0x3e786442	0.24256995
12	0x3c850096	0.016235631
13	0xbe69ac65	-0.2281967
14	0x3e36dd6a	0.178579
15	0xbe54dda3	-0.20787673

cnn_base.3.weight f4 [32, 16, 3, 3]
0	0xbd968269	-0.073490925
1	0x3d3a5690	0.04549271
2	0x3d635a40	0.05550599
3	0xbd880a38	-0.06642574
4	0xbd93b0cb	-0.07211455
5	0x3d44ad7a	0.048017003
6	0xbb4e5902	-0.0031486158
7	0xbcd0d651	-0.025492819
8	0x3c31c07c	0.0108491145
9	0x3d68afcf	0.05680829
10	0x3d8adb67	0.06780129
11	0xbc89d465	-0.01682491
12	0x3a8496b8	0.0010115718
13	0xbd6c35d0	-0.057668507
14	0xbd306bd1	-0.04307157
15	0xbd1445d3	-0.036199402
16	0xbd4564a8	-0.048191696
17	0xbd9dbadc	-0.07701656
18	0xbcaef805	-0.0213585
19	0x3ada2f42	0.0016646164
20	0xbcfc243f	-0.030779002
21	0x3d377f39	0.044799063
22	0x3d978b15	0.07399575
23	0x3d9728be	0.07380818
24	0xbd9d7dc7	-0.07690006
25	0xbd7e2d2a	-0.06205479
26	0x3d9950eb	0.07486137
27	0xbd339fdc	-0.043853626
28	0x377e62f2	1.5162617e-05
29	0x3c502640	0.012704432
30	0xbd9f19ff	-0.0776863
31	0x3ca5e436	0.020250421
32	0x3d1b910e	0.03798013
33	0x3d9ad98c	0.07561025
34	0xbda21cf7	-0.07915681
35	0xbd807703	-0.062727
36	0xbd3aa8dd	-0.045571197
37	0xbc249a34	-0.0100465305
38	0x3c237689	0.009976991
39	0x3a832f6b	0.0010008638
40	0x3b59d975	0.0033241187
41	0xbd977cb5	-0.07396833
42	0xbca8d1bc	-0.020607822
43	0x3d85737b	0.06516167
44	0x3d4c9cdc	0.04995428
45	0xbccc6e2c	-0.024954878
46	0xbcfdfe94	-0.031005181
47	0x3c223c78	0.009902112
48	0x3c064b54	0.008196671
49	0xbccae390	-0.024766713
50	0xbd318845	-0.043342847
51	0xbd4416a2	-0.047873147
52	0x3d13ac65	0.03605308
53	0xbbc7bde5	-0.0060956352
54	0xbce6a180	-0.028153181
55	0xbd46f2be	-0.04857134
56	0x3d1ac2f6	0.037783585
57	0x3cec97a2	0.028880898
58	0x3d9b6fc9	0.07589681
59	0xbd9522af	-0.07282006
60	0xbc7b34ce	-0.015332414
61	0xbd9602d6	-0.0732476
62	0x3c9734d5	0.01845781
63	0x3d4fe3b5	0.050754268
64	0xbd92921d	-0.07156775
65	0xbd380ccf	-0.04493409
66	0x3d4be37b	0.04977749
67	0x3d4b180a	0.049583472
68	0xb99b286b	-0.00029594018
69	0x3cf5ff89	0.030029075
70	0x3b664e2a	0.0035141804
71	0xbbf9ed1e	-0.0076271435
72	0x3a9019ce	0.0010994019
73	0x3da128c8	0.078691065
74	0xbd84f324	-0.06491688
75	0xbd291958	-0.041283935
76	0x3d94983d	0.072556
77	0xbd877207	-0.06613546
78	0xbd25380f	-0.040336665
79	0x3d4ef16a	0.0505232
80	0xbd530a56	-0.05152353
81	0xbd55cd49	-0.05219773
82	0xbd00e91f	-0.03147232
83	0x3d86b3c2	0.06577255
84	0xbab6be81	-0.0013942273
85	0x3d0826fc	0.033240303
86	0x3c8f30db	0.01747935
87	0xbd9e764a	-0.077374056
88	0xbd92470b	-0.071424566
89	0x3d4e3478	0.050343007
90	0xbd6f7082	-0.058456905
91	0xbc39750e	-0.011319412
92	0x3d40091c	0.046883687
93	0x3cf58d4f	0.029974608
94	0x3cdfb117	0.027306123
95	0xbc0440ed	-0.00807212
96	0x3d2ebbc0	0.04265952
97	0x3d10bbda	0.0353354
98	0xbd9696fd	-0.073530175
99	0x3d28ab18	0.041178793
100	0x3d262f7a	0.04057262
101	0x3d3bd92a	0.0458614
102	0x3da11bfc	0.07866666
103	0xbd43dc3e	-0.04781746
104	0xbd528d19	-0.051404092
105	0xbd9c294c	-0.07625064
106	0xbc7ce6e5	-0.015435909
107	0xbce67eb8	-0.028136596
108	0x39adc4ce	0.00033143762
109	0xbcac73fb	-0.021051398
110	0xbb9ea116	-0.0048409803
111	0xbca2c731	-0.019870372
112	0x3bbafd65	0.0057064765
113	0x3d13a061	0.03604162
114	0x3d37cb38	0.04487154
115	0xbce9a704	-0.028522022
116	0xbd1e78e4	-0.03868951
117	0xbcece2c3	-0.028916722
118	0x3cf16322	0.029466216
119	0xbd4dce04	-0.0502453
120	0xbd892c9a	-0.0669796
121	0xbd80cb28	-0.06288749
122	0xbd664566	-0.056218527
123	0x3d70672b	0.05869214
124	0x3da00466	0.07813339
125	0x3d6a0f13	0.057143282
126	0xbd4b200c	-0.04959111
127	0xbda2f538	-0.07956928
128	0xbd8f80de	-0.07007001
129	0xbdad1183	-0.08450606
130	0xbd72ffb0	-0.059325874
131	0xbd3cb540	-0.04607129
132	0xbce74a62	-0.02823371
133	0xbd8a9e9d	-0.06768534
134	0xbcbae0bb	-0.022812238
135	0xbd5069ba	-0.05088208
136	0x3d7b3616	0.061330877
137	0x3cc53070	0.024070948
138	0xbd4714fd	-0.048604
139	0x3d384d6e	0.044995718
140	0x3cb7717f	0.022392986
141	0x3d8254ed	0.063638546
142	0xbd53f97c	-0.0517516
143	0x3d2d8a88	0.04236844
144	0x3d84d01c	0.06485006
145	0xbd53e19d	-0.051728833
146	0x3d72664f	0.0591796
147	0x3d673084	0.056442752
148	0xbda8ce81	-0.082425125
149	0xbd72f310	-0.059313834
150	0xbd59b38b	-0.05314974
151	0x3d07c701	0.03314877
152	0xbcf02b0f	-0.029317407
153	0xbcd5f085	-0.026115665
154	0xbd876709	-0.06611449
155	0xbd1b3c07	-0.037899043
156	0x3d1f59f8	0.03890416
157	0x3a9570db	0.0011401431
158	0xbcdf9aaf	-0.027295439
159	0x3d1c609e	0.03817808
160	0x3d66d21b	0.056352716
161	0xbd1312ab	-0.035906475
162	0xbd944a05	-0.072406806
163	0xbda7d680	-0.081952095
164	0xbd025ee3	-0.031828772
165	0x3d223a6d	0.0396065
166	0xbcf32040	-0.029678464
167	0xbc993b46	-0.018705022
168	0x3d3125eb	0.043249052
169	0xbccfcf3a	-0.025367368
170	0xbc70e48a	-0.014702925
171	0xbd8d634a	-0.069037035
172	0xbce4c7ca	-0.027927298
173	0xbd9604c1	-0.073251255
174	0xbda8e7de	-0.0824735
175	0xbce23ef6	-0.027617913
176	0x3aeea2b1	0.0018206445
177	0xbced308c	-0.028953813
178	0xbc6d67cc	-0.014490079
179	0xbd536f25	-0.051619668
180	0xbd7bc452	-0.061466523
181	0xbd6c239c	-0.057651147
182	0x3cfe95dc	0.031077318
183	0x3c7c5d59	0.015403115
184	0xbd0f1473	-0.03493161
185	0x3cc21aa6	0.023694348
186	0xbd118594	-0.03552778
187	0x3d01bda3	0.031674992
188	0x3c3beaed	0.011469585
189	0xbb550b9b	-0.0032508138
190	0x3d299e43	0.041410696
191	0x3d8f5746	0.06999068
192	0x3c6dc138	0.014511399
193	0x3cf8c727	0.0303684
194	0xbcf09fa3	-0.029372996
195	0x3d9e2791	0.077223904
196	0x3d235aea	0.039881624
197	0xbd66063b	-0.056158286
198	0x3d690650	0.056890786
199	0x3d1ed588	0.038777858
200	0xbcb38b7d	-0.0219171
201	0xbd2b411f	-0.04181015
202	0x3da02451	0.07819427
203	0x3b4f3585	0.0031617593
204	0x3d1aae73	0.037764024
205	0x3d854be7	0.06508618
206	0x3bc79606	0.0060908822
207	0x3d9075f8	0.07053751
208	0x3c2065c2	0.009789886
209	0x38e6b670	0.00011001236
210	0xbb916b8f	-0.004437871
211	0x3d58f58a	0.05296854
212	0xbd808584	-0.06275466
213	0xbd891338	-0.06693119
214	0x3d979d13	0.074030064
215	0x3cb14eab	0.021643957
216	0x3d5531a2	0.052049287
217	0x3cbb1665	0.022837827
218	0xbc22ea31	-0.009943531
219	0xbd560fa4	-0.05226101
220	0xbd19f348	-0.037585527
221	0x3d6ac964	0.057320967
222	0xbd9153f3	-0.0709609
223	0xbd851348	-0.06497818
224	0xbd1a7a16	-0.037714086
225	0xbd329f99	-0.043609235
226	0x3ca061d5	0.0195779
227	0xbd336db6	-0.0438058
228	0xbd468297	-0.048464384
229	0xbd1e80ec	-0.03869717
230	0xbd63c00f	-0.055603083
231	0xbda082c8	-0.078374445
232	0xbd9476e4	-0.07249239
233	0x3c442866	0.011972522
234	0xbd94dcf2	-0.072687045
235	0x3da24217	0.07922762
236	0xbd2f70ba	-0.042832114
237	0xbda6e722	-0.08149554
238	0xbc606a01	-0.013697148
239	0x3d3e923e	0.046526186
240	0x3d8400ad	0.064454414
241	0x3c947598	0.01812248
242	0x3da9b521	0.08286501
243	0xbba7cccb	-0.005120849
244	0x3d553ed4	0.05206187
245	0xbd91c4a9	-0.07117588
246	0xbd8d76a0	-0.069073915
247	0xbcd01974	-0.025402762
248	0xbcb57847	-0.02215208
249	0xbd20b39f	-0.0392338
250	0x3d4c36bd	0.04985689
251	0xbd73b310	-0.05949694
252	0x3cb86837	0.022510631
253	0xbc209df9	-0.009803289
254	0x3d459bf2	0.048244424
255	0x3d0d73f4	0.03453441

cnn_base.3.bias f4 [32]
0	0xbb5c19f1	-0.0033584798
1	0xbd853942	-0.06505062
2	0x3d82ea2c	0.06392321
3	0xbd81f26f	-0.06345069
4	0xbd111dc8	-0.035428792
5	0xbd37f9e8	-0.044916064
6	0xbd674858	-0.056465477
7	0xba2b3f5e	-0.0006532575
8	0xbc03ce38	-0.008044772
9	0x3da3a910	0.079912305
10	0x3d360344	0.044436708
11	0xbd625863	-0.055260073
12	0xbb7ee254	-0.0038892226
13	0xbca4779d	-0.020076567
14	0xbd806f7f	-0.06271266
15	0x3daa6206	0.08319478
16	0x3d808a9b	0.06276437
17	0x3cf32918	0.029682681
18	0xbda62694	-0.08112827
19	0x3d51c677	0.05121466
20	0xbd176eec	-0.036971018
21	0x3d9993cc	0.07498893
22	0x3d4ed896	0.05049952
23	0xbb83beab	-0.004020532
24	0x3b1fa842	0.0024361764
25	0x3cdb9960	0.026806533
26	0x3d9eb00a	0.077484205
27	0xbd0fc0bf	-0.035095926
28	0x3d89f4e9	0.06736166
29	0xbda45faf	-0.08026063
30	0xbd567849	-0.052360807
31	0x3d565956	0.05233129

mlp_base.0.weight f4 [32, 2]
0	0x3f02ba39	0.51065403
1	0x3f13280c	0.5748298
2	0xbf02db49	-0.5111585
3	0xbd4124d1	-0.04715425
4	0x3e6a6d5a	0.22893277
5	0x3f063862	0.52429783
6	0xbef53897	-0.47894737
7	0xbefa0a5c	-0.4883603
8	0x3f3215f9	0.6956478
9	0x3eb0e4fa	0.34549695
10	0xbf15ea65	-0.5856078
11	0xbdd680a9	-0.10473759
12	0x3e9a6205	0.30152908
13	0xbef1f7ab	-0.47259268
14	0x3ef895ef	0.4855189
15	0xbebad644	-0.36491597
16	0xbdb461e7	-0.08807736
17	0x3f0eb409	0.5574346
18	0xbf143d9b	-0.579065
19	0x3e409d69	0.18810047
20	0x3e4f27b9	0.20229997
21	0x3f2dfcb3	0.67963713
22	0x3f040938	0.51576567
23	0xbe6745db	-0.22585241
24	0xbe89dea2	-0.26927668
25	0x3d42a5c6	0.047521375
26	0x3df302c6	0.11865763
27	0x3ed7a200	0.42115784
28	0x3efc6b16	0.4930045
29	0xbe84c956	-0.25934857
30	0xbdf8f05b	-0.12155219
31	0x3f03b190	0.51442814
32	0xbdcfb505	-0.101419486
33	0x3f16f3cd	0.5896576
34	0x3c822e30	0.015891165
35	0xbdc7c3bc	-0.0975413
36	0xbf0dcbf3	-0.55389327
37	0x3e992245	0.29908958
38	0x3f2e1a7f	0.6800918
39	0x3e4d6704	0.20058829
40	0xbc5d2510	-0.013497606
41	0x3d15ae1f	0.036543008
42	0x3e887456	0.26651257
43	0x3e443155	0.19159444
44	0x3f0b856a	0.5450045
45	0x3eb82cfc	0.3597182
46	0xbf2796a3	-0.6546423
47	0xbf1e4832	-0.6182891
48	0x3f11e699	0.5699249
49	0xbe81d3e9	-0.25356987
50	0xbf0598bb	-0.52186173
51	0x3ec42461	0.38309005
52	0xbf12789d	-0.5721529
53	0x3ecc3edc	0.39891708
54	0xbe87f7c4	-0.26556218
55	0x3e8c492c	0.27399576
56	0xbe1c7696	-0.15279612
57	0x3e82412f	0.25440356
58	0x3eff990f	0.49921462
59	0x3ece9324	0.40346634
60	0x3d9d958d	0.0769454
61	0xbda9799b	-0.082751475
62	0x3f13cd4e	0.57735145
63	0xbcf38c95	-0.02973012

mlp_base.0.bias f4 [32]
0	0x3f04499e	0.5167483
1	0xbeb9ac5c	-0.36264312
2	0x3ce25084	0.027626283
3	0xbeb85751	-0.36004117
4	0x3dafb70d	0.08579836
5	0x3e024edb	0.12725393
6	0x3ebeb9b0	0.37251043
7	0x3e9ab33f	0.3021488
8	0xbdbf65e0	-0.09345603
9	0xbecb3b65	-0.39693752
10	0x3c0d6516	0.008630058
11	0x3d29059f	0.041265126
12	0x3ed6b90f	0.41938064
13	0x3f05db4f	0.52287763
14	0xbef7df8a	-0.48412734
15	0x3ec370e7	0.38172075
16	0xbe1045d2	-0.14089134
17	0x3e1eda9d	0.15513082
18	0xbeb1aee3	-0.3470374
19	0x3e80a9b2	0.25129467
20	0x3f109234	0.5647309
21	0x3ef547e5	0.47906414
22	0x3eee9ecc	0.46605527
23	0xbdb4ecc4	-0.08834222
24	0x3ed61f5f	0.4182081
25	0x3f2c737e	0.6736373
26	0x3e9625dc	0.2932576
27	0xbebca0ff	-0.3684158
28	0x3dbaa9c5	0.09114412
29	0x3eee313a	0.46521932
30	0xbce25dea	-0.027632672
31	0xbf25056a	-0.64461386

mlp_base.2.weight f4 [32, 32]
0	0x3dfcea68	0.12349397
1	0x3e0f4f7b	0.13995163
2	0x3e320202	0.17383578
3	0xbd13e254	-0.036104515
4	0x3e326faa	0.17425409
5	0xbc37ad25	-0.0112107145
6	0xbe1ef44b	-0.15522878
7	0xbc6a79eb	-0.014311294
8	0xbe2d5a58	-0.16928995
9	0xbddc8b81	-0.10768796
10	0x3e05412c	0.13013142
11	0x3d3912c2	0.045183904
12	0xbd89d36e	-0.0672978
13	0x3e016398	0.12635648
14	0x3d11a643	0.03555895
15	0x3e087243	0.13324837
16	0x3bbeaaea	0.0058187144
17	0x3a6898b4	0.0008872852
18	0x3da17dbf	0.07885312
19	0xbd958aaf	-0.073018424
20	0x3e17bf7e	0.14819142
21	0x3bb29199	0.0054494855
22	0x3dd3539e	0.10318683
23	0xbdb04fd2	-0.086089745
24	0xbe130379	-0.14356793
25	0x3d5eacd1	0.05436403
26	0xbc403bd6	-0.011733016
27	0xbd4df5ea	-0.05028335
28	0xbdb032aa	-0.086034134
29	0xbdf5516e	-0.11978422
30	0xbe1e9652	-0.1548703
31	0xbdf91082	-0.12161352
32	0xbdb55418	-0.0885393
33	0x3d0f2776	0.034949742
34	0xbde2a1b9	-0.110660024
35	0xbd3d27f6	-0.046180688
36	0xbda8a1a6	-0.08233957
37	0x3d932c9e	0.071862444
38	0xbdf7b078	-0.120942056
39	0xbd876d1e	-0.06612609
40	0x3de035b7	0.10947745
41	0xbcdc79a2	-0.026913468
42	0x3e0aa063	0.13537745
43	0xbca492b5	-0.020089487
44	0xbe014d02	-0.12627032
45	0x3e0d3b0f	0.1379206
46	0xbdb92a48	-0.09041268
47	0xbdb30f36	-0.08743136
48	0xbb99fee4	-0.004699575
49	0x3e190d90	0.1494658
50	0x3dcba8fd	0.09944341
51	0x3d3536f9	0.04424188
52	0xbd099acc	-0.03359489
53	0x3e186f3b	0.14886181
54	0xbe19ddaf	-0.15025972
55	0x3dfd82c4	0.12378457
56	0xbd60cecc	-0.054884717
57	0x3e227f3f	0.15868853
58	0x3c53fdf8	0.012938969
59	0x3db10c72	0.08644952
60	0x3e0611cb	0.13092725
61	0x3dd5735c	0.10422394
62	0x3d9fe27a	0.07806869
63	0x3cbe9df4	0.023268677
64	0x3baf72e4	0.005354272
65	0xbdd973a2	-0.10617758
66	0xbe0f6e77	-0.14006983
67	0x3d8fc135	0.07019273
68	0x3dfd53e3	0.12369516
69	0xbce10fdb	-0.02747338
70	0xbc9aa1d3	-0.018875992
71	0xbd5edc2e	-0.0544092
72	0x3def046c	0.11670765
73	0xbe2e7e47	-0.17040358
74	0xbde53470	-0.11191642
75	0xbdc70a3f	-0.09718751
76	0xbe1f3bd8	-0.15550172
77	0x3e0d4bfe	0.1379852
78	0xbd50826e	-0.050905637
79	0x3e0beccf	0.13664554
80	0xbd2b3570	-0.04179901
81	0xbe1d1f90	-0.15344071
82	0xbddf3d0e	-0.10900317
83	0x3aa7531d	0.0012765859
84	0xbe255dc9	-0.16149057
85	0xbc9c3908	-0.019070163
86	0xbe1b13aa	-0.1514422
87	0xbd599f60	-0.053130507
88	0x3e032044	0.12805277
89	0xbd6a8c15	-0.0572625
90	0xbd1fbf63	-0.03900088
91	0x3c94968b	0.01813819
92	0x3d9df5d8	0.077129066
93	0xbd9ff4b0	-0.07810342
94	0x3d7c9999	0.06166992
95	0x3db5a9f6	0.08870308
96	0xb921c100	-0.00015426055
97	0x3d17b829	0.037040863
98	0xbe167d50	-0.1469624
99	0xbe316220	-0.17322588
100	0xbd950d27	-0.07277899
101	0xbde9d35c	-0.11417267
102	0x3dee30ab	0.116303764
103	0xbdde192d	-0.10844646
104	0xbe0988c4	-0.13431078
105	0xbd802f98	-0.06259078
106	0xbd9928a2	-0.07478453
107	0x3dcc29d0	0.099689126
108	0x3ddd7bba	0.108146146
109	0x3cb3f703	0.02196837
110	0x3ca4c929	0.020115452
111	0x3e01cd35	0.12675937
112	0xbd9ebcf6	-0.07750885
113	0xbe2783a1	-0.16358806
114	0x3d26a2b2	0.040682502
115	0xbd71282d	-0.058876205
116	0x3ce48b41	0.027898433
117	0xbe076df7	-0.13225542
118	0x3e218a74	0.15775472
119	0x3d267946	0.040643
120	0x3ded7b34	0.11595765
121	0x3e0a4e52	0.1350644
122	0x3d83371c	0.06406996
123	0x3e09d867	0.13461457
124	0x3d728ac7	0.05921438
125	0xbe197e32	-0.14989546
126	0xbdb3a0d1	-0.08770908
127	0xbccaf2af	-0.024773924
128	0xbde2661d	-0.11054633
129	0xbe15c5e4	-0.1462627
130	0xbc8b13e6	-0.016977262
131	0xbd4da467	-0.050205614
132	0x3d00a391	0.03140599
133	0x3e2930be	0.165225
134	0xbdd2212a	-0.10260232
135	0x3d9611ea	0.073276356
136	0x3dbe717c	0.09298989
137	0x3a9a5a37	0.0011776154
138	0xbd5ab573	-0.0533957
139	0x3d147a24	0.036249295
140	0x3e020365	0.12696607
141	0xbe0438fd	-0.12912364
142	0xbda3b724	-0.07993916
143	0x3ddab6bf	0.10679387
144	0x3db86380	0.09003353
145	0x3d33d2e9	0.04390231
146	0xbc9badbb	-0.01900374
147	0xbc6083f6	-0.013703337
148	0x3c236bb0	0.009974405
149	0xbd5e8df8	-0.05433461
150	0x3e0ca51f	0.13734864
151	0x3dfc208e	0.12310897
152	0x3e12f283	0.14350323
153	0xbe1af3b8	-0.15132034
154	0xbb4388a4	-0.0029836083
155	0xbdf1f32f	-0.11813962
156	0x3e187c82	0.14891246
157	0xbdd3cb43	-0.103415035
158	0x3db0f858	0.08641118
159	0x3c518446	0.012787884
160	0xbe1ba127	-0.15198193
161	0x3e10bf67	0.14135514
162	0xbe22f795	-0.15914758
163	0x3d10daf8	0.035365075
164	0x3dbd8e8a	0.09255703
165	0xbd1d3d1a	-0.03838835
166	0xbd87590f	-0.066087835
167	0xbba368a2	-0.0049868384
168	0x3d0cc474	0.03436704
169	0xbce25cb0	-0.027632087
170	0x3db7b642	0.0897031
171	0xbc169314	-0.00919034
172	0x3dbc1b26	0.09184866
173	0x3e199de4	0.15001637
174	0x3dd18b84	0.102316886
175	0x3dd2a891	0.10286058
176	0x3d2fa91a	0.042885877
177	0xbc67330f	-0.014111294
178	0x3c31348c	0.010815751
179	0x3dfcfba3	0.123526834
180	0xbe131aff	-0.14365767
181	0xbbb87765	-0.0056294673
182	0x3e1986fd	0.149929
183	0xbe2c38e4	-0.16818577
184	0xbcc6a2d7	-0.02424757
185	0xbc3a9ef9	-0.011390441
186	0x3e23233c	0.1593141
187	0x3e2b82b7	0.16749083
188	0x3e1211a9	0.1426455
189	0x3d03e9cf	0.0322054
190	0xbd95924b	-0.07303294
191	0xbe0ba814	-0.13638335
192	0x3d5dd1cd	0.05415516
193	0x3dbe905c	0.09304878
194	0xbd2e1a07	-0.04250529
195	0x3df04faf	0.117339484
196	0x39e9d6be	0.00044601219
197	0xbda53154	-0.08066049
198	0x3e035910	0.12826943
199	0x3de116b5	0.10990659
200	0x3df4a5a0	0.11945653
201	0x3c608b7d	0.013705132
202	0xbd4386f6	-0.04773613
203	0xbd99ca05	-0.07509235
204	0x3caa3ce8	0.020780995
205	0xbd2129d0	-0.039346516
206	0xbaa679e5	-0.0012701122
207	0xbd298486	-0.04138615
208	0x3e2df5c7	0.16988288
209	0xbde6f5fc	-0.112773865
210	0xbb20fced	-0.0024564818
211	0xbda44078	-0.08020109
212	0x3d836b28	0.06416923
213	0x3d5e09bf	0.054208513
214	0xbd652f07	-0.055953052
215	0xbe071258	-0.13190591
216	0xbc2fb45f	-0.010724156
217	0xbc29996b	-0.010351519
218	0xbe2eb50a	-0.17061248
219	0xbc993b77	-0.018705113
220	0xbd8565a8	-0.0651353
221	0x3d9e9539	0.07743306
222	0x3d4156fc	0.047202095
223	0xbd9fe62a	-0.07807572
224	0xbd7d899d	-0.061898816
225	0xbd062c8c	-0.032757327
226	0x3d0fa03c	0.03506492
227	0x3d219891	0.03945214
228	0xbbf860fa	-0.00757992
229	0xbded8c56	-0.115990326
230	0x3e0b08a4	0.13577515
231	0x3e1d363f	0.15352724
232	0xbde30773	-0.11085405
233	0xbe0df6ff	-0.13863753
234	0xbdeefc82	-0.11669256
235	0xbcf5768f	-0.02996376
236	0xbdeac659	-0.11463613
237	0x3d84ff16	0.06493966
238	0x3df5c714	0.12000862
239	0x3e0cffd9	0.13769473
240	0xbc963b8f	-0.018338947
241	0x3cae719b	0.021294406
242	0x3ca36fb9	0.019950734
243	0x3d98bad1	0.074575074
244	0x3c87e98a	0.016590852
245	0x3d28d3a1	0.04121745
246	0xbc128d82	-0.008944871
247	0xbcae71d4	-0.021294512
248	0x3dc3dfd9	0.0956418
249	0x3ba2dbf8	0.00497007
250	0x3e2cf332	0.16889647
251	0x3ad0505b	0.0015893088
252	0x3c03357e	0.008008359
253	0xbe1cb11b	-0.15301935
254	0xbe154571	-0.14577271
255	0x3e1dc1d1	0.15405966

mlp_base.2.bias f4 [32]
0	0x3e36dc55	0.17857487
1	0x3e2f8394	0.17140037
2	0xbe047c0b	-0.12937944
3	0xbe20f55d	-0.15718599
4	0x3e111c04	0.14170843
5	0x3dbeba1c	0.09312841
6	0x3e0a878a	0.13528267
7	0xbbb811c4	-0.005617352
8	0x3d266729	0.040625725
9	0x3da38e34	0.079861075
10	0xbc4870e7	-0.012233949
11	0x3e261f18	0.16222799
12	0xbb5552f2	-0.003255066
13	0xbce836c0	-0.02834642
14	0x3e2f85ed	0.17140932
15	0x3e1291ac	0.14313382
16	0x3bf05161	0.00733392
17	0xbd63859f	-0.055547353
18	0xbcedab37	-0.029012306
19	0xbc0d7e70	-0.008636102
20	0xbdb602c8	-0.08887249
21	0x3d936fa8	0.07199031
22	0x3c5b6dfb	0.013392921
23	0x3d25dac4	0.040491834
24	0xbda40d98	-0.08010405
25	0x3da7f259	0.08200521
26	0xbe2932cc	-0.16523284
27	0x3b10cdb0	0.0022095256
28	0x3d9b08ef	0.07570063
29	0xbde8f99c	-0.11375734
30	0xbd9f870d	-0.07789431
31	0x3e125c25	0.14292963

actor_head.0.weight f4 [64, 1600]
0	0xbc46c4ca	-0.012131879
1	0xbc5380c0	-0.012909114
2	0x3c88d22b	0.016701778
3	0x3cc71fb7	0.024307115
4	0xbcbfa6b5	-0.023394922
5	0xba680c67	-0.0008851946
6	0x3c964f3a	0.018348325
7	0x3c0d1fad	0.008613509
8	0xbcb46fbf	-0.022025941
9	0x3cbd581a	0.0231133
10	0xbc9cc592	-0.019137178
11	0xbc308e5a	-0.010776127
12	0xbc0f8dd7	-0.008761845
13	0x3cab0bc3	0.020879632
14	0x3b4cdd80	0.0031259954
15	0x3c383bb3	0.011244702
16	0x3c23dba0	0.010001093
17	0xbcb49078	-0.022041544
18	0xbc3745a7	-0.01118604
19	0x3c5713ed	0.013127309
20	0x3c2168bd	0.009851632
21	0xbbee6693	-0.0072754114
22	0xbc14c4a7	-0.009080089
23	0xbb977b5c	-0.00462286
24	0x3cc1d731	0.023662182
25	0xbbbe6d00	-0.0058113337
26	0x3a0ea967	0.0005442113
27	0x3bed2c13	0.00723792
28	0x3ac2d400	0.0014864206
29	0xbbd8bc40	-0.006614238
30	0xbc9f473d	-0.019443149
31	0xbb7dcbc5	-0.0038726192
32	0x3c9532ed	0.01821276
33	0x3bcbb873	0.0062170564
34	0x3b847a6d	0.0040429146
35	0xbbb3d760	-0.005488321
36	0x3caaed80	0.020865202
37	0xbbe57b0d	-0.007003194
38	0x3af2601a	0.0018491775
39	0x3bb536ba	0.0055302056
40	0x3cb14f28	0.02164419
41	0xbba801ad	-0.005127153
42	0x3cbeaf2b	0.023276886
43	0x3c50c6c0	0.012742698
44	0xbc9140fd	-0.017731184
45	0x3a25d067	0.0006325305
46	0x3c347f9a	0.011016751
47	0x3bc8ce7a	0.0061281295
48	0x3c884cea	0.016638238
49	0x3bd6383a	0.0065374644
50	0x3c18934d	0.009312463
51	0x3c567803	0.013090136
52	0xbccb6808	-0.02482988
53	0x3c14a023	0.009071383
54	0x3c8a20c7	0.016861333
55	0x3c92f0c8	0.01793708
56	0x3cbde8d2	0.023182306
57	0xbc328983	-0.010897043
58	0x3c19b160	0.009380668
59	0xbc520283	-0.012817982
60	0xbc622d77	-0.013804785
61	0x3b405d4d	0.0029352487
62	0x3cb91dad	0.022597158
63	0x3c8f26ea	0.01747461
64	0x3ba77400	0.005110264
65	0xbc8781e5	-0.01654143
66	0xbcbb4161	-0.022858324
67	0xbc774c77	-0.015093914
68	0x3bcf408d	0.0063248337
69	0x3cbde233	0.02317915
70	0xbca83663	-0.020533746
71	0x3c366040	0.011131346
72	0x3bb8459a	0.0056235315
73	0x3bba9fb8	0.0056953095
74	0xbc9b9c85	-0.018995533
75	0xb9e9899a	-0.00044543744
76	0x3c7c849d	0.015412477
77	0x3cb53077	0.022117836
78	0x3c379647	0.0112052625
79	0xbb83a233	-0.0040171384
80	0xbc4f1f43	-0.012641731
81	0xbc8a0d56	-0.016852062
82	0x3c884feb	0.01663967
83	0xbc4dd9ba	-0.012564117
84	0x3c060b80	0.008181453
85	0x3c97dcf7	0.018537981
86	0xbc5d0507	-0.013489968
87	0x3c7ccadf	0.015429228
88	0xbc5e585c	-0.013570871
89	0x3bcb7fcd	0.0062103034
90	0x3c7f94f0	0.015599474
91	0x3af55c9a	0.0018719614
92	0xbbf57273	-0.00749045
93	0x3b2ea767	0.0026650073
94	0xba9b8a67	-0.0011866809
95	0x3c7046da	0.01466533
96	0xbc0836b7	-0.008313826
97	0x3caa231f	0.0207687
98	0x3c03264f	0.008004739
99	0x3c5d4a12	0.013506429
100	0xbc8b7b62	-0.017026607
101	0xbaf8d442	-0.0018984156
102	0x3c7d1881	0.015447737
103	0x3a9f311a	0.0012145371
104	0xbc8525d8	-0.016253397
105	0x39cfd88d	0.0003964346
106	0x3cbca91b	0.023029855
107	0x3bf5d44b	0.007502114
108	0x3cb5209f	0.022110282
109	0x3c10a741	0.008828939
110	0xbc8e6e75	-0.017386654
111	0x39fb4f4e	0.00047933537
112	0x3b831819	0.0040006754
113	0xbc3a225a	-0.011360729
114	0x3c4447a4	0.011979971
115	0x3c2374e9	0.009976604
116	0xba7f47ec	-0.0009738195
117	0xba6c5846	-0.00090158393
118	0xbc90dbcd	-0.017682934
119	0xbc381f82	-0.011237981
120	0x3c22a08b	0.009925972
121	0x3ca0fe4b	0.019652506
122	0x3b759db0	0.0037478022
123	0xba014627	-0.0004931413
124	0x3c94f5c9	0.018183606
125	0x3bb2c232	0.005455279
126	0x396e6d0c	0.00022738072
127	0xba9c2e49	-0.001191565
128	0x3cb6529a	0.022256184
129	0x3ca877fd	0.020565027
130	0xbc8a0f7a	-0.016853083
131	0x3bae6d07	0.0053230557
132	0x3ba8d9c5	0.0051529133
133	0x3cb76c1d	0.02239042
134	0x3c768e25	0.015048538
135	0x3c8c4a86	0.01712538
136	0x3c00a849	0.007852622
137	0x3a5618a7	0.00081671256
138	0xbc691b24	-0.014227662
139	0x3c9aadf5	0.018881777
140	0x3c8c2005	0.017105112
141	0x3bd96e7c	0.006635485
142	0x3a22feb2	0.0006217762
143	0xbb2b4a6f	-0.0026136895
144	0x3be9d4e6	0.007135975
145	0xbc9900e9	-0.018677192
146	0xbbd86efb	-0.006605027
147	0x3b0eba00	0.0021778345
148	0xbcae2fd8	-0.021263048
149	0x3bc1efed	0.005918494
150	0xbc3fc6aa	-0.01170508
151	0x3bcbe73a	0.0062226327
152	0x3c36d500	0.011159182
153	0x3bc5b80d	0.0060339035
154	0xbcab567f	-0.020915268
155	0xbb3d8d5a	-0.0028923363
156	0x3ca466a8	0.020068482
157	0x3c6a3957	0.014295897
158	0x3cbbac20	0.022909224
159	0x3cc2589a	0.02372389
160	0x3b583467	0.0032990219
161	0xbc0be3b3	-0.008538174
162	0x3c500500	0.012696505
163	0x3b915887	0.004435602
164	0xbc0debf0	-0.008662209
165	0xbc53fe75	-0.012939085
166	0x3c4e56cd	0.012593937
167	0xbb20c7e7	-0.0024533214
168	0xbc8d4bc3	-0.01724804
169	0x3c692c07	0.014231688
170	0x3c7cfa85	0.015440588
171	0x3c31e5b6	0.01085799
172	0x3cb17f4d	0.021667147
173	0x3c990bba	0.01868235
174	0x3986b467	0.00025692882
175	0xb9409000	-0.00018364191
176	0x3cb79c02	0.022413258
177	0xbcc64414	-0.024202384
178	0xbbc00d3e	-0.0058609536
179	0x3c9e2e61	0.019309225
180	0x3cb391a0	0.021920025
181	0xbc1f1913	-0.009710568
182	0xbbbb6427	-0.005718726
183	0xbcc798bf	-0.024364827
184	0x3cb58795	0.022159377
185	0xbc9bf23c	-0.019036405
186	0x3a6886b3	0.00088701694
187	0x3cc7589a	0.02433424
188	0x3c8e6e5d	0.01738661
189	0x3c0f5787	0.0087488955
190	0x3c0e4a37	0.008684686
191	0x3b8ac38d	0.0042347373
192	0x3c89dd08	0.016829029
193	0xbc8f3857	-0.01748292
194	0x3c9c53c2	0.019082908
195	0x3c7d61d0	0.015465215
196	0x3c74a030	0.01493077
197	0xba6938cd	-0.00088967086
198	0x3c931ff2	0.017959569
199	0x3cc876cf	0.024470715
200	0xbb02c51a	-0.0019953907
201	0x3bc79b33	0.0060914992
202	0xbc830538	-0.0159937
203	0xbc038ecd	-0.008029652
204	0x3cad150b	0.021128198
205	0xbc20dbf7	-0.009818069
206	0xbca8081a	-0.020511676
207	0x3c986c62	0.018606368
208	0xbc6b35b7	-0.014356068
209	0x3c069e70	0.008216485
210	0xbbfba220	-0.007679239
211	0xbb488533	-0.003059697
212	0x3cc5b109	0.024132269
213	0xbcaa502a	-0.020790178
214	0x3c773c37	0.01509004
215	0x3c8bf892	0.017086301
216	0x3cb7460f	0.022372274
217	0x3b0fefe7	0.0021963061
218	0xbc90c802	-0.017673496
219	0x3ca7503f	0.020424007
220	0x3acf4a74	0.0015815035
221	0x3a7c1f78	0.00096177263
222	0x3b09868f	0.0020984744
223	0x3bbb837a	0.0057224603
224	0x3bc3ad9a	0.0059716227
225	0xbc3e0acd	-0.011599255
226	0x3ca3df76	0.020004015
227	0x3c9e0316	0.01928858
228	0xbc1f10fe	-0.009708641
229	0xbbdc4c13	-0.006722936
230	0xbb96e6ed	-0.004605165
231	0x3c93ce92	0.018042836
232	0xbc249737	-0.010045818
233	0x3cb51362	0.022103969
234	0xbc8d2704	-0.017230518
235	0x3c45d950	0.012075737
236	0x3c284a10	0.010271564
237	0xbc918622	-0.017764155
238	0xbc129f0a	-0.008949051
239	0x3caf24b7	0.021379812
240	0xbc575e2a	-0.013145009
241	0xbca6f130	-0.020378679
242	0xbbdd70e7	-0.006757844
243	0xbcc81982	-0.024426226
244	0x3c7d0c00	0.015444756
245	0x3c8a221b	0.016861966
246	0x3bd3c5c7	0.006462786
247	0xbcae9edb	-0.021315983
248	0xbcabaff8	-0.020957932
249	0xbb041b80	-0.0020157993
250	0x3c924cf2	0.017858956
251	0xbc3f6d1d	-0.0116837295
252	0x3b04e49a	0.0020277859
253	0x3bd833a7	0.0065979543
254	0xbcc25168	-0.023720458
255	0xbc8c6698	-0.017138764

actor_head.0.bias f4 [64]
0	0xba1151cb	-0.0005543499
1	0xbae4c75f	-0.0017454437
2	0x3c531de9	0.012885549
3	0x3bd4e806	0.006497386
4	0xbc18bc0a	-0.009322176
5	0xbc93b0d0	-0.018028647
6	0x3a6c7221	0.0009019692
7	0xbac62221	-0.0015116372
8	0x3c6196df	0.013768881
9	0xbafc9dab	-0.0019273063
10	0x3c9dc10b	0.01925709
11	0x3c82331e	0.015893515
12	0x3bea84f8	0.0071569644
13	0x3c05cc4b	0.008166383
14	0x3c91d530	0.017801851
15	0xbc702ac7	-0.014658636
16	0xbc62f9d6	-0.013853511
17	0xbc4d5d5e	-0.0125344675
18	0xbca56c1e	-0.020193156
19	0xbbeef400	-0.0072922707
20	0xbcb7221c	-0.022355132
21	0x3c10b794	0.008832831
22	0xbbd79bb1	-0.006579839
23	0xba50be9e	-0.00079629745
24	0xbc518b34	-0.012789536
25	0x3c29b58f	0.010358228
26	0xbc4daca7	-0.012553371
27	0xbcd3fcfc	-0.025877468
28	0x3ccfde88	0.025374666
29	0x3c1eaee3	0.009685251
30	0x3bd03a29	0.0063545895
31	0x3b1e8c5f	0.0024192554
32	0x3cb0a717	0.02156405
33	0x3caa6327	0.020799233
34	0xbc7f5bf3	-0.015585887
35	0xbc08c565	-0.008347844
36	0x3c4bf85b	0.012449349
37	0xbc51d3fe	-0.0128068905
38	0x3bf1c1f2	0.0073778564
39	0x3cc56bfb	0.02409934
40	0x3c02a8bd	0.007974801
41	0x3a56d82e	0.00081956654
42	0x3bfc186c	0.007693341
43	0x3ba3df75	0.0050010034
44	0x3ce30f4d	0.027717257
45	0xbc8f4987	-0.017491115
46	0xba6a318a	-0.00089337735
47	0xbb35067e	-0.0027622278
48	0xbbda7cb9	-0.0066677
49	0xba88a18b	-0.001042412
50	0xbc487f1e	-0.012237338
51	0xbc996710	-0.018725902
52	0xba5d1099	-0.0008432954
53	0xbc4acafe	-0.012377499
54	0xbb9d44c0	-0.0047994554
55	0xbc4bbe7a	-0.01243555
56	0xbc786e85	-0.015163069
57	0x3c83b100	0.016075611
58	0x3afe6d86	0.0019411303
59	0x3ca889b4	0.020573474
60	0xbc0b69a9	-0.008509078
61	0xbcaa52d1	-0.020791443
62	0xbbbf73b6	-0.0058426512
63	0x3a7e4ab5	0.0009700463

actor_head.2.weight f4 [2, 64]
0	0x3d163ab1	0.036677066
1	0x3dc62863	0.09675672
2	0x3d2a58b2	0.041588493
3	0xbd987cb4	-0.0744566
4	0xbc5c0ced	-0.013430816
5	0x3d5f38d6	0.054497562
6	0x3d11c4d9	0.03558812
7	0x3d1b526c	0.0379204
8	0xbdca3782	-0.098738685
9	0x3d0e707a	0.034775235
10	0x3d977348	0.07395035
11	0x3dbe2556	0.09284465
12	0xbdc89ded	-0.09795747
13	0x3d7155a2	0.058919556
14	0xbdf667a0	-0.12031484
15	0x3dfa0e39	0.12209744
16	0xbe00e5e7	-0.12587701
17	0x3d579178	0.052628964
18	0xbc4cc95c	-0.01249918
19	0xbc7c80bf	-0.015411555
20	0x3bbe7f94	0.0058135483
21	0x3c67412b	0.014114658
22	0x3cf96e4f	0.030448107
23	0xbcd54a17	-0.026036305
24	0x3da31ccd	0.07964478
25	0xbd48b863	-0.04900397
26	0xbdb8eb58	-0.09029263
27	0xbd8e6a7e	-0.069539055
28	0xbdbaed91	-0.091273434
29	0xbdbab5a4	-0.091166764
30	0x3ce2a789	0.027667778
31	0x3db92b31	0.09041441
32	0xbdec2875	-0.11531154
33	0xbd1f36fc	-0.038870797
34	0xbd648dba	-0.055799223
35	0xbdd4d898	-0.103928745
36	0xbdc05929	-0.09392006
37	0xbd837d9c	-0.064204425
38	0x3e0228eb	0.12710921
39	0xbdb8de01	-0.09026719
40	0x3d17691b	0.03696547
41	0x3dab9777	0.08378499
42	0xbcc147ba	-0.023593772
43	0xbdd10275	-0.10205547
44	0xbda57803	-0.08079531
45	0xbcd0696a	-0.02544089
46	0x3dca6000	0.09881592
47	0xbdf756ff	-0.1207714
48	0xbdaf3543	-0.08555081
49	0x3d6e1fd4	0.058135822
50	0xbd3da7b7	-0.046302523
51	0x3dfb8761	0.12281681
52	0xbc3c5559	-0.011494958
53	0xbbe23137	-0.0069028395
54	0x3dec072c	0.115248054
55	0x3b7a2cbc	0.0038173636
56	0xbd9fc2e9	-0.07800848
57	0x3db1ea0f	0.08687221
58	0xbda98035	-0.08276407
59	0x3d9326e9	0.07185156
60	0x3d57b837	0.052665915
61	0xbd876c25	-0.06612424
62	0xbdf0b74f	-0.11753713
63	0x3dfa1d1e	0.12212585
64	0xbdb0eac7	-0.0863853
65	0x3d7e9fd1	0.06216413
66	0x3d016f26	0.03160014
67	0x3dd6a98f	0.104815595
68	0x3d88160a	0.066448286
69	0xbdf65dbd	-0.12029598
70	0x3da0869d	0.078381754
71	0x3be8c36c	0.007103374
72	0xbc8c6866	-0.017139625
73	0xbddf9748	-0.109175265
74	0xbddde167	-0.10834008
75	0xbd1f54bc	-0.03889917
76	0x3b7f4103	0.0038948662
77	0x3df2394c	0.11827335
78	0x3da74a63	0.08168485
79	0xbd141c72	-0.03615994
80	0x3de51040	0.1118474
81	0x3becb706	0.0072239665
82	0xbde69bbf	-0.11260175
83	0xbd61f274	-0.055162862
84	0xbd777f4a	-0.060424127
85	0x3dd395dd	0.103313185
86	0xba946e3f	-0.001132436
87	0xbc9c383a	-0.01906978
88	0x3d5dadcb	0.05412082
89	0x3dfedc69	0.12444384
90	0x3bdc9179	0.006731209
91	0xbdd25a76	-0.1027116
92	0x3cf47d51	0.029844912
93	0xbdc8c54c	-0.098032564
94	0x3dd21b34	0.10259095
95	0xbcd252c5	-0.025674233
96	0xbd9d501b	-0.076812945
97	0x3caab973	0.020840382
98	0xbd69002c	-0.05688493
99	0xbdbd0ae4	-0.09230593
100	0x3dfa0569	0.12208063
101	0xbd9562d2	-0.07294239
102	0xbdfc79de	-0.12327932
103	0x3d3620ae	0.04446476
104	0x3da40768	0.08009225
105	0xbdb0f30d	-0.08640108
106	0x3d57fac5	0.052729387
107	0x3bd73d57	0.0065685916
108	0x3d9cf108	0.076631606
109	0xbd2fe906	-0.042946838
110	0xbdef0b52	-0.11672081
111	0x3da6bb27	0.08141165
112	0x3cb86a69	0.022511678
113	0xbb88cd3c	-0.0041748565
114	0x3dc796d0	0.09745562
115	0xbb78bf2b	-0.0037955742
116	0xbd89948d	-0.06717787
117	0xbbd945a7	-0.0066306177
118	0x3d14f565	0.03636684
119	0x3e003568	0.12520373
120	0x3d41462c	0.04718606
121	0xba804792	-0.0009786955
122	0xbdf8d9b8	-0.121509016
123	0x3ded5274	0.11587992
124	0x3deb83b8	0.11499733
125	0xbd8ede3e	-0.06975983
126	0xbdb17d80	-0.08666515
127	0x3d56e484	0.052464023

actor_head.2.bias f4 [2]
0	0xbb445f6e	-0.0029964107
1	0xbbb9a2e6	-0.005665171

critic_head.0.weight f4 [64, 1600]
0	0xbc02b5e7	-0.007977939
1	0xbc932860	-0.017963588
2	0x3c1ee0ad	0.009697122
3	0xbc7d8bcd	-0.015475226
4	0x3b84838d	0.0040440024
5	0xbbfdca33	-0.0077450513
6	0x3bbe1fa0	0.00580211
7	0xbc49469a	-0.012284899
8	0x3c31ad93	0.010844606
9	0xbcbf4fbd	-0.023353452
10	0xbcc6c25d	-0.024262602
11	0xbc21be53	-0.009872037
12	0x3c7c3410	0.015393272
13	0xbb032c00	-0.002001524
14	0xbc928bcb	-0.017888924
15	0x3c7b8970	0.015352592
16	0x3ad1821a	0.0015984208
17	0xbc0f38c2	-0.008741559
18	0xbcb2140d	-0.021738077
19	0xbb625773	-0.0034536987
20	0x3b7b9340	0.0038387328
21	0x3bf17bda	0.0073695006
22	0xbc4a0af0	-0.012331709
23	0x3d175225	0.036943574
24	0x3c09d18f	0.008411779
25	0x3be3f373	0.0069565116
26	0x3c016cd7	0.007899485
27	0xbcb6c49d	-0.02231055
28	0x3c5c23c3	0.013436261
29	0xbcb1a86a	-0.021686751
30	0xbc80be50	-0.015715748
31	0xbca08d9f	-0.01959878
32	0xbc5ab6ea	-0.013349274
33	0x3c462ddd	0.012095896
34	0xbcb05180	-0.021523237
35	0x3c6f7fc0	0.01461786
36	0xbc3f0297	-0.011658332
37	0x3a765133	0.0009396255
38	0x3cbbf4fd	0.022943968
39	0xbc42bae0	-0.011885375
40	0x3c9bc238	0.01901351
41	0x3c86e305	0.016465673
42	0xbc2279ad	-0.009916705
43	0xbc60fc77	-0.013732067
44	0x3c86ab80	0.0164392
45	0x3c670467	0.014100171
46	0x3c472cba	0.01215666
47	0x3c2946aa	0.010331789
48	0xbb985267	-0.004648495
49	0xbc025a47	-0.007956094
50	0xb9b37267	-0.00034226777
51	0x3c7d7813	0.015470522
52	0xbb8884f3	-0.0041662394
53	0x3c0f4a97	0.008745811
54	0x3cb47ed8	0.02203314
55	0xbc944648	-0.018099919
56	0xbcbe9e22	-0.023268763
57	0xbc5e0737	-0.013551525
58	0x3bb1a400	0.0054211617
59	0x3bd099f3	0.0063660084
60	0xbbf4eff3	-0.0074748932
61	0x3a8394cd	0.0010038853
62	0xbc9fc44b	-0.01950278
63	0xbc48f5ed	-0.0122656645
64	0xbc736da7	-0.014857686
65	0x3c911745	0.017711291
66	0x3c833217	0.016015096
67	0x3c2d5950	0.010580376
68	0xbb66bc8d	-0.00352076
69	0x3c11530d	0.0088698985
70	0x3c8bbd6d	0.017058099
71	0x3c8a54df	0.016886173
72	0x3ce41a95	0.027844707
73	0xbbca9eab	-0.0061834655
74	0xbc80b5db	-0.015711715
75	0x3bb4386d	0.0054998905
76	0xbc44c537	-0.01200991
77	0x3c5c4027	0.0134430295
78	0x3cbe3f6b	0.0232236
79	0xbc806bca	-0.015676398
80	0xbc8d529d	-0.017251307
81	0x3c961b1c	0.018323474
82	0xbcc08958	-0.02350299
83	0xba62a7cd	-0.000864622
84	0x3b74cc5a	0.0037353248
85	0x3c0cbbfd	0.008589742
86	0xbcad5eb2	-0.021163318
87	0xbbddf60d	-0.0067737163
88	0x3c41aab5	0.011820485
89	0xbc3fa660	-0.011697382
90	0xbc56149a	-0.013066435
91	0xbc9af713	-0.018916642
92	0x3b8dc227	0.0043261233
93	0x3c8c8f0d	0.017158056
94	0xbca0e713	-0.019641435
95	0x3c81d78b	0.01584985
96	0x3c52d17d	0.012867329
97	0xbc0836c0	-0.008313835
98	0xbcdbb396	-0.026819032
99	0x3bb92281	0.005649865
100	0xbc3d1284	-0.011540059
101	0xbca572bc	-0.020196311
102	0xbbfb0813	-0.0076608746
103	0xbc5b4359	-0.013382756
104	0xbc5618f9	-0.013067477
105	0xbcfc4baa	-0.030797798
106	0xbcb1c0d4	-0.021698393
107	0x3c3459da	0.01100775
108	0xbc2be171	-0.010490761
109	0x392459fb	0.00015673779
110	0xbc4429ad	-0.011972827
111	0xbc6b645d	-0.01436719
112	0xbb8f339e	-0.004370167
113	0x3c847026	0.016166758
114	0x3c8244e2	0.015901987
115	0xbc49f792	-0.012327092
116	0x3bc636d6	0.0060490174
117	0xbc0b648e	-0.008507861
118	0x3abf4bab	0.0014594694
119	0x3bcd071b	0.0062569506
120	0xbbb083d3	-0.0053868084
121	0xbc8bd38d	-0.017068649
122	0xbb2d0a8d	-0.0026403994
123	0x3c1eac67	0.009684659
124	0x3c0d546a	0.008626083
125	0x3b094e66	0.002095127
126	0xbc31db6f	-0.01085554
127	0xbcd17f1d	-0.025573308
128	0xbb780d3d	-0.0037849688
129	0x3bfd10ac	0.0077229347
130	0xbc3073ee	-0.010769827
131	0x3aa02008	0.0012216577
132	0x3c457df6	0.012053957
133	0xb9e44b71	-0.00043543757
134	0xbbfb6cc6	-0.007672879
135	0x3bd67ee1	0.006545887
136	0x3b8f0984	0.004365148
137	0xbc7043ae	-0.014664574
138	0xbb9c9785	-0.0047788047
139	0xbc1ae1fc	-0.009453293
140	0x3c83bd4a	0.016081471
141	0xbc333d72	-0.010939943
142	0xbc3e8674	-0.011628736
143	0x3ba629a6	0.005070883
144	0xbc81598b	-0.015789768
145	0x3c03103d	0.007999477
146	0xbcbdc2fe	-0.023164269
147	0x3c1ceb1a	0.009577537
148	0x3c6892d3	0.014195162
149	0xbcb8610b	-0.022507211
150	0xbc6eb371	-0.014569149
151	0xbc3e322a	-0.01160864
152	0x3c3b1ffa	0.011421198
153	0x3caecea0	0.02133876
154	0x3cae0692	0.021243367
155	0xbbcdb073	-0.006277138
156	0x3caf9fe5	0.021438548
157	0xbcb19308	-0.021676555
158	0x3c667d47	0.014067954
159	0xbc022ca0	-0.00794521
160	0xbcabd2e3	-0.020974582
161	0xbc9bd4bd	-0.01902234
162	0x3c5a8ae7	0.013338781
163	0xbce82e0f	-0.028342275
164	0xbc974cca	-0.018469233
165	0x3c5e6957	0.01357492
166	0x3b61d2b3	0.0034457862
167	0x3bfc5127	0.007700104
168	0xbb802f00	-0.003911853
169	0xbba489fa	-0.005021331
170	0x3c25383b	0.010084207
171	0xbc4c62e3	-0.012474748
172	0x3c819b89	0.015821235
173	0xbcaaf11b	-0.020866921
174	0xbc7198bd	-0.014745888
175	0xbc67f32d	-0.014157099
176	0x3c056b90	0.008143321
177	0x3c1660dd	0.009178367
178	0xbcc0631e	-0.023484763
179	0x3c22e88b	0.009943138
180	0xbc828fcc	-0.015937708
181	0xba752467	-0.00093514327
182	0xbb806ee7	-0.0039194706
183	0x3ba89500	0.0051447153
184	0xbbfde5e7	-0.0077483538
185	0xbc9a2c24	-0.018819876
186	0xbcc49eab	-0.02400144
187	0xba83aa67	-0.0010045291
188	0xbc4b4c17	-0.012408278
189	0x3b166600	0.002294898
190	0x3c3b80a0	0.011444241
191	0x3b372f8d	0.0027951926
192	0xbbb468a7	-0.0055056396
193	0xbb5747d1	-0.0032849202
194	0xbc6cb497	-0.014447353
195	0xbcbe647d	-0.023241276
196	0x3b51cb8d	0.0032012195
197	0x3ca11a8d	0.01966598
198	0xbc36a7fd	-0.01114845
199	0x3c67a17d	0.014137623
200	0x3a5d5d00	0.0008444339
201	0xbc2a3df7	-0.01039075
202	0x3c0889d3	0.008333641
203	0x3b172cb3	0.0023067414
204	0xbc3de3ea	-0.0115899835
205	0x3cd51bd8	0.026014253
206	0xbc24e6ea	-0.01006482
207	0xbbc884c8	-0.0061193444
208	0x3c23256a	0.009957651
209	0x3ca93097	0.020653052
210	0xbaf8df1a	-0.0018987388
211	0xbbd03e20	-0.006355062
212	0x3bf49816	0.007464419
213	0x3c8beadc	0.017079763
214	0xbcb5b344	-0.022180207
215	0xbc4c615d	-0.012474385
216	0xbcae29ad	-0.021260107
217	0x3bb81b3a	0.00561848
218	0x3bb68273	0.00556975
219	0xbc83a488	-0.016069666
220	0x3bb1093d	0.0054027126
221	0xbb25abf1	-0.0025279487
222	0xbc3efb73	-0.01165663
223	0x3cacd775	0.021098832
224	0x3c65a4b3	0.014016318
225	0xbb04db8d	-0.0020272464
226	0x3b8d04d8	0.004303556
227	0xbc0f6360	-0.00875172
228	0xbc8a0188	-0.016846433
229	0x3cdfa58f	0.027300624
230	0xbc57826d	-0.0131536545
231	0x3cbc3680	0.022975206
232	0x3b295380	0.0025837123
233	0x3c7f30ed	0.01557563
234	0xbc63cf62	-0.013904424
235	0x3c7df223	0.015499624
236	0xbca0f3f7	-0.019647582
237	0xbbe57420	-0.0070023686
238	0xbbf67c6d	-0.007522157
239	0x3c879092	0.016548429
240	0xba09dc00	-0.0005258918
241	0x3bbe5647	0.005808625
242	0xbbf1dd87	-0.0073811444
243	0x3c14d633	0.009084272
244	0x3b359ae7	0.0027710737
245	0xbc66f247	-0.014095849
246	0xbbba8c1a	-0.005692971
247	0xbca71630	-0.020396322
248	0xbbb4bd40	-0.0055157244
249	0xbc828700	-0.015933514
250	0x3c9c999f	0.019116221
251	0xbc2826fa	-0.010263199
252	0x3bad1413	0.005281934
253	0xbb0d81cd	-0.002159226
254	0xbc988af2	-0.018620942
255	0xbb035ca7	-0.0020044239

critic_head.0.bias f4 [64]
0	0xbcacc20d	-0.021088624
1	0x3c8b907d	0.01703667
2	0xb92517b2	-0.00015744453
3	0xbbd53bb5	-0.006507362
4	0x3c869c3b	0.016431918
5	0xbcc8b69f	-0.024501143
6	0xbc944c0c	-0.018102668
7	0x3bf2e27d	0.0074122534
8	0x3cdf6a9a	0.027272511
9	0xbcb64a20	-0.022252142
10	0xbc5b389e	-0.013380198
11	0xbce3319d	-0.027733618
12	0x3c1d5058	0.009601675
13	0xbcd8f927	-0.026485993
14	0xbc966953	-0.01836077
15	0x3bc4623a	0.005993155
16	0xbc9ae225	-0.018906662
17	0xbc9e28e3	-0.019306606
18	0x3d281c86	0.041042827
19	0x3cc91326	0.024545263
20	0x3c06a2e7	0.00821755
21	0xbc0ad10a	-0.00847269
22	0xbc937882	-0.018001799
23	0x3c59a708	0.013284452
24	0x3bb6f33a	0.005583194
25	0xbc1cdab4	-0.009573627
26	0xbc2bc3f6	-0.010483732
27	0xbca10179	-0.019654023
28	0xbcb6ab91	-0.022298606
29	0xbcad7379	-0.021173226
30	0xbb8634d7	-0.0040956545
31	0xba4cc64b	-0.00078115304
32	0xbca8b85b	-0.02059572
33	0xbc225789	-0.009908565
34	0x3ae9d214	0.0017839097
35	0x3d0ad4c1	0.033894304
36	0x3c492b86	0.012278443
37	0xbb08771a	-0.0020822943
38	0x3c108755	0.008821328
39	0xbb328550	-0.0027240105
40	0x3c3975e5	0.011319612
41	0xbcf41926	-0.029797148
42	0x3cc40998	0.023930356
43	0xbd176879	-0.036964867
44	0xbced663e	-0.028979417
45	0x3c20f8c3	0.009824934
46	0x3d145ce3	0.036221396
47	0xbc9b43b7	-0.018953187
48	0x3b09d0d8	0.0021029022
49	0xbc5c177f	-0.013433336
50	0x3beb7a13	0.0071861832
51	0xbc3d22b1	-0.011543916
52	0x3c0d49be	0.008623539
53	0x3c39593f	0.011312782
54	0xbcdb7178	-0.026787505
55	0x3ccc09be	0.02490699
56	0xbb0a6777	-0.0021118799
57	0x3c8f090c	0.017460369
58	0x3cb1d4ec	0.021707974
59	0xbb89716b	-0.0041944287
60	0xbcb4b017	-0.022056622
61	0xbbcd177e	-0.006258904
62	0xbccc180e	-0.024913814
63	0xbc992430	-0.018694013

critic_head.2.weight f4 [1, 64]
0	0x3cb02c97	0.021505637
1	0x3dcbe4ee	0.09955774
2	0xbdc6267c	-0.09675309
3	0xbdba372a	-0.09092553
4	0x3caaf5e3	0.020869201
5	0xbb267745	-0.002540068
6	0xbd23363a	-0.039846636
7	0xbe07a814	-0.1324771
8	0x3d80ac01	0.06282807
9	0xbb880641	-0.004151136
10	0xbd9bf9f1	-0.07616032
11	0xbd39e13c	-0.045380816
12	0x3a054da5	0.00050851173
13	0xbce38bbc	-0.027776591
14	0xbc1ec018	-0.009689353
15	0xbd74c7fd	-0.059761036
16	0xbd9fe2f3	-0.07806959
17	0xbd85910e	-0.065218076
18	0x3d64a605	0.05582239
19	0x3d273036	0.040817462
20	0x3cf46033	0.029831028
21	0xbc305db3	-0.010764527
22	0x3d963cdc	0.07335827
23	0xbd481b2b	-0.048854034
24	0xbcf563f0	-0.02995488
25	0x3de6c5fc	0.11268231
26	0xbdba9388	-0.091101706
27	0x3cfb9040	0.030708432
28	0x3a1557da	0.000569699
29	0x3dc209ad	0.09474502
30	0xbc6cc1d6	-0.014450511
31	0xbdab45e4	-0.0836294
32	0xbc74d071	-0.014942274
33	0xbc44f7ad	-0.012021941
34	0x3b0bc012	0.00213242
35	0x3d353b17	0.044245806
36	0xbd29eb89	-0.04148439
37	0xbd27d908	-0.04097846
38	0xbdbcf1b9	-0.092257924
39	0xbccf04c5	-0.025270829
40	0xbd7b731a	-0.061389066
41	0x3cb64b96	0.022252839
42	0x3c803bd5	0.01565353
43	0xbd85762a	-0.06516679
44	0xbd4bdf75	-0.049773652
45	0xbcba4596	-0.02273826
46	0x3db3a788	0.087721884
47	0x3db100f3	0.08642759
48	0xbc1b5e2c	-0.009482902
49	0xb9e5d1cb	-0.00043834592
50	0xbd78bda1	-0.06072772
51	0x3d085946	0.033288263
52	0xbd35ed5a	-0.04441581
53	0x3d7f7f65	0.062377352
54	0xbd5a1838	-0.053245753
55	0x3d560186	0.052247547
56	0x3d2aa0ed	0.041657377
57	0x3d6acc64	0.05732383
58	0x3dca97f8	0.09892267
59	0x3d55fddf	0.052244063
60	0x3d7cfca1	0.061764363
61	0xbdbf2b16	-0.0933439
62	0xbc0c0859	-0.008546912
63	0x3cee27b8	0.029071674
