project_files/saved_models/ppo_policy_camera_cnn_whole_circle.pth (torch, 851205 bytes, 15 tensors)

cnn_base.0.weight f4 [16, 1, 3, 3]
0	0x3da19188	0.07889086
1	0xbc977528	-0.018488482
2	0xbe948f8e	-0.29015774
3	0xbe9cadc1	-0.30601314
4	0xbe895a02	-0.26826483
5	0xbea7fa1d	-0.3280801
6	0xbd575330	-0.05256957
7	0x3d8305fd	0.063976265
8	0x3d16458e	0.036687426
9	0x3e878a53	0.2647272
10	0x3d5abb8d	0.05340152
11	0xbda7ed26	-0.08199529
12	0x3e14e96f	0.14542173
13	0x3e5bcce9	0.21464886
14	0x3e7c21d0	0.24622273
15	0xbea4a89c	-0.3215989
16	0x3e894d0d	0.26816598
17	0xbe00d85b	-0.12582533
18	0xbe8b0aae	-0.27156585
19	0xbcfb6eca	-0.030692477
20	0xbe65d021	-0.22442676
21	0x3e2864cb	0.164447
22	0xbe812b7f	-0.25228497
23	0x3e9a829b	0.3017777
24	0xbdc372d2	-0.095433846
25	0x3e158094	0.1459983
26	0x3dab6543	0.083689235
27	0xbd902287	-0.070378356
28	0x3e74bf03	0.2390099
29	0xbdd9d4be	-0.106362805
30	0x3e7b5373	0.24543552
31	0x3d10be7b	0.035337906
32	0x3e117493	0.14204626
33	0x3e3ce1fe	0.18445584
34	0xbdd57e2c	-0.10424456
35	0xbe85fb7a	-0.26168424
36	0x3cd262c9	0.02568187
37	0xbdfcdc48	-0.12346703
38	0xbe814a8b	-0.25252184
39	0xbb776f10	-0.0037755407
40	0x3bdb4362	0.0066913823
41	0x3dcb67f2	0.09931935
42	0xbdfecf32	-0.12441863
43	0xbe1a3854	-0.1506055
44	0x3e9fc3f7	0.31204197
45	0x3e8fd66e	0.28093284
46	0xbe7585a3	-0.2397676
47	0x3e52ba8c	0.20578974
48	0x3bbbc8d2	0.0057307268
49	0x3ea7d412	0.32778984
50	0x3ea4912f	0.32142016
51	0x3aafe487	0.0013419547
52	0xbd99baab	-0.07506307
53	0x3e6e14f0	0.23250175
54	0x3e9d3fe7	0.30712816
55	0x3e9f1514	0.3107077
56	0x3e9a61b0	0.30152655
57	0x3dbb384f	0.091415994
58	0x3ea68c0e	0.32528728
59	0x3e33ebad	0.17570372
60	0x3d3359b6	0.043786727
61	0xbe9f7f97	-0.3115203
62	0xbe414887	-0.18875323
63	0x3e384a02	0.17996982
64	0x3d85c5b2	0.06531848
65	0x3e90aef8	0.2825849
66	0xbea2fe45	-0.31834617
67	0x3e95e2b8	0.29274535
68	0xbe77277e	-0.24136159
69	0x3e4f3a10	0.20236993
70	0x3ea5fd0c	0.32419622
71	0xbe829fe2	-0.25512606
72	0x3dd966ba	0.10615297
73	0x3e7ced3d	0.24699874
74	0xbd079370	-0.03309959
75	0xbe30704c	-0.17230338
76	0xbe77ddae	-0.24205658
77	0xbe9cf7d3	-0.30657825
78	0x3e1894ee	0.14900562
79	0x3d815e25	0.06316785
80	0x3c1389b6	0.009005001
81	0x3d1f8966	0.038949393
82	0x3dab5ba0	0.083670855
83	0x3d95f4ec	0.07322106
84	0xbea81544	-0.32828724
85	0xbd2866d5	-0.041113693
86	0x3e61d75a	0.22054806
87	0x3ea18c7d	0.31552497
88	0x3e272580	0.16322899
89	0x3ea584a4	0.3232776
90	0xbdf72ffe	-0.12069701
91	0x3dd3ff33	0.1035141
92	0x3c954637	0.018221958
93	0x3dbe76da	0.09300013
94	0x3e86bd8c	0.26316488
95	0x3e92a704	0.28643048
96	0xbdf9d697	-0.12199133
97	0xbe5641bd	-0.20923515
98	0xbe8fbfb0	-0.28075933
99	0x3df28048	0.11840874
100	0xbe57d7cc	-0.21078414
101	0xbe585fc5	-0.21130283
102	0x3dc1f3d2	0.09470333
103	0xbd84485e	-0.064591154
104	0xbe3bc474	-0.1833666
105	0x3e336638	0.17519462
106	0x3e5b3fcd	0.21411057
107	0xbd62547e	-0.05525636
108	0xbd9312b5	-0.071813025
109	0x3da4d9bf	0.08049344
110	0x3c8e7704	0.017390735
111	0xbe9d2754	-0.30694067
112	0xbe81d143	-0.25354967
113	0x3dcfaf5d	0.1014087
114	0xbd8ad57b	-0.067789994
115	0xbe7dfba1	-0.2480302
116	0xbdacd6e8	-0.084394276
117	0xbea770c3	-0.32703218
118	0xbe0c63cf	-0.13709949
119	0x3e886f0f	0.2664723
120	0xbe2ea647	-0.17055617
121	0xbd2f855f	-0.042851802
122	0x3e9f3817	0.3109748
123	0xbd9112e7	-0.070836835
124	0xbde58054	-0.11206117
125	0xbe305ba5	-0.1722246
126	0xbe54745b	-0.20747511
127	0x3dad8f79	0.08474631
128	0xbe382e37	-0.1798638
129	0xbe394729	-0.18093552
130	0xbdcedafc	-0.10100362
131	0x3d79e56d	0.061009813
132	0xbc30704b	-0.01076896
133	0x3e21c5ab	0.1579806
134	0xbea0806f	-0.31347987
135	0xbd345fb8	-0.044036597
136	0xbd241620	-0.040060163
137	0x3e83e9f0	0.25764418
138	0xbddbc6ae	-0.107312545
139	0x3e243bce	0.16038439
140	0x3e07141e	0.13191268
141	0xbd0cae17	-0.034345713
142	0x3e7e2520	0.2481885
143	0xbdb0aaaf	-0.08626305

cnn_base.0.bias f4 [16]
0	0xbdc83766	-0.097761914
1	0x3e99b5db	0.30021557
2	0x3ea1e64a	0.3162101
3	0xbe83eed2	-0.25768143
4	0x3d9520d2	0.072816506
5	0x3db35228	0.087559044
6	0x3e754f46	0.23956022
7	0xbd9437d4	-0.07237211
8	0xbc5af1bb	-0.013363297
9	0x3e6c8d96	0.23100886
10	0x3e8f233d	0.27956572
11	0xbe601e96	-0.21886668
12	0xbcde7b8e	-0.027158525
13	0xbe653ebf	-0.22387217
14	0xbe0ee0ee	-0.13952991
15	0x3ddefef0	0.10888469

cnn_base.3.weight f4 [32, 16, 3, 3]
0	0xbd95cd75	-0.073145784
1	0x3c869dbd	0.016432637
2	0xbda2cc58	-0.07949132
3	0xbcd9f392	-0.026605401
4	0xbd158df8	-0.036512345
5	0xbd5722cb	-0.052523416
6	0x3c0c21e5	0.008553003
7	0x3d348eba	0.044081427
8	0x3d918577	0.071055345
9	0x3d99b692	0.07505526
10	0xbb3335db	-0.0027345333
11	0x3d73b817	0.059501734
12	0xbd494af3	-0.049143743
13	0x3d233484	0.039845005
14	0xbcefb450	-0.029260784
15	0x3b56f047	0.0032797025
16	0x3cc3e95f	0.023914991
17	0x3cee3098	0.029075906
18	0xbd5653db	-0.052326065
19	0xbd806245	-0.062687434
20	0x3cf428de	0.029804643
21	0xbc15983d	-0.009130535
22	0xbcdcab7b	-0.026937237
23	0x3d03b83b	0.032158118
24	0x3bae3a10	0.00531698
25	0xbc119ba4	-0.008887205
26	0x3d11157d	0.035420883
27	0xbd3ce636	-0.046117984
28	0xbd613b79	-0.05498836
29	0xbb89c0fc	-0.0042039137
30	0xbda8a27a	-0.08234115
31	0x3d59b67c	0.053152546
32	0xbd11b454	-0.035572365
33	0xbd27aa8e	-0.040934138
34	0x3d8108ad	0.06300483
35	0x3d86dab3	0.06584682
36	0x3cdfdda9	0.027327375
37	0x3ceef401	0.029169085
38	0x3d045da5	0.03231587
39	0xbd409713	-0.047019076
40	0x3d7a18c8	0.06105879
41	0xbcf61a85	-0.030041942
42	0x3b49f4b1	0.0030816013
43	0x3950031e	0.00019837587
44	0x3cc961f8	0.024582848
45	0xbd9fc312	-0.078008786
46	0xbda145bb	-0.07874628
47	0xbc9c22ff	-0.019059656
48	0x3ac3d457	0.0014940602
49	0x3c9246ed	0.017856086
50	0xbc9fc26e	-0.019501891
51	0xbd1692c1	-0.03676105
52	0xbd4c0d81	-0.049817566
53	0xbd398b2c	-0.04529874
54	0x3c8144f5	0.015779952
55	0xbcacdb03	-0.021100527
56	0x3d841417	0.06449144
57	0x3d96c14d	0.07361088
58	0x3c61ffd9	0.013793909
59	0x3d8f8c0c	0.07009134
60	0x3ce18881	0.02753091
61	0x3d2a47e4	0.041572466
62	0x3d13b173	0.0360579
63	0xbd1eff20	-0.038817525
64	0x3d95ac4b	0.07308253
65	0xbd4ef83d	-0.050529707
66	0x3d4e46f3	0.05036063
67	0xbd37b5e8	-0.044851214
68	0x3da5175e	0.080610976
69	0xbd37e140	-0.04489255
70	0xbd809bf9	-0.062797494
71	0xbd9412c5	-0.072301425
72	0x3d97bf1f	0.074095
73	0xbdac5fe7	-0.084167294
74	0xbd40c599	-0.047063444
75	0x3d8d2c66	0.06893234
76	0x3c133d25	0.008986746
77	0x3b35bfd2	0.0027732742
78	0xbd92eeb7	-0.071744375
79	0x3d8b7ee7	0.06811314
80	0x3d13faca	0.036127843
81	0xbd253ea9	-0.04034296
82	0x3cab42dd	0.020905906
83	0x3d197020	0.037460446
84	0xbd936797	-0.071974926
85	0x3d7666ed	0.06015675
86	0x3c90c381	0.017671349
87	0x3c52aae7	0.012858129
88	0x3c7c8207	0.01541186
89	0xbd0bacdb	-0.034100395
90	0x3d18a673	0.037268113
91	0xbd56eda6	-0.052472733
92	0x3c9307ee	0.017948117
93	0x3d086587	0.03329995
94	0xbd9b0e70	-0.07571113
95	0x3d8e19b0	0.06938493
96	0xbd81b6ac	-0.0633367
97	0x3d1d782c	0.038444683
98	0xbd3e83ef	-0.04651254
99	0x3d934f1e	0.07192825
100	0xbd76c88a	-0.060249843
101	0xbd5bc544	-0.053654924
102	0xbd844310	-0.06458104
103	0xbd0ddc6a	-0.03463403
104	0xbd6020ac	-0.05471866
105	0x3d9e0dd4	0.07717481
106	0x3c2c98f2	0.010534512
107	0x3cb01de5	0.02149863
108	0x3d66841f	0.056278344
109	0x3d5b234d	0.053500462
110	0x3d79bece	0.06097298
111	0xbada0e1a	-0.0016636283
112	0x3da22b0e	0.07918368
113	0x3c9dc4ef	0.019258944
114	0xbcf94ada	-0.0304312
115	0x3d8fa54d	0.070139505
116	0xbd8b6052	-0.06805481
117	0x3c4bdaf6	0.012442341
118	0x3d215783	0.0393901
119	0xbcdec02c	-0.027191244
120	0x3d1b48eb	0.037911337
121	0x3cf43a59	0.029812979
122	0xbd45b809	-0.048271213
123	0x3da0520c	0.07828149
124	0x3c60a228	0.013710536
125	0xbc588cef	-0.013217195
126	0x3d3b18d9	0.045677993
127	0xbcefc6fa	-0.029269684
128	0x3c762330	0.015023038
129	0xbd24e00b	-0.040252727
130	0xbc15cf3d	-0.009143648
131	0x3d2b76b2	0.041861244
132	0x3c99b8bb	0.018764844
133	0x3c96a707	0.018390192
134	0xbd360e46	-0.044447206
135	0x3ba8321d	0.005132927
136	0x3d392835	0.04520436
137	0x3d621fd7	0.055206146
138	0x3d8bc1b0	0.06824052
139	0xbc94c695	-0.018161098
140	0xbd693ee4	-0.056944743
141	0x3d310324	0.043215886
142	0x3d1bbeeb	0.03802387
143	0xbd858f8f	-0.06521522
144	0xbcb08c40	-0.021551251
145	0xbd9f8f3a	-0.0779099
146	0xbd485795	-0.04891165
147	0xbd53be65	-0.051695246
148	0xbd8c6652	-0.068554536
149	0xbd5d6da1	-0.05405963
150	0x3d89c921	0.067278154
151	0x3d561e54	0.052275017
152	0xbd143349	-0.03618172
153	0xbd0b1f59	-0.033965442
154	0x3cac67b7	0.021045549
155	0xbd205eb5	-0.03915282
156	0xbbb80020	-0.0056152493
157	0x3d20d046	0.039261125
158	0x3d143b37	0.036189284
159	0x3d4a1ea0	0.049345613
160	0xbd27830f	-0.04089647
161	0x3c66f8ee	0.014097435
162	0xbb125361	-0.002232753
163	0x3c3f0914	0.011659879
164	0x3c9cef28	0.019157007
165	0x3d5396f3	0.05165763
166	0x3dad3c6e	0.08458792
167	0x3d15facd	0.036616135
168	0x3cf88908	0.03033878
169	0x3cfd94f5	0.030954817
170	0xbd04b12f	-0.032395538
171	0xbc2b1160	-0.010441154
172	0x3d488739	0.048957083
173	0x3da4b8e2	0.08043076
174	0xbd225708	-0.03963378
175	0xbd1310a1	-0.03590453
176	0x3c4ce8e0	0.012506694
177	0x3d67165c	0.056417808
178	0xbd34047d	-0.043949593
179	0xbd1fcdd1	-0.03901464
180	0x3c283ed4	0.010268886
181	0x3d597b53	0.053096127
182	0xbbd577d5	-0.006514529
183	0xbd86b615	-0.06577698
184	0x3c2bd1ec	0.010487061
185	0xbd7597b4	-0.05995913
186	0x3d6b3fd8	0.057433933
187	0xbca2901d	-0.01984411
188	0x3d9328b5	0.071854986
189	0x3ceac718	0.028659388
190	0xbd983d8a	-0.07433613
191	0x3d5f2246	0.054476045
192	0x3cbb014a	0.022827763
193	0xbda4500a	-0.08023079
194	0x3cb8a0fe	0.022537705
195	0x3c71c8c5	0.01475734
196	0xbc63ee25	-0.013911759
197	0x3ce56139	0.028000461
198	0x3c5de527	0.013543404
199	0xbd157cd3	-0.036495995
200	0xbd53eb49	-0.051738057
201	0xbb4c2c15	-0.0031154205
202	0x3cb9ac31	0.022665115
203	0xbd1d5f08	-0.038420707
204	0x3cf166f8	0.029468045
205	0xbba02d92	-0.004888245
206	0xbced7593	-0.028986728
207	0xbd9b01b1	-0.07568682
208	0x3d313942	0.043267496
209	0xbd3304f1	-0.043705884
210	0x3c030ff0	0.007999405
211	0xbc0ec176	-0.008713117
212	0xbb5c4d73	-0.00336155
213	0xbdaac378	-0.08338064
214	0xbd932770	-0.071852565
215	0x3dab939c	0.08377764
216	0xbd837091	-0.06417955
217	0xbda3c752	-0.07997002
218	0xbda00f15	-0.07815377
219	0xbd8a5861	-0.06755138
220	0xbd9f1140	-0.07766962
221	0xbd7b1ad9	-0.0613049
222	0xbd80c8d7	-0.06288307
223	0xbd311944	-0.043236986
224	0x3ccb1bea	0.024793584
225	0x3d410bce	0.0471304
226	0x3d465f67	0.048430827
227	0x3d5e36c0	0.054251432
228	0xbd86e226	-0.06586103
229	0x3ce55922	0.027996603
230	0xbd8f49eb	-0.069965206
231	0x3d83273d	0.064039685
232	0xbda76a21	-0.08174539
233	0x3d9325f0	0.071849704
234	0x3d41549a	0.047199823
235	0xbd15b1ec	-0.036546633
236	0xbb9b8a03	-0.004746677
237	0x3d0bf829	0.03417221
238	0xbd9a660c	-0.07538995
239	0xbd105726	-0.03523936
240	0xbd99dd25	-0.07512883
241	0x3d04cd62	0.03242243
242	0xb89d29d4	-7.4941345e-05
243	0xbaa621ef	-0.0012674908
244	0xbadc200b	-0.0016794218
245	0x3d26b4f6	0.04069992
246	0x3ca9fbca	0.020749945
247	0x3c8ae150	0.01695314
248	0x3be9311a	0.007116449
249	0x3d931143	0.07181027
250	0x3d7e7e54	0.062132195
251	0x3ca03b08	0.019559398
252	0x3d2e8a38	0.042612284
253	0xbd6e7f41	-0.058226828
254	0xbc6a51ec	-0.014301758
255	0x3d904bb0	0.07045686

cnn_base.3.bias f4 [32]
0	0xbcd425d8	-0.025896952
1	0xbda1dafe	-0.079030976
2	0xbd3eb7d5	-0.046562035
3	0x3cfca53e	0.030840512
4	0x3d8130c0	0.063081264
5	0xbd0f01c4	-0.034913793
6	0x3d8e6dc1	0.06954528
7	0xbd7e60be	-0.06210398
8	0xbd30a999	-0.04313049
9	0xbd8e2f73	-0.06942644
10	0xbc913481	-0.017725231
11	0x3d825151	0.06363166
12	0xbd8b6b64	-0.068075925
13	0x3a849e90	0.0010118056
14	0x3cc61dd6	0.024184149
15	0x3d9ab5ad	0.07554183
16	0xbcb763bb	-0.022386422
17	0x3cdf5588	0.027262464
18	0x3d52c757	0.051459637
19	0xbd5660d0	-0.05233842
20	0x3ce71f06	0.028213035
21	0xbce4735a	-0.027887035
22	0x3d21a1e4	0.03946103
23	0xbc0c47c3	-0.008562031
24	0x3c42206f	0.011848553
25	0x3ac5876f	0.001507027
26	0x3cdfbe8a	0.027312536
27	0x3c76d513	0.015065449
28	0xbd140b67	-0.036143687
29	0x3d7f96d2	0.062399693
30	0xbcc8b988	-0.02450253
31	0xbbda1769	-0.0066556227

mlp_base.0.weight f4 [32, 2]
0	0xbf05c3ac	-0.52251697
1	0xbdfd56f8	-0.123701036
2	0x3f2a464b	0.6651351
3	0xbe7cd38f	-0.24690078
4	0xbdbcef85	-0.09225372
5	0x3e462531	0.19350125
6	0xbcd2cb56	-0.025731724
7	0xbf0cfe6c	-0.55075717
8	0x3ef19e54	0.47191107
9	0xbe4c5b3b	-0.19956677
10	0xbe19658b	-0.14980142
11	0xbef3acf3	-0.47592887
12	0xbd898ece	-0.06716691
13	0xbdaabc89	-0.083367415
14	0x3ce743a5	0.028230498
15	0xbf1bc272	-0.60843575
16	0x3f158459	0.5840507
17	0xbeb00f46	-0.34386653
18	0xbeb355b0	-0.35026312
19	0xbd748811	-0.059700076
20	0xbea71adf	-0.3263769
21	0x3e8da707	0.27666494
22	0x3f18c832	0.59680474
23	0x3ea261e6	0.31715316
24	0x3e03147d	0.12800784
25	0x3e67bba5	0.22630174
26	0xbeec0847	-0.46100065
27	0x3f2e0cce	0.6798829
28	0x3f00e50a	0.50349486
29	0x3f2f5035	0.6848176
30	0x3e93f5a7	0.28898355
31	0xbeef6560	-0.4675703
32	0x3c8e85f7	0.017397864
33	0xbecc4fa5	-0.39904514
34	0xbf2beb44	-0.6715586
35	0xbed994b2	-0.42496258
36	0x3e9b4c04	0.30331433
37	0x3f08e2dc	0.5347116
38	0x3e9f297a	0.31086332
39	0x3f0ffd78	0.5624614
40	0xbe320fcd	-0.1738884
41	0xbf1c3605	-0.6101993
42	0xbecf0076	-0.4043004
43	0x3e2685e3	0.16262011
44	0x3ec551e4	0.3853904
45	0xbeb2b209	-0.34901455
46	0x3f29a751	0.6627093
47	0xbd0c87fb	-0.03430937
48	0xbe19d649	-0.1502315
49	0x3f270e97	0.6525664
50	0x3ec65bfb	0.3874205
51	0x3ecbfa3b	0.39839348
52	0x3e8aef0c	0.27135503
53	0x3e84160b	0.25798067
54	0xbf32b181	-0.698021
55	0xbeba3f11	-0.3637624
56	0xbefca385	-0.49343506
57	0xbed0116a	-0.40638286
58	0x3eeacd24	0.45859635
59	0xbe87836e	-0.2646746
60	0xbd98daf9	-0.07463641
61	0xbf324c3a	-0.6964756
62	0x3f07ffa6	0.53124464
63	0xbe13d90d	-0.14438267

mlp_base.0.bias f4 [32]
0	0xbee8bf41	-0.45458415
1	0xbe21e40e	-0.15809652
2	0x3f0e1e94	0.5551541
3	0xbeb75331	-0.35805658
4	0xbeb90a3b	-0.36140618
5	0x3da3a235	0.07989923
6	0xbc7d7352	-0.015469389
7	0x3f11fcea	0.5702654
8	0xbb98ee68	-0.004667092
9	0xbf263948	-0.64931154
10	0x3f2dad2d	0.6784237
11	0xbf0f7040	-0.56030655
12	0xbeba2297	-0.36354515
13	0x3f1b7530	0.6072569
14	0xbea967b9	-0.33086947
15	0x3eedbbaa	0.4643224
16	0x3e20a3f1	0.15687539
17	0x3e4fc533	0.2029007
18	0xbf2c80ed	-0.67384225
19	0xbe8bc3b0	-0.27297735
20	0x3ead7a8e	0.33882564
21	0xbf1eb62e	-0.61996734
22	0xbe194b5b	-0.14970152
23	0x3f15f97f	0.58583826
24	0xbe7582e9	-0.2397572
25	0xbe74df2d	-0.2391326
26	0x3e1bbf0f	0.15209602
27	0xbe4db6e8	-0.20089304
28	0xbed24ba7	-0.41073343
29	0xbe997171	-0.2996936
30	0xbf0538af	-0.5203962
31	0xbeb8ba65	-0.36079708

mlp_base.2.weight f4 [32, 32]
0	0x3e1685cf	0.14699481
1	0xbe06ff84	-0.13183409
2	0xbd620d6e	-0.05518859
3	0x3e00c251	0.12574126
4	0xbe2f0101	-0.17090227
5	0xbd5f96e6	-0.054587267
6	0x3e18ee0a	0.14934555
7	0x3bcc86dc	0.0062416624
8	0xbe0634cf	-0.13106082
9	0x3d0a11d2	0.0337084
10	0x3d8bde7c	0.06829545
11	0x3d8e4628	0.06946975
12	0x3e150e0a	0.14556137
13	0x3d5ee94b	0.054421704
14	0x3d9bc708	0.076063216
15	0x3d671dc6	0.05642488
16	0x3d8352d2	0.06412281
17	0x3d133f5f	0.035949107
18	0xbda1eebe	-0.079068646
19	0x3d7ead84	0.062177196
20	0x3e04bb46	0.12962064
21	0xbde46b2a	-0.111532524
22	0x3c354b7b	0.011065359
23	0xbe02e4fc	-0.12782663
24	0x3e24f3bb	0.16108601
25	0x3d9065d0	0.07050669
26	0xbd69abb2	-0.057048507
27	0xbe0d6e29	-0.13811554
28	0x3df721ee	0.120670184
29	0xbd9322c3	-0.07184365
30	0x3e0df4a1	0.1386285
31	0x3e1d526c	0.15363473
32	0xbdc5f4db	-0.09665843
33	0xbdd1f7f1	-0.10252369
34	0xbcc6f084	-0.024284609
35	0x3b139b27	0.0022522898
36	0xbbd3ef88	-0.0064677633
37	0x3e0dd100	0.13849258
38	0x3dadfae0	0.08495116
39	0x3e151333	0.14558105
40	0x3d923070	0.07138145
41	0xbd2976f3	-0.041373204
42	0x3d605158	0.054765075
43	0x3db89818	0.090133846
44	0xbd3945dc	-0.04523264
45	0x3da13693	0.07871737
46	0xbdd3c688	-0.10340601
47	0xbd6dc1f3	-0.058046293
48	0xbd3fdec5	-0.04684331
49	0x3e13bc98	0.14427412
50	0xbe199f02	-0.15002063
51	0x3dfd1f97	0.12359541
52	0xbc8369d9	-0.016041683
53	0x3d1d5313	0.038409304
54	0xbe2a740b	-0.1664583
55	0xbda2c6ac	-0.0794805
56	0x3cffb3c5	0.03121365
57	0xbe148d2a	-0.14506975
58	0x3dfbafee	0.12289415
59	0x3ce9fa24	0.02856166
60	0x3df9735d	0.12180207
61	0xbbdb73b7	-0.006697144
62	0x3cf86c83	0.03032518
63	0xbe1190c4	-0.1421538
64	0xbd2374c0	-0.039906263
65	0xbdbc1980	-0.09184551
66	0x3dd56dec	0.104213566
67	0x3dc26b6e	0.09493147
68	0x3cb7b286	0.022423994
69	0x3ca098a5	0.019604037
70	0xbe0c23ed	-0.1368558
71	0x3e1b0489	0.15138449
72	0x3e161197	0.14655147
73	0xbe3339c1	-0.175025
74	0x3dd24352	0.102667466
75	0xbdcbdf92	-0.09954752
76	0x3e00cd9f	0.12578438
77	0x3de2d6f3	0.110761546
78	0x3dc4ebcf	0.096152894
79	0x3bb6ba49	0.005576406
80	0xbd9adf96	-0.07562177
81	0xbd08e667	-0.033422854
82	0xbd2b35e7	-0.041799452
83	0x3e1f3d37	0.15550695
84	0xbd769d62	-0.060208686
85	0x3e1f5465	0.15559538
86	0xbdb5b922	-0.08873202
87	0x3c10dde5	0.008841966
88	0xbd7b6001	-0.061370853
89	0x3c962e6a	0.018332679
90	0x3e3167ac	0.17324704
91	0xbe0e2b88	-0.13883793
92	0xbe04f5dd	-0.12984414
93	0x3da40a98	0.08009833
94	0x3e2e35d0	0.17012715
95	0xbdf5ecca	-0.120080546
96	0x3c5313d1	0.012883143
97	0x3d307782	0.04308272
98	0xbd138b5d	-0.03602158
99	0x3d394d67	0.045239832
100	0x3e0b46d4	0.13601238
101	0x3e16ee98	0.14739454
102	0x3dde2ada	0.10848017
103	0xbd3e09b1	-0.04639596
104	0xbe0b0ef8	-0.13579929
105	0xbd956eb6	-0.07296507
106	0x3c377f01	0.011199714
107	0xbdaf228b	-0.085515104
108	0x3d8aeecf	0.067838304
109	0xbc102083	-0.008796814
110	0xbd9fe800	-0.07807922
111	0xbe031bff	-0.12803648
112	0x3d95671a	0.07295056
113	0x3e0767af	0.13223146
114	0x3de14835	0.110001005
115	0x3e209a05	0.15683754
116	0x3e131380	0.14362907
117	0x3e1d0d4c	0.15337104
118	0xbc6d2399	-0.014473819
119	0xbe0dbc36	-0.13841328
120	0xbd968e6a	-0.07351382
121	0xbb2d733e	-0.0026466395
122	0xbd9bdc9d	-0.07610438
123	0x3d1a8310	0.037722647
124	0x3c9bd1f7	0.019021017
125	0x3dff06e6	0.12452488
126	0x3e21d9ff	0.15805815
127	0xbb56f575	-0.0032800112
128	0x3de591a0	0.112094164
129	0x3c6202e4	0.0137946345
130	0xbce15b3f	-0.02750933
131	0x3e2ee26e	0.17078564
132	0x3e0ed49b	0.1394829
133	0xbd376c6f	-0.044781145
134	0xbd82c5d0	-0.06385386
135	0x3d8e999a	0.06962891
136	0x3ddc6cd8	0.10762948
137	0xbe0bd191	-0.13654162
138	0xbc750e86	-0.014957076
139	0xbd5067c1	-0.050880197
140	0xbcec555f	-0.028849302
141	0xbe0087ff	-0.12551878
142	0xbe00c9ee	-0.1257703
143	0xbdf45167	-0.11929589
144	0x3ddd9d38	0.10821003
145	0x3df66b4a	0.120321825
146	0x3df3eb82	0.11910154
147	0x3e0cc151	0.1374562
148	0x3e23c586	0.15993318
149	0x3e2709ff	0.16312407
150	0xbc7fb12c	-0.015606206
151	0xbcae9136	-0.021309476
152	0x3ac338c6	0.0014894239
153	0x3e1bbb1d	0.15208097
154	0xbdb60562	-0.088877454
155	0x3d5e5e67	0.054289248
156	0x3da2ee9a	0.07955666
157	0x3e17b224	0.14814049
158	0x3cc6dc56	0.024274986
159	0x3e1fbc59	0.15599193
160	0x3da63d1f	0.08117127
161	0xbe2dfe64	-0.16991574
162	0xbe2bbf9d	-0.16772313
163	0x3cfdd969	0.030987458
164	0xbd86961c	-0.065716
165	0x3e264f4f	0.16241191
166	0x3e18ef25	0.14934976
167	0x3e2f1b09	0.17100157
168	0xbc4a1969	-0.01233516
169	0xbd85982b	-0.06523164
170	0xbbc6cb2e	-0.0060667014
171	0xbdcf0fb2	-0.101104155
172	0x3e0bfa36	0.13669667
173	0xbdd59faf	-0.10430848
174	0xbd8a5af5	-0.0675563
175	0x3d6147ac	0.054999992
176	0x3d8b78f0	0.06810176
177	0xbe129f62	-0.14318612
178	0xbe1afe41	-0.15136053
179	0x3cb2f7a8	0.021846607
180	0xbd058c75	-0.032604653
181	0x3c9f0313	0.019410646
182	0xbdc1d60c	-0.09464654
183	0xbe1935e9	-0.14961971
184	0x3e04fdc7	0.12987433
185	0xbe2bf52b	-0.16792743
186	0xbe205268	-0.15656435
187	0xbe2a4e25	-0.16631372
188	0x3b7972d0	0.0038062818
189	0x3d96c235	0.07361261
190	0xbe14ee23	-0.14543967
191	0x3e1c0e3b	0.15239803
192	0xbdb1b283	-0.086766265
193	0x3dddb5ef	0.10825717
194	0xbd0b0836	-0.033943377
195	0x3de49485	0.1116114
196	0x3e27e7c3	0.16397004
197	0x3d11f198	0.035630792
198	0x3d41191c	0.047143087
199	0x3c828f69	0.015937524
200	0x3db82533	0.0899147
201	0x3de9da6b	0.11418613
202	0xbe013470	-0.1261766
203	0x3e38f98b	0.18063943
204	0xbdbd592a	-0.09245522
205	0x3db347f8	0.08753961
206	0xbe07827f	-0.13233374
207	0x3e09e622	0.13466695
208	0x3d194c5f	0.03742635
209	0xbdcef7f5	-0.10105888
210	0x3dfb45a8	0.12269145
211	0xbd171553	-0.03688557
212	0xbe1a4135	-0.15063937
213	0x3e275d4b	0.16344182
214	0x3d2c6c7a	0.04209564
215	0x3a801b80	0.0009773821
216	0xbe322077	-0.17395197
217	0xbe0e6de6	-0.1390911
218	0x3d8feeda	0.07027979
219	0x3d7a62a0	0.061129212
220	0xbcbde416	-0.023180049
221	0x3db3ac9a	0.087731555
222	0x3d969252	0.07352127
223	0x3c72aaf7	0.014811269
224	0xbd715efc	-0.058928475
225	0x3ddc07af	0.10743653
226	0xbe2e87c1	-0.17043974
227	0x3e190f28	0.14947188
228	0x3c6aeeb3	0.014339137
229	0xbe21855b	-0.15773527
230	0x3e275641	0.16341497
231	0xbd272ae2	-0.04081238
232	0x3d8b3456	0.06797092
233	0xbc3ec521	-0.011643679
234	0xbcc52c7d	-0.024069065
235	0xbe18cddf	-0.14922284
236	0xbde22713	-0.11042609
237	0xbdbf3c6e	-0.09337698
238	0x3c93bef1	0.018035384
239	0xbe29b508	-0.16572964
240	0xbb0281b7	-0.0019913742
241	0x3d90fa83	0.07079031
242	0x3d8c7f00	0.06860161
243	0xbb536fcd	-0.0032262683
244	0x3d3cbe08	0.046079665
245	0x3e1e362f	0.15450357
246	0xbd318298	-0.043337435
247	0xbe14dcfc	-0.14537424
248	0x3e2c59e3	0.16831164
249	0xbdc7517d	-0.097323395
250	0xbd22a74f	-0.03971034
251	0x3d20c29e	0.0392481
252	0xbdc2d766	-0.0951374
253	0xbe17f638	-0.14840019
254	0xbe02db61	-0.12778999
255	0x3dbb5880	0.091477394

mlp_base.2.bias f4 [32]
0	0xbccbc215	-0.024872819
1	0xbd1dfb3a	-0.038569666
2	0xbd010252	-0.031496353
3	0x3d4b2c7e	0.049602978
4	0x3de55e57	0.111996345
5	0xbdf837e8	-0.12120038
6	0x3d331953	0.043725323
7	0x3db59a04	0.08867267
8	0xbe21b914	-0.15793258
9	0xbc07405c	-0.008255091
10	0x3d5f70fe	0.054551117
11	0x3e3475ac	0.17623013
12	0x3e0cbe7b	0.13744538
13	0xbd51b45c	-0.051197395
14	0x3c14c03e	0.009079037
15	0xbd54ef21	-0.051985864
16	0xbe19cabf	-0.15018748
17	0x3d92b36f	0.071631305
18	0x3d365ee1	0.044524077
19	0xbd35f6d8	-0.04442486
20	0x3e0945f5	0.13405593
21	0xbdcc0780	-0.09962368
22	0xbdd743a0	-0.10510945
23	0xbdea82f4	-0.114507586
24	0xbe2d7fea	-0.16943327
25	0xbca1be0e	-0.019743945
26	0x3d5b04e1	0.05347145
27	0x3c3a385f	0.011365979
28	0xbe1bf7d4	-0.15231258
29	0xbde8263f	-0.1133542
30	0x3ca8ae7d	0.020591015
31	0x3dc490db	0.095979415

actor_head.0.weight f4 [64, 1600]
0	0xbb8cbad4	-0.0042947326
1	0xbc9f0908	-0.019413486
2	0x3cc0b626	0.023524355
3	0x3a39e478	0.00070912344
4	0xbc196499	-0.009362363
5	0xbcb9639f	-0.02263051
6	0xbc674857	-0.014116368
7	0x3c6afd3a	0.0143426005
8	0x3beaec0d	0.0071692527
9	0xbc2bea3b	-0.010492857
10	0x3c12acfb	0.008952375
11	0x3c4fa996	0.01267471
12	0x3ca44306	0.02005149
13	0xbcb87e35	-0.022521118
14	0x3ba8af60	0.0051478595
15	0xbb92d1de	-0.0044805845
16	0x3c91651d	0.01774841
17	0x3c375aaf	0.011191054
18	0xbc5b0cb4	-0.013369728
19	0x3c76fe00	0.015075207
20	0xbc48d65e	-0.01225814
21	0xbbb2b3b7	-0.0054535526
22	0xbb02c488	-0.0019953568
23	0x3bee3720	0.007269755
24	0xbbdec52e	-0.006798408
25	0x3c59f228	0.013302363
26	0x3c1e4644	0.009660307
27	0x3c8a8a1d	0.01691156
28	0xbc894c0c	-0.016759895
29	0xbc8033c5	-0.015649686
30	0xbc00094f	-0.007814719
31	0xbc5fa2a2	-0.0136496145
32	0x3a2313e3	0.000622092
33	0xbba34516	-0.004982601
34	0xbb908b21	-0.0044111167
35	0xbb010391	-0.0019685964
36	0xbc365bc3	-0.011130276
37	0xbade4742	-0.0016958492
38	0x3b43f8d2	0.0029902947
39	0xbb1f846c	-0.0024340404
40	0xbbb45bf5	-0.005504126
41	0xbc48ba77	-0.012251488
42	0x3c8b0e3e	0.016974565
43	0x3bd0e90b	0.006375437
44	0x3c9ef57f	0.019404171
45	0xbc1728ab	-0.009226005
46	0xbc3eb2c0	-0.011639297
47	0xbc975dde	-0.018477377
48	0xbc3b59af	-0.011434956
49	0x3bf9a37d	0.0076183663
50	0x3bf97e20	0.007613912
51	0xbc214c9e	-0.009844927
52	0x3b5fff46	0.0034179254
53	0xbc54bc49	-0.012984344
54	0x3c8fd816	0.017559092
55	0x3cc0aa50	0.023518711
56	0xbcc70305	-0.024293432
57	0x3b8929a9	0.0041858745
58	0xbb3b510e	-0.0028582248
59	0x3c9a94e4	0.018869825
60	0xbc4208b0	-0.011842892
61	0xbc3393b6	-0.01096051
62	0xbbdf7997	-0.0068199146
63	0x3c4e6ce1	0.012599201
64	0x3c872dbf	0.016501306
65	0xbc621df1	-0.013801084
66	0xbcb77e2e	-0.022399034
67	0xbc31dd58	-0.010855995
68	0xbc1c11bb	-0.009525712
69	0xbc98ace9	-0.018637137
70	0x3c18d740	0.009328663
71	0xbc9aeb55	-0.018911043
72	0xbad2303c	-0.0016036103
73	0x3bac8816	0.005265246
74	0x3c3bd401	0.01146412
75	0x3bfee93c	0.0077792685
76	0xbb543744	-0.0032381574
77	0xbcf5adce	-0.029990103
78	0x3c2c2006	0.010505682
79	0x3ca41491	0.020029338
80	0x3c101f73	0.008796561
81	0x3cb5ab2b	0.022176346
82	0xbc5affd3	-0.013366657
83	0x3bc5d505	0.006037357
84	0xbcf6681b	-0.030078938
85	0x3aa9e314	0.0012961351
86	0x3ca60bd7	0.020269318
87	0x3ab70eb7	0.0013966177
88	0xbcaa8d98	-0.02081947
89	0x3c8fe302	0.0175643
90	0x3bd7d42f	0.0065865736
91	0xbba58e8b	-0.005052393
92	0xbcacb303	-0.021081453
93	0xbc42c9f4	-0.01188897
94	0xbc573227	-0.013134516
95	0xbc04c52d	-0.008103651
96	0xbcbf51e4	-0.023354478
97	0x3b8d6bd0	0.0043158308
98	0xbcc3d075	-0.023903111
99	0x3c4875c3	0.012235108
100	0x3c829f62	0.01594514
101	0x3ca69040	0.020332456
102	0x3c16f997	0.00921478
103	0xbc32e07a	-0.010917777
104	0x3becda1a	0.007228148
105	0xba607933	-0.0008562982
106	0xbb87343a	-0.004126099
107	0xbbad4ae7	-0.00528847
108	0xbc7e90b1	-0.015537427
109	0xbc99a4cc	-0.01875534
110	0xbc44f56a	-0.012021402
111	0x3b944733	0.004525089
112	0x3c253fd7	0.010086021
113	0x3c928737	0.017886741
114	0x3c554ba0	0.013018519
115	0xbccec3be	-0.025239822
116	0x3c40498a	0.011736283
117	0xbc135040	-0.008991301
118	0xbc17ea57	-0.00927218
119	0x3bcec3b3	0.0063099503
120	0xbc3828a7	-0.011240161
121	0xbc829bea	-0.015943486
122	0x3ca02d18	0.019552752
123	0x3be8ebd1	0.0071081896
124	0xbcad37f7	-0.02114485
125	0xbc2f0483	-0.010682228
126	0x3ae31033	0.0017323553
127	0x3bad9d57	0.0052982974
128	0xbcc0256f	-0.02345535
129	0x3c166a1b	0.009180571
130	0xbc63ba2c	-0.013899367
131	0xb99b2b33	-0.0002959609
132	0x3ad0b99a	0.0015924454
133	0x3c62723d	0.013821182
134	0xbc05f5e3	-0.0081763
135	0xbc817c4a	-0.015806336
136	0x3c6f4a35	0.014605095
137	0x3c1c52da	0.009541238
138	0xbcc5b562	-0.024134342
139	0xb8d75000	-0.000102669
140	0x3c60e4c3	0.013726416
141	0xbb7e649a	-0.0038817287
142	0xbbb61ec9	-0.005557869
143	0xbc1eca00	-0.009691715
144	0xbc11dba0	-0.00890246
145	0xbca63202	-0.020287517
146	0x3b500327	0.003174016
147	0xbc6fb2ad	-0.014630002
148	0xbc508bbf	-0.012728631
149	0xbc8d02f3	-0.01721332
150	0xbbace017	-0.005275737
151	0x3c68f718	0.014219068
152	0xbca4b5d0	-0.020106226
153	0x3c46706b	0.0121117635
154	0x3c588c07	0.013216979
155	0xbc85a928	-0.016316012
156	0xbc20251d	-0.0097744735
157	0xbca7b971	-0.020474168
158	0xbbc15c72	-0.005900913
159	0x3ca4feab	0.020140966
160	0x3c29a6cc	0.010354709
161	0x38ad1397	8.252932e-05
162	0xbbd5252f	-0.006504677
163	0xbc66c568	-0.014085151
164	0xbc3d42fe	-0.011551617
165	0x3c9b4624	0.018954344
166	0x3b896151	0.004192509
167	0xbc889532	-0.016672704
168	0x3c904ec8	0.01761569
169	0xbb990b65	-0.004670548
170	0x3b5448f4	0.0032392116
171	0x3bd56a03	0.0065128817
172	0x39d9ed9c	0.00041566498
173	0x3c976c58	0.01848428
174	0x3cb13369	0.02163096
175	0xbaee9332	-0.0018201827
176	0xbaa83def	-0.001283584
177	0xbcbdce21	-0.023169579
178	0xbc9a4fe1	-0.018836917
179	0x3d02e220	0.03195393
180	0x3c94ddd1	0.018172177
181	0xbca662bc	-0.020310752
182	0xbc8981d6	-0.016785543
183	0xbc1c7e93	-0.009551662
184	0xbb63c3b5	-0.0034754102
185	0x3af51057	0.0018696886
186	0x3c4c9713	0.012487191
187	0x3c9020d1	0.017593773
188	0x3ca0b35d	0.019616777
189	0x3c3b4070	0.011428937
190	0xbb288b72	-0.0025717882
191	0xbb8e060b	-0.0043342165
192	0x3bc54ace	0.0060208803
193	0x3957ea18	0.00020591205
194	0xbc9c64db	-0.01909106
195	0x3c228149	0.009918519
196	0x3c8bf14e	0.017082836
197	0xbba9fdbf	-0.0051877196
198	0xbb40b96a	-0.002940739
199	0x3c0a0471	0.0084239105
200	0x3ccb5e68	0.02482529
201	0xbbb720b1	-0.005588614
202	0xbcb98b58	-0.022649452
203	0x3ca4ef9b	0.020133784
204	0xbcc412a4	-0.02393467
205	0xbc7ed137	-0.01555281
206	0x3c578d26	0.013156211
207	0x3c991496	0.018686574
208	0x3c5d2edc	0.013499942
209	0xbb6beac2	-0.003599808
210	0xbbfa776d	-0.007643631
211	0x3c5db47b	0.013531799
212	0xbc119df4	-0.008887757
213	0x3bb047d0	0.0053796545
214	0x3b2a39dd	0.002597443
215	0x3ca688cf	0.020328907
216	0x3c8f40b3	0.017486906
217	0x3ac48d60	0.0014995746
218	0xbaf05054	-0.0018334487
219	0x3c9c3a2c	0.019070707
220	0xbc8ce05b	-0.017196825
221	0x3be239b5	0.006903852
222	0x3c2c7a3c	0.01052719
223	0xbbfc7f8c	-0.0077056345
224	0x3c37d708	0.011220701
225	0x3cb4cf19	0.022071408
226	0xbcc44bf3	-0.023961997
227	0x3be32070	0.006931357
228	0x3c2d5249	0.0105787
229	0x3c0375c7	0.008023686
230	0x3c590f57	0.013248286
231	0x3c8a01f5	0.016846636
232	0x3c9e6e30	0.01933965
233	0x3c6c94d7	0.014439783
234	0x3ca151cc	0.019692324
235	0xbb4a3adf	-0.0030857844
236	0x3b62fd5b	0.0034635875
237	0x3c129271	0.008946047
238	0x3c2a0d53	0.010379153
239	0xbc1f1e12	-0.009711759
240	0xbcbd0785	-0.023074875
241	0xbc315737	-0.010824016
242	0xbcaeb4c9	-0.02132644
243	0xbb96eaf1	-0.004605644
244	0x3b9194cf	0.004442788
245	0xbc356323	-0.011070999
246	0xbc389cf0	-0.011267886
247	0xbcc4c299	-0.024018573
248	0xbc9a7b21	-0.01885754
249	0xbc9ae3b4	-0.018907405
250	0xbbf9642d	-0.007610819
251	0x3c9b3148	0.018944398
252	0xbbb15202	-0.0054113874
253	0xbc4d076a	-0.012513975
254	0x3c347fc1	0.011016787
255	0x3ca3cf20	0.019996226

actor_head.0.bias f4 [64]
0	0xbc0e6a63	-0.008692357
1	0x3c27d194	0.010242838
2	0xbc008d81	-0.007846237
3	0xbbec5bee	-0.0072131073
4	0x3c3325b2	0.01093428
5	0x3cb5e348	0.022203103
6	0xbc90851b	-0.017641595
7	0x39fda886	0.0004838148
8	0x3ca9b21f	0.020714818
9	0xbbf91f7f	-0.0076026316
10	0x3c7fa8c2	0.0156042
11	0xbcbec4d6	-0.023287218
12	0x3cab4ca4	0.020910569
13	0x3b933327	0.004492182
14	0x3c72d990	0.014822379
15	0xbce64b7b	-0.028112164
16	0xbc5dc866	-0.013536548
17	0xbc6c13f7	-0.014409057
18	0xbc5bc6b3	-0.013414073
19	0xbbba2231	-0.0056803455
20	0x3a26bb02	0.0006360264
21	0x3c1fb2b4	0.009747196
22	0xbcd64689	-0.02615668
23	0x3c1c5fd4	0.009544332
24	0xbc768249	-0.015045711
25	0x3bd3e580	0.0064665675
26	0x3c079838	0.008276038
27	0xbca2de85	-0.019881496
28	0xbbc222ba	-0.00592455
29	0xba81eb99	-0.0009912133
30	0xbb2b266a	-0.0026115426
31	0xbb90c36d	-0.004417828
32	0x3c66c93f	0.014086067
33	0xbc9d640a	-0.019212741
34	0x3c539054	0.0129128285
35	0xbc36a8a7	-0.011148608
36	0xbb85422b	-0.0040667257
37	0x3c6e95b4	0.014562059
38	0x3c5059ed	0.0127167525
39	0xbbefe9a0	-0.0073215514
40	0xbc33e211	-0.010979191
41	0x3ccde2a2	0.025132481
42	0x3c816532	0.015795324
43	0x3ccf3abf	0.025296567
44	0xbcc69831	-0.024242492
45	0x39c7f710	0.00038140314
46	0x3c3d53d1	0.011555628
47	0xbc8341d2	-0.016022597
48	0x3c0fabf4	0.008769024
49	0xba424604	-0.0007410946
50	0x3cdd2e93	0.026999747
51	0xbb1f765c	-0.0024332022
52	0x3c9ce1cc	0.019150637
53	0x3cb7ba9d	0.022427851
54	0xbcb6bad7	-0.022305889
55	0xbc6b224e	-0.014351441
56	0xbcc1a893	-0.023639953
57	0x385e3e83	5.2987143e-05
58	0x3c85b355	0.016320864
59	0x3c927a61	0.01788062
60	0x3c36bb22	0.011153014
61	0xbcb1669a	-0.02165537
62	0xbb5d2e37	-0.003374947
63	0x3bee9279	0.0072806445

actor_head.2.weight f4 [2, 64]
0	0xbb0e02ed	-0.0021669224
1	0x3d39583f	0.045250174
2	0x3d57b345	0.0526612
3	0xbd26dcbd	-0.040737856
4	0xbc30a42a	-0.010781327
5	0x3bdffb52	0.0068353796
6	0x3cec329e	0.02883273
7	0x3ca9be38	0.020720586
8	0x3d6aadd3	0.057294678
9	0x3de24a19	0.11049289
10	0xbd4fb7d1	-0.05071241
11	0x3dfec559	0.12439985
12	0x3c0cc0e9	0.008590915
13	0x3cec6310	0.02885583
14	0xbd9d579f	-0.07682728
15	0x3df40a44	0.119160205
16	0xbd83d6ae	-0.06437431
17	0x3d183c89	0.037167106
18	0x3dbe7f7b	0.09301659
19	0x3d85686c	0.065140575
20	0xbd0d52ce	-0.034502797
21	0x3dcf7811	0.10130323
22	0xbcbcde13	-0.023055112
23	0xbbdcf18a	-0.006742661
24	0x3e012981	0.12613489
25	0xbe01f77e	-0.12692067
26	0xbce4ce37	-0.027930362
27	0x3cb1371d	0.021632725
28	0x3cf8592c	0.030315958
29	0xbd23df72	-0.040008016
30	0x3dc14f83	0.09438994
31	0x3cc26537	0.023729904
32	0x3d14b0e2	0.0363015
33	0xbdc4c2a5	-0.09607438
34	0x3bccb086	0.006246629
35	0xbd0a7a67	-0.03380814
36	0xbd823048	-0.06356865
37	0xbccde103	-0.025131708
38	0x3dc36a09	0.09541709
39	0x3c5aa8b7	0.013345889
40	0xbc8c3f15	-0.017119924
41	0x3ccc5b83	0.02494598
42	0xbdf569b7	-0.11983054
43	0xbded0c4c	-0.11574611
44	0xbdc8a844	-0.09797719
45	0xbd8fc5cc	-0.07020149
46	0xba95b979	-0.0011423073
47	0xbd80e85c	-0.06294319
48	0x3d8e98f7	0.069627695
49	0x3d51bd82	0.05120612
50	0x3dbf7903	0.09349253
51	0x3cbe561e	0.023234423
52	0x3d002813	0.031288218
53	0x3cc3c856	0.023899239
54	0xbd712661	-0.05887449
55	0x3d3d5ab0	0.046229064
56	0xbcf069c5	-0.02934731
57	0xbdf1424a	-0.11780222
58	0x3dea554a	0.11442049
59	0xbd44447c	-0.047916874
60	0xbddf64f7	-0.109079294
61	0x3c6e006c	0.014526468
62	0x3be58fed	0.0070056827
63	0xbdf43497	-0.11924093
64	0xbdf1b3e3	-0.11801889
65	0xbd270b74	-0.040782407
66	0x3d188d1c	0.037243947
67	0x3de9d04e	0.11416684
68	0x3d9591ec	0.07303223
69	0x3d2b5ae6	0.041834734
70	0x3d9ef69a	0.07761879
71	0x3deeb668	0.11655885
72	0x3ded7eeb	0.11596473
73	0xbc8a8467	-0.016908837
74	0x3df70fda	0.1206357
75	0xbdf8b499	-0.12143821
76	0xbdbe9aff	-0.09306907
77	0x3dc6346c	0.096779674
78	0xbdf0d12f	-0.117586486
79	0xbba91004	-0.00515938
80	0xbde5984a	-0.112106875
81	0xbdd6f845	-0.104965724
82	0xbde59beb	-0.112113796
83	0x3da3ef5a	0.08004637
84	0xbdefa4c1	-0.11701346
85	0x3de198ab	0.11015447
86	0xbd84d467	-0.06485825
87	0x3c96c40f	0.018404035
88	0x3d8ab7c3	0.06773331
89	0x3de63dbf	0.11242246
90	0x3c1b5af4	0.009482134
91	0x3dd1c43c	0.10242507
92	0x3c9f6822	0.019458834
93	0x3cd80168	0.026367858
94	0x3df73d3d	0.12072227
95	0xbde68253	-0.11255326
96	0x3d11f101	0.03563023
97	0x3d86e797	0.06587141
98	0x3d74c5a8	0.059758812
99	0xbd79e33b	-0.06100772
100	0xbcb6ec1d	-0.022329384
101	0xbd8f085d	-0.06984017
102	0xbbd57abe	-0.006514876
103	0x3d9dbb50	0.07701743
104	0x3ded234b	0.11578997
105	0xbd7f5fad	-0.062347103
106	0xbe02762e	-0.12740394
107	0xbd0f3e82	-0.03497172
108	0xbda2530b	-0.079259954
109	0x3dabba14	0.08385101
110	0xbdbb3e9b	-0.091428004
111	0xbdd371ba	-0.10324426
112	0xbdacfbff	-0.08446502
113	0xbc115e66	-0.008872604
114	0x3c66be28	0.014083423
115	0x3cc69ffd	0.02424621
116	0x3ddda9aa	0.108233765
117	0x3dc86b36	0.09786074
118	0xbdd8b129	-0.105806656
119	0xbd2ee7a4	-0.04270138
120	0x3d843ee9	0.06457312
121	0xbb3131a0	-0.0027037635
122	0x3db7ea14	0.08980194
123	0xbcc97964	-0.024594016
124	0x3c58a695	0.01322331
125	0x3d91f1c7	0.071261935
126	0x3db0173d	0.08598182
127	0xbb07eebd	-0.0020741664

actor_head.2.bias f4 [2]
0	0x3dbf1626	0.09330396
1	0xbd1ceebc	-0.038313612

critic_head.0.weight f4 [64, 1600]
0	0xbc942991	-0.018086227
1	0xbcf4971a	-0.029857207
2	0xbd03eee2	-0.03221024
3	0xbc94e465	-0.018175313
4	0xbcbf4f6b	-0.0233533
5	0xbc86090c	-0.016361736
6	0x3bd431df	0.0064756717
7	0xbca594c1	-0.020212533
8	0xbb33bd3c	-0.0027426025
9	0xbb95f928	-0.004576821
10	0xbc90afa6	-0.01766188
11	0x3b79145f	0.0038006527
12	0x3c205d3d	0.009787855
13	0x3c0eb9d4	0.008711297
14	0xbcd3f888	-0.025875345
15	0xbb7f6bb1	-0.0038974101
16	0xbc72219c	-0.014778521
17	0xbc890130	-0.016724199
18	0xbc42e6b2	-0.011895822
19	0x3983c16e	0.00025130383
20	0xbc260180	-0.010132194
21	0x3bac235b	0.005253238
22	0xbc1d310b	-0.009594212
23	0xbcb8213f	-0.02247679
24	0x3c20f3d8	0.009823762
25	0xbd9fd18e	-0.07803641
26	0x3ba7a367	0.0051159146
27	0xbce7c16d	-0.028290475
28	0xbc86ecd4	-0.01647035
29	0xbcf7ce54	-0.030249752
30	0x3c420ba5	0.011843597
31	0x3ba991e4	0.005174862
32	0x3bbdd9f7	0.0057938057
33	0xbc411ad6	-0.011786183
34	0xbca36e74	-0.01995013
35	0xbcd7f866	-0.026363563
36	0xbced8b00	-0.028996944
37	0x3c67d200	0.014149189
38	0x3d000488	0.03125432
39	0xbc6f0ce0	-0.014590472
40	0xbbef9fe2	-0.0073127607
41	0xbcbb1e29	-0.02284153
42	0x3c2b5f3a	0.0104597155
43	0xbcd9d1ed	-0.026589358
44	0xbbbda490	-0.0057874396
45	0xbc2e9602	-0.010655882
46	0x3c502537	0.012704185
47	0xbcda28ba	-0.026630748
48	0xbc82c64f	-0.015963702
49	0xbcde895d	-0.02716511
50	0x3d18bc03	0.037288677
51	0x3c8c1436	0.017099481
52	0xbcc98999	-0.024601744
53	0xbcd4c1d5	-0.025971333
54	0xbbf4675c	-0.0074586105
55	0xbd05c4f8	-0.032658547
56	0x3d8da852	0.0691687
57	0x3bfaed4b	0.007657682
58	0x3cde9ba0	0.027173817
59	0x3d0129f2	0.031534143
60	0x3c06f483	0.008237007
61	0x3d2581ce	0.040406995
62	0x3d63c6fe	0.055609696
63	0x3d4f3374	0.05058618
64	0x38fb1bf2	0.00011973818
65	0xbc7876fb	-0.015165086
66	0xba9c5a34	-0.0011928738
67	0xbbbafa48	-0.0057061054
68	0x3bb47cd2	0.005508044
69	0x3d21511b	0.03938399
70	0xbc618e29	-0.013766804
71	0x3c6a0ae9	0.014284828
72	0xbca58d54	-0.020208992
73	0xbd40c79e	-0.04706537
74	0x3b9b8596	0.0047461493
75	0x3bcc6600	0.0062377453
76	0x3cbbbca4	0.0229171
77	0x3b131001	0.002243996
78	0x3d75c184	0.059999004
79	0x3ca8e016	0.020614665
80	0x3cb3ca4f	0.021947054
81	0xbd06229e	-0.032747857
82	0x3d4a3799	0.04936943
83	0x3d9a9a6d	0.07548986
84	0x3c9cb48a	0.019129056
85	0x3d16c833	0.03681202
86	0xbd5ed48f	-0.05440193
87	0xbd14d07c	-0.03633164
88	0x3d0d9bdd	0.03457247
89	0xbc4d2bc2	-0.01252264
90	0x3d808536	0.06275408
91	0x3d4884de	0.048954837
92	0x3c3fbdc1	0.011702956
93	0xbcc5f2df	-0.024163662
94	0x3d6cd883	0.05782367
95	0xbbd43d4f	-0.006477035
96	0xbb930fce	-0.004487968
97	0x3cf1c061	0.029510679
98	0xbcbc7415	-0.023004571
99	0x3b6d470d	0.003620568
100	0xbbc58853	-0.006028214
101	0x3c473aaa	0.012159983
102	0xbd1f7ea2	-0.038939126
103	0x3c9bd86a	0.019024093
104	0xbbd9d16d	-0.00664728
105	0x3bed9c5a	0.0072513046
106	0x3cba1fcb	0.022720238
107	0x3c690a53	0.014223653
108	0x3d6f3792	0.058402605
109	0x3d547f1b	0.05187903
110	0x3b71410a	0.0036812448
111	0x3ca8f205	0.020623216
112	0x3c7f1f37	0.015571407
113	0x3ca79478	0.020456538
114	0x3cb3ec5f	0.021963296
115	0x3d53171c	0.05153571
116	0xbb4179b3	-0.0029522001
117	0xbd63da6b	-0.05562822
118	0xbca18710	-0.019717723
119	0xbc5910ca	-0.013248632
120	0xbcc5f16d	-0.024162972
121	0xbbc1f43a	-0.0059190067
122	0xbbc6b785	-0.0060643577
123	0xbcaae125	-0.02085931
124	0x3cc8188b	0.024425765
125	0xbc55ca85	-0.013048773
126	0xbc1124dd	-0.008858887
127	0x3d1868be	0.037209265
128	0xbc9dcbcb	-0.019262215
129	0x3b9bc425	0.004753607
130	0x3b87fa0c	0.004149681
131	0x3cb5cdbb	0.022192826
132	0xbab78a4d	-0.0014003009
133	0xbc839532	-0.016062353
134	0xbb848be2	-0.0040449956
135	0x3c1b4d05	0.009478812
136	0x3ce50aae	0.027959194
137	0xbcbeacb2	-0.023275707
138	0xbcb55b9d	-0.022138411
139	0xbc94312a	-0.01808985
140	0x3be4e4ed	0.006985298
141	0x3bd57993	0.006514737
142	0x3c90a65b	0.01765745
143	0xbc4300e3	-0.011902067
144	0x3c4ea6d0	0.012613013
145	0x3c9ef8d3	0.019405758
146	0xbc5d0e43	-0.01349217
147	0xbc6fa230	-0.014626071
148	0xbd0210a2	-0.031754144
149	0x3c314397	0.010819337
150	0xbc7f64d6	-0.015588006
151	0x3c727a9a	0.014799738
152	0xbc138681	-0.009004236
153	0xbd0807d8	-0.033210605
154	0xbc928afe	-0.017888542
155	0xbcd49b6b	-0.025953015
156	0x3ca7edf6	0.02049921
157	0x3bf05c33	0.0073352098
158	0xbb9e19df	-0.0048248614
159	0xbca5d0b2	-0.020241115
160	0xbc9964e0	-0.018724859
161	0x3c556e3c	0.01302677
162	0xbc440ee7	-0.011966444
163	0xbbefa4bb	-0.0073133386
164	0x3cdb4b27	0.026769234
165	0x3cfc8971	0.030827256
166	0xbcfdf60d	-0.031001115
167	0x3b3c183d	0.002870097
168	0xbc037aca	-0.008024881
169	0x3c27f260	0.010250658
170	0xbca5188a	-0.020153303
171	0xbcae7e4d	-0.02130046
172	0xbc71cc61	-0.0147582
173	0xbcadc8a4	-0.021213837
174	0xbc45d4cd	-0.012074661
175	0x3c902dd1	0.017599972
176	0xbce243d7	-0.02762024
177	0x38c117de	9.207403e-05
178	0x3c6418b2	0.013921903
179	0x3c84a80b	0.01619341
180	0xbcfa1ba6	-0.030530762
181	0xbc90812e	-0.017639723
182	0xbbc49f28	-0.006000418
183	0x3c26a257	0.010170541
184	0x3b217a78	0.0024639647
185	0xbb856a7b	-0.0040715314
186	0x3c204fdc	0.009784665
187	0xbbcf955a	-0.0063349428
188	0x3b8ded65	0.004331278
189	0x3ab98d16	0.0014156427
190	0xbac3bc3a	-0.0014933415
191	0x3c59b914	0.013288755
192	0x3a3e2e8e	0.0007254862
193	0xbc5a186c	-0.013311487
194	0xb9d29ffe	-0.00040173525
195	0xbd032825	-0.032020707
196	0xbbd7b05d	-0.0065823034
197	0xbd001340	-0.03126836
198	0xbac1c55c	-0.0014783549
199	0xbc905f29	-0.0176235
200	0xbcea048b	-0.02856662
201	0x3b98a1bf	0.0046579535
202	0xbc82785e	-0.015926536
203	0x3c53e6c9	0.012933441
204	0xbb78f990	-0.0037990548
205	0x3bd5843a	0.006516007
206	0x3c74bfec	0.014938336
207	0x3a0480e3	0.0005054606
208	0xbb341255	-0.0027476747
209	0xbca4ab82	-0.020101313
210	0xbcf724b7	-0.030168874
211	0x3c869478	0.016428217
212	0xbca3e7f9	-0.020008074
213	0x3cb3678a	0.021899957
214	0x3c37b4a6	0.011212504
215	0xba9008f4	-0.0010988996
216	0x3c846616	0.01616196
217	0xbd07bc37	-0.03313848
218	0x3c4323b6	0.01191037
219	0xbc37ee14	-0.011226196
220	0x3c458e56	0.012057861
221	0x3bc59817	0.0060300934
222	0x3c25ed7a	0.01012742
223	0x3be2336f	0.006903104
224	0x3c5e1b06	0.013556248
225	0xbcd4fcc1	-0.025999429
226	0x3ca27b51	0.019834192
227	0x3b77a197	0.0037785524
228	0x3cca6892	0.024708066
229	0x3cefee2c	0.029288374
230	0xb9341bb6	-0.00017176461
231	0xbcba04a9	-0.0227073
232	0xbbacf24d	-0.005277908
233	0x3c7c36b5	0.015393903
234	0x3c4b2483	0.012398842
235	0x3cede33b	0.029039016
236	0xbc28b639	-0.0102973515
237	0xbca42977	-0.020039303
238	0xbc119c5c	-0.008887377
239	0xbbde18f4	-0.006777877
240	0x3c1721e7	0.009224392
241	0xbc9ce7dd	-0.01915353
242	0x3baa886b	0.0052042506
243	0xbc5c7388	-0.013455279
244	0xbc0f9337	-0.008763126
245	0x3c6a9d53	0.014319736
246	0xbbf487ea	-0.0074624913
247	0xbb8a45de	-0.0042197546
248	0xbd25c556	-0.040471397
249	0x3d85d49e	0.06534694
250	0xbcdf9de5	-0.02729697
251	0xbc9f7aa2	-0.019467656
252	0x396b2592	0.00022425342
253	0xbd09b7e8	-0.033622652
254	0x3a9a1682	0.0011755975
255	0x3d283d38	0.041074008

critic_head.0.bias f4 [64]
0	0xbcfe42f2	-0.031037781
1	0xbcd53405	-0.026025781
2	0x3c52fe8a	0.01287807
3	0xbce1e1e9	-0.027573543
4	0x3cfd1842	0.030895356
5	0xbcb79c73	-0.022413468
6	0xbd1b62c1	-0.037935976
7	0xbc902e92	-0.017600331
8	0x3d10980e	0.03530126
9	0xbb8c31a5	-0.004278379
10	0xbbc70f08	-0.00607479
11	0x3c3e7b79	0.011626118
12	0xbcc88d33	-0.024481392
13	0x3c34f5ef	0.011044963
14	0x3b2dfd40	0.0026548654
15	0x3b51ae6c	0.0031994833
16	0x3c9c5e17	0.019087834
17	0xbc9cd193	-0.019142902
18	0xbb816f88	-0.003950063
19	0xbbfe0ff1	-0.007753365
20	0xbcdd1a40	-0.026990056
21	0xbc3e7690	-0.011624947
22	0x3b857c07	0.004073623
23	0x3c43833b	0.011933143
24	0xbbb11596	-0.0054041846
25	0xbc3a2551	-0.011361436
26	0xbca61ccf	-0.020277409
27	0xbce61834	-0.028087713
28	0xbcad13b6	-0.021127563
29	0x3c1612fd	0.009159801
30	0x3c966be7	0.018361999
31	0xbb49b723	-0.0030779324
32	0xbc6c84ff	-0.014436006
33	0xbcb8dafa	-0.022565354
34	0x3d194c0a	0.037426032
35	0xbc968aeb	-0.018376788
36	0x3c7d90b2	0.015476393
37	0x3b846064	0.004039811
38	0xbcf21885	-0.029552707
39	0x3ca21299	0.019784259
40	0xbcb8afbc	-0.022544734
41	0x3c1ce5fa	0.009576315
42	0x3cdcd644	0.026957639
43	0xbbf05410	-0.00733424
44	0x3c8972ac	0.016778313
45	0xbae9e028	-0.0017843293
46	0x3bf41c07	0.00744963
47	0xbbf457bf	-0.007456749
48	0x3c0bf39b	0.008541967
49	0xbc874518	-0.016512439
50	0xba79e026	-0.0009531997
51	0x3c68ab00	0.014200926
52	0x3bb4112d	0.0054952116
53	0xbcb01c7f	-0.021497963
54	0x3c698c0b	0.01425458
55	0xbbc90a26	-0.006135243
56	0x3c5b47d2	0.0133838225
57	0x3c30f309	0.010800132
58	0x3bb3b697	0.005484413
59	0xbc2cc08d	-0.010543955
60	0xbc5937ef	-0.0132579645
61	0x3adf05ab	0.0017015239
62	0xbcd56f9a	-0.026054192
63	0xbbd2c0ad	-0.00643166

critic_head.2.weight f4 [1, 64]
0	0x3db863b7	0.09003394
1	0x3d81dd22	0.06341006
2	0x3d9e5dd7	0.07732742
3	0x3d70616e	0.058686666
4	0xbdaf400c	-0.08557138
5	0x3daec6b4	0.08533993
6	0x3c945126	0.0181051
7	0xba6bea0a	-0.0008999413
8	0xbd879836	-0.06620829
9	0x3ce6cb1e	0.028173026
10	0x3de54cb7	0.11196273
11	0xbd39c906	-0.045357727
12	0x3d547f52	0.051879235
13	0x3d9312de	0.07181333
14	0xbd9bd3ab	-0.07608732
15	0x3cdade9d	0.026717478
16	0x3d6c0901	0.057625774
17	0xbd890b81	-0.06691647
18	0xbda3019e	-0.07959293
19	0xbb8ea27e	-0.0043528667
20	0x3d0bec29	0.034160767
21	0xbde660a0	-0.112488985
22	0xbddae8ea	-0.10688956
23	0x3dd33724	0.103132516
24	0xbd401ff6	-0.04690548
25	0x3d12013b	0.035645705
26	0xbd97ae62	-0.07406308
27	0x3dc9d05a	0.09854193
28	0x3a2f6b42	0.0006691703
29	0x3dd6f59c	0.10496065
30	0xbb830860	-0.003998801
31	0xbb09cb6d	-0.0021025792
32	0xbc24b796	-0.010053536
33	0xbdc34cd3	-0.095361374
34	0xbc74d803	-0.014944079
35	0x3cb4297c	0.021992438
36	0xbd529271	-0.05140919
37	0x3d7c088a	0.06153158
38	0xbded5b3f	-0.115896694
39	0xbd2c6aea	-0.04209415
40	0xbdea66e8	-0.11445409
41	0x3dd9b08d	0.106293775
42	0x3b37d85e	0.002805255
43	0xbbd179b6	-0.006392683
44	0xbdce625d	-0.10077355
45	0x3dc3a95a	0.095537856
46	0xbc3668a9	-0.011133351
47	0x3d85c332	0.06531371
48	0x3d342349	0.043978963
49	0x3d4dc890	0.0502401
50	0xba2f7419	-0.000669302
51	0xbdf1ad6f	-0.11800658
52	0xbd66fc88	-0.056393176
53	0xbdca5359	-0.098791786
54	0x3d660321	0.056155328
55	0x3d8983f5	0.06714622
56	0xbc6f0ed9	-0.014590942
57	0x3cea7847	0.028621806
58	0x3cb1006f	0.021606652
59	0x3ddea6ae	0.108716354
60	0x3dbf80fc	0.09350774
61	0xbc14aeab	-0.009074847
62	0x3de6c776	0.11268513
63	0xb9cb3744	-0.00038760353
