project_files/saved_models/ppo_policy_camera_cnn_whole_circle.pth (torch, 851205 bytes, 15 tensors)

cnn_base.0.weight f4 [16, 1, 3, 3]
00000000: e3b8 dc3d 0728 89be 7d57 cabd e834 853c
00000010: ad72 5fbe 3101 963e 411b e13d 8905 a3be
00000020: a7a0 873e 60d0 48be 9d46 773e c1ce 8ebe
00000030: aedf 9cbe 1835 30bb f64c 85be b1d4 823e
00000040: 1609 24bd 6584 11be decd 96be cfb7 b13d
00000050: 425d 303e a6a0 813e 7764 a6be 7cb7 6dbd
00000060: 1b33 103e 1a6d 35be 26e1 363d 95d1 653d
00000070: 31c1 993e 2691 a83e 5e1a 963c 22ca f1bd
00000080: f9d8 2ebd ac72 1fbe fa67 8b3e dbb2 803e
00000090: f1b5 943e d3b5 543e 00cc 183c f67e 85be
000000a0: 5733 2cbe fde4 64be 0f06 47be cccb 0a3e
000000b0: d061 9f3a a133 093e e1f4 6d3e aa32 9bbe
000000c0: f5bf 733e 5c6d 983e 9ac3 2dbd ccf0 9bbe
000000d0: 7e51 b63d ff7d c23c d0b1 41be 5479 913e
000000e0: f675 67bc e2b6 923d c466 253e 08aa eb3d
000000f0: 1d21 44be 069e 43be 80e2 66be e9c0 dc3d
00000100: cb22 843d 7d1c 7e3d 061f 68be 1697 7e3d
00000110: 0229 923e a29f 053d 06a0 36be 2e57 8cbe
00000120: 9721 493e 89c2 54be cd39 95be 6884 b13d
00000130: f385 863e 2237 a4bd e10a a83e ac74 603e
00000140: 2313 edbd 4647 e0bd a62d 803e cbcd 84bc
00000150: f729 03bd cafa 63be d8a8 10bd 97b7 743e
00000160: 1e33 59be c649 98be 0ebc 11bd ce24 3c3d
00000170: 8c4c 8dbe 52ed 153d a2ae 0e3e 0ca6 5c3e
00000180: 30cc d5bd 463b a0be d533 43be db50 49be
00000190: 92d1 66be 042d 8abe 9b40 4f3e f049 853e
000001a0: 6ca3 7fbe 2dad 93bd 259e acbe 7830 203e
000001b0: 3974 98be 0b21 3cbe c212 71be c478 63bd
000001c0: a253 8ebe 505c 65bc 4259 323d b984 233e
000001d0: 2880 e93c 2128 a0bd 8484 1bbe 2635 9b3d
000001e0: 3db1 4f3e 553a e63c be8a 9abe beb2 67be
000001f0: 8a32 783d 1297 66be 52f5 6b3e 73e4 8cbe
00000200: 7e08 7bbe 975e 2dbe 6cdc 05bd 34d9 0e3e
00000210: 3363 7ebe 2eb8 85be 89a1 6fbe 444d 6cbd
00000220: 9a8e 9c3e 1b8f 9f3e 796d 863e 38ab 17be
00000230: d509 553e 5d60 153e a239 a9be ea9e 43be
0.10777452 -0.2678835 -0.09879968 0.01626058 -0.21821089 0.29297784 0.109915264 -0.3184016
0.26489756 -0.19610739 0.2414803 -0.27892116 -0.30639404 -0.0026887115 -0.2603528 0.25552896
-0.040047728 -0.14210661 -0.2945394 0.08677637 0.17223075 0.25317878 -0.32498524 -0.058036312
0.14081995 -0.177174 0.044648312 0.056108076 0.30030206 0.3292324 0.01832312 -0.11806132
-0.04268739 -0.15571088 0.27227765 0.25136456 0.2904506 0.20772485 0.009325981 -0.26073426
-0.1681646 -0.22352977 -0.19435905 0.13554305 0.0012159888 0.13398601 0.23237945 -0.3031209
0.23803695 0.29770935 -0.04242287 -0.3045715 0.08902262 0.02374172 -0.18915486 0.2841288
-0.014127245 0.071637884 0.16152483 0.1150704 -0.19153257 -0.1910325 -0.2254734 0.10778982
0.06451949 0.062038887 -0.22668085 0.062155806 0.2854691 0.03262294 -0.17834482 -0.27410263
0.1964172 -0.20777334 -0.2914566 0.086678326 0.2627407 -0.08018328 0.328208 0.21919507
-0.11575916 -0.10951094 0.25034827 -0.016211411 -0.032022443 -0.22263637 -0.035317272 0.23898159
-0.21210906 -0.29743785 -0.035579734 0.045933537 -0.27597463 0.03660328 0.13933805 0.21547717
-0.10439336 -0.31295222 -0.19062741 -0.1965975 -0.22540882 -0.2698747 0.20239489 0.26032972
-0.24964684 -0.07210765 -0.33714405 0.1564349 -0.2977617 -0.1837198 -0.23542312 -0.055535093
-0.27798182 -0.01399906 0.043542154 0.15968598 0.028503492 -0.07820154 -0.1518727 0.07578497
0.20282455 0.028103987 -0.30183977 -0.22626778 0.060595073 -0.22518566 0.23042801 -0.27518043
-0.24514958 -0.16930614 -0.032680914 0.13950044 -0.24842529 -0.2611708 -0.23401465 -0.057690874
0.30577546 0.31163868 0.26255396 -0.14811409 0.20804532 0.14587541 -0.33051783 -0.1910359

cnn_base.0.bias f4 [16]
00000000: 19fa 3f3e c727 913e d3e3 8b3e d3e7 8d3d
00000010: b628 cf3b a85a a33d f02d c7bd 4792 30be
00000020: c717 07be 30cb 023d 0890 553c d98f 9fbe
00000030: 358b e73d b6b6 fabd 80cd 853e 6d75 9b3e
0.18747748 0.2835066 0.27322254 0.069289826 0.006321992 0.07976276 -0.09725559 -0.172433
-0.13192664 0.031932056 0.013034828 -0.31164435 0.113058485 -0.122418806 0.26133347 0.30363026

cnn_base.3.weight f4 [32, 16, 3, 3]
00000000: d99e 963d 9c05 463d 59c6 28bd c942 59bd
00000010: b1ff 96bd 8836 fd3c d97d 003d dc2a 323b
00000020: 4176 c5bc 6772 9f3d 82ec 6f3d 56ff bd3c
00000030: 8c79 67bd fe3f 91bd 0606 8d3d 930a 163d
00000040: 399e e83c 14df 21bd fc20 853d 0451 26bc
00000050: 8333 8d3c b79d d0bc 4f8e a63d cbcb 943c
00000060: ffc8 bbbc bad1 343d 7449 2d3d 3b91 ecbc
00000070: 579f a9bc f4b7 13bc 06f2 9dbd 0107 783d
00000080: 2ac7 223c 05ac 1b3d 25c8 263a 7959 a6b9
00000090: 8d1c 68bd 53ba 9d3d 7281 8cbd b958 dbbc
000000a0: 82d6 3fbd bd8b 173c c085 76bd d57f a3bc
000000b0: dd9a 00bd 3d63 e1bc 3bf3 b53c 3f56 d2bc
000000c0: ffc3 233c 5812 c83c c198 97bd d1ef a9bd
000000d0: 8ae7 83bc 582a a63d 84f1 12bd 558f 1c3d
000000e0: b287 823c 9ac8 88bd 09ba 6c3d 1d88 3c3d
000000f0: 7c77 15bc 144c 1cbc 5710 2abd 0798 8e3c
00000100: b9aa 0d3d 271c 2f3d 3419 4abd e7b8 75bd
00000110: 9fbb 13bb 623f 15bc 76fa d13c e0b0 2cbd
00000120: 4797 313d 4920 cfbc 5bd1 25bd d477 b33c
00000130: cb26 9a3c e748 9f3d ab01 88bd 35aa 133d
00000140: 7b1a 16bd 0ad0 ddbc 0838 2a3c ac70 a239
00000150: 16a2 0a3d 2325 9b3d 7b1a a33d 9576 093d
00000160: 4ca3 3bbd 8888 a5bd 147b 923d 1e45 823d
00000170: 63b0 c73c 0cec 91bd 654a 133d 9ae8 16bd
00000180: 3010 233c ebb3 24bd 7488 a1bd c599 41bd
00000190: dc55 7fbd b92b 2bbd dc19 41bd e611 953d
000001a0: 1114 03bc 4397 d23c f430 fcbc e92c a0bd
000001b0: d448 973c 2e6b b73b 697c 403d b091 953d
000001c0: 0a1c 91bd 0a30 9e3d 9310 b8bc c385 af3b
000001d0: fbfa 9a3c e354 863d 6718 403d 56de 6abc
000001e0: 7d5e de3c e742 18bd 3d46 d9bb 01b2 853d
000001f0: 007c 243d b8b3 0e3d 859e 11bc cfab a33d
00000200: 3e6d 853d b163 a53d 2edd 15bd e06b a63d
00000210: 39c0 853d e457 3c3b cace 4d3c c899 2bbd
00000220: 0d7e 98bb 3d09 72bd 6911 8f3d d67c 573d
00000230: 7377 63bd c5ff ae3c 1340 913d 1b6c a1bd
00000240: a7c0 873d 8e84 1ebc 1f57 0d3d 7b77 383d
00000250: 1a40 86bd 6593 0fbd 8fd7 a2bd 4245 493d
00000260: 1621 a2bd 2b48 713d 6a4c a2bc f7e3 16bc
00000270: 5ded 92bd 8111 a2bd 3f81 8f3d 69cb 5e3d
00000280: f76e 7b3a 8092 54bd dacf 4bbd 006c 9dbd
00000290: 2ef4 963d c24d 96bd bf07 603d 6c5e 623c
000002a0: 44f0 a0bb 3850 aa3c d7cf 2e3d 74c8 86bd
000002b0: b871 1cbd 77a3 a5bd 2e51 b23c de46 27bd
000002c0: ef90 07bd cf19 81bd 39b5 a7bd 0ad2 cf3c
000002d0: feff 843d 410b aa3d fe25 3ebd 2e95 763d
000002e0: 25bb 9cbd 6ad4 43bc fc64 323c f90c 973d
000002f0: 4466 30bc 751b ae3b 1a0c 5abd 515b 8f3d
00000300: 95ea 80bd 9c5e 39bd 4ea0 ae3d d1d6 f8bb
00000310: 7228 793d fe54 e63c 2076 54bc f67e 903c
00000320: 888c 54bd b7f6 863c bb0c c03c 003a 733d
00000330: 91db 7f3d 23df 6fbd 19cc 083b 0f61 093d
00000340: 0ce1 373c efb7 8f3d b92b 91bd 27bb 4c3d
00000350: c56f 253d a7f2 d8bc 0257 fcbc bcc8 bc3c
00000360: 949a 76bd d08a 8ebd 7b9e 4ebd c1fd a9bb
00000370: 70cc 533d b027 ae3c 6021 42bd 8a0d b8bc
00000380: 9ee3 2cbd bc07 a93d b71a 5fbd 4262 0d3d
00000390: bcff 0cbd de4b 533d b2ab 393d 7ccb 48bd
000003a0: 52b1 7f3d c8ae 9cbd 5dc8 a3bb 3a15 883d
000003b0: 1820 75bb 2481 84bd bc63 49bd 0d7a 543d
000003c0: b657 5039 078f 11bd 101d 56bd fe41 9e3c
000003d0: 3dc3 93bd 9324 e8bb b7dd 91bd 9c99 96bc
000003e0: c47b 623d a1f6 fa3c 6df0 9d3d 7f97 1bbd
000003f0: 91e8 a8bd 1e97 463d 49c7 873c ad09 4a3d
0.073545165 0.048345193 -0.041204784 -0.053042207 -0.07372988 0.030909792 0.031370018 0.002718619
-0.02410424 0.077854924 0.05857516 0.023193043 -0.0565124 -0.07092284 0.068859145 0.036631178
0.028395759 -0.039519385 0.06500432 -0.010151152 0.017236477 -0.02546583 0.08132612 0.018163582
-0.02292299 0.044145323 0.04230638 -0.028877845 -0.020705862 -0.009016026 -0.07712178 0.060553554
0.00993518 0.038005847 0.00063622213 -0.0003172865 -0.056667853 0.07701554 -0.06860627 -0.026775705
-0.04683543 0.009249625 -0.060186148 -0.019958416 -0.03139769 -0.02751314 0.022210708 -0.025675891
0.00999546 0.02442281 -0.07402182 -0.082976945 -0.016101617 0.08113545 -0.03587486 0.03822263
0.015933845 -0.06678887 0.057794604 0.046028245 -0.009122726 -0.009539623 -0.04151949 0.017406477
0.034586642 0.042751458 -0.04934044 -0.05999079 -0.002254225 -0.00910935 0.025632124 -0.04216087
0.04335716 -0.02528395 -0.04048286 0.021907724 0.018817326 0.07777577 -0.06640943 0.036050994
-0.036646347 -0.02707674 0.010389335 0.00030982995 0.033845983 0.07575443 0.07964035 0.033560354
-0.04581003 -0.08082682 0.071523815 0.06360839 0.0243761 -0.071251005 0.03595962 -0.03684292
0.00995259 -0.040210646 -0.078873545 -0.047265787 -0.06233774 -0.041789744 -0.047143802 0.072788045
-0.00800039 0.025706893 -0.030785061 -0.07821066 0.018467344 0.0055974936 0.046993647 0.07303178
-0.07085426 0.077240065 -0.02246884 0.005356522 0.018918505 0.065591596 0.046898272 -0.014335236
0.027144665 -0.037173178 -0.0066306875 0.06528092 0.040157318 0.034839362 -0.008887892 0.07991754
0.06514977 0.08075655 -0.036587887 0.08126044 0.06530804 0.002873891 0.012561509 -0.041894704
-0.0046536983 -0.05909084 0.069857426 0.052609287 -0.055533838 0.021362195 0.07092299 -0.078819476
0.066285424 -0.009675158 0.034506913 0.04503582 -0.06555195 -0.035052676 -0.07951271 0.049138315
-0.07916467 0.058906715 -0.019811828 -0.0092096245 -0.0717418 -0.07913495 0.070070736 0.054393206
0.0009591425 -0.051897526 -0.04975877 -0.07686615 0.07370792 -0.0733905 0.054694887 0.013816457
-0.0049114544 0.020790204 0.04267868 -0.06581202 -0.03819439 -0.08087819 0.021767225 -0.04083907
-0.033097204 -0.06303751 -0.08188862 0.02536871 0.06494139 0.08302928 -0.04642295 0.060200863
-0.076528825 -0.011952499 0.010888334 0.07375521 -0.0107665695 0.0053133317 -0.053234197 0.06999839
-0.06294743 -0.045256242 0.085266694 -0.0075939675 0.060829587 0.0281167 -0.012967616 0.017638665
-0.051891834 0.016475065 0.02344357 0.059381485 0.062465254 -0.05856241 0.0020873605 0.033539828
0.011223089 0.070175044 -0.070884176 0.04998317 0.040389795 -0.026482893 -0.030803207 0.023044936
-0.06020601 -0.0696007 -0.050444108 -0.0051877205 0.05170864 0.021259159 -0.04739511 -0.022467393
-0.04220926 0.08253428 -0.054468837 0.034517534 -0.034423575 0.051586024 0.045329757 -0.049022183
0.062424965 -0.076505244 -0.0049982504 0.06644674 -0.0037403163 -0.06469944 -0.04916738 0.05187421
0.000198691 -0.035536792 -0.05227381 0.019318577 -0.07214973 -0.007084438 -0.07122367 -0.018383794
0.055293813 0.03063518 0.07711873 -0.037986275 -0.082474835 0.04848396 0.016574519 0.049325634

cnn_base.3.bias f4 [32]
00000000: 9e62 c83c 04d0 ddbc c4f8 913d 6b89 0f3d
00000010: 2fbc 003d 0af7 87bd a995 5b3b a519 87bb
00000020: 8db1 533d c703 313d c605 a4bd 736d e5ba
00000030: c19e 9c3d 1d0e 5cbd f19f 4bbc 87cc d6bb
00000040: 5794 71bc 14bf fd3c b8f1 5b3d e090 a73c
00000050: ee23 1b3b b4ab 98bc 4c1d 6dbd c85e 20bd
00000060: efba 693d f91e b23c a6d1 5c3d 8dcb c13c
00000070: 81d4 88bd c0bf a635 c2e2 65bd b09c 1c3c
0.024461087 -0.027076729 0.071275264 0.03504316 0.031429466 -0.06638916 0.0033505952 -0.00412293
0.051682997 0.043216493 -0.08008914 -0.0017503932 0.076474674 -0.053724397 -0.01242827 -0.0065551433
-0.01474484 0.030974902 0.053697318 0.020454824 0.0023672539 -0.018636562 -0.057889268 -0.03915289
0.05706304 0.021743285 0.053910874 0.02365663 -0.06681157 1.242377e-06 -0.056124456 0.009558842

mlp_base.0.weight f4 [32, 2]
00000000: a4b8 e4be 0706 2dbf 8b89 1ebe 4323 d33e
00000010: bdc4 18bf a0a1 a63e 1ebd 98be 650f ad3e
00000020: ad57 f43e 36f4 1e3f a90e 13bf 33a6 193e
00000030: 7fc6 2cbf 6a00 32bf 08ed 9bbe 5c94 173f
00000040: e134 ffbe eaa6 ddbe 9c0a 70be 9b1e cdbe
00000050: f591 b23e 62f0 c2bd c4c5 2cbe 75e3 8f3e
00000060: e07c dbbe 56da 2bbf 3c70 223f 8cbf 933e
00000070: fe71 62be f50e 233f d525 683e a675 08be
00000080: 8304 e5be 86db e53d dc6d a0be b53a 2bbf
00000090: 55d2 223e 71a8 2c3f dc93 6dbe 2058 c13d
000000a0: ab48 c63e 16d3 913e 37b3 40be 03c6 d23c
000000b0: 4c56 093f 979d 773e 8d65 e5be 7868 bcbe
000000c0: 9261 fb3e 4ea3 2ebe 9299 71bd 35d4 25bf
000000d0: 2632 bcbe edf1 fbbe 4e99 03be 31c5 273f
000000e0: 5298 cebe 28c2 1ebf a6c6 00be 014d cabe
000000f0: 6f1a 2fbd 52bf 163f ff35 aabe ac63 193e
-0.4467212 -0.6758732 -0.15482156 0.4123784 -0.596752 0.32545185 -0.29831785 0.33800808
0.4772314 0.62091386 -0.57444245 0.15004806 -0.6749038 -0.6953188 -0.30454278 0.59210753
-0.4984503 -0.43291408 -0.23441547 -0.40062413 0.3487698 -0.09518506 -0.16872317 0.28103223
-0.4286871 -0.6713003 0.63452506 0.28857076 -0.22113797 0.636947 0.22670682 -0.1332613
-0.44730005 0.112235114 -0.31333816 -0.66886455 0.15900548 0.6744452 -0.23200935 0.09440637
0.38727316 0.28481358 -0.18818365 0.025729185 0.53647304 0.2418121 -0.4480404 -0.36798453
0.49097878 -0.17054483 -0.058984347 -0.6477693 -0.3675701 -0.49208012 -0.1285145 0.65535265
-0.40350586 -0.6201501 -0.12575778 -0.39511874 -0.04274982 0.5888568 -0.3324432 0.14979428

mlp_base.0.bias f4 [32]
00000000: 8221 cdbd e3b1 a4be 46b6 9c3e 5aa4 003e
00000010: 754f 23bf 38f6 033f 0abb 15bf d216 103f
00000020: af01 a93e a720 93be 8dda 91be 7da2 03bf
00000030: 0e28 843e d300 16bf b628 79be 9a2f b1be
00000040: 816e c9be 12ee 3dbe 8924 453e e3fb 44be
00000050: 2ff2 0d3f d8b4 833d 9cc3 69be 49d0 fabe
00000060: f711 52be 68fc 9e3d c615 9cbe 5fe6 15bd
00000070: 80a6 d43e 5681 dfbe 774d 033f d9c1 ddbe
-0.10016157 -0.32166967 0.30607814 0.12562695 -0.63793117 0.51547575 -0.58488524 0.5628482
0.33009097 -0.2873585 -0.28487054 -0.5141981 0.2581181 -0.5859501 -0.24331936 -0.3460663
-0.3934212 -0.18547848 0.19252218 -0.19236712 0.5544767 0.064309776 -0.22828525 -0.48987034
-0.20514666 0.077629864 -0.30485362 -0.036596652 0.4153328 -0.43653363 0.51290077 -0.43311957

mlp_base.2.weight f4 [32, 32]
00000000: 9d29 273e d414 1fbe 5e8e f53d 0b68 09be
00000010: b3fc 2dbc 5f4b b6bd e144 2d3e 1276 ed3c
00000020: a060 e6bd ae90 ff3d 7fab 1fba c6c5 83bc
00000030: 0280 1c3e 79f6 8a3d 835f 29be 1200 debc
00000040: 1e92 e5ba 7467 a8bd 0709 f93d 6a7f c9bd
00000050: 22c3 213e 5253 ea3d 3914 1f3b 8106 783d
00000060: 7f76 3abd d94e 81bd 3a96 03be e58d 04be
00000070: 2ae4 06be 3a21 d9bd 12ba 75bc 601f bcbd
00000080: 6f60 c9bc 4a73 94bd 7a92 103e 6cd6 0d3e
00000090: fb62 8bbd 9444 e73d 54f3 febd 33ce 123e
000000a0: ec0a bfbd 0ad1 1abd e743 b83d a2f1 db3c
000000b0: a5e1 2f3d a5bb e6bd 7c9a eb3d f9bc e9bd
000000c0: 93b1 1d3d 53b2 f63d 86a8 693c 319d c23d
000000d0: a738 05bd 1bf9 22be 3744 dc3d 94a5 95bd
000000e0: 5e76 8dbd 752a d6bd 7caf 18be 3d09 3c3d
000000f0: e1a6 1dbe e5ae 0dbd a0b6 c9bc f971 0c3d
00000100: 2e7e 223e eb82 34bd b067 17be 70e4 30be
00000110: 2bda e83d 8801 2d3e fe8e 233e dc01 a93d
00000120: 1520 9cbd 7709 fdbd fd17 26be 86f4 aa3d
00000130: eaa0 413c a1b3 5fbd 0d42 903d efd9 cd3d
00000140: c063 973d bc03 233e af20 46bd e94a 163e
00000150: 568d 3ebd c001 0e3e 2d76 abbd e0ef cfbd
00000160: 4f4e eb3d 7231 193e 3e10 2e3e d64f de3d
00000170: 1a92 f7bd 3ae7 14be 0ce3 133d 7aff 16be
00000180: af0f 923d fc08 d03b a280 163e 63d9 c2bc
00000190: 1cd8 11be eaae cdbd fe23 d1bd 0bba 66bc
000001a0: b101 35be a9af ca3d f518 29be 68aa 25be
000001b0: 269e d9bd 3afd be3d 8065 6ebc ef6c 203c
000001c0: 8f02 a53b 5cf0 abbd 24f7 d1bd 3e2f c2bd
000001d0: 3a02 bb3d a420 d03d fef4 1f3e 34ac e1bd
000001e0: baae c3bd ba85 a8bd bff3 21bd fa50 d63d
000001f0: 00f7 e83d 753d ebbd 8975 ccbd b3b1 9d3d
00000200: 4fa9 813c 6058 0c3e 06fa 0a3d dd93 c03c
00000210: 32bf e43c 0b13 df3b de25 0a3e 08fe 1c3e
00000220: e760 273d a55e 06be 750d 9c3d 6e8e 303e
00000230: 5839 163e 4788 1f3d d9b6 3a3b a7f3 eebd
00000240: a663 b8ba 49fa 023e 3467 d33d 8f3a 0dbd
00000250: fc19 b5ba 8ae2 9f3c 6e64 983d 6697 80bd
00000260: d28a 6e3d b62b 28be af49 00be 3bc9 2a3e
00000270: 43eb d8bd 1256 eb3c d7ce 0b3e 36f9 0b3d
00000280: 4047 0dbe 5f30 0dbe d489 09bd 136e dd3d
00000290: cd96 06bd b5c7 c93d 5f2a 11be 6d4f f7bd
000002a0: 550f af3d ca70 55bd 3737 e8bd db12 1abe
000002b0: b93c 8bbd 667f 3dbd db96 b83d 3605 c5bc
000002c0: 61b7 f13d 4325 bb3d 86da 0a3e 8416 89bd
000002d0: 18a4 143d 583c c2bc 7838 acbc 061e 03be
000002e0: e744 1c3e ecd9 cc3c fb10 13be d2a4 83bd
000002f0: 8bf1 25be c7ef 15bc d444 3a3d c080 c3bd
00000300: 0e90 c3bd 3b30 03be c02f c33d b6af af3d
00000310: 7abb 903d 8166 32be 7f43 b5bd 1b91 213e
00000320: 23a8 0fbe 5ea8 173e c221 323e 38be 01be
00000330: 3c48 e8bb 6528 ddbb d288 debd fd0d 5d3d
00000340: 02d1 e9bd f0db 19bd 1549 f7bd 1d5d 253e
00000350: b92b 28be e45d 9c3d 4203 e2bd 341f a9bd
00000360: d993 72bd 2c80 173e 8249 8c3d 39af e83d
00000370: 63a4 ea3d 97eb 3a3c 095b f5bd 492d 173e
00000380: e9ad b33d 6813 063e 49c9 313e 5e79 93bd
00000390: 89e6 0dbe 8e93 5ebc 04d4 2abc e94d f03d
000003a0: 6c29 4ebd 5508 313e 125a 25bd 7bb2 6dbd
000003b0: 4695 ee3d 665a efbd 58e2 0f3e 3f29 eb3c
000003c0: 74e8 f7bd 2758 22be 491a cbbd d752 26be
000003d0: 8321 2ebe 7c12 1c3e 0753 7dbd b87a 38bd
000003e0: 2772 953d 016d 883d edcf db3d eb91 d5bd
000003f0: fe7d 49bd 5413 22bd 80cc 113e 62e2 c1bd
0.16324468 -0.15535289 0.11990045 -0.13418595 -0.01061933 -0.08901095 0.16920806 0.028986964
-0.112488985 0.12478767 -0.00060909236 -0.016085517 0.15283206 0.06785292 -0.16540341 -0.027099643
-0.001751486 -0.08222857 0.12159925 -0.098387554 0.15797094 0.11441673 0.0024273528 0.060553078
-0.045523163 -0.06313867 -0.12850276 -0.12944753 -0.13172975 -0.106020406 -0.014997976 -0.09185672
-0.024582116 -0.07248552 0.14118376 0.13851327 -0.068059884 0.11292377 -0.12448755 0.14336471
-0.09328255 -0.03779701 0.08997326 0.026848618 0.0429398 -0.11266259 0.11504075 -0.11412997
0.038499426 0.120457314 0.0142613705 0.09502638 -0.03252473 -0.15915339 0.107551984 -0.07306972
-0.069073424 -0.10457317 -0.14910692 0.045907248 -0.1539569 -0.03459062 -0.024623215 0.03428838
0.15868446 -0.044070166 -0.14785647 -0.17274642 0.11369737 0.16895115 0.15972516 0.08252308
-0.07623307 -0.12355321 -0.16220088 0.083474204 0.01181815 -0.054614667 0.07043848 0.10051333
0.07392073 0.15919393 -0.048371013 0.14677013 -0.046521507 0.13867855 -0.083721496 -0.101531744
0.114895456 0.14960268 0.16998383 0.10855071 -0.120884135 -0.14541331 0.0361052 -0.14745894
0.07131898 0.0063487273 0.14697507 -0.023785299 -0.14242595 -0.10043128 -0.10211943 -0.014082442
-0.17676426 0.09896786 -0.16513427 -0.16178286 -0.106258675 0.09325643 -0.014550567 0.009791597
0.0050357054 -0.08395454 -0.102522165 -0.09481667 0.09131284 0.10162476 0.15620801 -0.11019173
-0.09554811 -0.08228631 -0.039539095 0.10464664 0.113752365 -0.114863314 -0.099833556 0.07699909
0.015827803 0.13705587 0.033929847 0.023508007 0.0279232 0.00680769 0.13491008 0.1533128
0.040863898 -0.13122042 0.07619754 0.17241833 0.14670312 0.038948324 0.0028490333 -0.11667567
-0.0014067783 0.12790789 0.10322419 -0.034479674 -0.0013816948 0.019517202 0.074410304 -0.06278877
0.058237858 -0.16422924 -0.12528108 0.16678326 -0.105917476 0.028727565 0.13653122 0.034173213
-0.13796711 -0.13787983 -0.03357871 0.108120106 -0.03285866 0.09852544 -0.1417632 -0.12075696
0.08547846 -0.052109517 -0.113386564 -0.15046255 -0.06798691 -0.046264075 0.090131484 -0.024050336
0.11802555 0.091379665 0.13559923 -0.06693748 0.036289304 -0.023710415 -0.02102302 -0.12804422
0.15260659 0.025006257 -0.14361946 -0.06427921 -0.16205423 -0.009151406 0.045475796 -0.095460415
-0.095489606 -0.12811367 0.09530592 0.08578436 0.07067008 -0.17421915 -0.088507645 0.1577801
-0.14028983 0.1481032 0.1739569 -0.12670219 -0.007088689 -0.0067492 -0.1086594 0.05396842
-0.11416818 -0.037563264 -0.12074486 0.16148801 -0.16422929 0.07635096 -0.11035778 -0.08257905
-0.05922303 0.14794987 0.06849958 0.11361546 0.114571355 0.011408708 -0.11980254 0.14763369
0.08773405 0.1309334 0.1736194 -0.07200883 -0.13857473 -0.0135849845 -0.010426525 0.1173361
-0.05033247 0.17288335 -0.0403691 -0.05803154 0.116495654 -0.11687164 0.14051187 0.028706191
-0.12104884 -0.1585394 -0.09917123 -0.16242538 -0.17004971 0.15241426 -0.06184676 -0.04503891
0.072971635 0.06661416 0.10733018 -0.10428222 -0.04919242 -0.039569214 0.14238167 -0.09467007

mlp_base.2.bias f4 [32]
00000000: 557a af3d 572f 8fbd 19f4 223e e534 15bd
00000010: cf82 033e 7f6c 133e 66ec 1d3e 58d3 823b
00000020: 2d2f bc3d 2d8b c3bd bea2 813d 8916 c83c
00000030: a265 1a3e b961 e2bd 39e3 81bd 8008 1b3e
00000040: cbcf 263e 5550 a33d 9365 293e b819 55bd
00000050: 2485 8ebd 7806 2fbd a0fd 67bd 7d36 21bd
00000060: e835 2ebe 3ad6 923d 9235 063e a567 193d
00000070: 022d de3d a59b 2d3e c294 68bc be1e 15be
0.08568255 -0.06991451 0.15913428 -0.036427397 0.12842868 0.14396857 0.1542221 0.0039924793
0.091886856 -0.0954803 0.06329869 0.024424808 0.15077832 -0.11053795 -0.063421674 0.15139961
0.16290204 0.079743065 0.16542654 -0.05202648 -0.06958988 -0.04273078 -0.05663836 -0.039358605
-0.17012751 0.07169767 0.13106373 0.03745236 0.10848428 0.16953905 -0.014195623 -0.14562508

actor_head.0.weight f4 [64, 1600]
00000000: 44ca d43b 7048 58bc f21a e0ba 7039 31bc
00000010: 5769 04bc 948f c63c 51f7 b5bc 3388 ba3c
00000020: 5e6d dbbb 7ae6 4f3b 8bf4 aa3c 3514 a2bc
00000030: eab3 803c 2a79 cd3c 26ca bd3b a1aa 073c
00000040: e8a6 ef3b 02d3 70bc 7a87 573b 8090 3cbc
00000050: 7bda ba3c 1c80 d838 a94e 5dbc 73bf d53c
00000060: 5ef7 ebbb bcc9 4bbc cf93 803c cc9c 883c
00000070: 2cc0 9abc 9a00 ad3c 5477 9d3c ff62 8ebb
00000080: 2f6e b43b ad2f b43c e166 7bbc cfdb 19bc
00000090: adb5 963c 9974 99bc 553d ad3c 6a42 52bb
000000a0: aa48 ad3c 1448 7bbc ea78 d63a f172 783c
000000b0: 5c2c 30bc 44ef 9b3b 6c94 903c 467d 58bc
000000c0: 5e5a bcbc 5d31 27bc ecdc 58bc 5ce7 37bc
000000d0: 7ffd 0abc ecb6 b03c 6b21 913c f079 273c
000000e0: c200 db3b 4bbf 4a3c e50e eabb a8a7 84ba
000000f0: f730 19ba 7778 1e3c d0d8 44bb faff c03b
00000100: 24bf 86ba 83f1 c23c 4223 673c ce59 aabb
00000110: 6850 093c 12dd 8a3b 4327 e43b a06f daba
00000120: 3f47 d83b 7252 afbc f41a c73b 975c b23c
00000130: 0cac 1abc c7a1 c03c 38cd d7bb fb41 413c
00000140: 8cbe cf3c 315d 42bc ccfa 76bc cd46 653c
00000150: 6530 9bbc 7a9c d6bb a9f8 cdba 14fe 683b
00000160: 1ae3 2f3c 27d7 a63c d52e 3939 6cab c33c
00000170: de68 4abb e647 b23c aa4e d83c 9da2 433c
00000180: 4102 3f3c c0cc bc3c 8698 fd3b 81e4 b23c
00000190: 24ff 1a3c 1b95 eb3b 7b23 6bbb 43f6 843b
000001a0: 75dd ac3c 7d81 dcbb c5c9 42bb 61aa bf3c
000001b0: 123a 6abc 6e6e 1c3a 365b 19bb 8915 c4ba
000001c0: fefb 51bc d93f 063c 1b42 5d3b 83d1 e7bb
000001d0: b713 a73c 9380 8bbb c80f bbbc a678 9a3c
000001e0: 7d44 ca3c 0e07 9d3c 7eb1 c03c 72ef c5bc
000001f0: 4224 e6bc 28df 25bc eb38 a73c d481 c73c
00000200: 80f4 8b3c bab3 b7bc a219 3abb b8c0 8cbc
00000210: 1483 833c b270 54bb 525c 743b 6d50 ce3c
00000220: 537a e23b b0a1 d33c 8169 a03c 051f a5bb
00000230: 3146 d23c c46f 96bb 5b42 893b 63cb bcba
00000240: a423 52ba 2cec d43c acd5 2e3b 7c6b 3dbc
00000250: f248 a2bc 8a67 01bb 1803 0838 dd85 463b
00000260: bddf 50bc 6c21 a8bb fb7a 653c 2a8b 0c3c
00000270: a63a ff3b b0ce ba3b 2c45 33bb 52e0 213c
00000280: 8c26 36bc c57f 16ba acbe efbb 1a04 b1bc
00000290: b558 263c 4eb5 d8bb 9f2b f03b d681 43bb
000002a0: b7de 66bb c8db 813c 0176 74bc c895 9ebc
000002b0: 3772 80bb 8c7c 67bb e7a4 083c c315 c53c
000002c0: 58f1 77bc 5f92 f33b 98e6 0c3c d8ad a0bc
000002d0: 745c dabc d035 8f3b c76b 343c 5299 ba3c
000002e0: 0a5d f4bb 3142 a0bb b400 42bc d500 ffbc
000002f0: 142c 21bc 804d c23c 70fa 943c c9ef 7f3b
00000300: 3631 88bb 3f10 9b3c c24c 7e3c e736 8d3c
00000310: 1380 82bc 82e8 033b 7350 8ebc 2ce2 283c
00000320: 65af 15bc ada7 48bc 2087 dc3c 91fa c43c
00000330: 349d 4d3b fb8c d53c ece2 92bc bc17 b1bc
00000340: 698c aabc f76a 14bc 2325 a8bc 0862 bcbb
00000350: db4f cbba 7e40 c4bb 53ef e8bb 00f3 13bc
00000360: 6aec 933c 0247 443c aa1c debb 1e8e b1bc
00000370: 4ff2 c4bc 8a04 68bc 17b4 2d3c 534d 563c
00000380: d336 b03c a5c6 a43c 26e3 853c 6947 6c3c
00000390: 1c86 a13a fec5 1abc 0b26 adbc a579 84bc
000003a0: 7f9e 34bb fe4c a43c 116b 34bc 7b0e 6dbc
000003b0: 0c0b f6bb bf59 253c a1af c03c eccd d33c
000003c0: 180d a13a 63c6 1abc f7bd 643b 38ab d33c
000003d0: f4b2 6d3c 4402 463b e3ec ab3c d590 b83c
000003e0: 4ec4 8a3b 39e0 e7bc 0d01 8bbb 4357 c43c
000003f0: e887 51bc d257 673c 2e53 90bc ce0b 3a3c
0.0064938385 -0.013200864 -0.0017097874 -0.010816917 -0.008081756 0.024238385 -0.022212656 0.022770023
-0.006696387 0.0031723068 0.02086856 -0.019785026 0.01571079 0.02508219 0.0057919202 0.008280427
0.007313598 -0.014698746 0.0032887147 -0.011509061 0.022809258 0.00010323545 -0.013507524 0.026092267
-0.0072011193 -0.012438234 0.01569548 0.01667633 -0.018890463 0.02111845 0.01922194 -0.0043452973
0.005506299 0.02199539 -0.015344352 -0.009390785 0.018397177 -0.018732356 0.02114741 -0.0032083043
0.021152813 -0.015337009 0.001636294 0.015164123 -0.010752764 0.0047587473 0.017648898 -0.013213461
-0.02299231 -0.01020464 -0.013236266 -0.011224594 -0.00848329 0.021571599 0.01771613 0.010221943
0.00668344 0.012374709 -0.007142889 -0.0010120766 -0.0005843783 0.009672276 -0.0030036457 0.00588989
-0.0010280353 0.023796802 0.014107527 -0.005198694 0.008380987 0.0042377794 0.006962688 -0.0016665347
0.00660029 -0.021401618 0.006076211 0.021772666 -0.009440433 0.023514641 -0.0065857433 0.011795516
0.025359415 -0.011863039 -0.015074443 0.013993931 -0.018943975 -0.006549415 -0.0015714365 0.0035551833
0.010735298 0.020366265 0.00017660421 0.023885451 -0.003088526 0.0217628 0.026404697 0.0119406255
0.011658252 0.023046851 0.0077391295 0.021837475 0.009460244 0.0071894056 -0.0035879302 0.004057677
0.021101693 -0.0067293034 -0.0029722315 0.023396673 -0.014296072 0.0005967383 -0.0023400313 -0.0014960031
-0.012816427 0.008193933 0.0033761326 -0.0070745363 0.020395143 -0.0042572706 -0.022834674 0.018856358
0.02469086 0.019168403 0.023522135 -0.024162028 -0.028093461 -0.010124005 0.020412883 0.024353899
0.01708436 -0.022424567 -0.0028396626 -0.01718174 0.016053714 -0.0032415804 0.0037286473 0.025184834
0.006911555 0.025833935 0.019581558 -0.005039098 0.025668235 -0.00459096 0.0041888184 -0.0014403876
-0.0008016175 0.025991522 0.0026677651 -0.011561271 -0.019810174 -0.0019745552 3.2427808e-05 0.003029219
-0.012748656 -0.0051309373 0.014006372 0.008578101 0.007788974 0.0057009086 -0.0027354462 0.009880142
-0.011117589 -0.0005741085 -0.007316431 -0.021608401 0.010152985 -0.00661341 0.007329419 -0.0029832027
-0.0035227963 0.01585187 -0.014920712 -0.01935853 -0.0039198655 -0.0035322038 0.008340097 0.024058228
-0.015133224 0.0074332203 0.0085999 -0.019614145 -0.026655413 0.0043704286 0.011012024 0.022778187
-0.00745738 -0.004890703 -0.011840988 -0.031128326 -0.009837169 0.023718596 0.018185824 0.0039052835
-0.004156257 0.018928645 0.01552123 0.017238094 -0.015930211 0.00201276 -0.017372346 0.01030783
-0.009136056 -0.012247008 0.026919901 0.02404526 0.0031374218 0.026068201 -0.01793047 -0.021617763
-0.020818906 -0.0090587055 -0.02052552 -0.005748991 -0.001551147 -0.0059891334 -0.007108608 -0.009030104
0.018057067 0.01197982 -0.0067783194 -0.021674212 -0.024041323 -0.014161238 0.010602019 0.013079959
0.021510517 0.020114252 0.016343664 0.014421322 0.0012323293 -0.009446619 -0.021136304 -0.016171286
-0.0027560291 0.020056244 -0.011011855 -0.014468784 -0.007508641 0.010092198 0.023521246 0.025855027
0.0012287227 -0.009446713 0.0034903267 0.02583848 0.014507998 0.0030213753 0.02098698 0.022529999
0.004234827 -0.02830516 -0.0042420686 0.02396739 -0.01278875 0.014120059 -0.017617788 0.0113553535

actor_head.0.bias f4 [64]
00000000: 166b 16bb d3e4 74bc 8899 82bb 95ce d8bb
00000010: a20e a83c bc09 9d3c a443 2139 32af fbbb
00000020: 88f8 d13c 22a7 c73a 436d 823c 21b5 1e3c
00000030: c03f c03b 1ee0 48bb f6cb 96bc 2df6 a6bb
00000040: 42ea 2a3c 99ca 073d 932c 393c 9c30 443c
00000050: b2f5 703a a92a bb3c 3f79 9dbc 5d7e 553c
00000060: d530 01bc 168e d23a bc38 8bbc 336b f2bb
00000070: 0b20 1abc 24e8 9fbc 89b4 91bb 15c2 b03c
00000080: d1d7 8e3c ddb7 2fbc ef2d 9a3c db79 863c
00000090: 016b 47bb e43a c63c 4f2f 47bb d59c 18bb
000000a0: fcae 99bc e2de 23bc 4e9f 703c 2374 38bb
000000b0: 6791 a63c 6c0c 3fbc acbe 0eba 923f 8dbb
000000c0: 8993 94bc d456 3e3c 71e1 6fbc c080 95bb
000000d0: e364 953c 9348 09bb de0a b1bb 8fa5 413c
000000e0: dd2f 863c 26ae a03a ea72 e6bc e061 a2bc
000000f0: c58d 46bc 21ca bbbc e34f 36ba 8243 0a3c
-0.0022952012 -0.014947134 -0.0039855875 -0.0066164234 0.02051479 0.01916968 0.00015379355 -0.007680797
0.025631204 0.0015232305 0.01592124 0.009686739 0.0058669746 -0.0030651162 -0.018407803 -0.0050952644
0.010431828 0.033152197 0.011302131 0.01197448 0.0009191885 0.02284749 -0.019222854 0.013030616
-0.007885178 0.0016064073 -0.016994826 -0.007398033 -0.009407054 -0.019519873 -0.0044465703 0.02157692
0.017436894 -0.010724989 0.018820731 0.016415527 -0.003042877 0.024198003 -0.0030393188 -0.0023286839
-0.018760197 -0.01000187 0.014686419 -0.0028145395 0.020333005 -0.011660676 -0.00054452824 -0.0043105567
-0.018136756 0.011617381 -0.014641152 -0.0045624673 0.018236583 -0.0020947799 -0.005402907 0.011819257
0.016380245 0.0012258932 -0.028130967 -0.019822061 -0.012118761 -0.022923531 -0.0006954653 0.008438947

actor_head.2.weight f4 [2, 64]
00000000: 6bcf 843d a1fe aebd 4edc abbd c12e 473d
00000010: e95a 023e a780 823c 594d 173b f044 543d
00000020: ed21 9e3c 3e33 aabc f7c6 063d caa5 d73d
00000030: 12a1 c3bd d68e ca3d 3546 adbd 341b a7bd
00000040: 6cde 823c d257 c83d e3aa ba3d d3b8 063e
00000050: 7c25 b83d 44eb 953d 2d6c 803d e2f4 aebd
00000060: 003b ad3d 4a44 e6bc bbbd d1bd 70f9 fdbb
00000070: 9fc0 b13a 8040 aebd 6ff6 ec3c c845 97bd
00000080: 2861 bdbd d970 183d 7ea2 83bd 82cc d5bc
00000090: b04f 7fbd 5e8b 8ebd 3e14 78bb 262d a9bd
000000a0: 672a bdbd 3016 8bbd 2e43 5a3d 5b8e 6bbc
000000b0: 5cb8 b33d 6a17 823d d3e8 7bbd 2742 143d
000000c0: 6bae c33d 767d 36bd e2d5 b6bd 093e e9bc
000000d0: 15b0 33bd 7f88 60bd 32b0 1b3d f5f9 5d3c
000000e0: f060 54bd 4d75 673d 8a51 523d 374a 883d
000000f0: ef84 81bd 7bff e8bd ebaa 8a3d 3c08 7e3d
00000100: 50b4 0a3c 6d21 eabd b3cc b73d f606 a3bd
00000110: e916 f8bd 38e4 a93d e2b3 ec3d b028 e4bd
00000120: 0638 b6bc d03b 48bb ac0f ff3d d287 f7bd
00000130: 7b4f a93b 96f6 b53d 46a6 3e3d 0af7 363c
00000140: 523b d239 9591 313d f9e8 84bd a5ad 243c
00000150: 8071 b23d 4790 83bb 407d 703d 940e f33d
00000160: 722c dbbd 36ee 8cbd 2407 52bd 66f7 973d
00000170: fcee cbbd b1a2 ebbd 57bf 2a3d a4a0 e6bd
00000180: 4847 833d fb11 b7bd 7d16 ecbc 7a1b 103c
00000190: 9097 84bd 4cb6 b03d cf25 52bd 9d56 6bbc
000001a0: f638 99bd e3fa 2a3d 4429 883d 270e fb3d
000001b0: 2b4d d23d 884d 82bc 9833 07bd 0cd7 dabd
000001c0: df70 ecbd 3415 8f3d e833 bc3d b433 4cbd
000001d0: 6270 93bd 6750 cf3d 28dc 9a3d 5d54 fa3d
000001e0: 7808 58bd 57a1 193c bacd 1abd cb97 cc3d
000001f0: a99a 903c 338d e13d f2ad d7bc e5c6 76bd
0.06484874 -0.0854466 -0.08391629 0.048628572 0.12729992 0.015930487 0.0023086874 0.051823556
0.019303286 -0.020776387 0.03290459 0.10529669 -0.09552206 0.09890525 -0.084606566 -0.081594855
0.0159752 0.097823754 0.09114625 0.13156442 0.089915246 0.07320264 0.06270633 -0.085428014
0.08458519 -0.028108735 -0.10241266 -0.0077506825 0.0013561434 -0.08508396 0.028926102 -0.073863566
-0.09247047 0.037216995 -0.06427477 -0.026098493 -0.062331855 -0.06960176 -0.0037853862 -0.082605645
-0.09236603 -0.06791341 0.053286724 -0.014377202 0.08775398 0.06352122 -0.061501335 0.0361959
0.09554752 -0.044553243 -0.08927514 -0.028471963 -0.043869097 -0.054817673 0.03800983 0.013548364
-0.05185026 0.05650835 0.051347293 0.0665478 -0.06324183 -0.11376854 0.06770881 0.06201957
0.008465841 -0.11432157 0.0897459 -0.07960312 -0.12113745 0.082954824 0.115577474 -0.11140573
-0.022243511 -0.003055323 0.12454161 -0.120864525 0.0051669455 0.08884923 0.04654529 0.011167297
0.00040098518 0.04335173 -0.064897485 0.010051166 0.08713055 -0.004015002 0.058713198 0.11868015
-0.10701837 -0.06881373 -0.05127634 0.074202344 -0.09957692 -0.1150564 0.041686382 -0.112611085
0.0641008 -0.089389764 -0.028819317 0.008795613 -0.06474221 0.0862852 -0.05130559 -0.014363912
-0.074815676 0.04174317 0.06648496 0.12258559 0.10268625 -0.01590611 -0.033008188 -0.10685548
-0.11544966 0.06986466 0.09189588 -0.049853995 -0.0719917 0.101227574 0.07561523 0.12223122
-0.05274245 0.009376845 -0.037793852 0.0998989 0.017651873 0.1101326 -0.02632806 -0.060248274

actor_head.2.bias f4 [2]
00000000: 47d2 4abd 46c1 c53c
-0.049516942 0.024140012

critic_head.0.weight f4 [64, 1600]
00000000: 32cb 67bc 917e 59bb 254d 29bc 83b1 50bc
00000010: 1783 80bc 3a60 c53b 783c efbb f8c1 9a3b
00000020: e4df 103b 672a c0bb e09c c1bb c899 71bc
00000030: 577f 4cbb e32a 2abb 644f 3a3b 63c5 823c
00000040: 2839 b6bc 9886 b8bb a1c7 11bc 3b43 c8bb
00000050: 42c2 d9bc e755 2e3c be21 93bc a572 2c3c
00000060: b56e a2bc fdd9 e2bb ac55 29bc c9c9 98bc
00000070: 986b e439 458c 013c 29f5 d3bc d804 883b
00000080: 2b50 723c 4ff2 3dbc ef64 9e3c db51 a0bc
00000090: 8c89 f93a 8b1c 433a 6b95 a0bc 69c0 003c
000000a0: 659c 573c 9b39 cebc 87e9 95bc 13b7 f63b
000000b0: 8ed5 373c 3855 f5bb 2be1 94bc 3f20 0e3c
000000c0: da82 b0bc 96de 203b 3c4c 3bbd d5db 12bd
000000d0: 2d32 0f3c 5d9e 23bd 8203 36bd a0af d43b
000000e0: 052a 2ebd 3f1c b5bb 8ca0 913c e705 1e3c
000000f0: f953 54bc 89b5 363b 733b d7bc d455 d83c
00000100: 58c0 8fbc b6b3 54bc 0d89 0fbd 908c 413c
00000110: 359c c73c ca0c c23c 0f69 09bd ad5e c93c
00000120: 001f d1bb 96c3 08bc 2cba 5f3b 8f24 dc3c
00000130: ddda 21bd 9138 efbc d58f 0c3d 5f09 a1bc
00000140: ca04 aabc b423 c6bc 7283 a73b 40d9 ba3b
00000150: 4330 09bd a6b7 cf3c c3f0 8a3c 06b8 47bc
00000160: 43d0 14bc 94f9 6ebc dbcb ad3c 0708 9c3a
00000170: aa39 83bd c663 d23b 0f31 34bc 48c2 fa3b
00000180: 7509 fa39 4a69 153c aae0 693a 3c25 5e3c
00000190: f445 493b 15c1 1f3c 1ac9 053c fae1 9bbb
000001a0: ae4d ee3a 0edb 1ebc 2504 97bc ccf8 023b
000001b0: 8da6 6dbb 9647 2a3b d810 16bc 0f3e 36bb
000001c0: 5316 89bc c496 823c 56a6 dcbc 355c e6bb
000001d0: 6f15 653c ec1b 5a3c 818f b03c 924e 6b3c
000001e0: fc6b 47bc dbdd 223c f81d efbb c374 a63a
000001f0: c292 e6bb 616d 93bb ed2f 39bc 4092 67bc
00000200: 9f9d f53a 6db6 583c 393f 563c d3ed adbc
00000210: 995d 35bc 82ef 86bc 6e76 1b3c 66eb 85bc
00000220: 76e4 7bbc 0dba a13c 7c47 aab8 9ee7 a73a
00000230: 4526 883c 2714 133c 3ee1 b1bb 1932 8d3c
00000240: ad31 713c f628 62ba cd9b 0c3c dcb9 193c
00000250: a557 d8bc 907a 2e3c 5f45 b7bc 635c 003c
00000260: 7571 5bbc e9a5 6cbb 713d 493c 1c76 26bc
00000270: 33c9 153c b02f 073d 9d61 0e3c f907 2c3d
00000280: 3cba 06bc e7bd ab3c dbdb ff3a a107 753c
00000290: 135f cb3c 820a 26bb 40b5 e7bc 0db6 933c
000002a0: 160e 0b3c 6f37 d3ba bb5a 213c aaa2 c3bb
000002b0: c2a4 07bd 3899 983c 77b3 0ebc c18d fabb
000002c0: 16b6 4dbc 2300 793b 385a 9fbb 469b 853b
000002d0: dac8 0d3c bd51 08bd 0110 a43c 224f 06bc
000002e0: 2499 05bd c633 96bc 86fb 133d 1850 1e3c
000002f0: ef40 54bd 9532 f73b 096b cdbc f8a1 b33b
00000300: 06ae c0bb 773d 84bc 10e5 033d 7852 75bc
00000310: ae26 1cbc 3063 213c 1837 693c 6fc3 83bc
00000320: d63b d3bc e87d ddbc 03bd 97bc c6fe 043b
00000330: bdaf 83bb 3d8c f1bb edb6 c3bc f7c3 c13a
00000340: 477e 38bc 5092 8e3c 3697 df3b 4c14 9d3b
00000350: 978b 4cbc 5fba 823c 7092 ebbc 13c3 38bc
00000360: 2b8c 9c3c ffa0 02ba 9202 13bc 1859 493c
00000370: b013 49bc 8f0e 17bc 79c4 0cbc b6cb 4b3c
00000380: 72d8 b63b 8a55 67bc 6557 4cbc a888 603c
00000390: e871 dcbb 3901 31bb 460c a13c 0a34 a6ba
000003a0: 10fd 4cbc e019 193c 30e0 6abc ea58 cdbb
000003b0: 53ff 86bc 4159 9a3c 9635 96bc 0c2f 7c3b
000003c0: 385c bdbc f1a4 d0bc 9fbf 8bbc 55a4 413c
000003d0: eba7 6bbc 9f24 9fbd 2a64 a4bc ee1e a93c
000003e0: 4c9c 843d 3aaa e6bc d896 f53a 3f0b 813c
000003f0: b5ad e7ba 0d62 713d 8689 3c3b e9e7 d4bc
-0.014147567 -0.0033187012 -0.010333334 -0.012737635 -0.015687509 0.006023434 -0.0073009096 0.00472283
0.0022106105 -0.0058644298 -0.0059085935 -0.014746137 -0.003120383 -0.0025965504 0.0028428668 0.015963262
-0.022244051 -0.005631279 -0.008897693 -0.00611153 -0.026581887 0.010640598 -0.017960425 0.01052538
-0.01982818 -0.006922959 -0.010335367 -0.018650906 0.00043567712 0.007906978 -0.025873737 0.004150968
0.014789621 -0.011593415 0.019335238 -0.019570282 0.0019038185 0.0007442913 -0.019602498 0.007858374
0.013159846 -0.025173953 -0.018299831 0.0075291484 0.011220349 -0.0074869655 -0.018173775 0.00867468
-0.02154677 0.0024546734 -0.045727 -0.03585418 0.00873999 -0.03994595 -0.04443694 0.0064906627
-0.04252054 -0.005527049 0.01777675 0.009644962 -0.012959474 0.00278792 -0.026273465 0.026408114
-0.017547771 -0.0129823 -0.03504281 0.011813298 0.024366478 0.023687739 -0.033547457 0.024581278
-0.0063818693 -0.008347413 0.0034138067 0.026872901 -0.039515365 -0.029201778 0.034316856 -0.019657789
-0.020754237 -0.024186946 0.005112105 0.0057021677 -0.03349329 0.025356125 0.016960507 -0.012189871
-0.009082857 -0.014585871 0.02121537 0.0011904248 -0.06407483 0.0064205853 -0.010998025 0.0076525547
0.00047690762 0.009119341 0.0008921722 0.013558682 0.0030711861 0.009750624 0.008165622 -0.004757163
0.0018181109 -0.009695781 -0.018434593 0.001998472 -0.0036262602 0.002598261 -0.009159289 -0.0027807986
-0.016734278 0.015941031 -0.026934784 -0.007030035 0.013982161 0.013312321 0.021552803 0.014361994
-0.012171742 0.00994059 -0.0072972737 0.0012699593 -0.007036538 -0.004499123 -0.01130293 -0.01413399
0.0018738991 0.013227087 0.013076597 -0.021231567 -0.011069679 -0.016471628 0.009488685 -0.016347598
-0.015374294 0.019742036 -8.119547e-05 0.0012810116 0.01661981 0.008976973 -0.0054284623 0.017235802
0.014721316 -0.00086273195 0.008582068 0.009382691 -0.02640898 0.010649338 -0.022371946 0.007834527
-0.0133937495 -0.0036109632 0.012282715 -0.010159995 0.009142208 0.033004463 0.008690265 0.04199979
-0.008223113 0.020964576 0.0019520478 0.014955432 0.024825608 -0.0025335853 -0.028284669 0.018031145
0.008487245 -0.0016114543 0.009848292 -0.005970319 -0.03311611 0.018627748 -0.00870978 -0.007646293
-0.01255562 0.0037994466 -0.00486305 0.004077348 0.008653844 -0.033281077 0.020027163 -0.008197578
-0.03261675 -0.018335234 0.036128543 0.0096626505 -0.051819738 0.0075438716 -0.025075452 0.0054819547
-0.00588012 -0.01614259 0.032200873 -0.014973275 -0.009530706 0.009850308 0.014234327 -0.016084401
-0.025785368 -0.027037576 -0.018522745 0.0020293458 -0.0040187524 -0.007371454 -0.023890937 0.0014783134
-0.011260576 0.017403752 0.0068234457 0.0047936793 -0.012484453 0.01595801 -0.02875635 -0.011276978
0.019109806 -0.0004983097 -0.008972781 0.012289308 -0.01227276 -0.00921978 -0.008591765 0.012438705
0.0055800015 -0.014119515 -0.012472008 0.013704456 -0.006727446 -0.0027008785 0.019659173 -0.0012680304
-0.012511507 0.009344548 -0.014335677 -0.006266703 -0.01647917 0.018841388 -0.018336099 0.003848019
-0.023115262 -0.025469275 -0.017059145 0.011818965 -0.0143832965 -0.07770657 -0.020067293 0.020644631
0.06475124 -0.028157342 0.0018736972 0.015752433 -0.001767567 0.0589314 0.0028768494 -0.02598949

critic_head.0.bias f4 [64]
00000000: 9c93 ad3b 0bd0 f2bc a683 65bc a324 b7bc
00000010: 037a 773c 10d2 92bc 92db 873c 33cb 91bc
00000020: 411f eabc ab44 eebc ef7e 623a 9096 3cbc
00000030: d216 9bbc 7daa b83b a4a1 90bc 7839 0fbb
00000040: c3bc 10bb c365 a53c c901 a4bc dd4f bc3c
00000050: d239 a4bb 8e47 8dbb 1910 5c3c 1421 3c3c
00000060: 4a94 063c 29bf cfbc 8606 95bc 169f 203c
00000070: 93b6 a43b a3a5 f1ba c336 19bc a6cb 193c
00000080: 56e3 753c 6fe5 c93c e377 e4bc f0fb 9f3b
00000090: 65c3 403c 1674 ee3c 7f38 10bc cbfc 0abb
000000a0: c090 183c a0bf d13b 9fcc 97bc f84f 78bb
000000b0: 27b3 6fbb 0c17 2d3c 0611 143d f842 463c
000000c0: 6837 32bc fa78 8dba 640d 5abb 581f 05bd
000000d0: 9238 e8bc bc75 5cbc 7b0a f5bc ca39 46bc
000000e0: 8c5b c6bb 36ec 023c 282f 5dbc 4039 5c3b
000000f0: 4eb2 39bc f80c c93c 8c13 06bc 3cc5 9dbb
0.0052971374 -0.029640218 -0.014008438 -0.022356337 0.015104773 -0.017922431 0.016584191 -0.017797088
-0.028579356 -0.029085478 0.00086401304 -0.011510506 -0.01893178 0.005635558 -0.017655201 -0.0021854322
-0.0022085167 0.020190125 -0.020020382 0.0229873 -0.0050117755 -0.0043115085 0.013431572 0.011482496
0.008214066 -0.025359707 -0.018191587 0.009803554 0.0050266474 -0.0018436204 -0.009351435 0.0093869325
0.015007814 0.024645535 -0.027889198 0.004882328 0.011765336 0.029108088 -0.008802532 -0.0021207805
0.009311855 0.0064010173 -0.018530188 -0.0037889462 -0.003657529 0.010564577 0.036149047 0.0121009275
-0.010877468 -0.00107935 -0.0033272142 -0.032500595 -0.028347287 -0.013455804 -0.029912224 -0.012098739
-0.0060533937 0.007990887 -0.013500012 0.003360346 -0.011334015 0.024542317 -0.008183371 -0.004814772

critic_head.2.weight f4 [1, 64]
00000000: 2a6a a83d 4dde f43c 1529 70bd 91fd e63d
00000010: 7a97 b3bd 9323 143d 2d9a cebd 1626 73bd
00000020: 541a 213c 2244 dc3b c106 a93d 870a 913c
00000030: 839e 773c 8b04 cb3d 7ea7 ebbd ad91 0fbd
00000040: 50b7 d43d 30f5 103d fb26 cbbd 02eb a5bd
00000050: 21ff c03d 3515 f43b 4760 913c bde6 c9bd
00000060: 5718 c9bc 5836 b2bd 7ab5 c63d 0032 b7bb
00000070: d00f 81bd de1d 5a3b 39e5 c23c 43df b4bd
00000080: fe00 21bd 4080 d1bd 8b92 143c 7db3 873d
00000090: 441e 88bd a317 d9bd cc05 e43d c84c f4bc
000000a0: 8d0e b6bd 7fb4 e0bd b70f f43c 89dc 0abd
000000b0: 3bf0 3b3d f5d4 e7bd 022b 6abd cce0 b33d
000000c0: edd3 06bc 5924 953d 606a f03d 912d cb3d
000000d0: 7111 a53d 433d e6bd 39c9 7e3d b409 b13b
000000e0: b90f e13d b425 973d 3ab5 1b3d 3a6f 813c
000000f0: 6698 743d bfff bcbd aed3 213b 0925 533d
0.08223374 0.029891158 -0.05863293 0.11278833 -0.08769126 0.03616674 -0.100880004 -0.059362493
0.009832937 0.0067219893 0.08253241 0.017705215 0.015113476 0.09912976 -0.11506556 -0.035051037
0.103865266 0.03539008 -0.09919544 -0.08101465 0.09423662 0.007448817 0.017746104 -0.09858463
-0.024547739 -0.087017715 0.09702583 -0.0055906773 -0.06301844 0.0033281962 0.023790943 -0.08831646
-0.039307587 -0.1022954 0.009068142 0.066260315 -0.06646398 -0.106002115 0.11133918 -0.029821768
-0.08889494 -0.10971927 0.02979265 -0.033901725 0.0458834 -0.11319915 -0.05716992 0.08783111
-0.008229238 0.072823234 0.117390394 0.099208005 0.08059967 -0.112421535 0.06220362 0.005402768
0.10989327 0.07380238 0.038014628 0.015800107 0.05971565 -0.09228467 0.0024692821 0.05154899
