project_files/saved_models/ppo_policy_camera_cnn_whole_circle.pth (torch, 851205 bytes, 15 tensors)

cnn_base.0.weight f4 [16, 1, 3, 3]
000000 26 81 9a 3d 25 71 8a 3e ca 7b 2a 3e 82 3d 51 be
       0.07544164 0.27039447 0.16648784 -0.2043362
000010 4d 13 05 3d 8d ea 0f 3e 54 f6 4c be bc 08 a2 be
       0.03248911 0.14054318 -0.20015842 -0.3164729
000020 76 27 2d be eb a1 aa be b2 3f a0 3e 2e e6 01 3d
       -0.16909584 -0.3332666 0.31298596 0.031713657
000030 f3 91 8e be 1e 75 ec 3d 7c f9 38 bd 18 b0 40 3d
       -0.27845725 0.11545776 -0.0451598 0.047042936
000040 6f 38 c0 bc fa 94 9d 3e 38 a3 c4 bd df b2 23 3e
       -0.02346441 0.30777723 -0.09601444 0.15986203
000050 b7 91 b9 3d f8 a5 17 3d 48 78 8b be d4 37 2c be
       0.09060996 0.037023515 -0.27240205 -0.16818172
000060 fd a7 13 3e 32 be 27 3e ac 50 a3 be a4 16 d3 bd
       0.14419551 0.16381148 -0.31897485 -0.10307053
000070 11 72 94 3d 02 97 df bc bc 0c 89 be 00 5d 3d be
       0.07248319 -0.027293686 -0.26767528 -0.18492508
000080 d3 8d 73 be 76 1e a1 3e c9 09 23 bd ab ce 5a be
       -0.2378457 0.31468552 -0.039804254 -0.213679
000090 01 bb 94 3e d5 68 c2 3d ba bf 27 3e ca 3e af bc
       0.29048923 0.094926514 0.16381732 -0.021392245
0000a0 d4 82 1a be de b9 88 3d a2 f2 e3 bd 6f 71 ab be
       -0.1508897 0.06676076 -0.11130263 -0.3348498
0000b0 f9 d5 fa 3d 59 03 d0 3d d0 3d dd 3d 56 e9 14 be
       0.12247843 0.101568885 0.108028054 -0.14542136
0000c0 1b b7 53 3e 85 30 49 3e eb bb 26 3e 78 c4 2d 3e
       0.20675318 0.19647415 0.16282623 0.16969478
0000d0 4a f3 84 3e 98 b6 44 3e 67 86 ac bd d7 97 30 bd
       0.25966865 0.19210279 -0.08424073 -0.043113556
0000e0 4c 2f 81 3e 8d be 11 3e f6 c0 9c bd 60 45 87 be
       0.25231397 0.14232846 -0.07653992 -0.26420116
0000f0 ee ff 2a 3e 93 7e 84 be 85 0a 4c be 4f 47 b0 3d
       0.16699192 -0.25877818 -0.19925888 0.08607351
000100 21 54 f5 bd 92 2f b4 3d aa 4f 8d be 28 5c 60 3c
       -0.11978937 0.08798136 -0.2759984 0.013693847
000110 31 d7 d3 3c 18 57 d6 3d bc 52 7f bc 2a c1 58 be
       0.025859447 0.104658306 -0.01558369 -0.21167436
000120 41 e5 97 bb 15 d8 ab be 2c 76 96 3e 8e 6f 8e be
       -0.0046354835 -0.33563295 0.29387033 -0.27819484
000130 c7 25 06 3e 90 e0 e5 bd 92 28 61 3e d0 53 22 be
       0.13100348 -0.112244725 0.21988133 -0.15852284
000140 5a 2e 81 3e 54 a8 cb 3d 42 c5 09 3e a6 03 f4 bd
       0.25230676 0.099442154 0.13454154 -0.119147584
000150 0b 78 35 3e f5 1e a5 bd b6 44 61 bc 7a 71 4f be
       0.17721574 -0.08062545 -0.013749292 -0.20258132
000160 79 53 38 be df 54 ac be b9 72 72 3e ae 60 82 3c
       -0.18000592 -0.33658502 0.23676576 0.015915241
000170 3c fe 3e bc 93 7a 76 bd 27 e8 a2 be 74 0f 10 bd
       -0.011657294 -0.06017549 -0.31817743 -0.035170987
000180 03 b0 a3 3d bf 31 bb bc 73 58 80 be 7d 75 74 3e
       0.07992556 -0.02285087 -0.2506748 0.23872943
000190 6d 35 46 bb d2 ca 83 be 9d 51 89 bd 0e a3 2a 3e
       -0.0030244247 -0.25740677 -0.067050196 0.16663763
0001a0 30 17 21 bd 1b c3 a4 be f7 a6 67 be 34 47 8f be
       -0.039328754 -0.32180104 -0.22622286 -0.2798401
0001b0 49 6b 54 be 17 49 28 be fc 3e 52 3d 84 b1 04 bd
       -0.20744051 -0.16434132 0.051329598 -0.032395855
0001c0 7e 6c 6d bc 44 ea 68 be 7f 04 2c be 91 f3 06 be
       -0.014491199 -0.22745615 -0.1679859 -0.1317885
0001d0 56 7e a1 3e 13 48 9b be b3 15 46 3e df 84 60 3e
       0.315417 -0.30328426 0.19344215 0.21925686
0001e0 0d 2d a4 3d 4b 3c ca bb b8 ec a8 3e 8d 44 d4 bd
       0.08016405 -0.0061717383 0.32993102 -0.103646375
0001f0 23 b7 81 be b0 28 7e be ba d8 e9 3c 06 8c 73 3e
       -0.25335035 -0.24820209 0.028545726 0.23783883
000200 cc 81 1a 3d 77 29 68 be d3 b9 b2 bc 46 d6 bc bd
       0.03772144 -0.22672068 -0.021817124 -0.09220557
000210 ea b1 b4 bc b3 01 39 be 80 aa 7a 3e b5 dc 0a 3e
       -0.022057492 -0.18067054 0.24479103 0.13560756
000220 82 f9 c5 3d d7 d6 a0 3d 69 a7 98 3e 5c d2 ab 3b
       0.096667305 0.078534774 0.29815224 0.0052435827
000230 8c f8 36 3d f7 66 6a 3e 17 d5 7d 3e cb c8 3b 3e
       0.044670627 0.2289084 0.24788319 0.18338315

cnn_base.0.bias f4 [16]
000000 8d 8d 65 b9 ee 16 45 be b0 94 d8 bd 87 c5 8b be
       -0.00021891874 -0.19247028 -0.10575235 -0.2729914
000010 bf 86 c3 bd 74 54 77 3e ec df 0e 3e 07 58 89 3e
       -0.09547185 0.2415331 0.13952607 0.26824972
000020 f3 02 30 3d e1 a0 71 bd bd 01 b8 3d bb ec 59 bd
       0.042971563 -0.058991317 0.089847066 -0.05320428
000030 52 74 8d 3d 4e b7 b6 3c 65 41 43 3e 6a 50 06 be
       0.06906952 0.022304203 0.19067915 -0.13116613

cnn_base.3.weight f4 [32, 16, 3, 3]
000000 95 14 93 3d 50 b4 1f bd 70 7a 5f 3d 0f 1f 9b bd
       0.0718166 -0.03899032 0.054560125 -0.07574283
000010 5a 38 a4 bd 7e 9c 84 3c 6f cb 46 bd 07 f3 97 bd
       -0.08018561 0.016187903 -0.048533853 -0.07419401
000020 62 2e 2a 3d 0c 8a 9e bd 77 4d aa bc 5a a0 56 3d
       0.04154814 -0.07741174 -0.020788891 0.052399017
000030 ba d1 22 bd 81 75 a2 bb 0f 73 89 3d 82 47 12 3d
       -0.039750792 -0.004957855 0.06711399 0.035712726
000040 f0 80 61 39 f9 61 95 3d 74 2c ea 3c a5 6e b5 3a
       0.00021505705 0.072940774 0.02858565 0.0013842179
000050 41 e6 8f 3d 12 6c 50 3d 33 5e 84 bd 7f 3e 40 bd
       0.07026339 0.050884314 -0.064632796 -0.0469346
000060 90 cd 9f bc 66 05 81 bd e4 fb 8d 3d 2b 6d 94 bd
       -0.0195072 -0.06299858 0.0693281 -0.07247385
000070 72 e4 fc 3c b7 2a 1b 3d 22 13 60 3d d1 97 5f 3d
       0.03087065 0.037882533 0.054705746 0.054588143
000080 4e ef 4b bd 3f 48 a4 bc 92 42 33 3d 0e e9 2f 3d
       -0.049788766 -0.02005398 0.04376466 0.042946868
000090 ca c7 8f 3d 36 f4 4e 3d 82 9a cd 3b 39 92 57 3d
       0.070205286 0.050525866 0.0062745223 0.052629683
0000a0 16 d0 0d bc 71 f5 d9 3c ab 8b 0f bc 0d 72 8e 3c
       -0.008655569 0.026606293 -0.008761327 0.017388368
0000b0 0b 88 64 3c cc 22 97 bd e5 31 78 bc b2 c2 4e bd
       0.013948451 -0.07379684 -0.0151486145 -0.050478645
0000c0 23 51 43 3d 6e d4 10 3d 40 1c d4 bc 59 d7 9e bd
       0.0476848 0.03535884 -0.025892377 -0.07755918
0000d0 45 f5 24 3d 26 c7 0a bd 3e 5b 9c bd f9 a7 46 bc
       0.04027297 -0.03388133 -0.076345906 -0.012125009
0000e0 0e 98 7a bd 28 b2 89 3c 32 42 87 3c d9 52 73 bd
       -0.061180167 0.016808584 0.016511057 -0.05940518
0000f0 54 b5 03 3c a0 a6 98 3d 31 c1 fb 3c 12 45 b0 b8
       0.008038837 0.07453656 0.03073177 -8.405199e-05
000100 2d f2 65 3d 7b a6 94 3b f9 48 61 bd 7c 76 83 3d
       0.05613916 0.0045364476 -0.055001233 0.064190835
000110 a3 53 42 3d 2d 1d ff bc cd 98 d8 bc 56 77 9f 3c
       0.047443043 -0.031141842 -0.026440049 0.019466083
000120 a9 b4 6c bc 43 f0 c3 3c 70 f9 c7 bc 7a 42 30 bd
       -0.01444737 0.023918277 -0.024410933 -0.043032147
000130 f8 49 c4 3a 90 cf 93 bb 38 55 86 bd 68 12 a0 3d
       0.0014975658 -0.0045108274 -0.06559223 0.07816011
000140 c4 c6 dd 3c 1e 53 a5 3d fc 78 85 bd 75 df 95 3d
       0.027072318 0.08072494 -0.065172166 0.07318012
000150 35 d8 1e bd 00 b7 54 3d 8f f4 8b 3d 44 d0 58 3d
       -0.03878041 0.051932335 0.06833755 0.052932993
000160 80 7e a2 3d 66 1b 33 3b 25 a5 25 3c f3 0e 0b bd
       0.07934284 0.0027329563 0.010110174 -0.033949804
000170 53 8d a4 bd 98 7a 87 3d a2 0b 25 3d 2f 4a 92 3d
       -0.08034768 0.0661518 0.040294297 0.07143056
000180 70 84 c5 3b c8 91 71 bd fd 05 1a bd e8 1b 6a 3d
       0.0060277507 -0.05897692 -0.037603367 0.05715552
000190 4c ae 9c 3d b9 33 26 3d 2b e8 56 bd 06 a6 ff 3c
       0.07650432 0.04057667 -0.052467506 0.031207096
0001a0 c0 87 2c bc d9 55 d1 bc 82 20 5f 3d cc ed 99 bd
       -0.010530412 -0.02555363 0.05447436 -0.07516059
0001b0 ec 74 31 3d a8 a1 c7 3c dd 86 80 3d e5 72 d6 3c
       0.043324396 0.024369076 0.06275723 0.026177833
0001c0 37 5e 6b bc b0 f5 7e 3b 9c 2b 23 bd 0d 71 0f 3d
       -0.014365724 0.0038903765 -0.03983651 0.035019923
0001d0 c3 39 b7 bc 23 93 17 bd 30 10 b4 bc 87 63 8a 3d
       -0.02236641 -0.037005555 -0.021980375 0.067572646
0001e0 2f 0b 4e 3d f2 4b 8b bd fc d7 46 3d ff 43 3b bd
       0.050303634 -0.06801595 0.048545823 -0.045719143
0001f0 c6 26 b3 bc 9a 93 f8 bc 86 f0 8f bd 24 03 16 bd
       -0.021869075 -0.03034382 -0.07028298 -0.03662409
000200 28 fe 8a bc 31 9f a0 bc 4b f1 78 bd b8 ad a8 3c
       -0.016966894 -0.019607158 -0.06077699 0.020590648
000210 78 dd 2d bd 6e fc c0 3c b2 7a 2b 3d e4 b8 65 3d
       -0.042447537 0.023557868 0.04186506 0.05608453
000220 27 7a a8 3d c1 e1 0e 3d 79 e6 a0 bd 41 82 e9 3b
       0.08226424 0.034883264 -0.07856459 0.007126123
000230 db 80 75 bd 5c 63 40 bd dd db 80 bd fd 77 84 bb
       -0.05993734 -0.046969756 -0.062919356 -0.004042624
000240 63 ad 67 3c ab 07 a3 3d b8 10 a3 bd 92 21 15 bb
       0.01414046 0.07960447 -0.07962173 -0.0022755605
000250 f1 6b 53 3d 66 d4 27 3c 6e dc 8a bd b2 19 91 3d
       0.051616613 0.010243511 -0.06780325 0.07084979
000260 7b c3 87 3d 8b 03 a5 3c 10 b4 11 bd a0 c6 53 bd
       0.06629082 0.020143291 -0.03557211 -0.051703095
000270 d8 f7 3d 3d b8 c4 84 3d aa c0 49 3d df 78 e0 bc
       0.04637894 0.064828336 0.049256004 -0.027401386
000280 30 25 8b bd aa 5e 16 bd 03 44 9f bd c6 b1 a2 3c
       -0.06794202 -0.036711372 -0.07776644 0.01986016
000290 55 23 6b 3d 41 6d 9e 3d 14 8d 76 3c aa c7 84 bd
       0.057406742 0.07735682 0.015048284 -0.064833954
0002a0 2d 9b 06 3c c2 62 08 bd 94 9e 26 bd 4e 16 a0 3d
       0.008215708 -0.033297308 -0.040678576 0.07816754
0002b0 a4 1d 1d bd a3 7b 02 3d a6 40 83 bd f1 8e 94 bd
       -0.038358346 0.03185619 -0.06408815 -0.072538264
0002c0 dc 62 e6 b9 c8 09 88 bc 13 30 88 bd 26 29 26 bd
       -0.00043942675 -0.016606227 -0.066497944 -0.040566586
0002d0 c4 5a 9b bd 2e da 45 3d 3f 6b a6 bd ff 4d e9 3c
       -0.075856715 0.048303775 -0.08125924 0.028479574
0002e0 f4 f2 20 bd 1a c2 57 bd 8e 83 43 bd e6 d9 3d 3d
       -0.0392942 -0.052675344 -0.047732882 0.046350382
0002f0 41 0d 9c bd 42 35 97 3d 2b 5d fe bc d2 f8 93 3d
       -0.076197155 0.07383205 -0.031050285 0.07225193
000300 a3 1d df bc 9b 94 b2 3b 41 8e d3 bb 23 e4 de bc
       -0.027235812 0.005449844 -0.006456167 -0.027208393
000310 e5 77 8a bd 81 e0 4a bd b0 0a 3f bc 37 e6 95 bd
       -0.06761149 -0.04953051 -0.011660263 -0.073193006
000320 a3 1e 89 bd 8d 1c 11 bd e9 f0 1f bc 99 16 81 bd
       -0.066952966 -0.03542762 -0.009762027 -0.06303138
000330 27 74 17 bd e2 4f 86 bd a2 2e e9 3c 89 1f b1 3c
       -0.036976006 -0.06558205 0.02846462 0.021621482
000340 c0 20 c0 3c 8f 6f 8f bd 20 a0 97 3d 00 a7 24 3d
       0.023453116 -0.070037 0.07403588 0.040198326
000350 ec a1 9a 3d 53 1c 9d 3d b1 5a 6d 3d 79 68 be ba
       0.075504154 0.07671418 0.05794782 -0.0014526985
000360 65 2d cb 3b e3 47 85 bd 5d 10 7e 3d 10 c5 6a bd
       0.00620048 -0.06507852 0.062027324 -0.05731684
000370 3d 1a 88 bd 9d 47 3d 3d 67 63 9b 3b 5e 99 31 bd
       -0.066456296 0.046210874 0.0047420743 -0.043359153
000380 b5 10 57 bd 66 24 f2 3b 9b 2d 7b bd d4 75 7d 3d
       -0.052506167 0.007389593 -0.06132279 0.061879948
000390 05 b0 17 3d 85 0d 8f 3c 45 f8 93 3d 30 91 3a bd
       0.0370331 0.017462501 0.07225088 -0.045548618
0003a0 8b fb 76 bd 28 88 6a 3b ef 1e 75 3d 8b 50 38 3d
       -0.060298484 0.0035786722 0.059843954 0.044998687
0003b0 7e 6f c2 b8 e2 bf 0c 3c 18 ec 6b bd 3d 09 54 bd
       -9.271408e-05 0.00859067 -0.057598203 -0.051766623
0003c0 4f 16 17 bd 75 e1 96 bd c7 2a 3e 3d b0 25 0a 3d
       -0.03688651 -0.07367221 0.046427514 0.033727348
0003d0 58 11 12 bd 71 50 a2 3d 13 d1 f8 3c 0f 22 a6 bd
       -0.03566107 0.07925499 0.030373132 -0.08111965
0003e0 b3 da 17 3c ae db 38 bd 9f 76 9a 3c e9 4c ce 3c
       0.009268451 -0.045131378 0.018855391 0.025183158
0003f0 40 10 32 3d a4 8f 1a 3d 64 b9 33 3b 35 21 04 3d
       0.04347253 0.037734643 0.0027423734 0.03225823

cnn_base.3.bias f4 [32]
000000 57 ee a4 bd 12 d6 62 bd 16 87 ca 3c 2a cc ff 3c
       -0.08053272 -0.055379935 0.024722617 0.031225283
000010 b7 dc d6 3b ee d8 ac 3b 7c f6 26 bd 52 5a 93 3d
       0.006557073 0.0052748835 -0.04076241 0.071949616
000020 d5 bf b9 bc 32 c2 17 3d b8 2d 92 bd 51 56 23 3d
       -0.02267448 0.037050433 -0.071376264 0.03987724
000030 cf 39 a6 3d 1b 4c 1e 3a f7 48 dc bc 0e 5a 8f bd
       0.08116495 0.0006038562 -0.026890261 -0.069995984
000040 f1 15 a7 bd 69 15 4d 3d e8 37 17 bd d0 29 09 bd
       -0.08158482 0.050069246 -0.03691855 -0.03348714
000050 c4 d8 92 3c 1b 16 99 bd a9 56 cb bc 9c 02 45 bd
       0.017925628 -0.074749194 -0.024821596 -0.04809819
000060 ca ba 15 3d ed 90 7d bd ff 2d 8d bb 15 54 62 bd
       0.03655509 -0.06190579 -0.0043084617 -0.055255968
000070 4a db 8a bb 07 ff 7c bd 2d 73 93 3b cf b5 8c bd
       -0.004237567 -0.06176665 0.004499814 -0.06870615

mlp_base.0.weight f4 [32, 2]
000000 6e 62 24 3f a3 90 04 3f d1 48 d4 3e 71 21 d5 be
       0.6421269 0.517832 0.41461805 -0.41627076
000010 97 12 fd be f2 c9 80 be 3a 38 b5 bd 01 1a c1 3d
       -0.49428245 -0.25154072 -0.08848615 0.09428788
000020 8a c1 a2 3e 70 22 88 be 33 56 31 be ab af d9 3d
       0.31788284 -0.26588774 -0.17318039 0.10629209
000030 de 1d 1b 3e 73 fc e3 be 3b 27 32 bf 5d 23 5c 3d
       0.15148112 -0.4452854 -0.6959111 0.053744663
000040 c1 40 72 be e7 f6 22 3f 73 fb f4 3e 9c ac 30 3f
       -0.23657514 0.63657993 0.4784809 0.6901338
000050 48 b3 21 bf 27 36 7e bd 41 8a 88 be 8a 95 60 be
       -0.63164186 -0.062063362 -0.2666798 -0.21932045
000060 0e c4 12 bf 27 19 c6 be f2 ee c5 3e 5f d6 e3 be
       -0.57330406 -0.38691065 0.38658863 -0.4449949
000070 4f 8f c2 bd 59 4a 33 3f f8 ac 0a 3e 0b 63 b2 be
       -0.0949999 0.7003532 0.13542545 -0.3484119
000080 09 7d 5c be 50 4d 28 bf 29 c1 e4 bd c1 50 46 be
       -0.21532072 -0.6574297 -0.11169655 -0.19366743
000090 dc 4b d9 3c 50 ec d3 3d ab 47 8b bd be 85 0e bf
       0.02652543 0.103478074 -0.06800779 -0.55672824
0000a0 3f 5a 2f bf 7a e1 f5 3d a5 46 34 3f 8c ec 14 3e
       -0.6849708 0.12005897 0.70420295 0.1454336
0000b0 5b d8 b5 be 63 9f d8 3e 0b 44 22 3f ef 60 e5 3e
       -0.3551663 0.42309102 0.63385075 0.44800517
0000c0 61 76 30 be c4 33 d3 3e 04 9d 17 3e e3 1d e7 3e
       -0.17232658 0.41250432 0.1480599 0.4513999
0000d0 3e 44 5a be 2b a0 79 be 60 b6 c9 3c c4 d1 22 3e
       -0.21315095 -0.24377505 0.024623096 0.15900332
0000e0 61 3c d5 3e 61 84 28 3f 83 c3 f8 3d f3 86 f8 bc
       0.41647628 0.65826994 0.12146666 -0.030337786
0000f0 b2 8a 1d 3d 25 44 11 bf 88 94 1d 3f 33 9b 23 3f
       0.03846235 -0.56744605 0.61554766 0.6390869

mlp_base.0.bias f4 [32]
000000 01 8c c8 3e 21 30 10 bf 34 60 13 3d 47 82 fa bd
       0.39169315 -0.5632344 0.03598042 -0.1223188
000010 98 0b c9 3e b4 bd 11 3f 38 00 35 3f 2a 36 90 be
       0.39266658 0.5693009 0.7070346 -0.28166324
000020 60 5d 2a bf 30 37 2d bf 53 05 1c 3f 4c 1a 08 3f
       -0.6654873 -0.67662334 0.60945624 0.53165126
000030 c9 64 35 be 06 37 75 3b 04 ed 5a bb 11 b4 32 3f
       -0.17714228 0.003741683 -0.0033405432 0.6980601
000040 b1 a6 12 bf ff d2 03 3d 06 54 e3 bd f3 19 24 bf
       -0.572856 0.032183643 -0.111000106 -0.64102095
000050 50 a2 13 3f ff e7 c7 3e 43 0f 9d 3e 78 ba 63 3e
       0.57669544 0.39044186 0.30675706 0.22239101
000060 c8 d5 02 bf 53 0e 21 3f 7f ab c1 be 5a 7d cb 3e
       -0.51107454 0.6291248 -0.37826154 0.39744073
000070 c3 81 1b 3f eb b5 1b 3f cd 02 ef 3e da 6e a4 be
       0.60744876 0.6082446 0.46681824 -0.32115823

mlp_base.2.weight f4 [32, 32]
000000 a8 08 c7 bd 86 dc 8e 3d b5 f2 ab 3d 84 ea cf 3c
       -0.09718448 0.06975655 0.08395902 0.02538038
000010 ca bf 24 be 01 e0 e1 3d 58 4a fb bd 7e 3e 24 3e
       -0.16088787 0.110290535 -0.12270039 0.16039464
000020 1d 2a d0 3d 76 60 db bd 6f 8e 3a bd e5 ad 24 bd
       0.101642825 -0.10711758 -0.04554599 -0.0402049
000030 05 06 5a bd 7f 91 1d be de d3 0a 3d f4 c5 71 3c
       -0.053228397 -0.15387534 0.03389346 0.014756668
000040 d1 c7 a3 3c 93 f0 86 3d 91 1c 80 3d c1 64 1b 3c
       0.01999274 0.06588855 0.062554486 0.009484471
000050 ad e7 82 bd 49 5d 0c 3e 46 47 d2 bc cb cf ef 3c
       -0.06391845 0.1370746 -0.025668751 0.029273888
000060 65 4e 2c be 0f 3a 4c bc af b5 b4 3c b4 47 2e bd
       -0.1682678 -0.012465014 0.02205929 -0.04254885
000070 de 12 82 3d c2 63 ee bd b0 45 a0 3c 4d ac 10 3d
       0.06351255 -0.11640121 0.01956448 0.03532057
000080 f0 29 11 3e 1d 30 05 be 47 5b 07 be a6 3c 29 bd
       0.14176154 -0.13006635 -0.13218413 -0.041317604
000090 e1 9d 18 3e 31 5c 14 3e 9f 58 5d 3c eb 1c 73 3d
       0.14903976 0.14488293 0.013509898 0.05935375
0000a0 af 2f ad bd ed cc 23 3e 5a d5 ce bd bd 76 03 3e
       -0.084563605 0.15996142 -0.10099287 0.12838264
0000b0 8c a0 ae 3c 39 2d c8 bd 17 43 2f 3e cd b8 ae 3d
       0.02131679 -0.097742505 0.17115436 0.08531342
0000c0 0e 5f fc 3b 96 d0 81 3c 80 7e 19 3d 43 00 9d bd
       0.007701761 0.015846532 0.037474155 -0.076660655
0000d0 9f 23 03 3b 04 a8 89 bd 6a ad 14 3e 34 6e fa bd
       0.0020010245 -0.067214996 0.14519277 -0.12228051
0000e0 22 1b 23 be c5 85 14 3e 5e 80 f9 3d d8 72 4f ba
       -0.15928319 0.14504154 0.12182687 -0.00079135364
0000f0 dd 5f 31 bd 87 a8 2b be 48 1f 20 be 9c 5e 68 3d
       -0.043304313 -0.16763507 -0.15636933 0.05673085
000100 22 f3 24 be 33 77 ae 3d aa 73 ec bd aa 2a 09 3e
       -0.16108373 0.08518829 -0.11545499 0.13395181
000110 8b 1f 12 be 97 90 95 3d 9a 41 91 3d d5 a9 e0 bd
       -0.14269845 0.07302969 0.07092591 -0.10969893
000120 30 32 06 be 83 3b 8a bb 73 48 1f 3e ae 07 47 3d
       -0.13105083 -0.00421852 0.15554981 0.04859131
000130 58 65 09 be 8c 46 34 3e 22 1e a5 3c 7f cc 84 3d
       -0.13417566 0.17605036 0.02015597 0.06484317
000140 bc 45 fc 3d 0a 17 2c 3e b4 51 81 3d 98 92 b9 bd
       0.12317988 0.16805664 0.06314412 -0.09061164
000150 d3 f9 a7 3d 56 bc 18 3d c4 ed 1a 3d b0 95 cf 3d
       0.08201947 0.037288986 0.037824407 0.101359725
000160 af 14 96 3d 0d c0 de bc df 34 78 3d 66 b3 8a 3d
       0.07328164 -0.027191186 0.060597297 0.06772499
000170 41 01 24 bd 98 41 e9 3d 58 80 69 3d 47 63 f7 bd
       -0.04004026 0.11389464 0.057007164 -0.120794825
000180 4f c0 b1 3d c5 61 55 3d 16 b8 b1 bd 59 f1 f2 bd
       0.08679258 0.052095193 -0.0867769 -0.1186244
000190 32 02 2f bd a0 34 d0 3d 6e f3 be bd ec 2e 22 3d
       -0.042726703 0.101662874 -0.09323774 0.03959553
0001a0 f5 c1 10 3e 57 e7 cd bc 09 bd 1d 3e d0 93 89 3d
       0.14136489 -0.025134725 0.15404142 0.06717646
0001b0 67 3a 1f 3e 26 8a 22 bd 12 b0 d8 3d 86 1b 2f be
       0.15549622 -0.03968253 0.10580458 -0.17100343
0001c0 d3 82 01 be fb 39 85 bc e7 da 2e bd 2f 82 0d be
       -0.12647562 -0.016262999 -0.04268923 -0.13819192
0001d0 b1 06 96 3c 51 b5 cd bc 80 a4 8a 3d 19 84 55 bb
       0.018313738 -0.025110872 0.06769657 -0.0032579957
0001e0 77 f5 8d bc b4 0a c2 3d 40 18 22 bd d0 70 1e 3e
       -0.01732896 0.09474698 -0.039573908 0.15472722
0001f0 91 84 1e be 1b 43 09 3e d5 16 0f bb 6e c8 f5 bc
       -0.15480258 0.13404505 -0.0021833677 -0.030002799
000200 23 0d a3 3b ab c8 0c be c3 ab 1a be 07 2b b2 3d
       0.0049759313 -0.13748424 -0.15104584 0.08699613
000210 4f e2 fb 3d 8c dc 99 bd c1 49 4d bb 31 20 fe 3d
       0.12299024 -0.07512769 -0.0031324478 0.12408484
000220 80 fa 31 3e 3e 2b bd 3d 77 e1 1f be 07 10 e4 bd
       0.17380714 0.092367634 -0.15613352 -0.111358695
000230 ad 73 07 bd 94 56 cd bb be f8 f1 3d 7f be 72 3d
       -0.0330693 -0.0062664244 0.11815022 0.059263702
000240 e0 63 8f bd a3 7c 05 be d0 5f 02 3e 58 92 c1 3d
       -0.070014715 -0.13035826 0.12731862 0.09451741
000250 27 04 11 be 2e 68 1c 3e 14 a5 f0 3d f4 74 7e bd
       -0.1416174 0.15274116 0.11750236 -0.062123254
000260 0b 9a d8 bd 8c 95 b8 bd 03 5f 8d bd 63 9b ef bd
       -0.10576256 -0.09012899 -0.06902888 -0.116995595
000270 de a9 aa 3d 61 15 b7 bd 8b ed d4 bd 6b af 0e 3e
       0.08333181 -0.089396246 -0.1039687 0.13934104
000280 d0 4b 24 bd 4e 1f 22 be 1c 31 18 3e 4d dc 36 bd
       -0.040111363 -0.15832254 0.14862484 -0.04464369
000290 bf 16 c4 3d f6 c6 d0 3d 31 58 00 be c9 4f e8 3d
       0.09574651 0.10194199 -0.12533642 0.11343343
0002a0 22 9c 10 be 2b 4f 69 bd af 5f 2c be 60 12 64 3c
       -0.1412206 -0.056960266 -0.16833375 0.013920397
0002b0 65 41 ef 3d 1d bb 28 3d 8a b7 1e 3b 9b 5a a0 bc
       0.11682395 0.04119407 0.0024218285 -0.019574454
0002c0 d6 3f 27 be 83 6b ca 3d cf cf 2b 3e 65 e7 90 bc
       -0.16332945 0.098837875 0.16778491 -0.017688463
0002d0 ce b1 ad bd 54 b2 02 be b5 4e 1a 3e 29 02 af 3c
       -0.08481179 -0.1276334 0.15069087 0.021363335
0002e0 ee 89 0a 3e ad 1a db bd 56 d5 21 3d 80 47 0e be
       0.13529179 -0.106984474 0.039510094 -0.13894463
0002f0 74 13 07 3d 9a b2 2d bd c4 d5 e6 3c ff 1f 34 3e
       0.032977536 -0.042406656 0.028178103 0.1759033
000300 00 37 0a 3c f7 dc 76 bb 05 5f 14 be e5 77 ad ba
       0.008435965 -0.0037668326 -0.14489372 -0.0013234584
000310 79 a7 51 bd 31 c6 86 bd 72 3d ba 3d 25 ec d9 3d
       -0.051185105 -0.06580771 0.09093751 0.10640744
000320 b8 eb ef 3d e7 23 0d 3d 27 34 1a 3e 16 d4 0f bd
       0.11714882 0.034458067 0.15058957 -0.03511437
000330 9f 39 09 3e 63 19 b0 3d 00 bf b7 3d dd 72 6e bc
       0.13400887 0.08598592 0.08971977 -0.014553753
000340 56 8f 6a bc f8 d2 ff bd 9c 3f f8 bb 18 ef 0c be
       -0.0143164005 -0.12491411 -0.007575942 -0.13763082
000350 bb 4a 1e 3e 08 69 69 bd 42 21 c8 3d 35 08 3c 3d
       0.15458195 -0.05698493 0.097719684 0.045906264
000360 ae 24 81 bd da b6 04 3e ac 79 ba 3b b1 d5 3e bb
       -0.06305824 0.12960377 0.005690774 -0.002911907
000370 55 e9 1f 3e e5 de dd 3d 0d 91 0a be 76 c8 66 bd
       0.15616353 0.108335294 -0.13531895 -0.05634352
000380 d3 d7 de 3c 3c ea 67 bd 9b c8 c1 bd 4e 8c b2 3d
       0.027202522 -0.056619868 -0.094620906 0.08718167
000390 42 53 36 3d 7e 0a ca bd c8 2b b4 3d 57 2a 11 3e
       0.044512995 -0.098652825 0.08797413 0.14176308
0003a0 cb da 20 be a3 35 21 3e d1 e2 ab 3d 6e 57 23 be
       -0.15708463 0.15743117 0.08392871 -0.1595132
0003b0 21 63 92 3d b0 ba 62 bd 92 3d 14 3e 60 51 0d 3e
       0.071478136 -0.05535382 0.14476612 0.13800573
0003c0 81 2a 98 3c 14 89 2d 3e 65 81 31 be 2c 82 db bd
       0.018574955 0.16946822 -0.17334516 -0.10718188
0003d0 b3 74 fb bc f7 bc 48 bd a9 2d b8 bc 74 36 45 bd
       -0.030695295 -0.049008336 -0.02248271 -0.048147634
0003e0 2e b9 ae 3d e0 24 79 3d 81 c4 70 3d 73 9a 29 bc
       0.08531414 0.060826182 0.05878115 -0.010351765
0003f0 7c e5 38 bd 3b fe 52 bd 39 66 7f 3d 80 76 91 bd
       -0.04514073 -0.051511984 0.062353346 -0.0710268

mlp_base.2.bias f4 [32]
000000 52 c0 f2 3b 05 5f a3 bd de 73 38 bd 76 d4 96 3b
       0.0074081803 -0.07977108 -0.045032375 0.004602964
000010 e6 5f d3 3d 7a d8 0e be e9 a2 d6 3b ed 25 db 3c
       0.103210256 -0.13949767 0.006550182 0.026751483
000020 a0 30 ad bd 76 61 12 3e 0f ea bb bd 10 3a 04 be
       -0.0845654 0.14294991 -0.091755025 -0.12912774
000030 db 0e 2e 3e 27 d8 68 3d 61 fa ff 3d db 74 b0 3d
       0.16997854 0.056846764 0.12498928 0.086160384
000040 a3 66 a8 bd 12 6f 12 3e ce 2c b7 3d a6 be 22 3e
       -0.082227014 0.14300182 0.08944093 0.15893039
000050 6a ed 2f be 22 fd a3 3d 84 9e 23 3d b0 b9 0e 3e
       -0.1718041 0.080072656 0.039946094 0.13938022
000060 65 66 6a 3d 1f 8b 5e bd 9a 9c 4b bc 61 ea 30 be
       0.057226557 -0.054331895 -0.012427473 -0.17276908
000070 41 05 85 bd ef 4b 2e 3c ad ef 99 3d 5c bb 05 3e
       -0.06495143 0.010638221 0.07516418 0.13059753

actor_head.0.weight f4 [64, 1600]
000000 62 95 4e 3c f7 c1 ae 3c 8a a6 c7 3c 77 12 17 bc
       0.012608858 0.021332724 0.024371404 -0.009220711
000010 59 13 b7 3c 84 93 5f 3b 03 ad e1 3b 5e 0a e2 bb
       0.022348093 0.0034115026 0.0068870797 -0.0068982085
000020 aa d3 6d bc c4 4a a5 3c 8f 09 16 3c da 0a ac bb
       -0.014515797 0.020177253 0.009157552 -0.005250317
000030 da 0f a6 3b 3a 53 b2 bc f9 49 f6 3b d5 0e 8a 3c
       0.0050678076 -0.021768201 0.0075161424 0.016852776
000040 2a 72 a0 bc b2 ea ab bb a0 4d bf bc fa 3a c2 bb
       -0.019585688 -0.0052464837 -0.023352444 -0.0059274407
000050 5f a7 92 bc 9b f7 8f ba d1 90 31 3c 27 d4 bf bc
       -0.017902074 -0.0010983826 0.01083775 -0.023416592
000060 5c d9 be bc e8 3e a7 bc 85 a7 90 3b a3 bd 01 bc
       -0.023297004 -0.020415738 0.004414501 -0.007918748
000070 74 cc a6 3a ae e2 42 bc 5c 74 11 bb 0e 76 54 bb
       0.0012725727 -0.011894865 -0.00221946 -0.0032419
000080 ab 8b b8 3c b3 a9 83 bc 2b 19 92 3c 9c 62 37 bc
       0.022527536 -0.01607213 0.017834267 -0.011192944
000090 62 9e b9 bc 44 60 ae 3c e7 b1 19 bc 8e be 9d 3c
       -0.02265853 0.021286137 -0.009380794 0.019255903
0000a0 04 cf bd 3c 63 d9 fd 3b c2 47 09 ba 99 3a 23 3b
       0.023170002 0.007746862 -0.0005236828 0.0024906753
0000b0 2b 10 85 3c 57 86 8a 3c 15 36 99 3c 00 27 98 bc
       0.016243061 0.016909761 0.018702546 -0.018573284
0000c0 47 68 52 bc d6 4d 27 ba 9f 3e a6 3b e7 3c 31 bc
       -0.0128422445 -0.0006382143 0.005073383 -0.010817743
0000d0 6a c6 00 3c ee b3 3a 3c a5 d0 43 3b 7d f6 12 bb
       0.007859806 0.011395438 0.0029879 -0.002242475
0000e0 cb 8c b9 3c 71 e2 36 3c bc 7c bf 3b 74 60 d7 3c
       0.022650143 0.011162386 0.005843727 0.02629111
0000f0 33 60 e7 3a 69 64 83 3c 54 35 40 bb b2 82 e8 bb
       0.0017652571 0.01603909 -0.002932866 -0.007095658
000100 d7 2c d4 3c e6 c6 8e bc 57 c6 9a bc 59 cf b4 ba
       0.025900288 -0.017428827 -0.018893404 -0.0013794705
000110 12 26 b5 3c 47 f0 60 bc e3 24 c1 39 88 cd cb bc
       0.02211288 -0.013729162 0.0003683931 -0.024878278
000120 b4 cf 9e bc a1 9a 2b 3c e0 fa b8 bc 46 2f a6 bb
       -0.01938615 0.010473878 -0.022580564 -0.0050715534
000130 14 cb 5a 3c ec ab 64 bc 9b 1d 78 3b f0 b8 a3 bc
       0.013354082 -0.013957005 0.0037859443 -0.019985646
000140 f8 28 38 3c fd 6d ca 3b 46 26 5c 3c 8a e9 59 3c
       0.011240236 0.0061776624 0.0134368595 0.013300309
000150 3d 50 86 bc d0 a6 93 3c 1c e2 a4 bc b8 9e c1 3c
       -0.016395682 0.018023878 -0.020127349 0.023635253
000160 9f 06 0b bc c0 11 24 bc 1b fe 6e bc cc b2 50 3c
       -0.008485465 -0.010013998 -0.014586951 0.012737941
000170 eb bb 51 bc 2d 41 f6 3c 6c 94 aa ba 0a 3c a6 3b
       -0.012801151 0.030060375 -0.0013014204 0.005073075
000180 18 89 e9 3b bc e4 f2 bb d8 f4 ac b8 3a 09 13 bc
       0.0071269386 -0.007412521 -8.247205e-05 -0.008974368
000190 3d cb 7a 3c e1 4d 8c bc 9e 57 33 bc 4c e5 4d bc
       0.015307245 -0.01712698 -0.0109461825 -0.012566876
0001a0 c3 08 8e 3b 8b 05 b3 3c b7 a8 87 bc 93 5c 80 3c
       0.0043345406 0.021853229 -0.016559942 0.015669143
0001b0 b3 41 9d 3c cd b8 d1 bc 48 1c 3f 3b dc da 72 3c
       0.019196367 -0.025600815 0.0029161144 0.014822688
0001c0 d7 2f a0 3c 60 47 11 bc ef 74 d0 bc 34 77 7f bc
       0.019554062 -0.008867115 -0.025446383 -0.015592385
0001d0 8a 47 78 3c 39 be 11 3c 53 7a a6 3c 7f 9e c6 3c
       0.015153775 0.00889545 0.020322 0.024245499
0001e0 e1 9b ce 3c 64 e9 ab 3a c0 a4 e3 bb 4d 74 d6 3a
       0.025220813 0.001311582 -0.00694713 0.0016361565
0001f0 cc 66 ad bb 54 00 8f bc 37 74 81 bc c7 c0 40 3c
       -0.0052917954 -0.017456211 -0.015802486 0.011764712
000200 8f 91 ab bc 29 1d e3 3a 7a 0a d9 bb 58 20 b4 3c
       -0.020943431 0.0017327416 -0.0066235634 0.021988079
000210 fe 05 28 39 17 b8 b4 3a bc 00 67 bc cd da 5b 3c
       0.00016023961 0.0013787773 -0.014099296 0.013418865
000220 b9 0f bd bc 1a ab a5 3c a6 b7 b5 3c 52 ff 11 3c
       -0.023078786 0.02022319 0.022182297 0.008910971
000230 4a da 03 bc 44 87 35 bc 9d 10 3f 3c 4d e9 79 bc
       -0.00804765 -0.011079613 0.011661676 -0.015253377
000240 f0 87 e4 3c 48 5b bc bb b3 ea 4c 3c b4 1e a8 3c
       0.027896851 -0.0057481863 0.0125071285 0.020522453
000250 a2 c3 7e bc 74 5e 0e 3c 91 c2 5c 3c dc fa 7a ba
       -0.015549572 0.008689512 0.013474123 -0.0009574124
000260 d8 06 06 bc cc bd 98 3c 41 f6 cc 3c 8e f4 b0 bc
       -0.008180343 0.01864519 0.025019767 -0.021600988
000270 06 19 c0 bc 85 cf bc 3c 7e 0a 90 3c 61 45 b9 bc
       -0.023449432 0.023048172 0.017583128 -0.02261609
000280 71 f5 32 ba 15 82 91 bc e2 3f b2 3c 21 e8 a4 3c
       -0.0006826735 -0.017762223 0.021758977 0.020130219
000290 e1 0f 62 3c 2d 78 41 3c ac e0 a6 3c 5b 74 40 3c
       0.013797731 0.011808437 0.020370804 0.011746491
0002a0 0d 12 8e 3c cc 29 b2 3c 7a d0 2f bc 32 d4 4d bc
       0.017342592 0.021748446 -0.010730857 -0.012562798
0002b0 d7 13 03 bc 8a f7 ab ba 18 f8 a1 bc 7b 19 9f bc
       -0.008000336 -0.0013120037 -0.01977162 -0.01942133
0002c0 32 78 a2 3c 57 8d c3 3b 0b 1f ac 3a 72 3e 63 3c
       0.019832704 0.0059677768 0.001313181 0.013869869
0002d0 ed 61 a3 bb cd b9 5d bc b1 1b 55 bc 30 88 42 3c
       -0.004986039 -0.013533068 -0.01300709 0.01187329
0002e0 9a c2 cb bc ef e8 ef bb 75 cf 9c bc b9 4e 73 3b
       -0.024873067 -0.007321469 -0.019141892 0.003712578
0002f0 ec 54 af bb 76 2f 64 bc 36 f1 87 bb 45 18 dd 3c
       -0.0053506996 -0.013927331 -0.0041486276 0.026989112
000300 e9 e0 76 bc b7 1b a8 3c 6a de d6 3c 23 43 91 bc
       -0.015068271 0.020521028 0.026229102 -0.017732209
000310 5a af 6d 3c ff 92 31 bc 24 45 2e bc 5a 4d 77 bb
       0.014507139 -0.010838269 -0.010636602 -0.0037735314
000320 67 16 ce 3b 47 29 c6 3c 77 34 23 3c 1f 95 26 3c
       0.0062892917 0.024189604 0.009961239 0.010167389
000330 05 de c1 3c 81 e1 ff ba a0 9e bf bc f7 4b 34 bc
       0.023665437 -0.0019522161 -0.023391068 -0.01100444
000340 8b fc 93 3a 3e 32 2c 3c 48 a5 a4 3c 41 87 71 bb
       0.0011290474 0.010510026 0.020098343 -0.00368543
000350 50 a7 b9 3c 77 81 89 bc 3e b3 b9 3c c1 aa 53 bc
       0.022662789 -0.016785366 0.022668477 -0.012919129
000360 d5 5c d0 bb d2 38 85 3b 57 4c a7 3b c1 29 76 3a
       -0.0063587227 0.0040656114 0.005105536 0.0009390377
000370 88 6d aa 3c d6 bc 83 3c fe d7 1e bb dd 87 5d bc
       0.020804182 0.016081255 -0.0024237628 -0.013521162
000380 b3 f4 5e bc e9 9d 3c 3c fd b8 a9 bc fc 7a 20 3c
       -0.0136081455 0.011512258 -0.020718092 0.009794947
000390 6f 2f 09 3a 2f 8c aa 3c c6 55 8b bc 85 39 6b 3c
       0.00052332034 0.020818798 -0.017008673 0.014356975
0003a0 3f 96 69 bc 0e 8e b1 3c 14 82 63 bc 49 b9 e5 ba
       -0.014257013 0.021674182 -0.0138859935 -0.0017526533
0003b0 d9 b9 91 bc b9 62 4a bc c1 6c 3e 3b 97 d4 bb bc
       -0.017788814 -0.012352639 0.0029056522 -0.02292852
0003c0 9e 2c 86 3c 07 08 a1 ba 92 5e 90 3b 0f 24 f5 bb
       0.016378697 -0.0012285718 0.004405805 -0.007481105
0003d0 5e f5 9b 3c 3c 50 71 3c 87 59 d6 3c 1b 21 cd 3c
       0.019037899 0.014728602 0.026165737 0.0250402
0003e0 1d aa 99 bb 2d 5b 25 bc 83 8a 5e bc d9 0b 83 bc
       -0.0046894685 -0.010092539 -0.013582828 -0.01599686
0003f0 19 3c f1 3b 55 f3 6b 3c a7 d0 89 bc 48 f0 be bc
       0.0073619005 0.014401277 -0.016823126 -0.023307934

actor_head.0.bias f4 [64]
000000 be b2 83 bb a6 6c 95 3b d9 28 4c 3c 60 40 6c 3c
       -0.0040191105 0.004560071 0.012460911 0.014419645
000010 56 86 21 3c e8 e0 ef bb 00 94 1e bc 16 90 1c bc
       0.009858688 -0.007320512 -0.009678841 -0.009555837
000020 c2 94 84 bc c3 21 0d 3c 28 92 b2 bc f3 7d 90 bc
       -0.016184215 0.008614006 -0.021798208 -0.017638182
000030 66 de 78 3c 4e 4d 17 bc 6e 4c 70 3c cc b4 e9 3b
       0.015189743 -0.0092347395 0.01466666 0.0071321484
000040 85 ad d3 3c 35 a5 a4 bc 39 a6 c6 bb 13 94 4c bb
       0.025839576 -0.020098308 -0.0060622958 -0.0031216189
000050 01 f5 57 bc de c1 76 bc 31 e0 a1 bc 89 11 ae 3c
       -0.013180972 -0.01506087 -0.019760223 0.021248596
000060 8d ea 57 3c 38 eb a0 3c 22 8f 69 3c 44 46 0f bc
       0.01317848 0.019643411 0.014255317 -0.00874478
000070 93 6c b3 bc 77 40 ca 39 1f bd 31 bc df e7 a1 3c
       -0.021902358 0.00038576472 -0.010848313 0.019763885
000080 7e 47 86 3b 9f 1d 02 bc 83 ca 4f 3b a6 4d 37 3c
       0.004097878 -0.0079416325 0.00317064 0.011187946
000090 69 87 db 3c 30 45 bb 3c e4 76 80 bc fe 71 a7 bb
       0.026797967 0.02286014 -0.015681691 -0.0051100245
0000a0 9a 82 17 b9 62 d7 5c bc 73 64 1f 3c 56 92 42 bc
       -0.00014449135 -0.013479086 0.009728539 -0.0118757095
0000b0 0c 86 95 bb eb 4f 49 bc f9 0f 82 bb 04 26 ac bc
       -0.004563099 -0.01228712 -0.0039691892 -0.021014221
0000c0 ee 22 c5 bc 2a 55 b3 3c f1 5a d0 3c 6f 4b 1f bb
       -0.024064507 0.021891195 0.02543399 -0.0024306437
0000d0 e8 f0 7f 3c 87 d0 74 bc c4 e8 1c 3c b4 04 97 3c
       0.015621401 -0.014942295 0.00957698 0.01843486
0000e0 af 4d 08 bb 40 b3 1c bc 45 8d 96 3b 78 8e 58 bc
       -0.0020798256 -0.009564221 0.0045944774 -0.013217561
0000f0 62 4d d0 3b f5 3e c5 bc ff eb a7 bc e5 16 ac bc
       0.006356881 -0.024077872 -0.020498274 -0.02100701

actor_head.2.weight f4 [2, 64]
000000 b4 58 f1 bd 2b 81 ec bd 8b 0a b3 3d 4f 41 bf 3d
       -0.11784497 -0.11548074 0.08742245 0.093386285
000010 84 8d 55 3d c5 5c 03 3d 99 65 f1 3d 79 42 73 3c
       0.052136913 0.032070894 0.11786956 0.014847391
000020 21 c9 a3 3d 2a 38 4e bd 80 e6 81 bd 7a 6d ba 3d
       0.07997347 -0.05034653 -0.063427925 0.09102912
000030 f7 1a 92 3d d6 10 d3 bd 97 00 92 3c 2c f3 fb 3d
       0.071340494 -0.103059456 0.017822547 0.12302241
000040 14 d1 93 bc 35 e6 4e bd 6b 9a af bd 4a 17 56 3d
       -0.018044032 -0.05051251 -0.08574375 0.052268304
000050 de 67 b6 bd e3 3f 1f 3d a0 80 9d bc 5a 5d 81 3d
       -0.0890653 0.038879286 -0.019226372 0.063166335
000060 fd 0a 02 3e 30 27 d1 3d 17 bd 3b bb a9 0d 90 bd
       0.12699504 0.102125525 -0.0028646642 -0.070338555
000070 10 50 a7 bc c1 12 e5 bd 3c bb f4 bd d0 51 96 bd
       -0.020423919 -0.11185218 -0.119497746 -0.07339823
000080 25 07 3a 3d a9 ad 3a 3d 25 4b 77 3c 46 18 52 3d
       0.04541697 0.04557577 0.015093599 0.05129268
000090 20 dd e8 3d 02 92 e2 3d 50 c3 5f 3d 97 b0 a3 3b
       0.11370301 0.11063005 0.054629624 0.0049954164
0000a0 00 9b e4 3d bb 56 7b 3c cb c1 47 bd a8 6a ce bd
       0.111623764 0.015340502 -0.0487688 -0.10078937
0000b0 96 9c c4 bd 2b a5 0e 3d 60 5f 9e bd cc d1 ce ba
       -0.09600179 0.034825485 -0.07733035 -0.0015779077
0000c0 4f 2b a0 bd f4 76 be bd ec c6 86 3d b5 13 fb 3c
       -0.078207605 -0.09300032 0.0658091 0.030649045
0000d0 cc 16 84 bc 51 28 aa 3b 24 94 27 bd ea bc ce bd
       -0.016124152 0.0051927944 -0.040912762 -0.10094626
0000e0 f5 c6 af 3d 53 ad 74 3d b9 78 5f 3d 45 7e bc bd
       0.0858287 0.059735607 0.05455849 -0.092037715
0000f0 07 11 d4 3d 25 5b a9 bd 8a 02 c7 bc 7b d7 f1 bd
       0.1035481 -0.082693376 -0.024293203 -0.11808678
000100 60 ee 1c 3d 45 9d 9f bd 29 f7 91 3d 8c 2a 4b 3c
       0.03831327 -0.07793669 0.0712722 0.012400281
000110 e1 4f e1 3d e1 b8 6f bd bd bd b5 bc de 86 14 bd
       0.11001564 -0.058525924 -0.0221852 -0.036261432
000120 53 37 a9 3c 58 cc 37 3d c7 69 db bd 6f 47 c1 3c
       0.020656263 0.04487261 -0.10713535 0.023593633
000130 d6 82 82 3d 9e 15 c6 bc 7c d3 f8 3d d5 26 eb 3c
       0.06372611 -0.02418023 0.121497124 0.02870504
000140 8a fd 0e bd 09 c7 74 bd 97 04 b7 3d 0d e3 d5 3c
       -0.034909762 -0.059760127 0.08936422 0.026109243
000150 b6 aa 8d bd 6a 55 a3 bd eb b5 ef bb 78 5d c8 3d
       -0.06917326 -0.07975276 -0.0073153875 0.09783453
000160 25 6f e8 3c 67 3d f1 bd 8f 52 ac 3c 7e a8 9b 3c
       0.02837331 -0.1177929 0.02103546 0.019001242
000170 40 dd 62 bc 27 12 32 bd 9f 76 80 bd 5f 8a df 3d
       -0.013846695 -0.043474343 -0.06272625 0.10915064
000180 26 87 28 3c ba 91 53 bd 44 1f d5 3d f2 f5 f5 3d
       0.010286128 -0.051652648 0.10406354 0.12009801
000190 80 9b 56 3d a6 bb e4 3d 6a 0f ad bd 83 d8 f4 3d
       0.05239439 0.111686036 -0.084502056 0.11955359
0001a0 d0 97 b7 bc 48 2e cd bd a5 6e d6 3d e9 33 fe bd
       -0.022411257 -0.10018593 0.104703225 -0.12412245
0001b0 e0 b0 d4 bd 18 77 7a 3d 2a ad 06 3c 26 f6 80 bd
       -0.10385299 0.061148733 0.0082199965 -0.06296949
0001c0 29 05 9f bd 8d 7b 05 bc f6 1f d8 3d cf a0 9a 3d
       -0.07764656 -0.008147133 0.10552971 0.07550203
0001d0 d7 90 ea 3d 66 11 fe bd 99 6e c5 bb 23 36 96 3d
       0.11453407 -0.12405662 -0.006025147 0.073345445
0001e0 8d 33 8b 3d c1 fa b6 bd a9 cd ca 3d 7a 8f 64 3c
       0.06796942 -0.08934546 0.09902508 0.013950223
0001f0 bb 75 f2 bd 2a 7b 75 3d 99 d6 c5 3d 06 0a 91 bd
       -0.118388616 0.05993191 0.09660072 -0.0708199

actor_head.2.bias f4 [2]
000000 8e e4 c1 bd 82 ee 25 3d
       -0.094674215 0.040510662

critic_head.0.weight f4 [64, 1600]
000000 b2 f7 25 bd 9b 18 79 bc c0 5b 6d bb bd 8e e4 bc
       -0.040519424 -0.01520362 -0.0036218017 -0.027900094
000010 79 c7 0c bd 23 32 05 bd cb 19 b7 bb e6 2c 86 bd
       -0.03436992 -0.032518517 -0.0055877916 -0.065515324
000020 81 21 ac bc 16 06 bb 3c c0 e2 2c bb 5f b4 43 bb
       -0.02101207 0.02283005 -0.002638027 -0.0029862148
000030 90 81 96 ba fa 62 dd 3b 1e 95 2e bd ea b0 22 bb
       -0.0011482704 0.0067561837 -0.042622678 -0.0024824687
000040 a2 42 94 bc 75 7d 7e 3c a9 cd fb 3c 5d 8d 8b bc
       -0.01809818 0.015532841 0.030737715 -0.01703518
000050 33 25 b9 ba 9b 0d 77 bd b3 97 62 bc f8 c3 3e bc
       -0.0014125466 -0.06031571 -0.013830113 -0.011643402
000060 f2 79 15 bc a6 49 f2 3b ba c1 82 3c 53 4d 3e bc
       -0.009123312 0.0073940335 0.015961517 -0.011615115
000070 b2 be 53 bd a5 f2 2e bd 3d b7 f2 3b 19 bc a2 3c
       -0.051695533 -0.042711873 0.0074070976 0.019865083
000080 65 4e 44 3c 6a 81 b8 3a ea 63 c9 bc e9 23 8f bd
       0.011981581 0.0014076654 -0.024583776 -0.06989271
000090 60 d5 41 bd b7 f3 94 bc 4f d2 c4 b9 f7 36 ea bc
       -0.04732263 -0.018182619 -0.00037540725 -0.028590662
0000a0 17 e1 c5 bc 25 50 8f 3c 59 3c 53 bd d9 cf df bc
       -0.024155183 0.01749427 -0.051571224 -0.02732079
0000b0 18 f7 4a bc fd 4a 01 bd e4 de 89 bc ab d4 d3 bc
       -0.012388013 -0.031565655 -0.016829915 -0.025858244
0000c0 93 3e c2 bb 87 8d 4c bd 25 c5 48 bb fc 3c 84 bc
       -0.0059278696 -0.04993966 -0.0030635085 -0.01614236
0000d0 6d 52 ab bc de 68 42 bc 2a 2a 8e 3b 8d 1a 0a bd
       -0.020913327 -0.011865823 0.0043385224 -0.033716727
0000e0 40 4e 11 bd 95 a4 54 bc 45 71 24 3c 47 63 a5 bb
       -0.035475016 -0.012978693 0.010036771 -0.005047235
0000f0 3e d1 4f bc da 38 8f bc 21 89 97 bc 6f 74 d3 3a
       -0.012684165 -0.017483164 -0.018498005 0.0016132722
000100 20 5b 01 bd de 3c fb 3c dc de 51 3c 57 a8 cd bc
       -0.031581044 0.030668672 0.0128094815 -0.025104685
000110 ec b3 c6 3b b6 c7 8a bc 5d b8 37 bd 37 da 9b bc
       0.006063929 -0.016940933 -0.044853557 -0.019024951
000120 03 bc b3 bc bf 8c 54 3c 7b 83 12 3d c5 08 92 3d
       -0.021940237 0.01297301 0.03576992 0.07130579
000130 e5 48 3d bd bf 73 7d bd e1 d4 2d bd 48 89 d1 3a
       -0.046212096 -0.061877962 -0.042439345 0.0015986348
000140 29 f6 8f 3c fd 32 71 3c e0 a7 4a 3d 70 3f 5a bc
       0.017573433 0.014721629 0.049476504 -0.013320789
000150 12 ff 40 bd 0f 13 a5 bc 4b 47 f5 3c 2b 79 70 3a
       -0.047118254 -0.02015069 0.029941222 0.0009173329
000160 a5 57 75 bb fa 49 a1 3c 6e 19 31 bd 14 a7 f2 bc
       -0.0037436273 0.019688595 -0.043237142 -0.029620685
000170 67 41 58 bd 60 4e 8b b8 a6 a9 b6 bc 5a 24 69 bc
       -0.052796748 -6.642635e-05 -0.022297692 -0.014229858
000180 74 79 7a bc 24 60 29 bd 9b 1b ed 3c 16 67 77 bc
       -0.015287746 -0.041351452 0.028943827 -0.015100261
000190 39 36 01 bc 85 81 14 bd 49 ac 0c bb e9 d4 1b bd
       -0.007886463 -0.036256332 -0.0021464995 -0.038044844
0001a0 ad cd 37 3b 8f a7 24 3c a6 26 4b bd 7c 8d e9 bc
       0.0028046176 0.010049715 -0.049597405 -0.028509848
0001b0 55 3f 4b 3b d5 b3 0a bb d1 77 2b bc 0f 97 fe bc
       0.003101309 -0.0021164317 -0.010465578 -0.03107789
0001c0 af f8 9c 3c 3e 82 2e bb 3c 04 d3 3c 3e df 87 3d
       0.01916155 -0.0026627923 0.025758855 0.06634377
0001d0 04 d9 21 3d ef 4e bf 3c 10 7e 3c bd 1c ff cd 3c
       0.039513603 0.023353068 -0.04601866 0.02514606
0001e0 92 9e 93 3c f3 c9 d8 ba 69 5e a7 bb 06 80 54 bc
       0.018019948 -0.0016539678 -0.00510769 -0.012969976
0001f0 b3 01 dc 3b 8f e7 20 bd 0b 89 17 bc 9d 74 8b bc
       0.0067140698 -0.03928333 -0.009248982 -0.017023379
000200 97 41 6d 3c 8c 96 8d bb 1f c6 d8 bc b5 ba c8 3c
       0.01448097 -0.004320925 -0.026461659 0.024503091
000210 b8 a9 f9 bc c0 07 dc 3c 5f 49 e8 3c 5d f8 91 bc
       -0.030476436 0.026859164 0.028355299 -0.017818624
000220 3d f5 2e 3c f5 10 19 bc 56 9c 03 bd 14 84 ce bb
       0.010678587 -0.009342422 -0.032131515 -0.006302366
000230 6c a5 59 bb b5 b2 10 bd 16 d6 3d 3c 43 02 a8 3c
       -0.0033210171 -0.03532668 0.011586687 0.020508891
000240 83 01 0c bb c0 d9 4e bc 79 0b 4f bd 13 dd 96 3c
       -0.0021363206 -0.012625158 -0.05054805 0.018415963
000250 a4 91 d3 3b da ac 3b bc 64 05 25 3c 31 93 f1 bb
       0.0064565707 -0.011454785 0.010072086 -0.007372283
000260 04 4a 87 3c a7 66 bd bb 86 51 02 3d 6c 1a 9c 3c
       0.016514786 -0.0057800594 0.031816028 0.019055568
000270 3b 49 cd bb 4f e2 b6 3c 5d 6f 0c bb 03 5d 43 3c
       -0.0062648333 0.02232471 -0.0021428682 0.011924031
000280 6e a6 5b 3b ef 57 aa 3c e1 85 a1 3b 0c 5a 8c bb
       0.0033515948 0.020793883 0.0049292897 -0.0042831954
000290 c9 5b d7 3c dc c4 54 3c ba 15 d4 3c c0 c3 cd bb
       0.026288884 0.012986388 0.025889266 -0.0062794387
0002a0 9b 6a f7 3c fe e4 0f bc 90 28 4e 3c c2 05 b3 bb
       0.0302022 -0.008782623 0.012582913 -0.005463333
0002b0 ce e7 66 3b c5 5e e3 3b fa 21 11 bc 4c 85 b3 bb
       0.0035233381 0.0069387876 -0.008858198 -0.0054785367
0002c0 ba 53 94 3b 5e d2 38 bc 70 26 9d bc 9f 22 8d bc
       0.0045265825 -0.011280624 -0.019183367 -0.017228423
0002d0 d0 41 b9 3c f9 c5 df 3b 21 9c 61 bc 2c d6 ba 3b
       0.02261439 0.00682902 -0.013770134 0.005701801
0002e0 16 95 c3 3c f5 61 d5 bc c3 80 43 bc e9 71 64 3b
       0.0238748 -0.026047686 -0.011932555 0.0034857935
0002f0 3d 0b 01 3c ed 6b 1c bb 40 20 0a bb 28 94 03 3c
       0.007876215 -0.002386804 -0.0021076351 0.008030929
000300 78 fb 0a bb 94 d1 84 bc 6a 5e 25 3a 9b a7 d7 3c
       -0.0021207016 -0.016213216 0.0006308319 0.026325038
000310 17 64 8d bc af 21 19 bd fb 33 31 3b 57 87 4e 3c
       -0.01725964 -0.03738564 0.002703904 0.01260551
000320 a6 c6 36 bc b6 7e 96 bc 63 56 4d 3b ac da 2b bd
       -0.01115576 -0.018370967 0.0031332008 -0.04195659
000330 73 44 5b bc 8a 0f 3d bc 60 2e 81 bc 2a 47 07 bc
       -0.013383019 -0.011539349 -0.015769184 -0.008256713
000340 5e 90 3d bd 57 1d f1 bb d4 85 9e bc d4 2a da bb
       -0.046280257 -0.007358234 -0.019350924 -0.0066579375
000350 93 60 91 bb 82 0c 19 3d a7 92 24 3b b4 4d 9b 3b
       -0.0044365614 0.037365444 0.0025111826 0.0047394875
000360 47 d3 f1 bc 80 25 c6 bc de b2 51 bb 7a 05 8a 3c
       -0.02951969 -0.024187803 -0.0031997482 0.016848315
000370 01 e2 7b bc 41 a1 b5 bc 97 62 ca 3c d0 9b e9 bb
       -0.015373708 -0.022171618 0.024705214 -0.00712917
000380 0f 56 54 bd 34 4f 40 bc b9 f9 96 3c aa 78 87 3b
       -0.051839884 -0.0117376335 0.018429624 0.0041342573
000390 46 19 a6 3b 99 da 13 bb a6 e2 42 bd 73 9b 86 bd
       0.005068931 -0.0022560714 -0.04757943 -0.06572618
0003a0 55 ea ef ba c5 96 25 3c 16 f1 a2 bc 81 2d a4 bb
       -0.0018304089 0.010106747 -0.01989035 -0.0050103073
0003b0 46 b0 52 bb 08 4b 19 bd fe c0 56 bd 9f d3 88 bd
       -0.0032148524 -0.03742507 -0.052430145 -0.066809885
0003c0 db 40 84 bb 1c 0c 1d 3c 34 c9 49 3c 86 90 06 bd
       -0.0040360517 0.009585407 0.012316037 -0.032852672
0003d0 1e bb 87 bd 34 05 d0 3b ec d4 c0 3b fe 13 85 3c
       -0.06627487 0.0063482765 0.0058847573 0.016244885
0003e0 10 40 92 3c c5 1a f2 bb 98 7a 42 3b 1c fb 71 bc
       0.017852813 -0.007388445 0.0029675122 -0.014769342
0003f0 d5 fc a1 3c 4f 81 be 3c fe 25 b0 3c c8 4a 08 bc
       0.01977388 0.023255019 0.021502491 -0.0083186105

critic_head.0.bias f4 [64]
000000 d9 f2 b4 3b 1a a0 18 bc 31 4c f1 bc 5c 8e ae bc
       0.0055221138 -0.009315515 -0.029455276 -0.021308117
000010 f4 51 33 3c 72 65 56 3b 4d 6f 5c 3c 9c 52 68 3c
       0.010944832 0.0032714275 0.013454271 0.014179852
000020 96 cf 5b bc 37 1b 01 3c 98 3f aa bc 52 f2 25 bd
       -0.013416192 0.007880024 -0.020782277 -0.040514298
000030 e9 8e 60 3c b8 65 4b bc 87 56 95 bc 40 1a 3e bb
       0.013705947 -0.012414388 -0.018229736 -0.0029007345
000040 62 37 c9 bc 65 59 1b bc f6 83 3c 3c 6a b1 c2 3c
       -0.024562541 -0.009481763 0.011506071 0.023766238
000050 03 cc f6 bc 3b 5e f0 bc 27 35 2d bb b4 7b 3d bc
       -0.030126577 -0.029341808 -0.0026429386 -0.011565138
000060 83 b4 ee bc 91 f6 4c 3c 3e 20 09 bb b1 52 ba bc
       -0.02913881 0.012509958 -0.002092376 -0.022744508
000070 0f 1a e5 ba 1f 37 59 bc 38 6e b8 bb 4b 5a bc bc
       -0.001747908 -0.013257771 -0.0056283735 -0.022992274
000080 62 bd 94 3b 31 07 4f bc 7d 15 81 bb a0 b8 8b bc
       0.0045391778 -0.012635992 -0.003939329 -0.01705581
000090 83 e9 4d 3b 84 1e c8 3b 5a b4 54 3c 95 46 ec bb
       0.0031419701 0.0061071534 0.012982452 -0.0072105625
0000a0 ea f4 12 bb 36 d8 ed bb d7 bc 71 bc 86 7a 77 3d
       -0.0022423812 -0.0072584404 -0.014754496 0.06041958
0000b0 05 69 ac bc 32 b4 82 bb cd 73 2a bb 56 04 93 bc
       -0.021046171 -0.003988766 -0.0026008964 -0.017946403
0000c0 18 0f b4 3b ef b9 e0 bb 3f ca e0 bc ec 1d 92 bc
       0.0054949634 -0.0068581025 -0.027440188 -0.017836533
0000d0 ad a8 f4 bc 06 11 32 3c 27 61 ca ba 4d 61 98 3c
       -0.029865587 0.0108683165 -0.0015440331 0.018601084
0000e0 27 85 5f bb a6 95 9d 3b f8 dc 3e 3c 86 06 d2 bc
       -0.0034106465 0.0048090992 0.011649363 -0.025637876
0000f0 53 4c 16 3c 9e eb 07 bb 17 74 fb 3c 1b dd 0c 3d
       0.009173471 -0.0020739804 0.030695004 0.03439055

critic_head.2.weight f4 [1, 64]
000000 c8 b4 8d 3c 62 4b bf 3c dc ce 56 bc 30 53 87 bd
       0.017298117 0.023351375 -0.013110843 -0.06607664
000010 52 7f e6 3d f4 f6 cf bd 4e df 8a 3d d0 71 04 3d
       0.11254753 -0.101545244 0.06780873 0.032335103
000020 7b 7e 5b 3c d3 50 47 3d 00 95 7a 3b 50 99 04 bd
       0.0133968545 0.048661064 0.0038235784 -0.032372773
000030 c9 40 70 bd d8 34 15 bd 78 9b 4f 3d 6b 07 d5 3b
       -0.058655534 -0.03642735 0.050685376 0.0065011284
000040 07 19 7f bd 35 d5 20 3b 51 44 41 3d 21 da fe 3a
       -0.062279727 0.0024541144 0.047184292 0.001944367
000050 3a 1f 85 3d 3e 90 87 bb f7 d0 ae 3d f0 33 e8 b9
       0.065000966 -0.004137068 0.08535951 -0.00044289185
000060 f9 09 dd 3d b7 01 85 bd 0d 1a 0c 3d d6 72 e6 bd
       0.10792918 -0.06494468 0.03420453 -0.11252372
000070 62 90 dd 3d 7a fc 07 3d 9b d3 eb 3c cb e7 e5 3d
       0.108185545 0.033199765 0.028787425 0.112258516
000080 eb 29 cf bd 24 34 8c bc 12 97 b0 3d 29 cb 52 bd
       -0.10115417 -0.017114706 0.086225644 -0.05146328
000090 e7 bd a6 bc 92 68 d8 3d fb 62 26 3d b8 0e d8 3d
       -0.020354224 0.1056682 0.04062174 0.105496824
0000a0 a9 2c 8f 3c 62 c5 ab 3d b5 ae a6 3d 56 1b 9f 3d
       0.01747735 0.08387257 0.081387915 0.07768886
0000b0 87 4d 6f 3d 37 f4 e9 3d 66 ab 91 3d 98 1b c9 3d
       0.058423545 0.114235334 0.0711277 0.09819716
0000c0 06 e4 71 3c 7f a1 74 bb f4 de 1a be 71 b3 08 bd
       0.014763838 -0.0037327704 -0.15124112 -0.033374254
0000d0 c6 8e 73 bd d2 48 2f bc 42 9c 1f bd 27 64 cd 3d
       -0.05946233 -0.010698514 -0.03896738 0.10028868
0000e0 1b 2a b2 bd b7 70 40 3d d6 49 9c 3c 25 04 eb bd
       -0.08699437 0.046982493 0.019078176 -0.114754
0000f0 4b a3 df 3d 8a 13 83 bb dc b1 dc 3d 3d 52 d4 3d
       0.109198175 -0.004000132 0.107761115 0.10367248
