project_files/saved_models/ppo_policy_camera_cnn_whole_circle_to_test.pth (torch, 851205 bytes, 15 tensors)

cnn_base.0.weight f4 [16, 1, 3, 3]
000000 a2 56 90 3e f7 4c 3a 3c d1 41 6b bd 89 0e 92 3e
       0.28191096 0.011370889 -0.057435814 0.28526714
000010 31 b0 ad 3d 04 d5 79 3e 32 03 9a 3e 73 ce 2d bd
       0.084808715 0.24397665 0.30080563 -0.042433213
000020 13 21 44 3e c7 d1 9b 3d 0c e5 78 3e 4f a5 be 3c
       0.19153242 0.07608371 0.24306124 0.023272185
000030 0c ff 50 be 1b 8f 14 3e 56 85 6a 3d b2 4b 1c 3e
       -0.20409793 0.14507715 0.057256065 0.1526325
000040 f3 8b 99 3e 9a 99 13 3e 62 35 86 3e 67 50 6c be
       0.29989585 0.14414063 0.26212603 -0.23077546
000050 24 da 7a 3d 98 d9 e8 bd d8 3a 26 be 8c de 3a 3e
       0.06124319 -0.11369628 -0.16233385 0.18248957
000060 90 6a 8d be 93 c7 1a bd 2a e4 1d be 8b 45 65 be
       -0.27620363 -0.037787985 -0.15419069 -0.2238981
000070 3a 87 12 3e 5f f7 4a be 2f cb 05 3e b2 34 0f be
       0.14309397 -0.19820927 0.1306579 -0.13984945
000080 2c 37 75 be d9 02 15 be 1d 09 ef 3d b1 bf 8e be
       -0.23946828 -0.14551868 0.1167166 -0.27880624
000090 98 b0 58 be 6e 58 17 bd 95 3f 58 bd 9b 59 1a bc
       -0.21161115 -0.036949567 -0.05279501 -0.009420778
0000a0 3f 50 87 bd e2 0e 98 be 7e 6e 2e 3e 82 b1 8b 3e
       -0.066071026 -0.29698855 0.17034337 0.27283865
0000b0 79 6f be 3d 07 1d 7f 3e ca d7 4d 3e 87 10 fa 3d
       0.092986055 0.24913417 0.20101848 0.122101836
0000c0 b7 2d ae 3c 60 f7 5c 3e 78 16 8a be 80 5d 90 bd
       0.021262033 0.21578741 -0.26970267 -0.07049084
0000d0 06 92 15 3d 28 7e 8d be ba 1d 94 be a4 0e 5a 3e
       0.036516212 -0.27635312 -0.2892893 0.21294647
0000e0 eb f9 33 bd 29 06 3a 3e f9 3f 6d be c7 56 a7 3e
       -0.043939512 0.18166412 -0.23168935 0.32683393
0000f0 6f 80 f0 3d c8 24 28 3d f0 41 8c be 89 06 3e 3e
       0.11743247 0.041050702 -0.27394056 0.1855718
000100 34 79 89 3d 60 39 6f be 09 a1 a2 3e 5e 97 59 be
       0.06712571 -0.2336173 0.31763485 -0.21249148
000110 a2 b8 a6 be 1c 93 98 be af bf 57 3e a8 41 aa 3d
       -0.3256274 -0.29799736 0.21069215 0.08313304
000120 69 19 7b bd 26 cf 78 3e 3d 6e 8b 3e 37 df 9a be
       -0.06130353 0.24297771 0.27232543 -0.30248424
000130 9b d5 98 3c 65 ca 94 3e a5 81 ed 3b 07 b2 0f be
       0.018656543 0.29060665 0.007248121 -0.14032756
000140 99 25 80 bd 2e 57 bc bd 56 4b 0f 3e 68 56 a4 bd
       -0.06257171 -0.09196316 0.13993582 -0.08024293
000150 d3 a4 49 3d 4d 41 b1 bc 8d 33 a2 be 82 c3 9a 3e
       0.049229454 -0.021637583 -0.31679955 0.30227286
000160 d7 28 9e be 4b cb 6c be ca 1c 8d be ce 77 08 3e
       -0.30890533 -0.23124425 -0.27561027 0.13326952
000170 0b 9f 2f 3e 6b 36 29 3e fb 50 54 be 21 fc 88 bd
       0.17150514 0.16524665 -0.20734017 -0.06688715
000180 85 e0 a8 be 99 22 b2 3d 46 3e 74 be 98 88 89 be
       -0.32983795 0.08698005 -0.2385188 -0.26862025
000190 1c 99 8b be 72 62 67 be 5b 51 d9 bd f9 6c a1 be
       -0.2726525 -0.22596148 -0.106112204 -0.31528452
0001a0 70 8e 29 3e 51 30 46 be 2f 8b 03 be 0e 92 74 be
       0.16558242 -0.19354369 -0.12846063 -0.2388384
0001b0 57 a6 ec bb e0 e8 98 3d 18 9e b4 3d e5 cf b7 bd
       -0.0072219777 0.074662924 0.088192165 -0.089751996
0001c0 1e ff f9 bd b9 68 d3 bd 33 5a c8 bd 2f 82 94 be
       -0.12206863 -0.10322709 -0.09782829 -0.29005572
0001d0 0a b7 4a 3d d9 c9 80 3e bf bd 11 be 9f 78 75 3e
       0.049490966 0.25153998 -0.14232539 0.23971795
0001e0 bf 6a 03 be d1 41 5f 3e 65 4b 03 3e 8b 64 4a bc
       -0.12833689 0.2180245 0.1282173 -0.012353073
0001f0 f9 75 1f be ca 9e 85 be 85 31 80 3d a0 6d 9b 3e
       -0.15572347 -0.2609771 0.06259445 0.30357075
000200 45 e1 c8 3d 05 30 24 3e 9e 6d 1c be bd bc 80 3e
       0.09808592 0.16033943 -0.1527619 0.25143996
000210 fa bb 52 3e 25 f3 a6 bd 4a b3 8b 3e e1 e8 99 3e
       0.2057952 -0.08151845 0.27285224 0.30060485
000220 fb 10 08 3c 7d ab a9 3e f4 18 b4 bd 06 b7 a1 3e
       0.00830483 0.33138648 -0.08793822 0.31584948
000230 38 40 0b be fe ef 43 3e 19 c6 73 be 77 a4 c8 3d
       -0.13598716 0.19134519 -0.23806037 0.09796994

cnn_base.0.bias f4 [16]
000000 b7 ff 99 bc 29 56 54 be 66 52 98 3e cb 06 a4 3c
       -0.018798692 -0.20735992 0.29750365 0.02002277
000010 50 a4 b9 3d ed b6 c4 bb ce a9 54 be 70 61 fc bd
       0.09064543 -0.0060032518 -0.207679 -0.12323272
000020 c7 56 72 be 33 f9 89 be cc 15 d6 bc 3e 63 87 3e
       -0.23665915 -0.26947936 -0.02613344 0.26442903
000030 27 b8 a1 3d bb 8a 5f 3e 18 3d 20 3e 17 e3 0a 3e
       0.078964524 0.21830265 0.15648305 0.1356319

cnn_base.3.weight f4 [32, 16, 3, 3]
000000 53 be 16 3d f4 12 43 3d e1 da 95 bb cd fa 52 3b
       0.0368026 0.047625497 -0.0045732115 0.0032192946
000010 0b 3c 3b bd 6a 65 04 3d 4f a4 9b 3d 26 4b 31 bd
       -0.04571156 0.03232328 0.07599699 -0.043284558
000020 ba 99 5d 3c 8b 1d 83 3b 0d dd a3 bd 24 b4 a0 3d
       0.013525421 0.0040013245 -0.080011465 0.07846859
000030 c7 92 f2 bb 2f 00 fd 3c 1b b9 26 bb 31 44 a4 37
       -0.007402751 0.030883877 -0.0025439921 1.9582078e-05
000040 c3 e1 9b 3d e5 c3 3a bd 34 ee d8 3c 0b 38 09 3d
       0.0761142 -0.045596976 0.026480772 0.033500712
000050 e9 33 4a bd 0b e3 86 3b 2a 5f 90 bd bb 27 98 bd
       -0.04936591 0.004116421 -0.07049401 -0.07429453
000060 24 e1 ce 3c 75 78 58 3d 84 e8 5b 3d 6e 11 41 3d
       0.02525384 0.05284925 0.05368854 0.047135763
000070 68 82 dd bc 4d db a0 3d 7d 1a 41 bd 37 e8 ae 3c
       -0.027039722 0.07854328 -0.0471444 0.021350963
000080 94 7d 9d bd 69 ad 07 bd c9 42 97 bd 7e 35 1d 3d
       -0.07689968 -0.03312436 -0.07385785 0.038381092
000090 b7 c1 a6 bd e2 39 d4 bc 1f 58 a7 bd 51 6a fb bc
       -0.08142417 -0.025906507 -0.08171105 -0.030690344
0000a0 7d ca 85 bd 55 f0 c1 3c 23 93 40 3c cd 6e 88 bd
       -0.06532762 0.02367417 0.01175383 -0.066617586
0000b0 e1 fb 0d bd a1 20 62 3d f8 36 99 bd a7 57 78 3d
       -0.03466404 0.0552069 -0.074811876 0.060630467
0000c0 e0 76 f0 3c c7 c7 83 3c 73 83 99 3d ec e2 32 3d
       0.029353559 0.016086472 0.07495775 0.04367344
0000d0 cd 1a 94 3d 64 28 d0 3c 72 09 a5 bd ed 15 5f bd
       0.07231674 0.025409885 -0.08058442 -0.05446427
0000e0 b3 99 8a bc e1 f1 a6 bd e2 21 66 3d fd 3b 08 bc
       -0.016918993 -0.081516035 0.056184657 -0.008315084
0000f0 02 d8 45 3d 5f 27 e8 bc 20 8b 20 bd 58 64 c0 3c
       0.048301704 -0.028339086 -0.03919518 0.023485348
000100 09 6f 71 3d 40 49 c7 bc b0 f0 ee 3c b2 93 b7 bc
       0.058943782 -0.02432692 0.029167503 -0.022409294
000110 17 dc 72 bd e0 bb 8f bd 5c a0 38 3d 95 06 b8 bc
       -0.059291925 -0.07018256 0.045074806 -0.022464076
000120 f6 26 0b 3c b0 c3 17 bc d6 23 db 3c 9a 2a 9d bd
       0.008493176 -0.009262964 0.026750486 -0.07674141
000130 dd 9b d4 3c 39 b7 3c 3d 56 0e 06 bd 4b b3 8c 3d
       0.025953228 0.046073172 -0.032728516 0.06870135
000140 a8 20 90 bd 42 ec 92 bc d4 05 15 bd 71 8e 6b bc
       -0.07037479 -0.017934922 -0.03638251 -0.014377222
000150 c6 ec 3d bc 66 4e ff 3c cb 34 75 bc e6 4a c9 bc
       -0.011592096 0.031165313 -0.0149662 -0.024571847
000160 12 79 12 bd 9e 9e 98 3b 10 61 df 3c 63 b9 25 bd
       -0.035759993 0.0046575805 0.027267963 -0.04046
000170 d1 f3 6b bd fe 74 85 bd e5 9e 88 bd e9 3b 9e bd
       -0.05760557 -0.06516455 -0.06670932 -0.07726271
000180 ab 9d 44 3d 34 9e 97 bb f5 17 67 3d 47 34 58 3d
       0.048001926 -0.0046270136 0.05641933 0.05278423
000190 fb 4a b7 bc 48 96 95 3c d0 58 5c 3d 49 6e 06 bd
       -0.02237462 0.018260136 0.053795636 -0.03282002
0001a0 b2 ff 4a 3c 2c 5a bc ba ec 7f 97 bd 36 19 37 3d
       0.012390064 -0.0014370135 -0.07397446 0.044701777
0001b0 40 4e d3 bc 31 13 94 3d 26 bf b8 3b e8 ed 69 3d
       -0.025794148 0.07230223 0.005638021 0.05711165
0001c0 21 30 96 bc 6f f4 53 bd 71 84 6c bd 20 51 ee 3c
       -0.018333497 -0.051746782 -0.057743493 0.029091418
0001d0 20 25 2f 3d 39 6f fa 3c 14 68 ac bd 07 fa 24 bd
       0.042760015 0.030570613 -0.08418289 -0.040277507
0001e0 82 9e ee 3c a5 0f 17 3d 0b 48 23 bd 40 ee 47 3c
       0.029128317 0.036880154 -0.039863627 0.012202799
0001f0 c2 dd 55 3d 92 f7 88 3d 44 ba 5e 3d f2 89 a8 bd
       0.052213438 0.06687845 0.054376855 -0.08229436
000200 01 88 80 3d d7 be 8e 3d 9c 8b 58 bd e9 b5 b4 3c
       0.06275941 0.069699936 -0.052867517 0.022059398
000210 f2 d4 35 bd c0 e2 72 3d 1d c5 81 bd b3 a4 1e 3d
       -0.044392534 0.059298277 -0.063364245 0.03873129
000220 b0 e6 8a bd 7d 5a a4 3c ac 34 45 bd f1 b7 54 bd
       -0.067822814 0.02006268 -0.048145935 -0.051933233
000230 e1 87 55 3d 61 90 91 bd d2 25 7a 3d 5e 33 08 bd
       0.052131537 -0.07107616 0.061071225 -0.033252113
000240 4c b8 23 bd db 28 4e 3b f5 fe 24 bb 2b 54 6f 3d
       -0.03997068 0.0031457457 -0.002517638 0.05842988
000250 c3 57 0d 3c e9 ec 08 bd 09 a9 a3 bd b0 81 83 bd
       0.008626881 -0.03342906 -0.07991225 -0.0642122
000260 d5 41 48 3d bc 89 5d bd 42 a0 ee 3c 0d 23 06 bc
       0.048890907 -0.05408643 0.029129151 -0.008187068
000270 99 0c 0a bc e6 7b 3a bd 49 b0 5c bd e3 e6 6c 3d
       -0.008425855 -0.045528315 -0.053879056 0.05783738
000280 f4 7c a2 bd f9 8a 92 bd e4 47 54 bd b7 4a 86 bd
       -0.07933989 -0.07155413 -0.051826373 -0.065572195
000290 ff 36 6b bd ce 65 6c bd b8 42 8f 3c e0 fa 00 3d
       -0.057425495 -0.057714276 0.017487869 0.031489253
0002a0 cf 8f 10 bd 8a 3b 75 3d 43 5a 44 3c b4 8f b1 bc
       -0.035293397 0.059871234 0.011984411 -0.021674968
0002b0 22 f4 1c 3d 57 ab b1 3c 09 92 9d bd 65 80 fc bc
       0.03831876 0.021688147 -0.076938696 -0.030822942
0002c0 e0 1f 66 bd 4c 13 8d 3d 0d 21 a3 3d 64 27 96 bb
       -0.056182742 0.06888446 0.07965288 -0.0045823324
0002d0 25 69 34 3d f8 63 53 ba 52 64 9d bc c5 fe 85 3d
       0.044045586 -0.0008063908 -0.019212876 0.06542734
0002e0 a0 5e 42 3d fb c1 84 bd 3c b8 89 3d 5f ac 57 3d
       0.047453523 -0.06482311 0.06724593 0.05265462
0002f0 7b 07 8e 3d 6a bc 41 bd 9a e5 2a bd 0e d4 59 bd
       0.069350205 -0.047298826 -0.04172287 -0.053180747
000300 d2 6e 75 bc 61 5a 0c bc 56 6d 2e 3d 9b cb 1f 3d
       -0.014980035 -0.00856647 0.04258474 0.039012533
000310 fd 50 88 bd 9d 6a ad bb e5 04 fa bc 85 e4 d5 bc
       -0.06656072 -0.0052922503 -0.030519912 -0.026109943
000320 62 fc 74 3d 52 03 98 bd 7f 6c 7f 3d 2e 1e 9e bd
       0.059811004 -0.07422508 0.06235933 -0.077206
000330 a8 df 1c 3c 03 7c 9b 3d 1c d8 08 3d dd 25 46 bd
       0.009574808 0.07592013 0.033409223 -0.048375953
000340 5b 64 a2 3d 1d 37 60 bd 0d 0a 3a 3d f3 d1 82 bb
       0.079292975 -0.05474006 0.04541974 -0.003992313
000350 2c 8c ef bc 30 a0 12 bc 55 e2 4a bd ee 64 1f 3d
       -0.029241644 -0.0089493245 -0.049532253 0.038914613
000360 09 e7 85 3d 07 1b c8 3c 5d 3d a5 bd bf 93 9f bd
       0.06538207 0.02442695 -0.08068345 -0.07791852
000370 62 18 c2 bc 4c d1 89 3d 38 1a 29 3d df 2d 74 bd
       -0.023693267 0.06729373 0.04128477 -0.05961406
000380 98 19 8b bd d5 82 f0 3b ed 43 fe ba 1c a2 24 bc
       -0.06791991 0.007339815 -0.0019398906 -0.0100484155
000390 c5 1b 0b 3d a2 7a 97 3d a6 a1 7e 3d 91 b7 f0 bc
       0.03396203 0.07396437 0.06216588 -0.029384406
0003a0 4d 78 83 bc 5a 2a 2a bc 31 cd 18 3d 84 ff f8 3c
       -0.016048575 -0.010386074 0.03730506 0.030395277
0003b0 30 a0 41 3c 98 94 a2 3d d8 a2 e4 3c ad 69 a8 3a
       0.011817977 0.07938498 0.027909681 0.0012848877
0003c0 fa be 4f bd f9 44 4e 3d d6 dd 62 bd 67 5e 59 3d
       -0.05071924 0.050358746 -0.05538734 0.053068545
0003d0 ba 7f 9f bb a1 54 8b 3d f7 9e 88 bb 27 d1 98 bb
       -0.004867521 0.06803251 -0.0041693407 -0.004663605
0003e0 a9 ef df 3c 79 0b 8c 3d 37 e6 2b bd 94 06 a0 bd
       0.027335959 0.06838126 -0.041967597 -0.07813755
0003f0 84 e1 a1 bd ee 15 1b 3d 1a ac c7 3c c0 89 c0 bc
       -0.07904342 0.03786271 0.024374057 -0.023503184

cnn_base.3.bias f4 [32]
000000 a4 69 81 3d 6c 4f b0 bc 91 41 e2 bc 83 c3 7c 3d
       0.063189775 -0.021522246 -0.027619155 0.061709892
000010 ed 7e 2c bd 40 8a ab 3d c6 05 8b bd d6 f3 69 3c
       -0.042113233 0.083759785 -0.067882106 0.014279326
000020 f6 3a 85 bd ee 36 96 bd 3c 28 8d 3c 2b e8 8e bb
       -0.065053865 -0.07334696 0.0172311 -0.0043611727
000030 39 a3 a0 bd 1e 80 d5 3c ab 7a 7e bd 45 5e 6d bd
       -0.07843632 0.026062068 -0.062128704 -0.05795123
000040 23 3b b4 3c 45 a7 bb bc e4 12 99 3d a0 3c 3f bd
       0.022000855 -0.022906909 0.07474306 -0.046688676
000050 89 f5 09 bd 20 53 2c 3c c6 ce f2 3b 5a f2 8f 3d
       -0.033681426 0.010517865 0.007409903 0.07028647
000060 52 42 99 3b c5 99 2c 3d 72 11 9d 3d ac 34 90 bd
       0.0046770955 0.042138834 0.07669343 -0.07041296
000070 bf bc 02 bd 22 4b 11 3d a4 bd c1 bc 03 67 04 bd
       -0.031918284 0.035472043 -0.023649998 -0.032324802

mlp_base.0.weight f4 [32, 2]
000000 23 2a 69 3d 64 9e d2 be 74 a4 28 bf cd 77 24 3f
       0.05692495 -0.41136467 -0.65875936 0.642453
000010 4a 12 70 be c6 63 b8 bd 8a 89 81 bb 08 76 1c 3f
       -0.23444477 -0.09003405 -0.0039531635 0.611176
000020 16 80 3f be bf 8b e1 3e 19 dd 11 3f 60 c3 8e 3e
       -0.18701205 0.4405193 0.56977993 0.27883434
000030 d1 02 48 3e d3 4f 9c 3e e4 87 bd bd 8b 5b 9e be
       0.19532324 0.3052965 -0.09254435 -0.30929217
000040 fb d5 5f be 41 0e a3 3e 5a 0c ce 3e 26 e8 f6 3e
       -0.21858971 0.31846812 0.40243798 0.4822399
000050 05 2a 8d 3e 27 68 f9 3e d8 e3 ed 3e 0e 3f f4 3e
       0.2757112 0.48712274 0.46462893 0.47704357
000060 dc 89 ef bd 85 32 21 bf e5 17 b0 3e 37 3d db bd
       -0.116962165 -0.6296771 0.3439323 -0.10705035
000070 c4 9b 9c 3e 29 f6 a2 3d 5b 27 7e bd fa 8f 14 3f
       0.3058759 0.079571076 -0.06204925 0.5803219
000080 3f 57 9b be e4 a9 f4 bd de 83 d2 3e 19 15 1b 3e
       -0.3034 -0.119464666 0.41116232 0.15144767
000090 77 f9 b9 3e b9 65 9a be 3d 0e 34 be 6e 16 84 be
       0.3632314 -0.30155733 -0.17583556 -0.25798362
0000a0 75 a2 71 3e 5a 72 99 3c ab 66 d4 3e e3 62 ec 3e
       0.23597129 0.018731285 0.4148458 0.46169195
0000b0 f7 02 56 3e 84 ea 47 be 51 3e 26 3f 72 cd 10 bf
       0.20899568 -0.19523054 0.6493884 -0.56563485
0000c0 63 f8 b0 3e 2c 83 0d bf 7f a9 cd 3d 42 96 aa be
       0.34564504 -0.5527828 0.100420944 -0.33317763
0000d0 20 89 12 3f 1e 06 2b 3e e3 cf 85 be 74 52 e7 be
       0.57240486 0.16701552 -0.26135167 -0.45180094
0000e0 43 ec 1b 3f 12 e8 7c be 00 be 29 bf 65 68 5e be
       0.6090738 -0.24697903 -0.6630554 -0.21719511
0000f0 9d b0 15 bd 06 70 2f bf 54 3d 20 3f 74 42 7c be
       -0.036545385 -0.6853031 0.6259358 -0.24634725

mlp_base.0.bias f4 [32]
000000 72 dc 94 3e 14 04 dd be 32 a4 2f 3f 90 32 f3 3e
       0.29074436 -0.43167174 0.6860992 0.47499514
000010 14 bc 2e 3f 4b e9 a0 be 4c 30 b5 3e a7 fb 08 bf
       0.68255734 -0.31427988 0.3538841 -0.5350899
000020 f9 4e f8 be 02 8f ab 3e dd 04 1d bf 8b 93 d6 3c
       -0.4849775 0.33507544 -0.61335546 0.0261934
000030 44 64 27 bf 06 a8 ce 3e 38 08 cc be e2 da e3 3e
       -0.6538737 0.40362567 -0.3985002 0.44502932
000040 41 b9 25 be d6 83 26 3f ed 68 80 3e 81 e2 9b be
       -0.1618395 0.65044916 0.25080052 -0.30446246
000050 ac 6d 7c 3e 98 74 ac 3e 01 40 9a 3d bb 17 df 3e
       0.24651212 0.33682704 0.07531739 0.43572792
000060 a4 d0 31 3f aa e6 b2 be bb 9d 2d bf 26 ed 2a 3f
       0.69458985 -0.34941608 -0.678188 0.6676811
000070 ca a2 0c 3f 03 d6 09 3d a3 42 cb 3e 7e 48 17 bf
       0.54935896 0.033651363 0.39699277 -0.5909499

mlp_base.2.weight f4 [32, 32]
000000 5b 56 00 be 16 80 f3 3b ca 9d 00 3e df e2 f1 3d
       -0.12532942 0.0074310405 0.12560192 0.1181085
000010 39 eb 9e bd fb 19 90 bd 5e 67 04 bd bb af 29 3e
       -0.07759709 -0.070362054 -0.03232514 0.16570942
000020 02 7f 25 be d7 ca 09 bd a8 05 26 3e 13 c4 0f 3e
       -0.16161731 -0.03364071 0.16213095 0.1403964
000030 79 f7 26 be c9 e2 0f be b6 ad 07 be 85 07 15 3e
       -0.16305341 -0.14051355 -0.13249859 0.1455365
000040 7d 4e 91 3d 06 fb ec 3c 3a 58 39 bd c0 ef 81 ba
       0.070950486 0.028928291 -0.045250155 -0.000991337
000050 e5 55 77 bb a5 18 cd 3d d8 f1 85 bd fa eb 23 3d
       -0.0037740406 0.10014466 -0.06540269 0.040019967
000060 a5 36 cf bd 4d cb 85 bd 08 23 e9 3b 9a d5 66 bc
       -0.101178445 -0.06532917 0.0071147718 -0.0140890125
000070 01 1f d5 bd ac ba d1 3d 67 bc a9 3d 28 2e c6 3c
       -0.10406304 0.10240683 0.08287888 0.02419193
000080 b2 58 26 3e d8 a2 81 3d d2 e7 13 3e 28 c1 1a be
       0.16244772 0.06329888 0.14443901 -0.15112746
000090 63 9e 18 3e 17 31 a7 3c be 44 25 3e ec 80 58 3d
       0.1490417 0.02040915 0.16139504 0.052857324
0000a0 48 4d 1f be 23 3b 4b bd 99 24 a6 3d 4d 95 50 bc
       -0.15556824 -0.049616944 0.08112449 -0.012730909
0000b0 8f ff 84 bd 86 f2 4a bd 15 9a c6 3d 90 eb 22 be
       -0.064940564 -0.049547695 0.096973576 -0.15910172
0000c0 c7 00 86 bd ff 57 26 3e d8 96 32 bc ae 13 02 bc
       -0.06543117 0.16244505 -0.010900222 -0.007939262
0000d0 c6 12 20 3e c3 3d 04 3e 7a b0 fe 3d 13 ea 15 3d
       0.15632161 0.12914185 0.12436004 0.036600184
0000e0 bb 43 65 3d 01 d4 90 bc 01 e4 8c bd c3 33 e4 bd
       0.055972796 -0.017679216 -0.06879426 -0.11142685
0000f0 d3 90 55 bc d1 43 21 be dc 2f 0a 3d 65 02 14 be
       -0.013035017 -0.15748526 0.03373705 -0.14454038
000100 06 5f 30 be a1 0f cd 3d 93 dc 1a 3e 2e aa 2f 3d
       -0.17223749 0.100127466 0.15123205 0.042886905
000110 cc 24 46 3d e3 9c f5 3c 0d 35 84 3b fe 6d 8c bd
       0.048374936 0.029982036 0.0040346445 -0.06856917
000120 80 b2 c4 3d f8 f2 05 be ed 64 c4 3c c1 6a 20 3e
       0.09604359 -0.13080966 0.023973906 0.15665723
000130 d8 bc 0d bd 4f b9 b9 bd 85 4b 1f be 3b ae ef 3c
       -0.034603924 -0.09068548 -0.15556152 0.029257884
000140 15 a8 3b bd c9 5f 78 bd 4f 41 1c 3e c7 b1 06 3e
       -0.045814592 -0.060638223 0.15259288 0.13153754
000150 13 75 cb 3d 22 23 90 bd 9b aa 66 bd a4 13 84 bd
       0.099344395 -0.07037951 -0.056315046 -0.06449059
000160 81 aa 22 3d de 75 8d bd 4c a9 f7 bc 87 03 01 3e
       0.039713386 -0.06907247 -0.030232094 0.12599002
000170 dc d7 2e 3d 7c d9 27 3d 86 da 0d 3e d3 62 d9 bd
       0.04268633 0.040978894 0.13852891 -0.10614552
000180 34 bd dc 3d 87 63 f1 bd a2 6b cc 3b 2d c4 b8 3d
       0.10778275 -0.117865615 0.006238417 0.090217926
000190 a6 4b 29 3e 2b 57 72 3d 22 c1 5d bd f7 c5 e9 3c
       0.16532764 0.05916516 -0.054139264 0.02853678
0001a0 1f 1b d9 3d 50 f3 eb bd 96 a0 20 3e a5 e1 09 be
       0.10600876 -0.115210176 0.15686259 -0.13464983
0001b0 85 1f bd 3d 61 83 1e 3e 6a cb 85 3d 2e df 10 3d
       0.092345275 0.15479805 0.06532939 0.03536909
0001c0 90 ca 9f 3d e9 c3 fd 3d 4b 4d 1f 3d ef ed 2e 3e
       0.078023076 0.123908825 0.03889207 0.17082952
0001d0 60 59 19 be e6 c8 cd bd 16 2c 1d 3e fd 20 58 bd
       -0.149755 -0.10048084 0.15348849 -0.052765835
0001e0 1b 7c 15 3d 63 34 27 be 37 d6 b1 bd 76 69 d9 3d
       0.03649531 -0.16328578 -0.08683436 0.10615818
0001f0 81 c0 2d 3c 88 ae c6 3c 1b 85 18 3d f1 b6 ae 3d
       0.010604979 0.024253145 0.037236314 0.08530987
000200 41 00 93 bc 16 5e 03 bd 1f 1c fa 3d a5 5a 0d be
       -0.017944457 -0.03207215 0.12212395 -0.1380411
000210 1d 82 ac bd a7 84 a4 bd 79 f6 1e 3e b4 57 2e 3d
       -0.08423255 -0.08033114 0.1552371 0.04256411
000220 d3 44 d7 bc 07 04 1d bd b7 72 d3 3d 54 1f ac b9
       -0.026277935 -0.03833392 0.103246145 -0.00032829738
000230 05 94 04 be 3f a6 14 3e ef d5 94 3d ed 52 15 3e
       -0.1294709 0.14516543 0.07267367 0.14582415
000240 e1 c6 b3 bd 04 fa af 3d 3e 75 bf bb 2c f9 8e bd
       -0.087781675 0.085926086 -0.005842834 -0.069811195
000250 8f 90 bb 3d a8 6c 8f bd e8 5b eb 3d 60 99 10 bd
       0.09158432 -0.070031464 0.11492139 -0.03530252
000260 d3 19 11 3e 87 e2 c6 3d 01 c2 b1 3d 5d 34 8c 3d
       0.14170007 0.097111754 0.086795814 0.06845925
000270 7d bd aa bb a6 04 04 3c 48 d3 e4 3d 54 25 7c 3d
       -0.005210577 0.008057749 0.11173111 0.061559036
000280 dc 1f 5c bd 7b ab 28 3e d9 d3 a8 bd 15 fe 0e be
       -0.05374132 0.16471665 -0.08243532 -0.13964112
000290 15 64 21 be c3 ea 29 be d6 7b 0e 3c e5 68 13 3e
       -0.15760835 -0.1659346 0.008696517 0.14395483
0002a0 c6 58 8d 3c 22 27 c8 3d 69 24 0d 3e 9e a3 c2 bd
       0.017254245 0.09773089 0.1378342 -0.09503864
0002b0 27 a6 b4 3d 54 d7 b4 3d 40 b3 98 3d 67 8e e6 bd
       0.088207535 0.08830133 0.07456064 -0.1125763
0002c0 c1 fd 16 be a0 02 16 be 74 fc a7 bd e0 7f 39 3a
       -0.14745237 -0.14649439 -0.082024485 0.0007076245
0002d0 e4 0b 32 3e 29 08 34 be 00 e3 81 3d 93 4a bc bd
       0.17387348 -0.17581238 0.06342125 -0.091939114
0002e0 23 8b 2a bd f6 35 4a bc 0c 85 21 3e 88 75 29 3c
       -0.041636597 -0.012341967 0.1577341 0.010342963
0002f0 44 66 31 be fa 92 1d be d1 d1 18 be 89 c6 ac bd
       -0.17324167 -0.15388098 -0.14923789 -0.08436305
000300 d3 ee 87 3d 8d c2 d2 bd 08 ad 73 bd ea 75 eb 3d
       0.06637349 -0.10291014 -0.059491187 0.114971
000310 78 cd a3 3d 51 c3 34 bc 3f 63 25 3e 11 6b b2 bd
       0.079981744 -0.011032895 0.1615114 -0.087118275
000320 ce 66 18 be 23 ab dc 3d b2 a6 f3 bc eb f2 a6 bd
       -0.14882967 0.10774829 -0.029742572 -0.08151802
000330 8b be d6 bd a2 bc 17 3d 8f 6f d7 3c 6d c4 24 3e
       -0.10485562 0.03704513 0.026298312 0.16090555
000340 a3 40 0c be 82 75 2c 3e 72 9d c7 3c b4 8f 07 3e
       -0.13696532 0.168417 0.024367068 0.13238412
000350 bd 2f 59 38 97 14 c9 bd 24 5a b8 bd 07 d7 9d 3c
       5.178129e-05 -0.0981838 -0.09001568 0.019267572
000360 d7 f6 50 bd e4 6e 9d 3a 94 a6 b1 bd 68 e3 d2 bd
       -0.051016655 0.0012011197 -0.086743504 -0.102972806
000370 3f 1b 00 3e 7e 05 ff 3d 47 5f 20 3e cb 35 34 3e
       0.12510394 0.124522194 0.15661345 0.17598645
000380 ce bc b1 bc bb 1e 13 3e 2d 87 d3 3d 26 91 2e 3e
       -0.021696474 0.14367191 0.10328517 0.17047557
000390 85 88 8a 3d e0 ad b9 3d da f0 42 3d 4e 23 ee bd
       0.0676432 0.09066367 0.047592975 -0.116278276
0003a0 6f 3d 95 3d ea f6 aa bd e3 25 14 3d c5 1b e6 3c
       0.07287108 -0.08347876 0.036168944 0.028089413
0003b0 4e c0 a6 bd d9 45 17 be 4c 61 bc 3d c9 11 71 3d
       -0.08142148 -0.14772739 0.091982454 0.058854852
0003c0 47 74 90 3b 41 5f 1c 3e ef a3 f2 bd e0 21 2c be
       0.0044083926 0.15270711 -0.11847674 -0.16809797
0003d0 71 bb 72 3c 89 38 9d bd 25 84 90 bd ca 91 20 3e
       0.014815197 -0.07676799 -0.070564546 0.15680614
0003e0 09 8e cd bd cb ab a9 3d 4f bb 36 bc a3 d0 0c be
       -0.10036857 0.0828472 -0.011153056 -0.13751464
0003f0 93 af b6 bc ba 2a 04 3d 66 cb 29 bd bd 8b 24 3e
       -0.022300517 0.03226731 -0.04145374 0.16068931

mlp_base.2.bias f4 [32]
000000 3f d5 97 bd aa ea 15 be 33 11 30 be da 81 fe bb
       -0.0741372 -0.14640298 -0.17194061 -0.0077669444
000010 65 1f 86 3c 60 aa be 3d 18 53 c0 bd 56 5e 02 3e
       0.016372392 0.0930984 -0.09390849 0.12731299
000020 03 9f e7 3d 3f a2 08 3e 3b bb 14 3e e3 d4 87 bd
       0.11309626 0.13343142 0.14524548 -0.06632402
000030 a3 7e 12 3e 9a 1c fd 3b 0d cd b4 bc ed 03 66 3d
       0.1430612 0.007724357 -0.022070432 0.056156088
000040 f2 00 f7 3c da 30 25 be 5e 56 9c bd 5c 1b 30 bd
       0.030151818 -0.16131917 -0.07633661 -0.042994842
000050 86 2a c8 3d 42 88 5c 3d 76 71 b3 3d fe c7 32 3e
       0.09773736 0.053840883 0.08761875 0.17459103
000060 ee b5 c2 3c 6d fe 00 be f7 d1 00 3e 96 bb 52 3c
       0.023768391 -0.12597056 0.12580095 0.012862107
000070 d0 8f 17 bd d9 b6 1e be 32 64 2f 3e aa df 77 3d
       -0.037002385 -0.15499438 0.17128065 0.060516037

actor_head.0.weight f4 [64, 1600]
000000 c1 a1 09 3c 07 1d f3 39 1c d8 97 bc bf 90 bb 3c
       0.008400382 0.000463702 -0.018535666 0.022896169
000010 3d f6 86 3b 81 62 d7 3c c2 b4 37 3c 17 97 11 3c
       0.0041187094 0.026292088 0.01121253 0.00888612
000020 1f 6e 76 bc bc 33 7a 3c 67 d4 12 bc 4f 88 44 bc
       -0.015040903 0.0152711235 -0.0089617735 -0.011995389
000030 9c e6 8d bc 05 f8 9a 3c 95 51 65 3c 35 04 ed 3b
       -0.017321877 0.018917093 0.013996501 0.0072331675
000040 af b5 b1 bc 2b bb c1 bc 7d 24 58 bc 43 d7 4b 3c
       -0.021693079 -0.023648819 -0.013192293 0.012441459
000050 e2 5f 40 bc 7b e0 b4 3c 73 2d af 3c 8c b4 51 bc
       -0.01174161 0.022079697 0.021383977 -0.012799393
000060 dc 5a 14 3c 58 67 cb bb 65 b9 79 bc 24 e0 da 3c
       0.009054866 -0.006207388 -0.015241955 0.026718207
000070 a4 6c a2 3a 7a 16 9e bb df 03 2a 3c 62 6a a8 3c
       0.0012391997 -0.0048244568 0.0103768995 0.02055854
000080 3b 9c 9f 3c 82 b5 34 bb 8a d9 3d bc ea 2b e1 3b
       0.019483676 -0.0027574007 -0.01158751 0.00687169
000090 b9 5b bb bc 25 c5 c4 bc 65 12 23 3c b2 ee 46 3c
       -0.022870885 -0.024019787 0.009953116 0.01214187
0000a0 3e 45 ac bc 72 eb 88 bc 70 09 d8 3b ce 2b 24 3c
       -0.021029111 -0.016713832 0.006592922 0.0100202095
0000b0 63 f6 72 3b 78 75 64 bc e9 ea 98 3c ae de a5 bc
       0.0037073127 -0.013944022 0.018666701 -0.020247784
0000c0 78 54 08 3c 71 26 1f 3c 4d 31 98 bc 51 00 47 3c
       0.00832092 0.009713755 -0.018578196 0.0121460715
0000d0 71 4e 1f 3c d4 e6 71 bc 9b a3 c8 3c cb 35 ba bc
       0.009723292 -0.014764506 0.024492076 -0.022730729
0000e0 20 85 0b 3c b3 9c b1 bb 2f e4 3d bc 94 df a6 3b
       0.008515626 -0.0054202913 -0.011590048 0.0050925706
0000f0 e0 43 92 3c 66 dc 80 bc 5a cd 81 3c fa ca 31 3a
       0.017854631 -0.015730094 0.01584499 0.000678226
000100 dc c7 22 bc e5 4c aa bc 32 da ca bc be 20 d2 bb
       -0.0099353455 -0.02078862 -0.024762247 -0.0064125946
000110 71 df c0 3c 0f e4 25 3c ea df b4 bc 5a b4 9c 3c
       0.023544045 0.010125174 -0.022079427 0.019128967
000120 2a 3e 8f 3c ec 83 70 bc 08 dc 86 3c 83 cb 07 bc
       0.017485697 -0.01467989 0.016462341 -0.008288267
000130 f0 43 8c 3c 7d d1 11 bb c1 23 bb 3c 19 51 99 bc
       0.017122239 -0.002225011 0.022844197 -0.018715428
000140 a8 db 01 3c 30 76 50 bc a5 cb 5f 3c f5 a5 a3 3b
       0.007925905 -0.012723491 0.0136593925 0.004994149
000150 19 c1 38 bb 52 39 d1 3c ce 00 4e bc e0 6d e0 3a
       -0.0028191267 0.025540028 -0.012573434 0.0017122589
000160 29 64 2e 3c 90 71 ae bb 9c 2f 46 bc d8 aa 99 3c
       0.010643997 -0.0053235963 -0.012096312 0.018758222
000170 1f a5 b4 3b 81 a3 01 3b 66 33 44 bc 65 ca c9 bc
       0.005512848 0.0019781294 -0.011975145 -0.024632642
000180 4e be 69 bc fd 66 fc bb 89 ab d7 bb eb 1a 83 3b
       -0.014266564 -0.007702707 -0.006581728 0.0040010116
000190 99 89 1a bc 93 f6 0e 3c b8 0d ac 3c 9f 10 3b 3c
       -0.00943222 0.00872578 0.021002635 0.011417537
0001a0 91 d8 ab 3c 7e 65 98 3c bb 33 cc 3b 18 fd 9d bc
       0.02097729 0.018603083 0.0062317527 -0.019285724
0001b0 83 ea 61 bc ee e6 94 bc ce d9 88 bc c3 74 bb 3c
       -0.013788822 -0.018176522 -0.01670542 0.022882825
0001c0 1e ca 8b 3c 48 c9 c7 3c ea 18 2e 3c 53 75 09 bc
       0.01706415 0.02438797 0.010626057 -0.008389789
0001d0 f8 b2 1e 3c 36 91 8e 3b e1 79 a5 bc 99 cf 53 3b
       0.009686224 0.0043508066 -0.020199718 0.0032319783
0001e0 83 2e b0 3c 43 14 11 bc e0 6e df bb 80 dc 11 bb
       0.021506554 -0.008854928 -0.0068186373 -0.0022256672
0001f0 f6 6b a9 bb 26 bc c0 3b 75 58 c1 bb dd 50 5a 3b
       -0.0051703406 0.005881804 -0.0059004375 0.0033312358
000200 2d a6 99 bc f7 ee fb bb a3 ea 0a 3b 11 a5 c1 bc
       -0.018755997 -0.007688399 0.0021196983 -0.02363828
000210 f0 af 54 3c 93 e5 94 3c db 49 78 bc 4f c4 d6 bb
       0.0129814 0.018175876 -0.015154327 -0.0065541635
000220 5d dd 18 bb 16 ef a1 3c fe 8b c3 3b 40 87 f1 b9
       -0.0023325302 0.019767325 0.005967616 -0.0004606787
000230 b0 cd 9c bc df 10 6d bc a9 08 97 3b 74 3a b8 3c
       -0.019141048 -0.014469354 0.0046091867 0.02248881
000240 ae 08 b0 3c 9d f1 7d bc 6c 0a a4 bc c4 45 9f bc
       0.021488514 -0.0154995 -0.0200245 -0.019442447
000250 8e 8c c2 3c 30 33 3d ba a0 2a 8b 3c f6 02 9e bb
       0.023748662 -0.00072174054 0.016988099 -0.0048221303
000260 bb 81 11 b9 03 ff 54 3c 10 1e ce bb b5 3a c9 3b
       -0.00013876606 0.013000253 -0.006290205 0.0061410316
000270 79 5d a8 3b b7 5b 2a bb 73 51 94 bc 68 78 2c bc
       0.005138096 -0.0025994608 -0.018105244 -0.010526754
000280 84 f9 50 bc e5 04 98 bc d1 7a 8f 3b b5 1b 22 3c
       -0.012754802 -0.018557021 0.0043786545 0.009894301
000290 39 34 b3 bb c6 ca e6 3b 58 05 5b bc 5c ae 47 3a
       -0.005468872 0.0070432154 -0.013367973 0.0007617229
0002a0 fc 01 0c bc 73 8e 9c bc b3 6b bb bc 99 9e b2 3c
       -0.008545395 -0.019110894 -0.022878503 0.02180414
0002b0 05 10 67 3c 96 4e 71 bb c1 9b 28 3b 82 82 58 bc
       0.01410294 -0.0036820523 0.0025727602 -0.013214709
0002c0 eb 1f b9 bb 2a 0d 03 3c e5 11 3c 3b 9b d0 84 bc
       -0.005649557 0.007998744 0.002869719 -0.016212752
0002d0 18 89 2d 3b 1a 1b 7a bc 12 03 aa 3c d7 af 5b bc
       0.002647942 -0.015265251 0.020753417 -0.013408623
0002e0 52 b4 6e bc 4f 72 4a 3c 7d 8c 17 bc 2f 06 9c 3c
       -0.014569359 0.012356355 -0.009249804 0.019045917
0002f0 87 91 84 bc b6 4d 6e bc 1b e2 5f bc 13 db f6 3a
       -0.016182674 -0.014544895 -0.013664748 0.00188336
000300 7d e7 d4 bc dd 26 98 3c b6 b7 9d 3c 37 b6 cc 3c
       -0.025989288 0.018573219 0.01925264 0.02498923
000310 3f a8 1d bb de 59 b9 3c b1 b0 8c 3c 25 0c 48 bc
       -0.0024056581 0.02262586 0.017174097 -0.012209927
000320 9c 4d 7b 3b c4 32 a9 3c 45 e8 01 3c 74 85 c2 bc
       0.003834582 0.02065409 0.0079289125 -0.023745276
000330 42 c8 37 3c 92 5d 40 bc f4 b0 75 bb fd 7e 5a 3c
       0.011217179 -0.011741059 -0.0037489505 0.01333594
000340 cd 92 60 bc 41 33 bb bb b1 70 cd bc c3 14 a1 3c
       -0.013706875 -0.005712897 -0.02507815 0.01966322
000350 c0 dd 30 bc ba f8 83 3b 61 d7 69 bc 39 2b 89 bc
       -0.010795057 0.0040274533 -0.014272542 -0.016744243
000360 58 6d 8e 3c 45 22 2f 3c 9c 23 81 bb 1b ee ba ba
       0.017386124 0.010689323 -0.0039410125 -0.0014261635
000370 5a 3b cb 3c b0 97 b3 3c 56 d8 c6 bc 9f 4c b9 bc
       0.024808574 0.021922916 -0.024273079 -0.022619544
000380 60 c9 48 bc 37 9d 1f 3c 15 5d 06 3b 97 e9 6f bc
       -0.012255043 0.009742073 0.0020502259 -0.0146430945
000390 f6 ea 87 bc 8b 1b 32 ba 71 58 d0 3c bd 1a 3f bc
       -0.01659153 -0.00067942654 0.025432797 -0.01166409
0003a0 30 97 4e 3c 52 9a 16 3c c8 6d 1c 3b 47 b2 5b 3c
       0.012609288 0.009192066 0.0023869146 0.013409204
0003b0 19 36 9e 3c 61 c2 89 3c de 1c b3 3b 41 51 ce bb
       0.019312905 0.01681632 0.0054660877 -0.0062963073
0003c0 63 bd ce bb 3a 61 97 bc 9d 04 ae 3c 85 90 1a 3b
       -0.0063091977 -0.018478978 0.021242434 0.0023584676
0003d0 ee 3b 36 3c 56 17 02 bc 4f 2d 89 3c 5d 3d b2 bb
       0.011122687 -0.007940134 0.016745238 -0.005439444
0003e0 22 4a 7c 3c 95 2f b2 3a 81 c7 35 3c 19 97 98 3c
       0.015398534 0.0013594503 0.011094929 0.018626736
0003f0 9d 86 87 3c d5 d9 57 bc 0a 42 05 bc 7d bf da ba
       0.01654368 -0.013174494 -0.008133421 -0.0016689148

actor_head.0.bias f4 [64]
000000 12 36 6e 3c 23 58 c7 3c bb d5 ab bb 57 e1 35 3b
       0.014539259 0.024334019 -0.0052439845 0.0027752721
000010 34 6c b4 bc 83 8c 5f 3c ad 57 89 3c d2 98 13 bb
       -0.022024252 0.01364434 0.01676544 -0.0022521508
000020 ce 1e a1 39 1a 64 5b 3c 8b 12 6b bc b8 d1 0d 3c
       0.00030731264 0.013390565 -0.014347683 0.008655958
000030 f4 a4 f2 39 fb b0 ad 3c 4a 10 bc bc d4 67 2c 3c
       0.00046280737 0.021202555 -0.022956986 0.010522801
000040 96 51 c1 bc f3 fd 9d ba 18 cf da ba e7 33 71 bc
       -0.023598474 -0.0012053832 -0.0016693799 -0.014721847
000050 a0 06 ff ba 8a 6d 89 3c 4a 2e 0e 3c 46 77 ab bc
       -0.001945693 0.016775865 0.008678028 -0.020930897
000060 ab da b4 bc 44 17 bf 3b 20 07 87 3b 1f fe 25 bc
       -0.022076925 0.005831631 0.0041207224 -0.010131388
000070 cf 4a 62 bc 76 30 30 3c 8d 50 26 3b 2b c6 9b bb
       -0.013811781 0.0107537415 0.0025377602 -0.004753848
000080 8e 5f 6d 3c ae 5d b0 3c 3e ef 08 3c f9 84 86 3c
       0.014488114 0.021529045 0.008357821 0.016420828
000090 ef 04 6b bc 46 a3 a2 bb f3 9b 9b bc f7 a2 8e 3b
       -0.014344438 -0.0049633114 -0.01899526 0.004352923
0000a0 57 5b 85 3a f0 92 c4 bc a2 f1 2e bc 3a 09 f8 3b
       0.0010174316 -0.023995847 -0.010677727 0.0075694593
0000b0 1f 4b 8d 3c d4 9c d0 bc 34 6d b5 bc 77 48 07 bb
       0.017247735 -0.025465406 -0.022146799 -0.0020642558
0000c0 3b 70 aa 3c 56 a5 a2 3c b0 5c 1a 3b 97 af 9f ba
       0.020805469 0.019854229 0.0023553781 -0.0012183067
0000d0 ce a5 94 3b 99 91 85 bc 65 79 2d bb a1 ea 25 bc
       0.004536367 -0.016304778 -0.0026470062 -0.010126741
0000e0 53 90 80 bc cb 02 10 3c bc c1 99 bc 6c 94 90 bc
       -0.01569382 0.008789728 -0.018769138 -0.017648898
0000f0 fa 5c 2b 39 b4 07 d4 3c 9f 3b cc bc 78 09 26 bc
       0.00016342467 0.02588258 -0.024930773 -0.010134093

actor_head.2.weight f4 [2, 64]
000000 92 8e 83 bb 24 d8 e5 3d 68 83 2a 3d 5b c8 a6 bd
       -0.0040147984 0.11222866 0.041629225 -0.081436835
000010 ee 9d bb bd 23 b7 e4 3d 31 41 bb 3d f7 25 ad bd
       -0.09160982 0.11167743 0.09143294 -0.08454507
000020 9b de ae bd 93 1e ce bc d7 c2 df bd b3 de 95 bd
       -0.085385524 -0.025161063 -0.109258346 -0.07317867
000030 ec 6e a3 bb 57 d0 dc bd 58 4c cd 3d 24 b6 da 3d
       -0.004987588 -0.10781925 0.10024327 0.10679272
000040 bd 78 68 bc 15 aa 2d bd b1 df 32 bc 5c 36 9c bd
       -0.0141889425 -0.04239853 -0.01091759 -0.07627556
000050 3e c5 9f 3d 07 9c d1 3d c8 cb 31 bd 1f 6a 38 3d
       0.07801293 0.10234838 -0.04340723 0.04502308
000060 03 b7 4f 3c eb c0 78 3d ed bf 7a 3d dc 9e 4a 3d
       0.012677911 0.060730856 0.06121819 0.049467906
000070 f1 2e ae bd 2a 2d d6 3d 4b 2c 0f 3d 0c ca a5 3d
       -0.08505047 0.10457833 0.03495435 0.08095178
000080 6c 4c 2d bd db 3c ce 3d 05 64 f0 3d 69 38 d3 bc
       -0.04230921 0.10070201 0.11737827 -0.025783734
000090 c0 7a d9 bc 7b 75 b8 3d 13 52 2a 3d 00 f0 44 3d
       -0.02654779 0.090067826 0.04158218 0.048080444
0000a0 1c 8b 53 3d 96 47 a7 3c 5e b8 7e 3d d6 b2 05 3e
       0.051646337 0.020419877 0.062187545 0.13056502
0000b0 63 57 58 3b 58 21 ec 3d a1 79 38 bd 93 d6 82 bc
       0.003301107 0.11529797 -0.04503787 -0.015971458
0000c0 b5 68 3a 3d e3 fa a7 bd a2 d2 00 3e 6f 42 4e bd
       0.045510013 -0.0820215 0.1258035 -0.050356325
0000d0 92 76 a6 bd da 4d 02 3e fe 2a b0 bd fb cf 9e bd
       -0.08128084 0.1272501 -0.0860195 -0.07754513
0000e0 f4 20 e9 bc d3 6a 36 3d dc 24 33 3d 45 34 44 bd
       -0.028458096 0.04453547 0.043736324 -0.04790141
0000f0 35 b6 b4 3d 21 63 f7 3d a2 43 83 3d 45 87 29 bc
       0.08823816 0.12079454 0.06409384 -0.010347192
000100 8b 2e db 3c e5 2f 90 bc 96 4f fa 3d 4b 47 56 bd
       0.026755592 -0.017600963 0.12222211 -0.052314084
000110 95 48 22 3c dc 39 fa 3d 11 93 c8 3b b8 ef 9e bd
       0.009905 0.12218067 0.0061210473 -0.077605665
000120 7e 26 ad 3c 84 5b 4a bd 61 e6 bd 3d ea 65 e2 bc
       0.021136519 -0.049403682 0.09272457 -0.027636487
000130 a5 31 b1 3d b6 34 6b bd e0 3c 53 3d 87 dc ba 3d
       0.08652047 -0.057423316 0.051571727 0.091240935
000140 8d 56 da bc ea 31 58 bd 87 f9 a5 3c be f0 fb bd
       -0.026652599 -0.052781977 0.020260585 -0.12301777
000150 36 a7 88 bc 7b e9 d7 bc 8f 7d 11 bd 67 d1 07 3c
       -0.016681295 -0.02635645 -0.035520133 0.0082896715
000160 3d 11 c6 bd d0 6c 9e 3d b5 27 fd 3b 40 f7 50 bc
       -0.09671257 0.07735598 0.0077256807 -0.0127542615
000170 23 cd a5 3d db 42 a6 3a 9d cd 6a bd bc d9 dc bd
       0.08095767 0.0012684719 -0.057324994 -0.10783717
000180 8f 22 1a bd 37 a4 ed 3d 66 f7 6d 3d 15 37 6d bd
       -0.037630614 0.11603587 0.058097266 -0.05791386
000190 55 9b ae bd a0 f6 f0 3d 0e 98 5f bd 76 7d 9b bd
       -0.08525721 0.1176579 -0.05458837 -0.07592289
0001a0 26 98 eb bd c9 3a 9d bd 14 d2 ed 3c f9 61 82 bd
       -0.115036294 -0.07677228 0.029030837 -0.06366343
0001b0 4a c1 51 3d 1c a1 b8 bc b2 b0 37 bd bb 40 e3 3c
       0.051209725 -0.02253776 -0.044846244 0.027740827
0001c0 6e aa 96 bc fd b0 9d 3d c9 0b 93 bd 47 8e ec 3d
       -0.018391814 0.076997735 -0.07179982 0.11550575
0001d0 f0 f9 0c 3d ae 59 18 3d fc 71 9d 3d 1e 9e 75 3d
       0.034418046 0.0371949 0.076877564 0.059965245
0001e0 41 e3 3e bc 29 a9 5b bb 60 61 6b 3d 4e 9f 4d bd
       -0.011650861 -0.0033517575 0.05746591 -0.050200753
0001f0 03 53 29 bc 37 39 b1 3c 82 02 db bb 11 68 bd bd
       -0.010334733 0.021633727 -0.0066836486 -0.09248365

actor_head.2.bias f4 [2]
000000 d2 c6 84 3d cd fd dc bd
       0.064832345 -0.10790596

critic_head.0.weight f4 [64, 1600]
000000 7c fa c2 bc 3d ae 35 3c de 01 57 3b 0a ad ba 3b
       -0.02380108 0.011088905 0.003280751 0.0056968974
000010 49 aa d2 bc fc e7 99 bc 08 02 9d 3c 5f 43 2b bc
       -0.025715964 -0.018787377 0.019166008 -0.010453074
000020 29 bf 4a 3c 44 4c e2 3b 84 4a c1 3b 0e 25 a2 bc
       0.012374678 0.006906064 0.0058987755 -0.01979306
000030 5f 47 a5 bc c1 fd 4e bc 16 60 7e 3a e9 2a 68 3c
       -0.020175634 -0.012633742 0.0009703649 0.014170387
000040 ee a9 5e bc cc f4 86 3c 03 24 c7 bb 26 49 41 3b
       -0.013590319 0.01647415 -0.006077291 0.0029493063
000050 f9 5b 44 ba e8 43 d4 bc cb 4d 1b 3c 29 c1 9b 3b
       -0.00074905116 -0.025911286 0.0094789965 0.004753251
000060 70 d3 40 3c 4c f7 d6 bb c7 a4 43 bc d3 34 a9 bc
       0.011769161 -0.006560242 -0.011941141 -0.020655071
000070 16 6e 96 bc 91 bc ad 3a d3 d0 bb 3b fc 87 6e 3a
       -0.01836304 0.001325505 0.005731681 0.0009099243
000080 d4 2c 0c 3c ea f4 c7 bc d6 99 d5 bb 04 98 d8 bc
       0.00855561 -0.024408776 -0.006518583 -0.026439674
000090 ad 5e 93 3c 2c 93 f5 bc 23 74 fc bb 68 00 2b bc
       0.01798948 -0.029977404 -0.0077042743 -0.010437109
0000a0 6d d8 9a 3c ee 88 a0 3c 4d e5 26 3c ab 62 6f bc
       0.018902028 0.019596543 0.0101865055 -0.014610927
0000b0 1d f2 45 bb 48 81 2c 3c 08 e9 6d 3c 85 d5 8d b9
       -0.0030204125 0.01052887 0.014520891 -0.000270527
0000c0 51 7c 3a 3c e2 6e e0 bc 11 54 24 3c ed 72 e5 bc
       0.011382178 -0.027396623 0.010029809 -0.028008902
0000d0 ee cb 95 3c c2 a5 4e 3b 8b 32 87 3c 2b d4 79 bb
       0.018285718 0.0031531905 0.016503593 -0.0038120847
0000e0 ff 6d 70 bc 63 0d ea bc 7e d0 8c bc 8c b1 f3 bb
       -0.014674663 -0.028570836 -0.01718926 -0.0074369367
0000f0 55 f0 c5 bc 10 ce dd bc b0 05 83 bb f2 ee a7 bb
       -0.02416245 -0.027075797 -0.0039984807 -0.00512492
000100 8f 87 65 bb 13 f7 b3 bc d5 23 ea 39 00 99 40 3c
       -0.0035023426 -0.0219684 0.00044658655 0.011755228
000110 09 3a 51 bc ac 95 a4 3b e6 9c ec 39 ed b1 a1 bc
       -0.012770184 0.005022725 0.00045130326 -0.019738162
000120 d9 9e 12 3c bd a9 5e 3c ed 26 7d 3c ef 6c 8e bb
       0.008949005 0.013590273 0.015451175 -0.004346482
000130 5f 17 9e 3c 68 0a ab bc 96 b6 8b bc b5 b5 93 bc
       0.019298254 -0.020878986 -0.017054837 -0.01803098
000140 3b 44 35 bc 1b 3d 6e 3c b1 af ff bb f6 5d 6a 3c
       -0.011063631 0.014540936 -0.0078029265 0.014304629
000150 c3 bd 0a bc ac f1 26 39 ad d4 2a 3c f7 78 b9 bc
       -0.008468094 0.00015921023 0.010426682 -0.022640688
000160 f8 f4 b8 bb b9 fa 03 3c 58 74 8d 3b 6a 4e c2 3b
       -0.005644437 0.008055382 0.004316848 0.005929758
000170 da 54 d4 bc 09 c0 4f 3c 81 a9 bb bc 51 8b 86 3c
       -0.025919367 0.012680062 -0.022907974 0.016423853
000180 13 0d d4 bc 6e 55 be ba 70 8c 27 bc 3a 0e e1 3b
       -0.02588514 -0.001452131 -0.010226354 0.006868151
000190 77 f8 78 bc cd a2 9d ba 6b 0c 9a 3c c3 6b 3d 3c
       -0.015195957 -0.0012026668 0.01880475 0.011561337
0001a0 5a fe 11 bc 90 e6 65 bc 8d 56 00 3b 2d 0b 1b bc
       -0.00891074 -0.014032021 0.0019582838 -0.009463114
0001b0 6d ca ce bb 4d 1b a2 3b 3a 3e b6 3b 20 d8 b2 3c
       -0.006310752 0.004947102 0.005561617 0.021831572
0001c0 20 d1 c8 bb 73 7f 60 3b a0 08 c7 bb 17 1c 74 bc
       -0.0061284453 0.0034255653 -0.006074026 -0.014899275
0001d0 e2 5a 40 bc 20 be 8d 3b cd e1 f2 ba 82 34 c1 bc
       -0.011740418 0.004325643 -0.0018530429 -0.023584608
0001e0 00 72 45 ba 04 2b 04 3d 1e 32 6f 3c 54 c6 94 bc
       -0.0007531941 0.032267585 0.014599351 -0.018160976
0001f0 ae f2 0d 3a 00 90 5d 3c 60 f0 da 3b 08 9c 97 bc
       0.0005414885 0.013523102 0.006681487 -0.018507019
000200 7e 5f ce bb 15 44 12 3c f8 cd a2 3c 46 44 46 3b
       -0.0062980046 0.008927365 0.019873604 0.0030253096
000210 f3 08 ba 3c ba 37 30 3c 07 15 31 3c 9b 56 ad bc
       0.022709345 0.010755474 0.010808236 -0.02115946
000220 ac 71 e3 bc 98 ff ee bc a5 15 06 bb 67 51 32 bb
       -0.027764164 -0.029174611 -0.0020459678 -0.0027209164
000230 3d 77 24 3c f3 8d 3c 3c 00 1e a1 39 48 ca 24 3b
       0.010038194 0.011508453 0.00030730665 0.0025144983
000240 71 49 c3 bc aa 12 b3 bc d0 d4 10 bc f2 0e 55 bc
       -0.02383873 -0.021859486 -0.008839801 -0.0130040515
000250 ab 06 b4 3c e3 79 0a 3c 03 ab 89 bc bb a1 b0 bc
       0.021975836 0.008451912 -0.016805178 -0.021561494
000260 77 d2 60 bc 0d a4 18 3b 48 3f 06 3c 80 ae 18 3c
       -0.013722054 0.0023291141 0.008193798 0.009318948
000270 9a 30 74 3b be d0 1b bd b2 b8 83 bb 7c 47 43 bb
       0.0037260414 -0.03804087 -0.00401982 -0.0029797247
000280 7d e9 5e 3c ae 96 b1 3c 3d a2 5c 3c e7 16 8f 3c
       0.013605473 0.021678295 0.013466415 0.017466975
000290 00 8c ba bc 3d b5 25 3c ff b4 89 bc 0d b2 b1 3c
       -0.022771835 0.010114011 -0.016809938 0.021691347
0002a0 11 15 b9 3c da 3a d9 3b fe 56 ce 3b c1 b3 c9 bc
       0.022593053 0.00662933 0.0062969914 -0.024621846
0002b0 26 f2 7a bb d4 6f 28 3c b7 cf 74 bc 3f 2b 44 3c
       -0.0038291304 0.010280568 -0.014942101 0.011973201
0002c0 39 e5 6e 3c b1 68 2a 3c 85 a8 8d bb 99 99 17 3c
       0.014581018 0.010400937 -0.0043230676 0.009252929
0002d0 d2 ff 1a bd 7d de 44 bc 0d e3 8e bc 67 db e5 3b
       -0.037841626 -0.012015936 -0.01744225 0.00701468
0002e0 c5 ea 3f 3b 3a c9 c9 bc d5 24 dd bc a8 88 fe bc
       0.002928422 -0.024632085 -0.026995102 -0.031071022
0002f0 1f 30 ca bc d4 f1 73 3c 3a 27 77 bc 11 ca 08 bb
       -0.024681149 0.014889199 -0.015085036 -0.0020872394
000300 f5 6d cb bc 0f b7 e8 bc 4a 4d a9 3c 3a bf ce 3b
       -0.024832705 -0.028407602 0.020666737 0.006309417
000310 6d 86 b1 bb 6d ca ea bb 00 08 bd b9 5f 43 ac bc
       -0.005417636 -0.0071652443 -0.0003605485 -0.021028219
000320 f0 60 ac 3c 3a e1 d1 bb 47 e5 5c 3c f7 f6 2c 3c
       0.021042317 -0.006405023 0.013482398 0.010556928
000330 97 16 22 bc 70 4d fa bc 8f bf 0a 3c 3c 8b 0e bd
       -0.009893081 -0.030554503 0.008468523 -0.034800753
000340 5a b3 a0 bb a3 be aa bc 20 63 70 3c 4d df 98 bb
       -0.004904193 -0.020842856 0.014672071 -0.0046652914
000350 80 fd be bc ad 96 20 bb 11 95 3f bc c7 bf e1 bb
       -0.023314238 -0.0024503872 -0.011693255 -0.0068893167
000360 73 f7 54 3c 0a 27 58 bc 1a e0 31 3c 31 97 3d bc
       0.01299845 -0.013192901 0.010856653 -0.011571691
000370 15 09 9a bb 13 1f 0e 3c 97 fc bb ba 32 a8 a8 bc
       -0.0047007897 0.008674401 -0.0014342245 -0.020588014
000380 9f ec 99 3c 60 6b f4 bb 39 c7 37 bb 4d df a8 bc
       0.018789588 -0.007459089 -0.002804233 -0.02061429
000390 f9 75 8c 3b 40 73 ed bb 97 a8 7b bc e0 03 88 bc
       0.0042865244 -0.007246405 -0.015360019 -0.01660341
0003a0 90 32 9b 3c 55 5d c2 bc f7 bf ba bc 79 00 4b bc
       0.018945009 -0.023726145 -0.022796614 -0.012390249
0003b0 96 1d cd bc cb af ab 3c 07 81 2c bc 93 11 c4 bc
       -0.025038522 0.020957848 -0.010528809 -0.023934161
0003c0 cb 06 c0 3c 60 ef 01 3c c8 18 80 bc 88 1f a5 3c
       0.02344074 0.007930607 -0.015636817 0.020156637
0003d0 da 53 a1 3b c7 02 01 3c c8 dd 9a 3c 77 6a 86 3c
       0.004923326 0.007874197 0.018904582 0.016408188
0003e0 f0 34 f7 3b 1f 76 e4 bc 2d 72 e2 bc 3f 6d c8 bc
       0.0075441524 -0.027888356 -0.027642334 -0.024466155
0003f0 a7 d6 27 39 aa 4e df ba 3e a0 c4 bc 53 08 25 3c
       0.00016006325 -0.0017036994 -0.02400219 0.010072785

critic_head.0.bias f4 [64]
000000 27 23 52 3b 44 05 98 3c c4 aa 04 39 69 41 98 3b
       0.003206441 0.018557198 0.00012652116 0.0046464694
000010 8f b4 94 3c 27 a9 93 bc e8 71 eb bc 58 6c 9b 3c
       0.018152503 -0.018024994 -0.028740838 0.01897256
000020 ce 3c d1 bb a5 a6 14 3c ee 54 b5 bc 99 27 6b bc
       -0.0063854223 0.009072934 -0.022135224 -0.014352703
000030 34 54 e8 bc 42 2a fa ba 5f ed bd bb db a2 03 bd
       -0.028360464 -0.001908608 -0.005796119 -0.032137733
000040 e8 34 ef 3b c4 2e bb bc 7f d6 02 3b 67 aa 10 3c
       0.007300008 -0.022849448 0.0019964275 0.00882969
000050 34 fc 49 bb eb 80 a9 bc 6b 31 a7 bb fb 25 e2 ba
       -0.003082049 -0.020691356 -0.0051023266 -0.0017253751
000060 07 39 03 bd c7 b0 02 bd 33 71 2b 3b 5b bf 69 3a
       -0.032036807 -0.03190687 0.0026160001 0.0008916759
000070 c7 ab c1 bc 3c 5e 7b bb 36 e8 38 3c 63 94 6f bc
       -0.02364148 -0.0038355729 0.011285832 -0.0146227805
000080 c9 df 86 ba 6a e7 77 3a 9e bb 0b bc 7f b1 8b bc
       -0.0010290082 0.00094567856 -0.008528618 -0.01705241
000090 03 ed 7b bc 18 4a 05 bd 0d 17 68 bb 3d 40 fe 3a
       -0.015376332 -0.032541364 -0.003541413 0.0019397807
0000a0 62 a7 e5 bc e2 c9 5c bc 4d 68 35 bc 03 f5 ee bb
       -0.028033916 -0.013475867 -0.0110722305 -0.0072923913
0000b0 48 1d c3 bc a6 06 9a bc 0d 12 00 bc e0 66 8e bc
       -0.023817673 -0.018801998 -0.007816804 -0.017383039
0000c0 4c c7 e7 3b e0 d2 81 bb aa 7a 83 bc 1f d6 96 3c
       0.0070733186 -0.003961906 -0.016049702 0.018412648
0000d0 3e 1c 8f bc 0f 68 90 bc 28 82 4f bc f1 82 a9 bc
       -0.017469522 -0.017627744 -0.012665309 -0.02069232
0000e0 d7 26 b0 3c 14 49 a7 bb 6f 6c a1 3c 33 67 f1 bc
       0.021502895 -0.005105147 0.019705025 -0.029468155
0000f0 48 f5 3a 3c d1 72 4e 3b 65 4e 46 bc 6b 7a 08 3c
       0.011411019 0.0031501541 -0.012103652 0.008329968

critic_head.2.weight f4 [1, 64]
000000 01 19 db bd 3d 54 ae bd bc 21 04 be 91 d7 f7 bc
       -0.106981285 -0.08512161 -0.12903494 -0.030254157
000010 b3 4c 43 3d c4 c5 2d 3c 15 ba da 3d 14 03 eb 3b
       0.047680568 0.010606233 0.106800236 0.007171998
000020 90 fb ae bd 72 8f 57 bd 10 ea 35 3d 6d 89 5d 3d
       -0.085440755 -0.052627034 0.044412673 0.054086138
000030 d5 b7 f2 bd 40 63 b0 3c d9 86 8f 3d 10 ab 6f 3d
       -0.118514694 0.021531701 0.07008142 0.058512747
000040 0e 4f 7e 3d c7 bd 89 3d 79 a4 e9 bd 55 f0 84 3d
       0.06208711 0.0672565 -0.11408324 0.06491152
000050 c5 e4 ea 3d 17 f4 2f 3d c3 60 85 bc 42 89 01 3d
       0.114694156 0.04295739 -0.016281491 0.03162504
000060 3f 8f 8e 3d 52 c3 53 3d 50 d5 f7 bd fd 32 12 3d
       0.06960916 0.051699944 -0.12101233 0.035693157
000070 09 77 8f 3d 1b 5e d2 3d 18 79 0b bd 2f fb 50 3d
       0.07005126 0.102718554 -0.03405103 0.051020797
000080 07 ca 54 bd 4e ed 1e 3d b3 25 34 3d 67 6e 75 3b
       -0.05195048 0.03880053 0.043981265 0.0037449838
000090 00 3e 22 3c 5c bf 8d 3d d7 74 22 3d 39 75 a5 ba
       0.009902477 0.069212645 0.03966221 -0.0012623436
0000a0 dd a9 66 3d be 76 c7 3d ad f4 31 3b 51 3b a8 bd
       0.056314338 0.09739445 0.0027153895 -0.08214439
0000b0 41 ec 9f 3c 06 2d 82 3d ce 53 ea 3d 81 fa 2b 3d
       0.019521834 0.06356244 0.11441766 0.041986946
0000c0 42 62 54 bb c4 a7 3b ba 72 ba 9a bc 5f aa b5 bd
       -0.00324072 -0.0007158483 -0.018887732 -0.08870386
0000d0 f4 0a c2 bd 9a 29 88 3d 7d c7 9a bd 10 f6 e3 3d
       -0.094747454 0.0664856 -0.075575806 0.11130917
0000e0 4b 27 3d bd b0 0b de 3d 88 63 88 bd d9 6a 94 3d
       -0.04618005 0.10842073 -0.06659609 0.07246942
0000f0 1e cd c3 bd 37 20 d9 bb 94 5f 5c bd 86 de 65 bd
       -0.095606074 -0.0066261548 -0.053802088 -0.056120418
