project_files/saved_models/new_obj/exp1/ppo_policy_camera_cnn_whole_circle.pth (torch, 851485 bytes, 16 tensors)

action_var f4 [2]
000000 00 00 80 3e 00 00 80 3e
       0.25 0.25

cnn_base.0.weight f4 [16, 1, 3, 3]
000000 84 a6 43 3e d8 5b a4 be f0 f6 e5 3c 16 87 8d 3e
       0.1910649 -0.3210132 0.02807185 0.27642125
000010 c8 73 a2 3e 52 f7 61 bc 8b fe 46 3d 7a 04 7d be
       0.3172896 -0.013791876 0.048582595 -0.24708739
000020 7d ef 6c be 86 a1 10 3b 16 fd 5b 3e 0e f9 3e be
       -0.23138233 0.0022068932 0.21483263 -0.18649694
000030 8d 49 36 3e a4 02 79 be 49 04 68 3e 87 e0 83 be
       0.17801495 -0.24317414 0.22657885 -0.25757238
000040 b6 aa 66 be 92 a2 a7 bc 39 be 49 3e 6f 11 4b 3e
       -0.22526059 -0.020463262 0.1970147 0.19830869
000050 79 3c 45 be 9f de 4b 3e 1f a7 ab bd 8b af aa be
       -0.1926135 0.19909142 -0.08381485 -0.33337054
000060 0d 8d 86 be d3 52 a7 be bb 24 66 3e 70 3a 89 3d
       -0.26279488 -0.32680377 0.22474949 0.06700599
000070 a6 c6 6f 3e 15 a2 6d 3c d1 9e 08 bd 8c 01 9f 3e
       0.23415622 0.014503975 -0.033354584 0.31055868
000080 e0 67 ee 3d b2 1e a2 3e 7f 23 30 bd 87 aa 47 3e
       0.11640906 0.31664044 -0.0430026 0.19498645
000090 35 7e 17 3e 5d 1c 1e 3e 5b 83 89 3e 42 ac 5a 3e
       0.14794238 0.15440507 0.2685803 0.21354774
0000a0 91 b2 2e 3e 0b e3 9b 3e ac 28 a2 3d 53 7d f9 bd
       0.17060305 0.30446658 0.07917914 -0.12182107
0000b0 21 91 85 be 33 c6 46 be 5a 3f 96 3e 84 94 8b be
       -0.26087287 -0.19411545 0.29345208 -0.27261746
0000c0 97 3c 67 be 08 0a 99 be fa 3b 90 3e a2 71 da 3d
       -0.22581707 -0.29890466 0.28170758 0.10666205
0000d0 c8 d4 2c 3e 1f a4 91 be e6 2a 80 be ec d6 97 3e
       0.16878045 -0.28445527 -0.2503273 0.2965616
0000e0 0b da 40 3e 7f c0 56 3e 09 ba 37 3e b6 6b 90 3c
       0.18833177 0.20971869 0.1794206 0.017629486
0000f0 f5 6d 00 bd ac de 73 3d 31 6e ac bd 41 26 98 3c
       -0.031354863 0.05953853 -0.08419455 0.018572928
000100 00 fb 6c 3d 43 81 0f 3e 06 6a 6e 3e d3 b2 63 bc
       0.05785656 0.14014153 0.23282632 -0.0138976155
000110 27 cb af ba fd 9a 9f be f1 7b 94 3e 82 22 87 bd
       -0.0013411985 -0.31172934 0.2900081 -0.06598379
000120 9c 6c 5e 3e f1 86 9a be af f8 72 3e 0b 9c 80 be
       0.21721119 -0.30181077 0.23727678 -0.2511905
000130 87 7d ce bd 35 c5 88 be 64 ed 92 3e cd 49 50 3e
       -0.10082536 -0.26712957 0.2869674 0.20340653
000140 42 d3 1e 3e b0 eb a4 be c1 49 90 3e 9c 0c ae bd
       0.15510276 -0.32211065 0.2818127 -0.08498499
000150 8e 83 15 be ce bd 82 be 14 9b 88 3e 32 63 c7 bd
       -0.14600965 -0.25535434 0.26680815 -0.09735717
000160 87 f7 b3 3d 45 6f f1 3d 3c ba a2 be e5 f5 3f 3e
       0.087874465 0.11788801 -0.3178271 0.18746145
000170 5c 91 c7 3d c7 90 b2 be 62 7e c4 3b 75 43 a4 3d
       0.09744522 -0.3487608 0.0059965113 0.08020679
000180 f9 f5 15 3e cd 9a cc 3d 72 85 a6 3d 41 5b fe bd
       0.14644612 0.099904634 0.081309214 -0.12419749
000190 f4 0a 49 3e 11 2c 5b 3e 10 09 75 3e 9d 37 01 be
       0.19633085 0.21403529 0.23929238 -0.12618871
0001a0 71 f1 7f be b7 f6 11 bd 1a 01 6d 3d 4c e4 d3 3d
       -0.24994446 -0.035635676 0.05786238 0.103462785
0001b0 47 3b f4 bb b0 ff f6 bd 4d f2 63 be d9 f6 84 be
       -0.0074533555 -0.12060487 -0.22260399 -0.2596958
0001c0 bc c9 39 3e f2 3c 86 3d c8 01 4c 3e cd 6c 37 bd
       0.18143362 0.06554593 0.19922554 -0.044781495
0001d0 22 6a 2c 3e 3e fd 9c 3e cd 2b 94 be b0 5c 36 3e
       0.16837361 0.30661958 -0.28939667 0.17808795
0001e0 5f 2d 35 3e 82 95 66 3e e7 ec 32 be 1b 5d f6 bd
       0.17693089 0.2251797 -0.17473184 -0.12029477
0001f0 ab d9 34 3e 5e b2 2c be 44 1e 99 be 24 7f 9a be
       0.17661159 -0.16864917 -0.29905903 -0.30175126
000200 58 2e a9 bd ab ef fe bd 59 df 95 3e 6d 47 36 bd
       -0.082607925 -0.12448057 0.29271963 -0.04450171
000210 3b 0c 9c 3e 6b 8b d5 3d b1 d1 d2 bd bc af 45 3e
       0.3047808 0.104269825 -0.10293902 0.19305319
000220 88 36 2b 3e 42 0c 19 3e 27 1d a6 be d0 67 aa be
       0.16720021 0.14946082 -0.32444116 -0.33282328
000230 6e 30 a6 bd ae 8f ab be 16 da 5d 3e 71 c7 80 3e
       -0.08114706 -0.33508056 0.21665224 0.25152162

cnn_base.0.bias f4 [16]
000000 11 a6 10 3c 4d 23 00 3e 36 3f 85 bc 01 c4 c8 bd
       0.008828656 0.12513466 -0.016265493 -0.0980301
000010 d9 d2 29 3d 5a 66 80 bd d0 fb ea bd 3d 04 94 3e
       0.041460846 -0.06269522 -0.11473811 0.28909484
000020 8b 9f ae 3c 47 20 97 3e 1e 1a 52 3d a0 9a fe 3d
       0.02131631 0.29516813 0.05129444 0.12431836
000030 93 84 50 3e 25 3b 5d be 95 ed 25 be 06 e7 c8 bd
       0.20363073 -0.21604593 -0.16203912 -0.09809689

cnn_base.3.weight f4 [32, 16, 3, 3]
000000 cb 45 36 bb e6 c5 64 bd c6 67 98 bd 21 8d 3b 3d
       -0.0027812596 -0.055852793 -0.07441668 0.045788888
000010 33 47 1b ba 84 51 65 3d a1 8e 99 3c 76 e0 52 bd
       -0.000592339 0.055985942 0.018744769 -0.051483594
000020 89 3c 45 bd c0 f0 4d 3d 20 eb 71 bd 46 41 c6 bc
       -0.048153434 0.050278425 -0.059062123 -0.024201047
000030 3c 39 20 3d 1c 8e 9a 3c 72 6d 91 3d 10 91 98 bd
       0.039117083 0.018866591 0.07100953 -0.074495435
000040 40 38 b0 3c 42 b2 a5 bd 2c 13 00 bd 30 e3 18 3d
       0.021511197 -0.080906406 -0.031268284 0.037326038
000050 12 ab a9 bd 08 59 51 bd b2 c2 ed bc 2f 14 83 3d
       -0.08284582 -0.051110297 -0.029023502 0.06400334
000060 69 08 89 3d d8 ae 9e 3d 18 4a 8c bd 7c 12 f7 3b
       0.06691057 0.077481925 -0.0685007 0.0075400453
000070 3b 88 04 3d 6a d1 1a bd a4 89 96 bb b1 9d 76 bd
       0.032356482 -0.03779737 -0.0045940448 -0.06020898
000080 80 89 3d bc 0c e9 40 3d 13 ba a7 bd 7e d9 ad bd
       -0.011568427 0.04709725 -0.08189788 -0.08488749
000090 10 10 f9 3c 72 88 83 bc 13 1d 7d bc 82 7a 46 bd
       0.030403167 -0.016056273 -0.015448826 -0.048456676
0000a0 bf a1 9e bc 1c 56 49 bd a7 33 88 bd 23 8e 8c 3d
       -0.019364236 -0.049154386 -0.06650477 0.06863048
0000b0 1e df 1c bc c0 ae eb bc b7 f2 59 3c 8c a9 a1 3c
       -0.00957468 -0.02876985 0.013302497 0.019734167
0000c0 d1 37 09 3d ef 8b b6 bd 53 ba 87 3d 72 93 ad 3d
       0.033500496 -0.08913409 0.066273354 0.084753886
0000d0 05 e7 dd bc 25 49 3f 3d 48 8a 6a bd b9 ea 83 3d
       -0.027087698 0.046700615 -0.05726078 0.06441254
0000e0 48 9c 66 3d c1 56 03 bd a3 71 e6 3c 0a 62 22 bc
       0.056301385 -0.032065157 0.028130358 -0.00991107
0000f0 60 86 fc bc 11 11 5d bd 29 e1 5b 3d 66 cc 14 bd
       -0.030825794 -0.053971354 0.053681526 -0.036327742
000100 78 f1 c9 bc 8d 9f 43 3d bd b7 d8 3b 0e 27 93 3d
       -0.024651274 0.04775958 0.0066137 0.071851835
000110 7d dc ce 3c b7 1e ea 3c b4 c0 84 bd 2e 2e 60 bd
       0.025251621 0.0285791 -0.06482068 -0.05473154
000120 19 a9 a8 bd de e3 30 bc 36 e9 bb bc e4 5f 1d bd
       -0.08235378 -0.010796515 -0.022938352 -0.038421527
000130 f8 73 9f bd 71 42 22 3d 3e 4a 6b bd ce ee 89 3d
       -0.07785791 0.039614145 -0.05744385 0.067350015
000140 d1 9f 12 3d 81 dd 5e bc d3 f2 87 3d ce 58 e2 bc
       0.035796944 -0.013602615 0.06638112 -0.027630236
000150 5a 66 b1 bd 97 83 80 3d dc 04 86 bd 84 7b 23 bc
       -0.086621 0.06275099 -0.065438956 -0.009978179
000160 c4 87 86 3d a5 79 ba 39 65 e7 4d 3c 12 b2 12 3d
       0.06568864 0.00035567317 0.012567376 0.035814352
000170 99 06 79 3d 0b 8c 99 bd 59 0a 63 bd b8 3d 2f bd
       0.060797308 -0.07497414 -0.05542979 -0.04278347
000180 0d e6 ba ba 98 f9 0e bd 12 77 8a bd e6 c3 bb bc
       -0.0014259234 -0.034906 -0.06760992 -0.02292056
000190 ff 03 52 bc 3a 1a 94 bd 80 8f 50 bd f1 93 7b 3c
       -0.012818336 -0.07231565 -0.050918102 0.015355096
0001a0 2e e5 81 3d 68 a4 51 3d e6 07 08 3d a6 d8 a8 bc
       0.06342541 0.05118218 0.033210658 -0.020611119
0001b0 de d1 c4 3c 29 eb 8f bb 43 f2 6b 3d 19 50 d2 3c
       0.024025854 -0.004392047 0.057604086 0.02567296
0001c0 e7 12 fd 3c da 2b 85 bd aa 57 d6 bc 76 c3 a5 bc
       0.030892802 -0.06502505 -0.026164848 -0.020234805
0001d0 47 89 48 3d 23 87 3d bc 8b 61 ee bc aa a0 22 3d
       0.048959043 -0.011567864 -0.029099246 0.039704002
0001e0 3f 2e b0 bd fe d2 06 bd 81 fa 8a 3d 72 1e 54 bb
       -0.08602571 -0.03291606 0.06786061 -0.003236678
0001f0 32 8b 08 bd 52 19 35 3d 9b 3a 80 3d ed 88 64 bd
       -0.033335872 0.0442136 0.06261178 -0.055794645
000200 ce 15 21 bd bd 06 25 bd 2a b7 1d bd dc ab d0 bc
       -0.039327435 -0.04028963 -0.038504757 -0.025472574
000210 de 0f 92 bd fd 06 fd b7 2e 70 ab bd 9b e0 06 bd
       -0.07131933 -3.0163204e-05 -0.08371006 -0.032929044
000220 76 f9 17 3b 72 0c 32 bd f0 61 26 bd 51 e6 41 3c
       0.0023189462 -0.0434689 -0.040620744 0.011834697
000230 2f 2f 38 bd 82 67 60 bd 1f 86 5c 3d 11 05 51 bd
       -0.044966873 -0.054786213 0.053838845 -0.051030222
000240 5a 5d 81 3d 94 c6 1a 3c 7a fb d4 3c f6 dc 8e bd
       0.063166335 0.009446759 0.02599882 -0.06975739
000250 fb d3 19 bd c3 0d 28 bd 7f 00 ae bd b5 d0 a6 3d
       -0.037555676 -0.04102875 -0.08496188 0.081452765
000260 1c 12 96 bd 96 b0 9e bd ab 8d 2d bd 5e 4c 04 bd
       -0.07327673 -0.07748525 -0.042371433 -0.032299392
000270 fc da 1d bc a0 af 25 bd 23 aa 91 bd 05 f2 56 bd
       -0.0096347295 -0.040450692 -0.07112529 -0.0524769
000280 22 c1 86 3d 36 24 1b 3d 95 af d9 3c a4 5c d9 3c
       0.06579806 0.03787633 0.026572982 0.026533432
000290 44 4b c2 3c 28 5c eb bc 9c 0b 2e bd a8 4b 88 3d
       0.02371753 -0.028730467 -0.04249154 0.06655055
0002a0 f0 5a 5b bd 7a 3d 44 3d 45 37 60 bd e7 b9 93 bc
       -0.05355352 0.04791019 -0.05474021 -0.018032981
0002b0 7d 62 22 3d 25 9e 6b 3a 5a 9b 97 bd a8 88 24 3d
       0.039644707 0.0008988104 -0.07402678 0.040169388
0002c0 eb b9 02 3d 28 9d 3b bd 57 35 a0 bd 25 2c 16 3d
       0.031915586 -0.045804173 -0.07822674 0.036663193
0002d0 7b f9 1d bd 0a 00 59 3d 43 42 b0 bd eb 8d b2 bd
       -0.038568 0.052978553 -0.086063884 -0.08718475
0002e0 0d d8 3f 3d 4c 87 5a 3d 7a d9 f2 bc f2 77 96 3b
       0.0468369 0.053351685 -0.029644717 0.0045919353
0002f0 c8 b5 a5 3b 3f 76 8b 3d 1b 8d b9 3c e7 8d 04 3c
       0.0050570704 0.06809663 0.022650292 0.008090473
000300 5a b4 92 3d d7 ea bb 3d 9d 3a 8e 3d ff 76 7e 3d
       0.071633056 0.091756515 0.06944773 0.062125202
000310 54 07 a5 bc 8d 69 98 bd cc c4 a6 bd e0 38 5b bd
       -0.020145096 -0.07442007 -0.08143005 -0.053521037
000320 39 98 26 3d 0e 20 59 3d 28 16 b3 bd 71 2f 2d 3c
       0.040672515 0.053009085 -0.0874446 0.010570393
000330 3a 7e 68 bd 08 02 8c bc 78 46 dc bc 19 ca 7e bd
       -0.056761004 -0.017090812 -0.02688907 -0.062204454
000340 5f e6 05 bd 6e 2a a8 3b 7f 12 9c 3c a1 30 d5 bc
       -0.032690402 0.005132011 0.019051788 -0.026024165
000350 2b 1f 48 bd e4 ce c4 3c 76 ad a3 bc 40 5c ad 3a
       -0.04885785 0.024024434 -0.019980174 0.0013226345
000360 3b 29 22 bd fc ea 85 3d 0a 09 6d bd ce d4 30 bd
       -0.0395901 0.0653896 -0.05786995 -0.043171696
000370 77 0a 7f bd e8 e2 58 bd d6 93 2f 3d 77 d8 4d bd
       -0.06226584 -0.05295077 0.042865597 -0.050255265
000380 18 01 a7 bc 06 bd ac bd ca 7f 3b 3d a8 96 3c 3d
       -0.020386264 -0.08434491 0.045776166 0.046042114
000390 f4 f2 b2 bd b4 c8 95 bd d1 1f 6b bd f3 15 1a 3d
       -0.08737746 -0.07313672 -0.05740339 0.03761859
0003a0 d3 9b a6 bc 4c 56 98 bb 76 63 3c bd 47 be 88 bd
       -0.020337975 -0.0046489593 -0.04599329 -0.066769175
0003b0 62 b4 88 bd f9 d9 99 bd 12 0f 80 bc 9c d7 b0 3c
       -0.0667503 -0.07512278 -0.015632186 0.021587186
0003c0 f3 b6 91 bd 57 44 02 3c fc 84 74 3d f0 1d 31 3d
       -0.07114973 0.007950864 0.059697136 0.04324144
0003d0 30 b1 27 ba 8d c5 5c 3d 81 e5 d2 3c 5c fa 92 3c
       -0.00063969474 0.053899337 0.025744202 0.017941646
0003e0 a7 d6 5f bd 45 4e 50 bd 30 36 3a bd 25 2d 25 bc
       -0.054648068 -0.050855894 -0.045461833 -0.010081564
0003f0 51 d0 ac bd d3 dd 8e 3d d7 f8 94 bd d1 30 a1 bc
       -0.08438171 0.06975903 -0.07274025 -0.019676598

cnn_base.3.bias f4 [32]
000000 15 c8 60 bb 03 2a 8c bc 3b 5c 49 bd 2a 74 93 3d
       -0.0034298946 -0.017109876 -0.049160223 0.07199891
000010 91 b3 74 bd ca bd 03 bd 8b a0 f4 3c c4 30 40 bb
       -0.05974156 -0.03216342 0.02986171 -0.0029325942
000020 2a 1c 87 3d 8d da cb 3d dd b6 82 3d 0d 45 32 bd
       0.06597169 0.09953795 0.06382535 -0.043522883
000030 df 31 c3 3d 10 3d 0a 3b 6a 71 f6 b8 9d 7a a6 bb
       0.095309965 0.0021093525 -0.00011751319 -0.0050805346
000040 c3 1d e9 3d a3 17 c7 3c 1d 3d a5 bd 95 40 e2 3a
       0.1138263 0.024303263 -0.08068297 0.0017261679
000050 6e 90 9e 3d 27 c8 09 3d 8c 06 0c bd 8b 1c 95 bd
       0.077423915 0.033638146 -0.03418593 -0.07280835
000060 36 da 24 3d 26 26 33 3d a6 78 62 3d 6f 99 c3 3d
       0.040247165 0.043737553 0.05529084 0.095507495
000070 bf 96 a5 3d 59 b3 92 bb 2b 1d b2 3c 8e 9b 7f bc
       0.08085393 -0.0044769463 0.021742424 -0.015601052

mlp_base.0.weight f4 [32, 2]
000000 0d 75 0d bf 24 e2 0e 3e 59 ef 1f bf 16 46 26 bf
       -0.5525673 0.13953453 -0.6247459 -0.6495069
000010 df bc b0 be 86 5f 47 bd 10 5b 28 bf 51 fb 57 be
       -0.34519097 -0.048675083 -0.6576395 -0.21091963
000020 ee b7 d8 3a 34 ca 17 be 5c 1c 10 3f ea 4a d0 3d
       0.0016534308 -0.14823228 0.5629327 0.10170539
000030 b3 0e e9 be 9d d4 f8 3e b2 67 fb be 38 35 10 3f
       -0.45519027 0.4859971 -0.4910255 0.56331205
000040 d4 67 0e bf 38 52 8e be b9 4d da 3e b8 17 aa be
       -0.5562718 -0.27797103 0.42637423 -0.3322122
000050 77 b5 24 bc 1f 51 3a 3d 94 85 d4 3d c1 c7 1e 3f
       -0.01005303 0.04548752 0.103770405 0.6202355
000060 5e 4f 8e 3e 82 d1 e7 be 06 b2 2e 3e c5 bd 07 3e
       0.27794927 -0.4527703 0.17060098 0.13255985
000070 00 b0 18 bf a6 78 c5 3e 4e 44 a1 3d e0 12 b7 be
       -0.59643555 0.3856861 0.07874356 -0.35756588
000080 3f 91 fd be c0 93 22 3d fc af 1a bf 7a 8a 3c bf
       -0.49524876 0.039691687 -0.6042478 -0.736488
000090 2c 1f b1 be dc 42 08 3f 28 9c 93 be 5a 73 5e 3d
       -0.34594095 0.5322702 -0.28830075 0.054309227
0000a0 a8 10 30 bf a9 94 2f 3d 60 ec 12 3e 00 d7 21 bf
       -0.68775415 0.042866383 0.14347982 -0.6321869
0000b0 43 fe 24 3f 77 a6 fa be bd 03 53 be cd be 12 3f
       0.6445047 -0.48955128 -0.20606895 0.5732239
0000c0 77 6d 6d be af 62 ed 3e ee 57 a8 be 64 d3 ad 3e
       -0.23186289 0.46364352 -0.32879585 0.3395034
0000d0 fe 01 5a be da 74 53 3e 25 e8 75 3e c3 db 02 bf
       -0.21289822 0.20650044 0.24014337 -0.5111658
0000e0 fa 40 d6 be 90 e4 b5 3e 0d d1 0d bf fb 95 1b bf
       -0.41846448 0.35525942 -0.5539711 -0.6077573
0000f0 94 19 24 bf 67 24 91 3d 12 39 3b bf 7e d8 df 3e
       -0.6410153 0.07087021 -0.7313396 0.43719858

mlp_base.0.bias f4 [32]
000000 a0 bc ad be ef e5 e7 3d 38 91 0f 3f 5e ba b9 3e
       -0.33932972 0.11323153 0.5608096 0.36275
000010 b9 b7 a3 3d b3 47 ff bc 89 7c 89 be 27 16 b7 be
       0.07994027 -0.031162119 -0.26852825 -0.35759088
000020 d3 0b 01 be 95 47 14 3f e6 8f 0f 3f fd fe 25 3e
       -0.12602167 0.57921726 0.56078947 0.16210552
000030 d5 3d 30 3f 84 3c 92 bd 6f b8 07 3e 9e 1f 78 3b
       0.6884435 -0.07140449 0.1325395 0.0037860642
000040 22 57 10 3f 74 ec fb 3d 4c 80 3d 3e 4e c9 e5 3d
       0.56382954 0.12300959 0.18505973 0.112200364
000050 2f 8f 3a be 30 b5 fa 3e 75 e7 18 bd c7 2b 14 3f
       -0.18218683 0.4896636 -0.03733011 0.578793
000060 35 d9 d9 3e f4 5b 61 3d 3a 56 6c 3c 78 33 cc 3e
       0.42548528 0.055019334 0.014424855 0.39883018
000070 f8 13 1b 3d f0 b9 be be 6d fd 07 bf a0 b8 c7 3e
       0.03786084 -0.37251234 -0.5312107 0.39008045

mlp_base.2.weight f4 [32, 32]
000000 77 4c 3b bc b4 19 e6 3c a0 a8 cf bd 0c b0 9b 3d
       -0.011431805 0.028088428 -0.101395845 0.07601938
000010 eb df e1 3d 10 47 16 be 65 c8 2a be 24 ec 0f be
       0.11029037 -0.14675546 -0.16678007 -0.14054924
000020 eb 2e 88 bb bc 58 b7 bd 72 e0 93 bd 4f 55 2b 3e
       -0.0041559837 -0.089524716 -0.07220544 0.16731761
000030 e0 79 ad 3d 6f 91 b4 bd ab 55 1d be 67 6d 8a 3d
       0.084705114 -0.08816802 -0.15364711 0.06759148
000040 21 44 bd bd ca a9 11 3e 6c ad bd bc f0 70 04 be
       -0.0924151 0.14224926 -0.023153983 -0.12933707
000050 6e 2a 36 bd 25 bf 42 bd fb d3 e8 3d c1 2b 27 bd
       -0.044474058 -0.04754557 0.11368557 -0.04081321
000060 5e 39 21 3d ec 0f 65 3d 0e d0 31 be 22 61 fd 3c
       0.03936135 0.055923387 -0.17364523 0.030930106
000070 60 78 fe b9 e9 01 28 3e a4 4e bc 3d 9f 0a ea 3c
       -0.00048536342 0.16406979 0.09194687 0.028569518
000080 e8 ab 10 3e ce b2 b7 bd 82 82 38 3e 5d d7 bf bb
       0.14128077 -0.08969651 0.18018535 -0.0058545307
000090 93 67 f9 3b 0a 98 4f bd 04 31 82 3d 99 04 b5 bc
       0.007611224 -0.050682105 0.06357005 -0.022096919
0000a0 1a b5 2d 3e 65 4e 02 be 30 ff 41 bd b8 7f 20 be
       0.16963616 -0.12725218 -0.047362506 -0.15673721
0000b0 a6 6b 8c 3d fa 38 a7 3d 87 dd 10 3e b7 5d 41 be
       0.0685647 0.08165164 0.14147006 -0.18883406
0000c0 98 62 fa bc d8 5f 46 bd 8d 54 33 bc 53 eb 03 be
       -0.030564591 -0.048431247 -0.010945451 -0.12882738
0000d0 81 17 2d 3e 3b 0f f7 bc 0c a1 c0 3a d5 1a 21 be
       0.16903497 -0.03015863 0.0014696433 -0.15732892
0000e0 4f 9b d1 3d 41 6f 15 3e bd ed 14 be a7 c8 34 be
       0.10234701 0.14593221 -0.14543815 -0.17654668
0000f0 ba 02 8c bd 76 b1 8e bc 1f a7 18 be 58 00 b9 3d
       -0.068364576 -0.017418604 -0.14907502 0.09033269
000100 7c 95 09 3e c5 9e fa 3d b4 53 85 3d 86 81 04 3e
       0.1343593 0.12237314 0.06510106 0.12940034
000110 05 53 84 bc f3 f0 f5 3d e1 7a d8 3d 1a 2b 2e 3d
       -0.016152868 0.12008848 0.10570312 0.042521574
000120 81 42 a1 bd 74 46 22 bd 41 32 f4 3d 3f 65 7f 3d
       -0.07874013 -0.03961797 0.11923648 0.062352415
000130 9c 9d b2 bd 01 fa cc bd 33 24 18 be 57 0a fa bd
       -0.08721468 -0.10008622 -0.14857559 -0.122090034
000140 1d 85 9c 3c ce 30 1d 3d a8 bd f4 bc 93 c1 99 bd
       0.019106442 0.038376622 -0.029875591 -0.075076245
000150 4d cc cb bd 8a 7a af 3d 20 ae 09 be 20 2e 0e 3d
       -0.09951077 0.08568294 -0.1344533 0.034711957
000160 e6 2a 1e 3e 6d ae 97 bd ee cf 07 bd f0 2f ba 3d
       0.15446052 -0.07406316 -0.03315728 0.090911746
000170 90 16 02 3e bb e8 bd 3c fa 69 15 be 08 72 c2 bc
       0.1270392 0.023182264 -0.14591208 -0.023736015
000180 5f 1d 3b 3e 4d 3e ad 3c 2f 7d e9 bd e2 f1 8a bd
       0.18272923 0.021147871 -0.1140083 -0.06784417
000190 70 b2 4c bd 1b 23 88 bb 4c 6f f2 3d 1d f6 05 3e
       -0.04997486 -0.0041545755 0.118376344 0.13082166
0001a0 c7 e7 02 be 16 07 40 3d 02 9e 30 bd 4a 58 0f 3d
       -0.12783729 0.046881758 -0.043119438 0.03499631
0001b0 60 41 0c 3e b0 29 94 3c 89 a8 a7 3d 1f 8b a5 3d
       0.13696814 0.018086284 0.081864424 0.08083176
0001c0 cd 2a 88 bd 95 16 35 be e9 16 b2 3d ab cf 53 3e
       -0.066487886 -0.17684396 0.08695776 0.20684688
0001d0 3c 0f 92 bc 77 8b 0b be 50 a7 bf bd 39 d8 3d bc
       -0.01782953 -0.1362742 -0.09358084 -0.011587196
0001e0 59 f2 19 be a3 c6 98 3d c8 2d c0 3d 72 a6 b8 3d
       -0.15033855 0.07459762 0.09383732 0.09016122
0001f0 84 fd ef 3d a9 80 e5 3c 33 92 87 3c 0b 06 a7 3d
       0.11718276 0.028015452 0.016549205 0.081554495
000200 5d 8c 98 3d a5 ba 31 be c9 f4 22 3e 1e 26 26 bc
       0.07448647 -0.17356355 0.1591369 -0.010140924
000210 a3 3e 16 be d4 cc 9e 3d 42 8b 92 3b 3e dd 0c bc
       -0.14672332 0.077539116 0.004472167 -0.00859767
000220 1c ee 1b 3e dd 8e 34 be fe da 21 3d c5 ae 9a 3d
       0.1522755 -0.17632623 0.039515488 0.07552866
000230 57 8f 91 3a 23 2a 03 be 65 ba ca 3d 3c b8 64 be
       0.0011105341 -0.12809043 0.09898833 -0.22335905
000240 2b 9d 15 3e 42 d5 9b bd 51 3e 51 bd 6c 81 2e 3e
       0.14610736 -0.07609035 -0.05108482 0.17041558
000250 43 1c 14 3b e4 92 76 bd 92 c2 c5 3c 53 b3 25 be
       0.0022599853 -0.06019868 0.02414063 -0.16181688
000260 1e 7e 26 be 16 09 1e bd d9 f3 ac 3d 60 5d 33 be
       -0.16259047 -0.038582884 0.08444948 -0.17516088
000270 7f e4 f0 3d 80 39 24 3e 26 75 ee bd 6d 0a 13 3e
       0.11762332 0.1603756 -0.11643438 0.14359446
000280 cc 00 8a 3d 9b 15 32 be 1b 67 00 be bc f6 34 3d
       0.06738433 -0.17391054 -0.12539332 0.044180617
000290 a3 18 f3 3d f3 db e7 3d 44 f6 25 3e bc 9d 28 bd
       0.118699335 0.11321249 0.16207224 -0.041166052
0002a0 45 4b b5 3d 5a 94 5b bd 67 b1 b4 bc f4 a1 10 3e
       0.08852247 -0.053608276 -0.022057248 0.1412428
0002b0 40 a6 b2 3d 8d 31 f1 bd ee c1 a7 bd 14 67 ed 3d
       0.08723116 -0.11777029 -0.08191286 0.11591926
0002c0 f4 a6 cf bd 9a 20 81 bd 09 1c b1 3d 15 1a a6 3d
       -0.10139266 -0.063050464 0.086479254 0.081104435
0002d0 3c 12 86 bd ba bb 20 be 98 4f c7 3d ca 45 d5 bd
       -0.06546447 -0.15696612 0.09731978 -0.10413702
0002e0 10 0f 0e be fe 2c ee 3d 44 3d 25 3e 93 9e 4f be
       -0.13872933 0.11629675 0.16136652 -0.20275335
0002f0 34 c1 28 be 2a b8 18 3d 4a ec 0b bd bf 0c d9 3c
       -0.16479951 0.037285008 -0.03416089 0.026495336
000300 e4 77 71 bd ff 23 95 bd 3f 54 04 3c ca 19 82 3d
       -0.058952227 -0.07282256 0.008076726 0.06352575
000310 fd 97 8a bd 07 2a 03 be ec cf d0 bd f8 09 1b be
       -0.06767271 -0.12809001 -0.10195908 -0.15140522
000320 93 13 03 bc 31 d4 6d bd ab e5 b0 3d 9e 3c 73 bd
       -0.008000272 -0.05806369 0.08637556 -0.05938398
000330 76 c5 03 be 3c cc bd bd 93 ef a7 3d c5 48 9f 3c
       -0.12868294 -0.0926747 0.08199992 0.019443879
000340 23 71 c4 bd 5a 3e 75 3d 75 5f d9 3d e0 05 33 be
       -0.095918916 0.059873916 0.1061391 -0.1748271
000350 b4 37 85 3d a1 12 28 be fa 2a 94 bb 5d 09 11 be
       0.06504765 -0.16413356 -0.004521725 -0.14163728
000360 55 83 a2 bd 48 35 22 be 3a e4 05 3e fe 68 d7 3d
       -0.07935206 -0.15840638 0.13075343 0.105180725
000370 8e 0d 9c 3d 1c 5f 80 bd c9 4b 01 3e fd a1 8e bd
       0.07619773 -0.06268141 0.12626566 -0.069644906
000380 4a 67 d2 3d d7 60 cd bd c0 4e 32 3e 7c 6d 05 bc
       0.10273607 -0.10028236 0.17412853 -0.008143779
000390 26 d5 aa 3d 3e e3 16 be 9c 68 04 3e 27 86 51 3d
       0.08341436 -0.14735124 0.1293053 0.05115333
0003a0 a0 a6 6d 3c ff b8 81 3c 93 1f b5 bb 13 92 98 bc
       0.0145050585 0.015835283 -0.0055274456 -0.018624341
0003b0 5c 2e 05 3e 57 e4 1a be 50 39 dd 3d 0a 01 ca bc
       0.13005966 -0.15126167 0.10801947 -0.024658699
0003c0 d8 a0 cb bd 4a ed cb 3d 3d a6 3a bd 1f 0d 28 3d
       -0.09942788 0.09957369 -0.045568693 0.04102814
0003d0 3d f8 1b be 1c 1e 8d bd 78 30 aa 3c 81 af 98 3d
       -0.15231414 -0.068905085 0.020775065 0.0745535
0003e0 88 cf 2e be 62 34 68 bd 1f 0a 41 3d 4b ac 28 be
       -0.17071354 -0.05669058 0.047128793 -0.16471975
0003f0 24 53 e3 3d b3 a9 e4 3d 36 73 39 3e 15 28 bf 3c
       0.11099842 0.1116518 0.18110356 0.023334542

mlp_base.2.bias f4 [32]
000000 c9 ed 85 3d 3e 14 45 bd aa d7 24 be 73 de 0c be
       0.065394945 -0.048115008 -0.16097894 -0.13756733
000010 ca e3 01 3e de ad c3 3d 15 0e 12 3d 87 6f de bd
       0.12684551 0.09554647 0.03565796 -0.10861116
000020 52 b0 2a bd eb 5a 1c 3e 01 01 13 3e 5b b2 9e bd
       -0.04167206 0.15269057 0.14355852 -0.07748862
000030 27 89 a2 3d 04 0d a8 bd af 1e 5e bd 5b 9b ee 3d
       0.07936316 -0.082056075 -0.05422848 0.116507255
000040 c8 a4 c1 3c 83 31 c3 bd c7 16 1d 3e 8b da 1c be
       0.023638144 -0.09530928 0.1534072 -0.15317743
000050 9f 50 e1 3d a4 2f 48 be 24 1b 0f bd b3 dc 32 be
       0.110017054 -0.19549423 -0.034937993 -0.17467003
000060 1e 4c ab bd 85 aa a7 bd 0f cc 77 bc 13 2e cb 3c
       -0.083641276 -0.08186821 -0.015124335 0.024802243
000070 d9 b8 26 3e 33 71 f3 bd 19 21 0d be fc be 83 3c
       0.16281451 -0.118868254 -0.13782157 0.01608228

actor_head.0.weight f4 [64, 1600]
000000 ff 3c 5c bc f4 0e 40 bc 9c 6b 86 bc 80 bf b6 bc
       -0.013442277 -0.011722315 -0.016408734 -0.022308111
000010 ee e5 68 bc 6d db ac 39 a2 39 af 3b d0 16 9e ba
       -0.014214976 0.0003296988 0.0053474465 -0.0012061242
000020 8f fd aa 3c 64 6a c5 3a da 0b 56 3a ae 22 aa bb
       0.02087286 0.0015061614 0.0008165218 -0.0051921224
000030 94 88 45 bc dc ab aa bb c0 a4 79 3c e3 25 db 3c
       -0.012056489 -0.0052084755 0.015237033 0.026751464
000040 df eb 83 bc dc 06 52 bc 66 bd 62 3c 0c 03 b4 3c
       -0.016103683 -0.012819018 0.013839101 0.02197411
000050 2c d2 a6 bc a3 b7 a1 bb 94 d0 86 3c 59 1e c9 ba
       -0.02036389 -0.0049352213 0.01645688 -0.0015344127
000060 55 9e 89 3c a9 79 6a 3c 4b c4 e6 bb a3 7b 33 bc
       0.016799131 0.014311233 -0.007042443 -0.01095477
000070 95 db 12 bb 85 89 d9 bc 33 ae b9 3c 6d 67 86 bc
       -0.0022408713 -0.026554832 0.022666072 -0.01640674
000080 82 de 3c 3c f2 74 a9 bc a4 59 c3 3c 60 0c fd ba
       0.011527659 -0.020685647 0.023846455 -0.0019306056
000090 fd 08 a9 3c 9f e1 04 3c 6d 88 be bc fd 73 b0 3c
       0.020634169 0.008110433 -0.023258412 0.021539683
0000a0 f2 ea ad 3a 91 a2 c8 3c 7d 8f 2a bc c1 28 1e 3c
       0.0013268872 0.02449158 -0.010410187 0.009653271
0000b0 e8 6a 11 3d f8 22 0c bc 46 75 d9 3c 59 dc 87 3c
       0.035502344 -0.008553259 0.026545178 0.016584562
0000c0 71 99 18 3c 03 62 44 bb 13 b0 58 bc bb b6 19 3b
       0.009313927 -0.0029965646 -0.013225573 0.0023454863
0000d0 86 e8 27 bd d7 b8 9a 3c 03 77 97 3c 07 39 93 bc
       -0.040993236 0.018886967 0.018489366 -0.017971529
0000e0 cc 71 3c bd d2 ee 48 bb 56 5b c9 bc 58 b7 25 3c
       -0.046006963 -0.0030659926 -0.024579685 0.010114513
0000f0 47 5d 38 3c 9a 65 b4 3a 80 2f 24 3c ca 37 12 3d
       0.011252708 0.001376319 0.0100210905 0.035697736
000100 ed 27 d9 bc a1 5d f3 3a 0d ee 09 3d 74 0d 37 bc
       -0.026508296 0.0018567332 0.03367429 -0.011172641
000110 3d d2 8f 3c 87 a6 ca 3c d7 0e da bc 26 36 16 3d
       0.017556304 0.02473761 -0.026618404 0.036672734
000120 3a 22 bb bc 45 ae 00 3c d4 f2 8d bc da 5d c3 bc
       -0.022843469 0.007854049 -0.017327704 -0.023848463
000130 0a 66 45 bc dd 86 82 bb 29 33 c7 bc bc 6e 30 bd
       -0.012048254 -0.003983362 -0.024316387 -0.043074355
000140 92 de 5f bc 65 14 c7 3c a4 f6 84 bc 6d fa 96 bc
       -0.013663905 0.024301717 -0.016230889 -0.01842996
000150 86 ca 53 bc 7e 92 17 bb 6a 7b 81 ba 47 23 8e 3c
       -0.012926703 -0.0023128088 -0.0009878699 0.017350806
000160 46 9c 9e 3c 92 f6 46 bb 20 24 e6 3b 9c 29 10 3d
       0.019361626 -0.003035937 0.0070233494 0.03519593
000170 5b 17 bb bc 1a 2c 21 3d 9c ec c4 bb b6 56 a2 bc
       -0.022838285 0.0393487 -0.0060096513 -0.019816738
000180 40 45 64 3c 00 54 16 ba 5a 70 20 3c ba f4 93 3c
       0.013932526 -0.0005734563 0.009792412 0.01806103
000190 05 21 20 3c 5c 3f c0 bb cc e8 78 bb e2 b3 8f 3c
       0.0097734975 -0.005866928 -0.0037980555 0.01754183
0001a0 34 f5 4c bc d0 0a 0f 3d bc b0 4a 3c 23 c4 51 3c
       -0.012509633 0.03492242 0.012371238 0.01280311
0001b0 9a 4d d7 bb aa 72 eb 3c dd aa 96 3c b4 a2 83 ba
       -0.00657053 0.0287412 0.01839202 -0.0010042996
0001c0 1f 13 ef bb 93 43 ef bc 02 46 d4 bb dc 48 d0 bc
       -0.0072959806 -0.029207027 -0.006478072 -0.025425367
0001d0 3c 23 40 3b 3c 64 52 bb a2 bc c2 bc 85 ac a9 3c
       0.0029317876 -0.0032103201 -0.023771588 0.020712147
0001e0 31 3c 41 bd 83 d2 6d bc cf 7b 80 3c 19 75 ae 37
       -0.047176544 -0.014515522 0.015684037 2.0796944e-05
0001f0 e0 5d ad bc 63 3c 97 bb bf 37 66 bb 82 67 1d bc
       -0.021162927 -0.004615353 -0.0035128442 -0.009607198
000200 60 d4 bd bc 71 ac 98 3c 04 fa a0 3b 0e 94 a6 bc
       -0.023172557 0.018636914 0.0049126167 -0.02033427
000210 dc b0 70 bd 45 51 02 bd c6 a2 8d 3c ae 19 c2 bc
       -0.058762416 -0.031815786 0.01728953 -0.023693886
000220 2c b8 a4 bc 43 31 5e bc 9c 2f a8 bb b3 2d 4e bd
       -0.020107351 -0.01356155 -0.0051326286 -0.05033655
000230 8e 15 6a 3c b9 92 f2 bb e2 51 a1 bb f7 c6 b9 ba
       0.014287366 -0.0074027446 -0.0049230913 -0.0014173676
000240 97 82 bd 3b 8a 99 84 bc a9 57 f7 ba 87 53 b7 3c
       0.00578339 -0.016186494 -0.0018870729 0.022378696
000250 b4 8f 88 bc a2 83 a9 3c 70 e1 c2 3c 7f 5c 5e bc
       -0.016670085 0.02069265 0.023789138 -0.0135718575
000260 ac 81 6e bb 69 e8 8f bb f4 02 68 3c 54 6d 9b 3c
       -0.0036393208 -0.004391719 0.01416086 0.01897303
000270 a7 bf b5 3c be 3d 3c bc a0 d7 a1 3c 4e 4e 05 3b
       0.022186114 -0.01148933 0.019756138 0.0020340863
000280 f5 e1 0f 3c 4d b7 ad 3c 98 5e 88 3c c4 25 56 3c
       0.0087819 0.021205569 0.016646668 0.013070527
000290 33 7a 9a 3c 1a 21 02 3b 9a 96 95 bc 57 b7 7d 3c
       0.018857097 0.0019856156 -0.018260289 0.015485606
0002a0 08 49 ef 3b 3f bf d6 3b 3b 80 c1 3c 73 6b 9e bc
       0.007302407 0.00655356 0.023620715 -0.019338345
0002b0 46 1c 49 39 8e a2 e1 ba c9 77 33 3c 5b 2a 9c 3c
       0.00019179386 -0.0017214583 0.010953852 0.019063165
0002c0 5a 42 af 3b b2 2c b0 bc 74 bb 16 3c 83 4b c8 3c
       0.005348486 -0.021505687 0.009199966 0.02445007
0002d0 d4 03 bf 3c ea 1e ba bc e0 d8 84 bc 17 ac f6 ba
       0.023317255 -0.02271982 -0.016216695 -0.0018819597
0002e0 dc ad 69 3c 42 df df 3c f0 ef d7 bb fa ee 20 3c
       0.014262643 0.027328137 -0.006589882 0.009822601
0002f0 54 eb 98 3c 17 c1 fd bb a4 ac ca 3c c1 67 13 3b
       0.0186669 -0.0077439654 0.024740525 0.0022492262
000300 bc 3a 54 bc bf 7f c4 bc 5e 06 6d bc d8 ba cd 3c
       -0.0129534565 -0.023986695 -0.01446685 0.025113508
000310 73 a6 8a bb 6b 6d 8c bc 6d e5 b5 bc 9a 39 20 39
       -0.004231268 -0.017142018 -0.022204125 0.00015280247
000320 12 b6 43 bc 40 e0 03 3c 60 0d cb bc e7 67 5e bc
       -0.011945264 0.008049071 -0.024786651 -0.013574577
000330 1d d3 1d 3c 13 3e 07 3c 80 12 af 3c 9a d0 91 bb
       0.009632853 0.008254546 0.021371126 -0.004449916
000340 2c 16 00 3c f3 5b 63 bc 13 a7 a0 bc a7 b3 98 3b
       0.007817786 -0.013876903 -0.019610917 0.004660088
000350 d2 b3 82 3c 3a 04 83 bc a8 93 d7 b9 b3 93 ee 3c
       0.015954886 -0.015993226 -0.00041118008 0.029123163
000360 70 58 15 3b bd 64 64 3c cb c4 99 3c a0 57 99 bb
       0.0022788309 0.0139400335 0.018770596 -0.004679635
000370 85 16 23 bc 0b 41 19 3c 61 12 65 bc 78 10 8a 3c
       -0.0099541 0.009353886 -0.013981433 0.016853556
000380 cd 60 dd 3a 9a 65 9d 3c 1a 1b 86 ba eb da 74 3a
       0.0016889811 0.019213486 -0.0010231466 0.00093404826
000390 ad 18 76 3b 4d 29 03 bc 42 49 e9 bb 00 5e 4a bc
       0.003755133 -0.008005452 -0.0071193287 -0.012351513
0003a0 33 89 d1 3b 1b eb 9a bc f4 57 2e bc f1 67 8e 3b
       0.0063945292 -0.018910935 -0.010641087 0.004345887
0003b0 d1 5c 35 3c 0d cf 15 bb 73 16 3c 3b 4a e1 92 3c
       0.011069492 -0.0022859008 0.0028699904 0.017929692
0003c0 ed 37 c4 3c 55 9c 2b bb 53 da 38 3c 64 b7 bd bc
       0.023952449 -0.002618571 0.011282521 -0.023158737
0003d0 e5 d6 09 bc 95 51 b0 3c 5a 98 75 bd ff 21 9c 3c
       -0.008413051 0.021523276 -0.059959747 0.01905918
0003e0 44 e1 f5 ba d5 a5 89 bb d3 62 aa 3c cb 62 5b bd
       -0.0018759151 -0.004200677 0.020799076 -0.053561013
0003f0 fa 57 50 3d d1 b2 6c bc e2 e9 bd 3c ab 0d 02 bd
       0.05086515 -0.01444693 0.023182813 -0.031751316

actor_head.0.bias f4 [64]
000000 8b ab 8c bc e8 24 43 3c a7 7f 04 bc b9 1d 5c bc
       -0.017171642 0.011910655 -0.008087075 -0.013434821
000010 6f 1f ab 3c 37 e9 1a bb 8a 53 6c bc 36 fa 14 3c
       0.020889012 -0.0023637542 -0.014424214 0.009092858
000020 04 df e9 3b 3e 68 7a 3c 31 fd f7 3b b2 9c 98 bb
       0.0071371812 0.015283642 0.0075680246 -0.0046573514
000030 2c 45 3e 3b b0 57 77 3a 0e 70 90 bc da be 86 3c
       0.002903293 0.00094353687 -0.017631557 0.016448427
000040 f2 26 4d 3c 4e 20 58 bb 5a f5 85 3c 2e ca 7e bc
       0.012521492 -0.003297824 0.016352344 -0.015551133
000050 af 5a a9 3c 40 82 06 3c be 38 ed bc 4c aa 37 bc
       0.020673124 0.008209765 -0.02895772 -0.0112100355
000060 03 65 75 bc de 1e cc bc 06 c3 ba 3c b2 ab 50 3c
       -0.014977696 -0.024917062 0.022798073 0.012736248
000070 c3 a5 6e 3b 54 fe 1a bc cf ab b3 3c 32 8e 2d bc
       0.003641472 -0.009460051 0.02193251 -0.010592984
000080 f5 67 ad bc 54 37 7d bb 0f 0c d3 3c 50 9c 3a 3c
       -0.021167735 -0.0038637714 0.025762586 0.011389807
000090 57 29 7c b9 e2 86 fe bc 11 c9 69 bc ed 98 8a 3b
       -0.00024047993 -0.031070177 -0.014269129 0.004229656
0000a0 f0 e4 9e 3c 2f e7 92 3a a1 8c 83 3c 30 4b 6d 3d
       0.019396275 0.0011207814 0.016058268 0.057933033
0000b0 f0 60 ab bc 19 a7 b0 bc 6a 77 22 bc 30 df 20 3b
       -0.020920247 -0.021564053 -0.009916166 0.0024547093
0000c0 96 64 11 3c c1 88 c8 3c 12 c8 61 bc a0 d8 7e 3c
       0.008874079 0.024479272 -0.013780611 0.015554577
0000d0 8a 3a 84 3b 61 61 d2 ba 50 bd bb bb 10 f8 af 3c
       0.0040352987 -0.001605075 -0.005729355 0.02148059
0000e0 c9 bd a2 3c 9d 49 be 3c f9 36 60 bc 24 14 82 3b
       0.019865887 0.02322846 -0.0136849815 0.003969686
0000f0 46 db ca bc ef cd 19 3b 67 17 ad bc 5d 78 90 3c
       -0.02476276 0.0023468693 -0.021129323 0.017635519

actor_head.2.weight f4 [2, 64]
000000 e5 7a fc 3d ac 51 fb bc b0 56 77 3c 5c 38 ae 3d
       0.12328128 -0.030678593 0.0150963515 0.085068434
000010 80 fc 20 3e 5e 54 5f 3d a7 fc b2 3d 1a 8f 99 bd
       0.15721321 0.05452382 0.08739596 -0.074979976
000020 46 3f 2c 3d a9 7e 01 3e dd 51 da bb c3 09 be bd
       0.04205253 0.12645973 -0.006662591 -0.09279206
000030 ad b9 dd 3d 8d 86 dd 3a f5 01 1a 3d 25 f2 61 3d
       0.108264305 0.0016901061 0.037599523 0.055162568
000040 f4 f0 8f bd f5 2c d8 bd ab c4 88 3d a6 3d 4b bd
       -0.0702838 -0.1055545 0.066781364 -0.04961934
000050 4b f4 c0 3d 94 f5 82 3d 98 db 17 3c ad ac 14 3d
       0.09421595 0.063944966 0.009268664 0.03629749
000060 b6 5d 0f bd 0b 80 40 3d bc 2b 96 bd e9 3c ce 3d
       -0.03500148 0.04699711 -0.073325604 0.100702114
000070 8f db b3 bd df fd 9a bd 6e 69 09 3d 51 25 8c bd
       -0.08782112 -0.07567953 0.03354781 -0.06843055
000080 90 22 f7 bd a1 e8 1d bd d5 f3 01 3d 32 47 2d 3d
       -0.12067139 -0.03855193 0.031726677 0.042304225
000090 8f 10 1f 3d 56 02 a7 3d d1 d6 b5 3d 6c bf f5 bd
       0.03883415 0.081547424 0.088788636 -0.119994015
0000a0 8b df 2c 3d 34 99 81 3b fc f3 75 3c 08 7f 24 3e
       0.042205375 0.003955031 0.015011784 0.16064084
0000b0 02 84 1a bb 61 53 4a bb ca 0a 9e bd db d6 11 bd
       -0.0023577218 -0.0030872452 -0.077169016 -0.035605293
0000c0 3e 08 f5 bd 7e c0 da 3d 86 69 5b bd 47 29 a1 3d
       -0.11964463 0.10681246 -0.053567432 0.07869201
0000d0 10 e6 fc 3d ce bc 90 bc 40 1f 89 bd f5 53 8d 3c
       0.123485684 -0.017668154 -0.066954136 0.017251948
0000e0 db 0e 9e bd 7c b6 c5 3d 2d 8d f6 3c a7 4e a0 3c
       -0.07717677 0.09653947 0.030096615 0.019568754
0000f0 a5 26 25 bd 13 e3 c3 3d 82 13 91 bd 93 8b c5 3d
       -0.040320057 0.09564795 -0.07083799 0.09645762
000100 ef fc 7c 3d f9 f7 15 3d 26 d7 22 3d e0 da c7 bd
       0.061764654 0.03661344 0.039755963 -0.09758544
000110 dd 80 a7 bd 94 c7 a8 bd 5a a7 cd bd 36 50 ec bd
       -0.081788756 -0.082411915 -0.100416854 -0.115387365
000120 10 cb 41 bd 40 4a ed bc d3 4f c0 bd 71 ff 9a ba
       -0.047312796 -0.02896607 -0.09390225 -0.0011825395
000130 a2 1c 19 3a 91 69 05 bd a0 f4 81 bc ba 93 b3 bd
       0.00058407534 -0.03257138 -0.015863717 -0.08768411
000140 0f 5b 62 bd 00 89 c7 bc 9c 83 90 3d 34 03 5c bd
       -0.05526262 -0.024357319 0.070563525 -0.053713992
000150 da cc 7a 3d 99 9e a9 bd fa 45 e4 3d f1 c5 12 3c
       0.061230518 -0.08282203 0.111461595 0.008958326
000160 28 f9 bd bd e1 e0 a4 bd b9 4d 42 bb ab 41 e6 3d
       -0.092760384 -0.08050705 -0.0029648377 0.11242994
000170 ae 42 df 3b 43 a9 8b bd 97 a0 51 3d 63 a5 b8 bd
       0.0068133688 -0.068193935 0.05117854 -0.0901592
000180 f2 4a ae 3d 41 e9 f2 bd 61 a4 1e 3c eb 1f 4b bd
       0.085103884 -0.11860896 0.009682746 -0.049590986
000190 b4 a2 ad 3d fb 62 87 bd 77 b1 85 3d 3e 0e 3e bd
       0.08478299 -0.06610676 0.06527989 -0.0464003
0001a0 a7 3d fe 3d 94 50 0b 3c c8 b6 e9 3d 72 f2 04 3e
       0.12414103 0.008503098 0.11411816 0.1298311
0001b0 b9 d2 d7 3d 05 ab da bc 7c 28 07 3c 46 5e 09 3e
       0.10538239 -0.026692877 0.008249398 0.13414869
0001c0 b7 2c eb bd 72 0d 25 3d 65 4b 8a 3d 02 7d 3b 3d
       -0.11483138 0.040296026 0.067526616 0.045773514
0001d0 38 00 a7 bd 25 d7 40 bc 1d 16 14 be cf ff be 3d
       -0.081543386 -0.011770044 -0.1446156 0.09326135
0001e0 37 62 86 3d 70 9b e5 3c 1d bd cc bd 35 5a 91 bd
       0.06561702 0.02802822 -0.09997008 -0.07097284
0001f0 70 6d 84 bd 09 30 90 bd c4 05 9a bd 3c 9d b2 bd
       -0.06466186 -0.07040412 -0.07520631 -0.08721396

actor_head.2.bias f4 [2]
000000 c8 75 fa 3c c0 b1 e4 bd
       0.03057374 -0.111667156

critic_head.0.weight f4 [64, 1600]
000000 04 10 b3 3c 86 e8 5e ba 05 d1 22 bc 6c 74 5b 3b
       0.021858223 -0.00085032766 -0.009937529 0.003348614
000010 5b 75 d4 3b fe 1c c5 b8 5f cb 38 bc f6 a5 83 bc
       0.0064837164 -9.399092e-05 -0.011278956 -0.016070347
000020 84 3e 80 3c ce 93 e8 ba 71 59 a7 bc ae 02 69 3c
       0.01565481 -0.0017744245 -0.020428391 0.01422183
000030 94 cf 8f 3b 17 20 82 3b f9 b1 22 3c 89 06 a1 3c
       0.004388759 0.0039711106 0.009930127 0.019656437
000040 2f 65 47 bc 60 41 8d 3a a5 2e 81 bc 6e de c3 bc
       -0.01217012 0.001077693 -0.015769312 -0.023909774
000050 11 4a 9a 3c 9e 31 d3 3c c4 e7 05 3c 22 a8 e2 3c
       0.018834146 0.025780495 0.008172933 0.027668063
000060 10 6b cf bb 71 42 61 3c 1b 9a 8c bb 09 c3 a5 bb
       -0.0063299015 0.013748751 -0.0042908317 -0.0050586504
000070 d0 91 c8 3c b5 c1 ee 3c a3 8c 2d bc d7 60 32 3b
       0.024483591 0.029145101 -0.010592612 0.0027218366
000080 cb 12 ab bc 38 d8 32 3c bc 2b 40 bc 45 2f c1 bc
       -0.020882985 0.010915808 -0.011729177 -0.02358211
000090 8b ab 0e 3d 2a 2b ef 38 24 44 11 bc 2d 96 e0 3b
       0.034831565 0.00011404448 -0.008866344 0.00685384
0000a0 50 e1 aa 3c 2c 3d 88 3c be bb 6a bc 46 52 85 bb
       0.02085939 0.016630732 -0.014326988 -0.0040686456
0000b0 d6 4e 78 3d bf 38 04 3d 62 6c 23 bb c4 f1 35 bb
       0.06062206 0.03228068 -0.0024936427 -0.0027762512
0000c0 78 0e 17 3c e2 0e 93 bb 91 7d c0 3c ee cd a9 bc
       0.009219758 -0.004487858 0.023497375 -0.020728078
0000d0 61 b9 ff bc 06 46 9f 3c 0d 54 a3 3b 60 aa 5f 3c
       -0.031216325 0.01944257 0.004984385 0.01365146
0000e0 36 8a a8 3c 08 4d 90 bc e2 9d af 3c 11 73 01 3d
       0.020573717 -0.017614856 0.02143759 0.031603877
0000f0 67 7d df 3b 6d 18 c2 3b 83 00 9f 3c b3 31 da bc
       0.006820369 0.005923322 0.019409424 -0.026635027
000100 25 a7 24 3d 88 2f 80 bc d0 ed 58 bb 3c 64 38 bc
       0.040198464 -0.015647665 -0.0033100732 -0.0112543665
000110 4a 54 94 bc f3 54 2c bb de c2 af bc d9 15 34 3e
       -0.018106598 -0.002629575 -0.021455225 0.17586459
000120 59 94 fa bc 7b 5e 97 3c 02 d5 92 3d ed 58 fc bb
       -0.030588316 0.018477669 0.07169534 -0.0077010305
000130 b0 fb 0e bc 1b 23 fa bc db fb b7 3d bb b8 9c bc
       -0.008726999 -0.030534318 0.089835845 -0.019131055
000140 39 ba 3f bc 91 7d 74 3c ab ea 9f bc 73 c3 6e 3b
       -0.011702114 0.0149225155 -0.019521078 0.0036432415
000150 a1 74 ce bc 49 68 9c 3b 65 3e a1 3b 2b 3a 71 3c
       -0.025202097 0.004773174 0.004920768 0.014723341
000160 fc 3a e4 3b 70 49 19 bc 9a d3 f9 ba 1e 56 ba bd
       0.0069650393 -0.009355888 -0.0019060255 -0.09098457
000170 05 0b 4f 3c 69 b8 57 3d fb d0 27 3c f7 7b 47 bd
       0.012636905 0.0526661 0.010242696 -0.048702206
000180 67 ca 8d 39 f7 9d 09 bc 09 8b a8 bc d1 12 12 3d
       0.00027044417 -0.008399478 -0.02057411 0.035662476
000190 1a 6b 9d 3c f9 32 14 3d 72 f8 27 3d e5 89 91 3c
       0.019216109 0.036181424 0.04100842 0.017765949
0001a0 14 40 86 bd 90 dd ae bd 7a c9 41 3d 35 26 e5 3d
       -0.06555191 -0.085383534 0.047311284 0.11188928
0001b0 0e ee 84 3d 10 5a ee 3d f2 62 bd 3d f1 90 bf bc
       0.06490718 0.11638272 0.09247388 -0.023384543
0001c0 0a 27 9d bd 32 b4 60 3d d9 03 bc 3a 8b f6 b6 3c
       -0.07673462 0.054859348 0.0014344408 0.022334358
0001d0 c8 ce 38 3d 71 75 b3 3d a2 6d 20 bd c0 80 cb bd
       0.045119077 0.087626345 -0.039167054 -0.099366665
0001e0 12 f8 31 3c 79 81 a6 3c a0 fb f3 3b 9c cd 04 bb
       0.010862367 0.02032541 0.0074457675 -0.0020264154
0001f0 9f 2b 84 3d 15 7a 4c 3b b0 ad 99 bd c6 bb 01 3b
       0.064536326 0.0031200696 -0.075038314 0.001979576
000200 c9 12 02 3d 58 ae 9c 3c 50 be 48 bb 59 02 44 3d
       0.031756196 0.019126102 -0.0030631013 0.0478538
000210 9d dd fe bc 91 55 5a bd 6b a5 f8 bc ce 58 5f 3d
       -0.031111533 -0.05330426 -0.030352315 0.05452805
000220 04 9e 5a bb 8f 4c 37 bc 58 11 87 3d 55 05 c9 bc
       -0.0033358345 -0.011187687 0.06595105 -0.024538675
000230 b7 5b 75 bd a9 d9 8f bd c5 e1 85 3d 39 82 6e 3d
       -0.05990192 -0.07023937 0.06537203 0.05822966
000240 26 07 a4 3d 69 1a 82 3d ec 3b 82 bd 5d 1e a6 bc
       0.08009176 0.063526936 -0.063590854 -0.02027815
000250 32 fd ab 3c b9 74 59 3c 09 d7 a0 3c fd b4 9c bc
       0.020994756 0.013272458 0.019633787 -0.01912927
000260 58 ed 95 3c 16 20 98 3a 25 0d 16 3c a7 fc c7 bb
       0.01830165 0.0011606242 0.009158407 -0.0061031166
000270 c2 d0 5c 3b c5 54 31 3d 5d 0d 3f bc f5 a8 b5 bc
       0.0033693765 0.043293733 -0.011660901 -0.022175292
000280 11 d2 44 bc 08 c1 79 3b ab bb 75 bc 1c f3 a6 3c
       -0.012012974 0.003810944 -0.014998357 0.020379595
000290 71 b0 68 3d de 52 28 bb 73 bc 49 bc 5c f1 50 3c
       0.056808893 -0.0025684158 -0.012312996 0.012752857
0002a0 7c e4 8f ba 27 2a 78 3c 95 12 f2 bc fc 87 d2 3c
       -0.0010978128 0.015146769 -0.029549876 0.025699608
0002b0 d4 8e 53 bb d5 80 9c bc 4e e5 8a 3b 8b 58 4f 3b
       -0.0032281177 -0.0191044 0.004238761 0.003163847
0002c0 7e 41 76 3c 70 22 35 bc 64 c9 14 bc 95 fd d6 bc
       0.015030263 -0.011055574 -0.009081218 -0.026243964
0002d0 e6 3c 1c 3d 02 df d5 bc f6 33 2f bb 17 7b 81 bb
       0.038144015 -0.026107315 -0.0026733852 -0.003951441
0002e0 f9 31 96 3a c5 de 7c 3b b0 f5 4c 3c 73 80 5b 3c
       0.0011458985 0.003858493 0.012509748 0.013397324
0002f0 f7 ae 43 ba 59 e6 69 3c d8 2c d2 3b 86 12 f4 3b
       -0.00074647315 0.014276111 0.006414037 0.007448497
000300 70 0e e0 ba 47 29 b4 3b 25 e4 7e 3a b4 ac 8a 3c
       -0.0017094146 0.0054980847 0.0009723327 0.016928054
000310 32 d3 b8 3c 5a 35 bb bb 77 89 0b bc fa d9 44 3c
       0.022561643 -0.005713147 -0.008516661 0.01201486
000320 75 23 cc 3b f7 1a 85 bc a3 4b 1e bc e5 c4 83 bc
       0.0062298127 -0.01624821 -0.009661588 -0.016085098
000330 c0 fb 70 3c 4f 9b af bc 33 c8 bf 3c 00 77 2a bd
       0.014708459 -0.021436362 0.023410892 -0.041617393
000340 c8 90 49 bc 6a d0 01 bc 2d ce 1a 3c 4d ab 3d 3b
       -0.012302585 -0.007923225 0.00944857 0.0028941215
000350 c7 ac c2 bc 87 a0 6e bc 3e 75 98 3d 07 64 2a bd
       -0.023764027 -0.01456464 0.07444237 -0.0415993
000360 d9 06 3f bc 60 8b be bb 5a 58 6c bb bf dd b7 3c
       -0.011659347 -0.0058149546 -0.0036063404 0.022444604
000370 06 f9 9f 3b 18 b3 95 bc ad 7c a9 3c 66 62 12 3d
       0.004881981 -0.018273875 0.020689333 0.03573837
000380 43 8e 7c bc 4d f5 a1 bc 60 90 64 3c 69 0e 58 bd
       -0.015414777 -0.019770289 0.013950437 -0.052748118
000390 d5 ae f8 3b 0d 43 b5 3d 89 03 5e bc 45 13 97 3c
       0.007589201 0.088506795 -0.013550648 0.018441806
0003a0 cd 26 f0 bb da ae f3 bb 84 e1 e3 3c de 7b 8e 3c
       -0.007328844 -0.0074366154 0.027817495 0.017393049
0003b0 bc d8 10 3d 7a 26 9d bc 6b 35 a2 bc 30 98 2e 3c
       0.035362944 -0.019183386 -0.019800862 0.0106564015
0003c0 a0 59 c1 3c 8c 10 d4 3b e4 6f 1c 3d 29 93 37 3d
       0.023602307 0.006471699 0.038192645 0.044818077
0003d0 3e 2b 06 bd 59 8b 33 bd 67 97 c7 bd 90 c4 4a 3d
       -0.032756083 -0.043834064 -0.097456746 0.049503863
0003e0 b0 c6 94 3d a0 25 52 39 62 71 59 be 2f 90 ac bd
       0.07264459 0.00020041177 -0.21234658 -0.08425938
0003f0 ac 81 19 bd 92 59 9c 3d 66 fb 82 3d 1b 18 35 3c
       -0.03747718 0.07634272 0.06395607 0.0110531105

critic_head.0.bias f4 [64]
000000 cd 14 15 3c b8 f0 a5 ba 3c 4c 99 bc 09 bf 80 bb
       0.009099198 -0.0012660241 -0.01871311 -0.003929023
000010 83 af 88 3d 23 a6 93 bc 91 2b 9d 3c 28 75 ee bc
       0.06674101 -0.018023556 0.019185813 -0.029108599
000020 b0 b7 85 bc c1 bc 1a bd bf f9 2f 3c 18 0c 8a 3b
       -0.01632294 -0.037777666 0.010740696 0.0042128675
000030 ba 3c 9e bc 4b 1b 85 bc a2 02 5a 3b ce 6b 5d 3c
       -0.019316066 -0.016248366 0.003326573 0.013514472
000040 79 29 c6 bc f3 ee 90 3c ac 8a 06 3b a3 13 80 bc
       -0.024189698 0.017692065 0.0020529432 -0.015634364
000050 c2 8d e6 3b 09 37 09 3a 21 9c 04 3d 4b 5a b1 3d
       0.007035942 0.0005234336 0.03237546 0.086598
000060 af 40 5a 3b 1c 4f 54 3d f1 2e 19 bc 01 25 6d 3d
       0.0033302715 0.051833257 -0.009349571 0.057896618
000070 6d a9 b9 3a 35 97 92 3a e5 2c 65 bc b6 78 4c 3c
       0.0014164873 0.0011183979 -0.0139877545 0.012479952
000080 30 1a 56 b9 92 3e 06 3e 4b c0 28 bc b6 6c 16 bc
       -0.00020418386 0.13109806 -0.0102997525 -0.009181192
000090 3b de 82 bc 89 18 bb bc d3 e5 8e 3c a5 98 cb 3c
       -0.015975108 -0.022838848 0.017443573 0.02485306
0000a0 3d 9d ca bc 87 f8 23 3c 25 86 8e bc 19 98 8f 3b
       -0.02473318 0.010007984 -0.01739795 0.004382145
0000b0 4c 4b e8 3b fd 45 b0 bc 08 97 91 3c 35 f6 4e bc
       0.007089054 -0.021517748 0.017772213 -0.0126319425
0000c0 3c e7 c1 bc cf 06 fb bb 11 08 12 3d 6e e4 eb b9
       -0.023669831 -0.0076607238 0.035652224 -0.00044992886
0000d0 07 57 7d bc 56 9a 6d bc 5e d8 8d bb 1b ba 2e 3c
       -0.0154626435 -0.014502129 -0.0043287715 0.010664488
0000e0 c0 1f 2a 3c 5c 0a 6e bc 3e 1d 3c 3c df 75 9d bb
       0.010383546 -0.014528837 0.011481581 -0.004805311
0000f0 d4 ae 28 3c 85 2e 06 bd 4c 23 2e 3d 1c 46 3a bc
       0.0102955885 -0.03275921 0.04251413 -0.011369254

critic_head.2.weight f4 [1, 64]
000000 ce 1a 29 3d 54 58 e7 3d 40 ad c0 bb 6c 19 bb bd
       0.04128533 0.11296144 -0.005880028 -0.09135708
000010 43 7e d9 bd 7b 14 a1 3d ad 8f e9 bb ab 49 cb bd
       -0.10619786 0.078652345 -0.007127723 -0.099261604
000020 d4 7b df 3d fd 45 09 3d 9a db 8a 3d ee 80 8f 3d
       0.1091229 0.03351401 0.06780167 0.07007013
000030 05 16 51 3d 6d 78 1a bd 9d 8f b9 bc ec fa 08 3d
       0.05104639 -0.037712503 -0.022651488 0.033442423
000040 b8 dd c0 bd 65 85 36 3c c2 d0 d1 bc 4c d5 91 3d
       -0.094172895 0.011140202 -0.025612239 0.07120761
000050 06 e3 18 bd 54 39 46 3d 50 94 9e bd af e8 68 bd
       -0.03732588 0.048394516 -0.07743132 -0.05686253
000060 5a 42 67 3d b5 20 6e bd 32 b8 72 3d 8b 9a 2c bd
       0.056459762 -0.05813666 0.059257694 -0.04213957
000070 26 ee ae bd 21 c3 94 bd 54 f6 86 3b 9f 07 9c bd
       -0.08541517 -0.072637804 0.00411872 -0.07618641
000080 28 25 da bc c6 72 95 bd a6 40 d3 bc 4f c1 5d 3d
       -0.026629046 -0.07297282 -0.025787663 0.05413943
000090 d6 6e db 3d 37 93 ec 3d 63 6c c7 bd 39 33 54 bd
       0.107145 0.115515165 -0.0973747 -0.051806662
0000a0 61 1e 8a bc d2 e9 4a 3b af 0f f3 bd d3 e4 f5 3d
       -0.016860189 0.0030962122 -0.11868226 0.120065354
0000b0 91 1c 92 bc 5e 00 8f bc b6 fa cf 3c 59 04 4a 3c
       -0.017835887 -0.01745623 0.025388103 0.012330138
0000c0 79 92 31 bd ef 2a 34 3d 22 7c 2d bd 9f 75 8a b9
       -0.043352578 0.043986257 -0.04235471 -0.00026409046
0000d0 cc 60 6f 3d 9d dc dd bc 9d 98 58 3d 58 87 20 bc
       0.058441922 -0.027082736 0.05287992 -0.009797893
0000e0 59 ca 82 3c 85 d8 9c 3b 76 43 42 bc f4 c0 eb bc
       0.015965628 0.0047865533 -0.011856904 -0.02877853
0000f0 54 3c 18 bd 36 e0 05 3d ee 08 8e bd da 9d 8a 3d
       -0.03716691 0.032684527 -0.06935297 0.06768389
