project_files/runs/Sep09_12-06-51_kiveli.ics.forth.gr/ppo_policy_camera_cnn_whole_circle.pth (torch, 851205 bytes, 15 tensors)

cnn_base.0.weight f4 [16, 1, 3, 3]
000000 7f eb cc bd 9f 20 10 3e c3 55 43 be 42 12 24 3e
       -0.10005855 0.14074944 -0.19075684 0.1602259
000010 6e 51 19 be 88 ff 4a be 41 e3 88 ba fc eb 73 3d
       -0.14972469 -0.1982404 -0.0010443704 0.059551224
000020 c5 b4 d2 bd 9c ad ea bd 66 d0 42 3e b9 db ee 3d
       -0.10288385 -0.114588946 0.1902481 0.116630025
000030 8c da 01 be 84 d7 3f be f8 ec 92 be 70 cf 4e 3e
       -0.12681025 -0.18734556 -0.28696418 0.20196319
000040 5a c6 7b be 23 2c 63 3e 07 65 77 be 8b 38 20 3e
       -0.24587384 0.22184806 -0.24159633 0.1564657
000050 e2 fb a3 3d 41 ba 2e be 4f 6e 1c be ef 6f 83 bd
       0.08007027 -0.17063238 -0.15276454 -0.06417834
000060 89 4c 9b 3d 71 09 e8 bd a6 6c 16 3e 95 23 a1 3e
       0.07582957 -0.11329926 0.14689884 0.3147246
000070 34 2e 8b 3e d0 79 06 3d 21 95 9c be 9d b0 22 be
       0.27183688 0.032831013 -0.30582526 -0.15887685
000080 00 18 db bd 2c 3d 8f 3e 67 42 f7 bd 02 7f 44 bd
       -0.10697937 0.27976358 -0.12073212 -0.047972687
000090 67 90 fd 3d 30 b7 88 be 40 d5 78 be 47 63 b3 3d
       0.12381058 -0.2670226 -0.24300098 0.0875917
0000a0 ee 8d 81 3e 67 b8 8d be f3 c3 3f be 2d 28 6b be
       0.25303596 -0.2767975 -0.18727092 -0.22964545
0000b0 2f 76 2f 3e 3c 1a a3 3c ab d4 92 3c 95 96 c6 bb
       0.17134927 0.01990997 0.017923674 -0.0060604312
0000c0 29 f2 8b be b0 df 44 bd 90 8a 9f 3e 06 44 a8 be
       -0.2733319 -0.048064888 0.31160402 -0.32864398
0000d0 fd ac a4 be b7 d1 89 be 2d 81 a0 3e 82 81 d8 3d
       -0.3216323 -0.26917812 0.31348553 0.10571577
0000e0 d5 45 91 be d3 ca 7e bd 10 47 22 3d c9 c9 3a 3e
       -0.2837359 -0.062205147 0.03961855 0.18241037
0000f0 26 50 e2 3d b5 9f dd 3d 7f 06 7b 3d 92 4a 15 bd
       0.11050443 0.10821477 0.061285492 -0.03644807
000100 88 96 0d 3e 64 5e 69 be 7a ef 08 bd 41 23 bb 3d
       0.13826954 -0.22789913 -0.033431508 0.091375835
000110 52 aa c4 3d e1 55 84 3e 48 80 15 3c 5b 5f eb 3c
       0.096027985 0.2584677 0.009124823 0.028731992
000120 02 bf 89 3e 02 1d 89 3e 4b 4b ce 3c 81 0a 42 bd
       0.2690354 0.26779944 0.025182387 -0.0473733
000130 7b ff 66 3a 09 92 86 3e db 35 c6 bd 63 40 95 3e
       0.0008811873 0.2628329 -0.09678241 0.29150686
000140 ec 39 b6 3d 84 a2 25 3e 05 fb db 3d ad a3 f7 3d
       0.088977665 0.16175276 0.107412376 0.120917656
000150 51 cc 80 be b1 20 3f be 07 80 68 be f3 31 5a bd
       -0.2515588 -0.18664815 -0.22705089 -0.05327029
000160 b5 bb 96 be 8c 15 12 be 97 e4 60 be 46 dc 8d bd
       -0.29440084 -0.14266032 -0.219622 -0.069267794
000170 e8 32 37 3e 7b e9 5f 3e e2 59 6a be cc 46 a7 bd
       0.17890513 0.2186641 -0.2288585 -0.081678
000180 b8 2a 7a 3d 3c 9a a8 be ea fb 36 3d 1b 4b cb bc
       0.061075896 -0.3293017 0.044673838 -0.024816087
000190 78 f5 0d 3d f3 9f 93 3e ec b5 9c bd 6c 18 3c be
       0.034657925 0.2883297 -0.07651886 -0.18368691
0001a0 f3 28 60 3d 1f d5 97 be 23 c7 33 be a8 8c 3e 3e
       0.054726552 -0.29654786 -0.17556433 0.18608344
0001b0 ec 24 8d 3e 08 b2 dc bd b7 e2 96 be 5e 95 3c 3e
       0.27567232 -0.10776144 -0.29469845 0.18416354
0001c0 06 1c 4c 3e 15 5a 0e 3e 66 b0 03 be 96 2b 91 3e
       0.19932565 0.13901551 -0.1286026 0.28353566
0001d0 5c b1 63 3d 6b 0d b2 bd 7f b6 02 3e 5a fe 12 3c
       0.055589065 -0.086939655 0.12764929 0.008971775
0001e0 71 7d ad bd 69 a7 73 be dc 00 36 3e c2 35 93 be
       -0.08471192 -0.2379433 0.17773765 -0.2875195
0001f0 2f c6 a7 bb 38 ae 81 be 5b 00 52 be 8e 01 a9 be
       -0.005120061 -0.2532823 -0.20507948 -0.33009
000200 fe 74 8f 3e 2f d2 bc bc 84 bb 9d 3e b5 f2 81 3e
       0.28018945 -0.023049442 0.30807126 0.25380483
000210 b0 d8 9f 3e f9 c5 01 3e 82 00 96 3e 3c 23 27 3e
       0.31220007 0.12673177 0.29297262 0.16322035
000220 e4 ab 9c be 7a 40 95 3e 50 e0 60 be 22 ba a5 3d
       -0.30599892 0.29150754 -0.21960568 0.08092143
000230 c5 6d a0 be cb 3d 1f bd 5c ea 87 3e 5d 0a 09 bd
       -0.31333748 -0.03887729 0.2654599 -0.03345715

cnn_base.0.bias f4 [16]
000000 84 c1 80 be b4 57 0f be 5d 71 25 3e 2c 66 a8 be
       -0.2514764 -0.139983 0.16156526 -0.3289045
000010 16 cd 9c be 47 a4 5f 3e 48 b9 47 3d 53 01 1b 3e
       -0.30625218 0.2184001 0.048760682 0.15137224
000020 a4 74 a3 bd 9c 80 ce 3d 79 1a 83 be 78 f5 0c be
       -0.07981232 0.10083124 -0.25606135 -0.13765514
000030 98 44 b7 3c 04 e8 0a 3b 59 1c 99 3e 96 bb 96 3e
       0.022371575 0.002119542 0.2990444 0.29439992

cnn_base.3.weight f4 [32, 16, 3, 3]
000000 70 fa 2b bc 96 83 ed bc 12 8c 86 bd d7 b5 3c 3d
       -0.010496721 -0.02899341 -0.06569685 0.046071853
000010 d8 14 19 bd 5e 78 b5 3c c8 f6 0a 3d 24 83 80 3d
       -0.037373394 0.022152122 0.033926755 0.06275013
000020 ad 20 a9 3c 3f fe a7 3d 78 ea c9 bc 77 bb ac bb
       0.020645464 0.082027905 -0.024647936 -0.005271371
000030 ea d3 3a 3d a3 6e 2e bd e6 4a 0f 3d 54 2d d7 bc
       0.045612253 -0.04258598 0.034983538 -0.026266731
000040 91 25 65 3d ce 4e 26 bd 5c e4 8f 3d b8 24 a2 bd
       0.05594403 -0.040602498 0.07025978 -0.0791716
000050 48 44 2d 3c 9f e2 99 bc b2 ad 3a 3d b5 db 2e 3c
       0.010575362 -0.01878482 0.045575805 0.010672499
000060 59 8e 51 bd 97 72 1b 3d a3 d3 96 3d bd 48 b3 3b
       -0.051161144 0.03795108 0.07364585 0.0054713176
000070 33 a0 82 3d e8 2b 48 bd b1 35 87 bc c0 44 81 bd
       0.06378212 -0.048869997 -0.016505094 -0.06311941
000080 45 eb 8a 3d ba 2e 97 bd 8b 4f 24 3d d1 40 2c bd
       0.06783155 -0.07381959 0.04011492 -0.042054
000090 51 58 75 bd c5 59 64 bd 81 b9 f7 3c 30 9d 50 3d
       -0.05989868 -0.055749673 0.030239822 0.050931156
0000a0 ae 0a e8 3c 88 e6 ab bc 5f 20 b0 bc 75 da 88 bd
       0.028325405 -0.02098395 -0.02149981 -0.06682292
0000b0 2f b3 77 3b ed 58 44 3d 61 55 05 bc e0 8d 26 bd
       0.003779601 0.04793637 -0.008138032 -0.040662646
0000c0 43 ae 6d 3d ba 71 87 bd ce 32 ed bc 3e cd 9d 3d
       0.058027517 -0.066134885 -0.02895489 0.077051625
0000d0 8e d3 ad bb b9 1e 56 bc b4 18 9a 3d 82 71 93 3d
       -0.0053047603 -0.013068848 0.07524243 0.07199384
0000e0 e8 c5 75 bc 31 8d 76 3d 1d 69 c2 bc 9d ee 68 bd
       -0.015000798 0.060193244 -0.023731763 -0.056868184
0000f0 37 82 06 bd 79 19 32 bd db e6 37 3d 8e ee 74 bd
       -0.032839026 -0.043481324 0.044897895 -0.059797816
000100 d9 40 6e 3d 3d 3d 7c bd 94 01 0c 3b ed 96 91 bd
       0.058167312 -0.06158184 0.0021363245 -0.07108865
000110 8b f9 3c 3d f0 96 77 bd 75 cd 52 3d ae fb 94 bd
       0.04613642 -0.06044668 0.05146547 -0.072745666
000120 a1 b1 0e bd 42 44 fc 3c ca 5c 0b 3d 15 ee 92 bd
       -0.03483737 0.030794267 0.034024037 -0.07174317
000130 d7 0a 87 bd 12 4a 10 3d 7a 4f a0 bd 42 b4 55 bd
       -0.065938644 0.03522689 -0.07827659 -0.05217386
000140 f8 a8 dd bb cc be 4c 3d d4 cb 8f bc a4 83 9f 3d
       -0.0067645274 0.049986646 -0.017553248 0.0778878
000150 e5 2d 82 bd 46 4d 10 bb f3 51 26 3d 3f 0e 0f 3d
       -0.0635641 -0.0022018715 0.040605497 0.034925696
000160 d6 30 5f bd d8 a5 ab 3c 70 f0 9d bd 0c 72 a1 3d
       -0.054489933 0.020953104 -0.077118754 0.07883081
000170 70 3d 3b 3d 7d 43 2e bd 0e ae 8b bc 8a 95 6c 3d
       0.04571289 -0.04254483 -0.01705077 0.0577598
000180 8d f9 f1 3c 72 49 21 bd 27 4e 6d 3c 70 58 67 bd
       0.02953794 -0.039376684 0.014483965 -0.056480825
000190 67 bc 0b 3d bb fd 9c 3d 4b ed ac bd fb ab a4 3d
       0.03411522 0.07665583 -0.084436975 0.08040615
0001a0 0f 3e 83 3d e5 9f 99 bd 0f b4 92 bd b6 3a 41 bd
       0.06408321 -0.075012006 -0.0716325 -0.04717513
0001b0 93 ae 73 bd 8a 58 70 bb c2 de 1f 3d 0b 9f 88 bd
       -0.05949266 -0.0036673867 0.039030798 -0.0667096
0001c0 b2 18 96 bd 0e 67 8e 3d e8 be a5 bd 4b 2e 6a bd
       -0.07328929 0.0695325 -0.08093053 -0.057173055
0001d0 e2 74 1e bd 9d 8e 68 bc 9f 9b 0f 3d 1e 2d b1 bc
       -0.038685687 -0.014194158 0.03506052 -0.021627959
0001e0 35 0b 8c bd 67 50 8f 3d c5 91 81 bd 65 59 03 bc
       -0.06838075 0.069977574 -0.063266315 -0.008016919
0001f0 22 e3 6f bd aa 47 4a bd 34 b9 0a 3d 5a 5f 61 3c
       -0.05856622 -0.04938475 0.03386803 0.013755644
000200 a5 94 32 bc 88 2a af bc 01 b8 8e 3d 7f 89 11 3d
       -0.010899697 -0.021382585 0.0696869 0.035531517
000210 96 40 bf bc 2e 29 0d 3d 37 6a 25 bd 0f f3 85 3d
       -0.023346227 0.0344631 -0.040384497 0.065405004
000220 fe 6f 07 3c aa 62 9f bc b6 dd 94 bd ca 65 6b 3c
       0.008266447 -0.019456226 -0.072688505 0.01436753
000230 54 7a 3d 3a d4 7d 9f 3d a4 39 c6 bb 25 fa 29 bd
       0.0007228006 0.07787672 -0.0060493518 -0.041498322
000240 ea ca a4 bd 67 5b c1 bb 8e be 44 3d 44 bf 2c 3c
       -0.08046515 -0.0059007886 0.04803329 0.010543648
000250 b9 0c c9 3c 96 9e a8 bd 91 48 77 bd a5 99 f0 bb
       0.0245422 -0.08233373 -0.06037194 -0.0073425346
000260 ac 4c 2c bd d5 18 0c bc 57 0d c0 bc e0 4e 6a 3d
       -0.042065307 -0.008550842 -0.023443861 0.057204127
000270 08 c4 d9 bc 4f 92 8a 3c 80 76 73 bb 0a 23 55 bd
       -0.026582733 0.016915468 -0.003714949 -0.05203537
000280 85 e3 89 ba c7 57 92 bd fa a0 91 3d 5d ef 26 3d
       -0.0010520077 -0.071456484 0.07110782 0.04075562
000290 ed 97 1f bd bd 2b 98 3d 29 81 3d bd a1 b8 0e bd
       -0.038963247 0.074302174 -0.046265755 -0.034844045
0002a0 aa 6e ea 3b 30 5d 88 3d a2 fe b0 3b 81 96 9b bd
       0.0071543055 0.06658399 0.0054014483 -0.07597066
0002b0 bf d9 a0 bd 18 22 af bc fb 00 3b bd db 94 9d bd
       -0.07854032 -0.021378562 -0.045655232 -0.076944076
0002c0 5c 9c 97 bc 6a d6 17 bd c2 9c 95 bd c6 44 30 bd
       -0.018507175 -0.037069716 -0.0730529 -0.043034337
0002d0 a0 90 c6 3c 05 bc 9a 3d d9 f3 da bc e9 7e 89 bb
       0.024238884 0.07555393 -0.026727604 -0.004196037
0002e0 c5 4a a0 bd 44 9b de bc cf 44 8d 3c 61 55 37 3d
       -0.07826761 -0.027173646 0.017244725 0.044759158
0002f0 f0 2e 54 3d e3 0f 9d bd 14 b8 54 3d c0 68 99 3d
       0.051802576 -0.07669046 0.051933363 0.074906826
000300 49 9c 4a bd 9d 14 25 3b 92 41 98 3d bc 93 bf 3c
       -0.04946545 0.0025189288 0.074343815 0.023385875
000310 7c d7 dd bc c6 5f a5 3c aa 35 1b 3c ef a0 a2 3d
       -0.02708029 0.02018727 0.009473244 0.07940852
000320 c9 eb 83 3c a8 ab 85 3d 60 40 9c 3d bb d2 e9 3c
       0.016103642 0.065268815 0.07629466 0.028542867
000330 fc 77 0d 3d f3 20 f6 bc d7 7b 80 bc 25 5b 98 bd
       0.034538254 -0.030045008 -0.015684051 -0.074392594
000340 35 ff f5 3c da 27 64 3d 77 87 f3 bc e5 04 0b bd
       0.030028919 0.055702068 -0.02972768 -0.033940215
000350 4e 4a a4 3d d8 d9 aa bd 84 58 4e bc ae d1 f2 bb
       0.08021985 -0.08342332 -0.012594346 -0.0074102497
000360 fb ad 0d bd e4 9b 86 bc a5 c8 52 3d 53 5d 8f bc
       -0.03458975 -0.016431756 0.05146088 -0.017500555
000370 f0 a0 e3 bb cc af 36 bc 5a 02 ed bc af 08 a2 bd
       -0.0069466755 -0.011150312 -0.028931785 -0.079118125
000380 1d 5e b0 bc fb 3f 97 bb 18 be 8b bd 43 04 05 3d
       -0.021529252 -0.0046157814 -0.06823367 0.032474767
000390 e4 7a a6 3d b2 6d 83 3d bd f4 24 bd 3f 78 a3 3d
       0.08128908 0.06417407 -0.040272463 0.079819195
0003a0 3d 1f db 3c 4f 1d 66 bd c8 2f 7c bd 0a 86 28 3d
       0.026748294 -0.056180295 -0.061569005 0.041143455
0003b0 47 57 32 bc 79 e5 2c 3c d4 90 e9 3c cc 14 86 bd
       -0.010885066 0.010552757 0.028511442 -0.065469354
0003c0 b6 4d 59 3d f4 9c 99 3d 70 a4 4f bd 0e 4c 9a bd
       0.053052627 0.075006396 -0.05069393 -0.075340375
0003d0 61 29 98 3d 87 34 84 3d e4 4a 25 bd 1c c6 2a 3d
       0.074297674 0.06455331 -0.040354624 0.041692838
0003e0 36 35 50 bc 0f 11 11 3c 74 2e a0 3d 91 1a 44 bd
       -0.012707999 0.008854165 0.0782136 -0.0478769
0003f0 20 0b ea ba b9 1d 62 bd 76 10 93 3a 72 9e 81 3c
       -0.0017856099 -0.055204127 0.0011220116 0.015822623

cnn_base.3.bias f4 [32]
000000 d1 26 2d 3b 27 0e 3d bd ff a8 95 bd 68 ae 91 3c
       0.0026420841 -0.046156075 -0.07307624 0.017783359
000010 6a d6 be bb be 2e 13 bd ae 69 38 3d ad 9c 0f bd
       -0.0058239 -0.03593325 0.04502266 -0.035061527
000020 fd 26 aa 3d c3 c3 06 bd 14 77 13 bd 38 39 ce bc
       0.08308218 -0.032901537 -0.036002234 -0.025173768
000030 05 67 76 bd b4 4f a8 3d 54 52 a8 3d 0e 72 59 3c
       -0.06015684 0.08218327 0.08218828 0.013271822
000040 7d c8 64 bd c1 c7 85 3d 46 a3 3a bd 7a a7 ac 3c
       -0.055855263 0.06532241 -0.045565866 0.021075953
000050 fc 9b 57 bc b1 d3 4a bd 49 60 38 3d 2e 1c 90 bd
       -0.013159748 -0.04951829 0.0450137 -0.07036625
000060 b3 3f 71 bd 72 94 84 3d ba 07 91 bd 58 24 8b bd
       -0.05889864 0.06473626 -0.07081552 -0.067940414
000070 92 d9 04 bb f1 d7 48 bd 3e 9d a4 3d 04 cf 0a 39
       -0.0020271284 -0.049034063 0.08037804 0.00013237825

mlp_base.0.weight f4 [32, 2]
000000 eb 12 e7 bd 40 b6 3b be 62 3e df 3e 8e 9a c3 3e
       -0.11282905 -0.18331242 0.43602282 0.38203853
000010 bc c4 e4 3d 65 1f 2a 3f ce f6 e6 be 60 72 c7 3d
       0.111703366 0.66454154 -0.45110172 0.09738612
000020 8b c8 99 be 05 5d 52 3e 69 f0 06 bf ca a8 f7 3e
       -0.30035815 0.20543297 -0.52710587 0.48370963
000030 87 c2 2e 3f 2c 68 9d be a0 39 06 bf 2a 2d 0f 3f
       0.68265575 -0.3074354 -0.5243168 0.5592829
000040 22 ea a3 be 34 1c f9 bd 3c 2e f6 3d a1 76 6d be
       -0.32014567 -0.121635824 0.12020537 -0.23189785
000050 52 d2 1a bf d3 b4 03 3e 2d b4 c6 3d 7a 8b bd 3e
       -0.60477173 0.12861948 0.097023346 0.37020475
000060 80 24 33 3e 5f 65 b9 be e7 7e fa be 96 3b ec be
       0.17494392 -0.36210153 -0.48924944 -0.4613921
000070 ed ae d4 3e 80 ea 35 bf 30 89 f1 be b2 0b 0b 3f
       0.41539708 -0.71060944 -0.47174978 0.5431472
000080 a2 2f 11 3f f0 51 ae 3e ff 00 13 3e ec 81 2b 3f
       0.56713307 0.34046888 0.14355849 0.6699512
000090 d7 10 c3 bd 98 60 b4 3d f3 cf e9 3e e7 5d b0 3e
       -0.09524696 0.08807486 0.45666465 0.34446642
0000a0 49 b8 ca be d6 8b 90 be 4f 72 0a bf 8b d2 33 be
       -0.39593723 -0.28231686 -0.5408067 -0.17560785
0000b0 2b cb fd be 69 51 07 bf 87 79 f4 3e 2d fc d7 3e
       -0.49569067 -0.528586 0.47748968 0.42184582
0000c0 f0 0c b4 3c 3d 92 32 3f 26 12 f4 bd 2f 85 b4 bd
       0.021978825 0.6975439 -0.11917524 -0.08814465
0000d0 ec 38 e8 be 7a 09 bb 3e a7 6e 17 bf 71 23 97 be
       -0.45355928 0.36530668 -0.5915322 -0.29519227
0000e0 15 c9 07 3f 95 a9 e6 be 1c ec b1 3d 7a 78 11 bf
       0.530412 -0.45051256 0.086876124 -0.5682446
0000f0 06 cd c1 bd e4 83 22 3f 67 ab 8b be c0 a3 0a 3e
       -0.09462933 0.634825 -0.27279207 0.13539028

mlp_base.0.bias f4 [32]
000000 7f 3b 1f bf c8 6a 26 3c b8 75 0c 3f 2b 9a 69 3e
       -0.6220016 0.010157295 0.54867125 0.22812717
000010 c4 a9 12 3f a7 e5 c9 3e 1e 3f 8e 3e 07 17 c4 3e
       0.5729029 0.39433023 0.2778253 0.38298818
000020 e6 4f 00 bd 7a 77 87 be a8 42 1d 3e 9b 84 9a be
       -0.031326197 -0.2645834 0.15357459 -0.30179295
000030 fd 4b f2 bd f3 57 ef be 09 da e7 be 84 dd d3 be
       -0.118309 -0.46746787 -0.45283535 -0.4137994
000040 a4 75 0e bf 58 65 4f 3d 6e 5b 24 bf 70 c7 4c be
       -0.55648255 0.05063376 -0.6420201 -0.19997954
000050 a5 19 14 be 57 ba ab bd 2e a2 a5 3e 71 89 91 be
       -0.14462908 -0.08385151 0.32350296 -0.28425172
000060 05 f3 34 3e 15 22 0b bf 59 5d 8d 3d 69 42 aa be
       0.1767083 -0.5434888 0.0690257 -0.33253792
000070 8e cc 60 3e 5a be 21 3f 87 2c 8d be 3f 78 89 3d
       0.21953031 0.6318108 -0.27573034 0.06712388

mlp_base.2.weight f4 [32, 32]
000000 46 df 46 3d 39 ec 91 bd d6 92 44 3d a2 8f 37 3e
       0.048552774 -0.07125134 0.047991596 0.17925885
000010 a7 14 0c 3d 38 19 2e 3e 4a 7d 32 be 01 5e 71 3c
       0.034199383 0.17001808 -0.17430606 0.014731885
000020 53 3f 9b 3c 23 14 b8 bd 65 e6 0a be a5 25 71 bb
       0.018951094 -0.08988216 -0.13564451 -0.003679612
000030 b3 83 ce 3d 43 4b cd 3c a4 22 1d 3d f8 4b ae 3c
       0.100837134 0.025060302 0.038363114 0.02127646
000040 01 ef df bd 3b 80 01 bd 44 4f 61 3b fd 00 ef 3d
       -0.10934258 -0.03161643 0.0034379521 0.116701104
000050 7b c3 ce bc 7f 1c 93 bd 1d cb 34 bd 37 57 25 bd
       -0.025239697 -0.071831696 -0.044139016 -0.040366378
000060 2e c5 1d bd df 21 1c be 9d 92 ab bd b3 a4 1f be
       -0.038518123 -0.15247296 -0.08377574 -0.15590172
000070 be 8e ba 3d 72 71 26 be 5c c6 06 bd 6a fb 00 3c
       0.09109257 -0.16254213 -0.032904014 0.007872442
000080 c3 5d 24 3e 60 56 ec bc 8d e4 bf bc f2 fe 4b 3c
       0.16051392 -0.02884978 -0.023424411 0.01245092
000090 1e 6d 00 be 9b 7c 30 be 13 b0 63 3d 89 f3 25 be
       -0.12541625 -0.17235033 0.05558784 -0.16206183
0000a0 0b bc eb bd 9d fa 60 3c 53 37 19 be d6 4b 29 3c
       -0.11510476 0.013731626 -0.14962511 0.010333022
0000b0 42 33 1d be 7b 2f 7e 3c 2c d2 16 3e dc fe a6 3d
       -0.15351585 0.01551425 0.14728612 0.08154079
0000c0 db 39 cf bd 3a f3 b9 3d 53 3e 38 3d 80 b2 a6 3d
       -0.10118457 0.09079595 0.044981312 0.08139515
0000d0 72 d4 04 3e 01 ef 18 3e 48 a4 53 bc a9 93 96 3d
       0.12971666 0.14934923 -0.012917586 0.07352383
0000e0 11 15 09 be 92 d3 9f 3d e6 85 b6 3d 7d ed 29 3e
       -0.13386942 0.07804026 0.08912258 0.16594501
0000f0 3b 02 b1 bd 19 15 ca 3d c6 fb 0c 3e 7f 6a fc bd
       -0.086430036 0.09867305 0.13767919 -0.12325
000100 88 61 73 3b e6 8b 2a 3d 0b 69 33 3d a4 56 6d 3d
       0.003713699 0.041637324 0.04380135 0.057943955
000110 59 95 2e be de 4d 9f 3c ed dd 6b bd 90 03 95 3d
       -0.17049159 0.01944631 -0.05758469 0.0727607
000120 9a 26 86 3d a4 c8 11 be 33 54 01 3e 22 b7 85 3b
       0.065503314 -0.14236695 0.12629776 0.004080669
000130 54 71 2b 3e 3a 9f 1d be d3 e9 34 bd c5 da ef 3d
       0.1674245 -0.15392771 -0.044168305 0.11711649
000140 bd ee 15 3e 36 84 13 bd b0 20 ef 3d 1a db 9b bd
       0.14641853 -0.036014758 0.116761565 -0.0761015
000150 b8 ff e9 3d c2 e2 4d bd 0c c1 17 bd ba a8 d9 3d
       0.114257276 -0.05026508 -0.03704934 0.10627885
000160 a6 5c 8a 3b 10 a2 b6 3d 75 e3 94 3d 96 d6 19 3e
       0.0042224703 0.0891763 0.072699465 0.15023264
000170 65 70 2e 3e f3 45 1f 3e 65 cf 9b bd a1 a4 28 3e
       0.17035063 0.15554027 -0.07607917 0.16469051
000180 a4 04 42 3d 35 47 ee bd f0 99 a8 3d 68 3c 21 3d
       0.047367707 -0.116346754 0.08232486 0.03936425
000190 0f 1d 15 3d df d4 13 be ca 4e 82 3d ee b9 ed bc
       0.036404666 -0.14436673 0.06362684 -0.029019322
0001a0 bc 34 50 3c 32 f8 a3 3d 5f c8 e7 3d d4 39 bb 3d
       0.012707885 0.08006324 0.11317515 0.09141889
0001b0 da 07 cc 3d 29 0c f6 3d 77 b3 fc 3c 33 5d fb 3d
       0.09962435 0.12014038 0.030847294 0.12273636
0001c0 ce 5b 90 3d 25 a5 ba bc d5 29 98 bd 44 eb 95 bc
       0.0704876 -0.022783825 -0.07429854 -0.01830066
0001d0 39 c0 00 be 92 cd 66 3d 61 b1 14 be f4 04 23 3e
       -0.12573327 0.05634839 -0.1452079 0.15919858
0001e0 40 d0 14 bd 68 ff 23 3e 61 a2 d5 3d 2d f2 08 be
       -0.036331415 0.16015399 0.10431362 -0.13373633
0001f0 18 49 f2 bd bb e0 d9 3d 83 46 c1 bd a3 8a 80 3d
       -0.11830348 0.10638567 -0.09437277 0.06276443
000200 ee a7 1c 3d 7c 9b 63 bd 31 6a 27 be 8f c4 83 3d
       0.038246088 -0.055568203 -0.16349103 0.06433975
000210 54 fc 22 3e df 7f c2 3c ca 04 a8 bd 9e 17 f2 3b
       0.15916568 0.023742614 -0.082040384 0.0073880693
000220 dd 23 b7 bd bc 5b 12 be 39 16 f2 bc 65 ab c9 bd
       -0.08942387 -0.14292806 -0.029551612 -0.09847144
000230 fc 36 ea bb c7 80 3b 3a 10 39 25 3e 2f 88 4e 3d
       -0.007147668 0.0007152673 0.16135049 0.050422844
000240 7f 32 c4 3d 0d 89 51 3d 0f a8 0b be dd c6 21 bc
       0.09579944 0.051156092 -0.13638328 -0.009874073
000250 73 25 26 3e 69 5e 51 3d 0c f6 17 3d cf 69 8a 3d
       0.16225223 0.051115427 0.037099883 0.06758463
000260 eb 40 2d 3e fa 69 29 be 65 a2 ee 3d e0 c9 ff 3d
       0.16919295 -0.16544333 0.11652068 0.124896765
000270 73 79 1f be f3 5c c4 3d 59 de 17 3e 4e ed 1f 3e
       -0.15573673 0.09588041 0.14830913 0.15617868
000280 05 1c 24 3c a5 a0 d0 3c ef d8 b6 bd 99 13 9b bc
       0.010016446 0.025467226 -0.089280955 -0.018930243
000290 eb d0 00 3e b9 23 ab 3d 50 62 8e bd 58 3c fa 3d
       0.12579696 0.08356423 -0.06952345 0.12218541
0002a0 96 0e da 3c e1 be 00 3e 39 a5 20 be 12 4c 9d 3d
       0.026618283 0.12572815 -0.15688027 0.07680525
0002b0 c7 e0 ec bd 15 48 5d 3d 1c 3f 8b bd 3a 21 c2 bd
       -0.115663104 0.05402382 -0.067991465 -0.09478994
0002c0 c2 17 1e be d4 51 79 39 3b 0e 31 3d d5 82 ee 3d
       -0.1543875 0.00023776974 0.04322646 0.11646048
0002d0 fd 82 3f 3d 9f f3 04 be 5c fa 78 bd 61 86 ae 3c
       0.04675578 -0.12983559 -0.060785636 0.021304311
0002e0 bd e1 87 bd 3d 5f 4d 3d e4 31 8b 3d 22 e2 96 bd
       -0.06634853 0.050139654 0.06796625 -0.0736735
0002f0 ea 0b 13 be 7b e3 2e 3e 7f 63 b2 bd 57 9c 99 3d
       -0.14360014 0.17078964 -0.087103836 0.075005226
000300 2f 40 06 be 03 ec a1 3d b5 8f 13 be a5 4d d4 3d
       -0.13110422 0.07906344 -0.14410289 0.10366372
000310 71 25 67 3d 1f c3 b6 bc a7 2d 16 bd ba c7 31 be
       0.05643219 -0.022309838 -0.03666463 -0.17361346
000320 81 d9 af 3c 1b 5a f1 bd 6b 34 e2 3d d8 38 1a 3e
       0.021466019 -0.117847644 0.11045154 0.15060747
000330 c9 3b 01 3e 98 12 e2 3c 1b 4d e3 bd dd 68 8d bd
       0.12620462 0.027596757 -0.11098691 -0.06904767
000340 ef 4b 2f be b6 c0 24 bc 92 e4 2e 3e f0 0c 1e 3d
       -0.1711881 -0.0100557115 0.1707938 0.038586557
000350 60 6a 8a bb 0b eb 14 be 4b eb 85 3d c3 74 d4 3d
       -0.0042241067 -0.14542787 0.06539019 0.10373833
000360 ad a7 3d 3d 82 48 04 3e 25 b2 94 3c 16 85 fe bd
       0.046302486 0.12918285 0.018151352 -0.12427728
000370 e2 b8 2f 3d ce d6 87 3d 8f ef 2d be a3 c3 e5 bd
       0.042900927 0.066327676 -0.16985916 -0.11218955
000380 02 25 62 bc d9 62 57 3d a2 6f a7 3d 3a a9 e2 bd
       -0.013802769 0.052584503 0.08175589 -0.11067434
000390 94 e4 e9 bc f0 b1 7e bd ed ed af bc 47 f1 25 3e
       -0.028551377 -0.062181413 -0.021475757 0.16205321
0003a0 15 dd 38 be 40 8d ad bd e4 68 89 bc ee b6 c7 bd
       -0.18053086 -0.08474207 -0.016773649 -0.09751688
0003b0 95 df 2a be 9c 0a 0d bb e0 e0 98 3d 0f 6f f5 3d
       -0.16686852 -0.0021521216 0.074647665 0.11984073
0003c0 ca 34 01 3d fe d7 8e bd 69 5b 7e bd 54 b8 c9 3d
       0.031544484 -0.06974791 -0.062098894 0.09849611
0003d0 06 d7 09 bd 97 ff b2 3d 3e e4 c1 bc 57 f9 c6 3d
       -0.033652328 0.08740156 -0.023668405 0.097155266
0003e0 01 7f 2d 3e e8 82 29 be ff b5 aa 3d ea 53 34 be
       0.1694298 -0.16553843 0.08335494 -0.17610136
0003f0 91 96 dd bb e4 ef 19 3d 58 2d a1 bd d0 eb c5 bd
       -0.0067623337 0.037582293 -0.07869977 -0.09664118

mlp_base.2.bias f4 [32]
000000 05 da 90 3d d4 f7 ac ba 9a 35 0c 3e 08 e7 f2 3d
       0.07072834 -0.0013196417 0.13692322 0.11860472
000010 ca 1d f0 3c 1b 52 03 3e c3 c5 eb bc 0d 51 28 3e
       0.02931108 0.1282429 -0.028780824 0.16437168
000020 22 19 20 3e 67 c1 29 3e 4f d2 b2 3b 17 d1 0a 3d
       0.15634587 0.16577683 0.0054571996 0.03389081
000030 f4 75 c2 bd 9e ef e4 3c 94 50 df bd 0a 66 5d bc
       -0.09495154 0.02794629 -0.10904041 -0.013513098
000040 6c e8 73 3d 02 9f 0e bd f9 b3 49 bd 57 80 19 3d
       0.059547827 -0.03481961 -0.0492439 0.03747591
000050 4f 37 aa bc c9 36 a7 bd 52 2c 41 bd 7e b0 2a 3e
       -0.020778326 -0.08164746 -0.047161408 0.16668889
000060 8f 1b 1e 3e 6c c4 8c 3d d1 11 2c 3d 65 c5 31 3e
       0.154402 0.06873402 0.04200918 0.17360456
000070 6e ee 22 3e 58 9e 0e 3e d3 b8 22 3e 45 fe c8 bd
       0.15911266 0.13927591 0.15890817 -0.09814123

actor_head.0.weight f4 [64, 1600]
000000 48 dd 0b bb 8d d6 0b 3a 4c 18 c8 3c 52 ba fe bb
       -0.002134161 0.00053344 0.024425648 -0.007773676
000010 27 5c ba 3c 15 f7 69 bc 17 bb 43 3c 6f e7 3b bc
       0.02274902 -0.0142801 0.011946461 -0.011468752
000020 1d 45 06 bc 01 43 f7 ba b3 32 27 bc 54 83 1d 3b
       -0.008195189 -0.0018864573 -0.010204959 0.0024034576
000030 fb 39 bd bb fa a6 14 3c de 60 46 3b 5f ab 7d 3b
       -0.005774734 0.009073013 0.003027014 0.0038706881
000040 51 e4 90 bc a2 8e 77 bc 8e 50 c2 3c c1 7f a0 bc
       -0.017686995 -0.01510969 0.023720052 -0.019592168
000050 c8 08 44 3c 90 55 f2 3a a7 07 b7 ba fb ba 3c 3c
       0.011964984 0.0018488634 -0.0013964073 0.011519189
000060 44 2e c3 3c 1c 57 98 3c b8 1c 1a bc 9c 8c 69 3c
       0.023825772 0.018596224 -0.009406261 0.014254715
000070 f6 b4 b9 bc dd 1d 0d 3a 57 78 1b 3c f9 51 75 3b
       -0.022669297 0.0005383173 0.0094891405 0.0037432893
000080 6f 8e b1 ba e7 89 87 3c b5 6b d0 bb eb fe 50 3c
       -0.0013546477 0.01654525 -0.006360496 0.01275609
000090 9d f8 28 bb 5e 5c 99 bc b3 5f 9a bc 09 22 b2 3c
       -0.002578295 -0.018720802 -0.018844461 0.021744745
0000a0 69 d3 96 bc d2 f1 51 3b 57 28 82 3c a7 72 4f 3a
       -0.018411355 0.0032035005 0.015888376 0.0007913508
0000b0 6d 5f 8a bc 4f de ad bc 67 bd df 3b 77 0a c2 3c
       -0.016891206 -0.021224169 0.0068279984 0.02368663
0000c0 a8 5b be bc 4d a1 d4 3c f6 b3 77 3b 06 0b 52 3b
       -0.023237064 0.02595582 0.0037796474 0.0032050028
0000d0 88 eb 97 3c 09 24 65 3c 75 d5 25 bc 44 8a 7b bb
       0.018544927 0.013985642 -0.010121693 -0.0038381973
0000e0 a9 c2 a8 bb bc 5c 3a bc 57 17 89 bc 60 77 53 bc
       -0.0051501584 -0.011374649 -0.016734762 -0.012906879
0000f0 84 70 f2 bb 8e d5 d1 3b 4a b2 29 3b 8f bc ad 3c
       -0.007398667 0.0064036315 0.0025893622 0.021208076
000100 6c 75 ab bb af 2d 18 3b 49 25 53 bc 10 b1 2d bc
       -0.0052325036 0.002322059 -0.012887307 -0.010601297
000110 29 ef b7 3c f0 95 28 3c 06 38 33 3c 86 90 06 3c
       0.022452908 0.010289654 0.01093865 0.008213168
000120 f6 bc 94 bc 97 aa 21 bc d8 91 b6 bc e5 c8 18 3c
       -0.01815651 -0.009867332 -0.02228634 0.009325241
000130 07 70 27 3c 15 d7 90 3c bb 72 be 3c 16 f9 b4 bb
       0.0102195805 0.017680684 0.023248067 -0.0055228574
000140 b8 a1 e0 3b 38 f7 86 3c be 69 05 bc cb 1d dc ba
       0.006855216 0.016475305 -0.008142887 -0.0016793547
000150 23 f9 a2 bb b7 2c b6 bc c2 d5 51 bc c9 62 22 bc
       -0.004973547 -0.022238119 -0.0128073115 -0.0099112475
000160 37 1e 70 3b 7e da 0d 3b e6 43 b6 bb 13 b7 58 bc
       0.0036639103 0.0021645124 -0.0055622933 -0.013227242
000170 c8 bb e3 bb 00 05 09 ba 59 3a a6 3c de 89 90 bc
       -0.0069498755 -0.00052268803 0.020291494 -0.017643865
000180 9f f3 d0 b9 40 ff 4c bc 7d d5 34 bc 4d a8 47 3c
       -0.00039854363 -0.012512028 -0.011037228 0.012186122
000190 00 ff c0 ba c3 69 be bc 8a 0b 59 bc ed 9b 58 3c
       -0.0014724433 -0.02324379 -0.01324738 0.013220769
0001a0 e8 a2 bc 3c 4d 19 fa bb e0 8f bc 3b 55 4f c0 3c
       0.023026899 -0.0076324106 0.005754456 0.023475328
0001b0 87 b6 6e 3c ec 28 c0 3c 80 cf 2b 3c ad 61 be 3b
       0.014569885 0.023457013 0.010486484 0.0058099837
0001c0 f3 73 58 bc bd d0 8c 3c ea 89 73 bc 3c a6 48 3c
       -0.013211238 0.017189378 -0.014864424 0.012246665
0001d0 95 8e ba 3c 43 bc 77 bc fa 46 8b 3b e0 56 cb bc
       0.022773067 -0.015120569 0.0042504044 -0.024821699
0001e0 1a b8 bd 3b 82 7e ca 3c 4a df 81 bb 5b a9 df bb
       0.005789769 0.024718527 -0.0039633857 -0.0068256087
0001f0 29 21 db bb a0 f5 4b 3c 7a 15 aa bc 42 2f 49 bc
       -0.0066873026 0.012448698 -0.020762194 -0.012279334
000200 f5 af 8f bc e1 8a 61 bb 0a 33 7c bc ad 03 24 bc
       -0.017539958 -0.0034415054 -0.015393028 -0.010010642
000210 80 09 d4 bb 90 7d 10 3c 1e 24 38 bc 2e 5c a4 bc
       -0.006470859 0.008818999 -0.01123908 -0.020063486
000220 4e d5 a1 bc c2 7f 28 3c 19 2f 1a bc be eb b6 bc
       -0.019755032 0.010284366 -0.009410643 -0.022329208
000230 5a dd c8 bc 93 f0 d7 3b 99 d0 75 3a 25 00 d5 3c
       -0.024519611 0.006589958 0.0009377092 0.026001045
000240 6d 7b 6e bc 00 9b ca 3c e0 4b 2d 3c bd 10 81 bc
       -0.014555794 0.024732113 0.010577172 -0.015755052
000250 41 2c 1a 3c c3 30 b5 3b 3d 58 78 bb 9a 1d d7 bb
       0.009409965 0.0055294945 -0.003789439 -0.006564808
000260 08 0e d2 3c 90 00 99 bc eb 88 cc 3c 6e 88 9a bc
       0.025641456 -0.018677026 0.024967631 -0.018863883
000270 81 98 6c bc fc 0d 4a 3c 0e 1c af 3c 7e a7 2c 3b
       -0.014440657 0.012332436 0.021375682 0.002634495
000280 a2 72 54 3c a9 e8 66 bc 2b b0 2c bc 4f 93 9d ba
       0.012966784 -0.014093556 -0.010540049 -0.0012022051
000290 fd 9b 34 3c d9 34 6f 3c 58 5b 70 3c 64 1d b8 3c
       0.011023519 0.014600002 0.014670216 0.022474952
0002a0 e6 3e 6b 3c 28 7a c7 3c fa 93 1f 3c 56 a8 ac bc
       0.014358258 0.02435024 0.00973987 -0.021076363
0002b0 90 a6 7c 3c df fe c4 3c 77 d5 9d bb 28 d7 63 39
       0.015420571 0.024047313 -0.0048167068 0.00021728559
0002c0 47 c1 66 bc f3 19 8f 3c ed 3e 03 bc 8b 53 5e 3c
       -0.014084167 0.017468428 -0.008010608 0.013569723
0002d0 f2 84 26 3c 5a 19 27 3b b6 18 8b 3c e5 ab 4b 3c
       0.010163533 0.0025497288 0.016979557 0.01243112
0002e0 56 7e 84 bb 96 bc 2e 3c f9 61 f5 3b 99 63 32 3c
       -0.0040433807 0.01066508 0.007488486 0.010888004
0002f0 00 5a 03 39 71 f7 8a 3c 7b e6 07 bc 26 0b ad 3c
       0.00012526661 0.016963692 -0.008294697 0.02112348
000300 a3 ca 45 3c 7d d0 2d 3c ac b2 9f 3b 9c f9 54 3a
       0.012072238 0.0106087895 0.0048735943 0.0008124353
000310 3d 02 a4 bc 5d 79 26 bc 6d 59 a2 3c 07 96 3b 3c
       -0.020020599 -0.010160771 0.019818032 0.0114493435
000320 98 b3 f8 3b dc fd 76 ba 1f 14 cc 3c d3 d2 dc 3b
       0.0075897686 -0.0009421983 0.024911938 0.0067389994
000330 fd 88 c4 bc 47 2c 90 bc bb ba a7 3c 40 d2 21 3c
       -0.023991102 -0.017599238 0.020474782 0.009876788
000340 e6 64 a3 3c e3 e4 8b bc 53 49 37 3c ed aa 9b 3c
       0.019945573 -0.017076915 0.011186915 0.019002402
000350 f7 b5 af bc 8c 63 cb bb bc 74 8b bb 77 e3 58 3c
       -0.021449072 -0.0062069353 -0.004255859 0.013237826
000360 85 9b aa bc 1d e4 7a 3c 67 fb 51 bc 4f cc 00 3c
       -0.02082611 0.0153131755 -0.012816287 0.007861211
000370 15 30 ac 3c 98 29 cf bb 04 60 2c bc 10 29 77 3c
       0.021019021 -0.006322097 -0.010520939 0.015085474
000380 e8 23 9e bc f3 9e 8c 3c 1a 9d fe ba 9a 87 3f 3a
       -0.01930423 0.017165637 -0.0019425482 0.0007306278
000390 f8 45 fb 3b 2f bd 8f bb 57 2b 45 3c 9a 74 e8 3a
       0.007668253 -0.004386566 0.012034259 0.0017734945
0003a0 30 83 30 3c 97 06 34 bc 83 8f 18 3c fa 54 32 3c
       0.010773465 -0.010987899 0.00931156 0.010884518
0003b0 4a 56 85 3c a3 72 57 3c e7 52 66 bc ed 97 fb 3b
       0.016276497 0.01314989 -0.014057851 0.007678023
0003c0 00 cd 36 ba 67 06 de bb 73 bb 7c 3c ad b1 88 bb
       -0.00069732964 -0.0067756656 0.015425551 -0.004171571
0003d0 4d 2f 08 bb 60 b1 73 bc ef 8e bb 3b b1 a1 6e 3c
       -0.0020780147 -0.014873832 0.005723826 0.014564917
0003e0 d0 88 88 3c 29 98 ad 3c 90 48 93 bc 7b 83 96 bc
       0.0166668 0.02119072 -0.017978936 -0.018373242
0003f0 bd 78 de 3c 5f 8b 89 3c ff e7 4f bc e3 b7 b4 3c
       0.027157182 0.01679009 -0.0126895895 0.02206034

actor_head.0.bias f4 [64]
000000 f7 52 12 3c a5 2c 2e 3c f2 16 8b bc aa 87 c1 3c
       0.008930913 0.010630761 -0.016978715 0.02362426
000010 3d 59 3a 3c 95 67 a5 38 a0 9b af 3b b6 03 e7 3c
       0.011373815 7.887107e-05 0.005359128 0.028200012
000020 33 65 aa 3c 9c 87 06 bc ba 14 b5 3c e1 c1 4a 3c
       0.020800209 -0.008211043 0.02210461 0.012375326
000030 bd 84 b3 3c c5 41 52 3c e7 fe d3 bc 79 8d 1f bc
       0.02191388 0.0128330635 -0.025878383 -0.00973832
000040 48 da 79 3c 3e 0e 36 3c 7f 0a 09 3c 66 3d 87 3c
       0.015249796 0.011111794 0.008364319 0.01650877
000050 8b a8 5b 3c 84 d7 19 bb 52 55 c9 3b c6 26 74 bc
       0.013406883 -0.0023474405 0.006144204 -0.014901822
000060 da 35 d2 3b b6 e3 cd ba 8c 96 14 bc f9 0b 4f bc
       0.006415111 -0.0015708122 -0.009069096 -0.012637132
000070 84 32 1e 3b 77 92 bb 3c 00 89 aa 3c ae d2 cf 3c
       0.0024138996 0.022896988 0.02081728 0.025369015
000080 55 3e 89 bc de 12 bd 3c 51 c7 7d bc 9d e1 2a 3c
       -0.016753355 0.023080286 -0.015489415 0.010429767
000090 22 96 eb 3b 2a b2 b1 3c 92 31 84 3c 55 b4 b8 3c
       0.007189528 0.0216914 0.016136918 0.022546927
0000a0 22 dc be 3c f3 3c ab bc 29 56 3b 3c 7b bd 2d 3c
       0.023298327 -0.020903086 0.011434116 0.010604258
0000b0 a1 7c b9 bb 73 6a 47 bc 44 cf 41 3a e2 cc d8 bb
       -0.005660609 -0.012171376 0.00073932507 -0.006616221
0000c0 49 a1 b1 bc b6 cc 14 3c ff fa 65 bc 07 57 7c bc
       -0.021683352 0.00908201 -0.014036893 -0.015401608
0000d0 25 8c 4b bc a7 48 96 3c 3c 42 87 3c 4b 49 c0 3c
       -0.01242355 0.01834519 0.016511075 0.023472449
0000e0 06 a4 63 bc 17 74 51 bb cf 89 07 bc 77 c8 47 bc
       -0.013894087 -0.0031960064 -0.008272602 -0.012193791
0000f0 d8 1f e3 ba 14 d6 10 3b 8e dc 85 bc fa 78 b6 3b
       -0.0017328216 0.0022100257 -0.01634052 0.0055686207

actor_head.2.weight f4 [2, 64]
000000 eb 06 cc bc 2a 1a 2e bd e7 eb 60 bd 6d 35 37 bd
       -0.024905642 -0.04250542 -0.054912474 -0.044728685
000010 91 ee 56 bd 6f 02 85 3d 77 6b 06 bd fe 08 e7 bd
       -0.05247361 0.06494605 -0.03281733 -0.11281012
000020 69 c9 d1 3c b0 9e da 3d eb 46 31 3d 89 d3 f8 bc
       0.025608735 0.106747985 0.043280523 -0.030374305
000030 70 25 9c bc 81 d5 e0 bd 5f a1 6d 3d c0 49 72 3d
       -0.01906082 -0.10978223 0.058015224 0.059152365
000040 77 c4 73 bd f3 5c b5 3c 41 09 60 bd 2c ae b1 3d
       -0.059513535 0.022139048 -0.054696325 0.08675799
000050 9e 59 e1 bd 1a 0f 94 3c 12 c2 d3 3d f9 f2 7d bd
       -0.11003421 0.018073607 0.1033975 -0.061999295
000060 88 4a d9 3d 1a d9 80 bb 29 29 fb 3c 93 98 5b 3d
       0.10609919 -0.0039321305 0.030659275 0.053612303
000070 64 28 6f 3d 11 53 bc bd a4 06 a4 bb b7 5c 5d 3c
       0.05838813 -0.09195531 -0.0050056744 0.0135108745
000080 c2 46 00 3e 01 b9 cd 3c 22 2c cc 3d 17 4b 85 bb
       0.12526992 0.02511263 0.09969355 -0.0040677893
000090 e2 e3 51 bd e2 cb bf 3d 84 93 d9 3d 6a 59 84 3c
       -0.051242717 0.093650594 0.106238395 0.016155917
0000a0 16 28 4a 3d 95 16 6e 3d c6 bf e6 bd 3c 49 5b 3b
       0.049354635 0.058127005 -0.11267047 0.00334604
0000b0 e9 f3 85 3d 04 9f d6 3c e3 d3 36 bc 1c 3d cf bd
       0.06540663 0.026198871 -0.011158916 -0.101190776
0000c0 f8 47 0c 3d 4e 87 89 3d a5 60 ff bd a5 44 95 3d
       0.034248322 0.067152604 -0.12469605 0.072884835
0000d0 43 5e 92 3d 9b fc 02 3d 58 0e d2 bd e3 98 92 3b
       0.07146885 0.031979185 -0.10256642 0.004473792
0000e0 c2 45 ea bd 90 ce bf 3d d8 4d eb bd c8 73 b1 bc
       -0.114390865 0.093655705 -0.11489457 -0.021661654
0000f0 f1 42 05 bd d0 cf d0 3d bd 14 bf 3d ea 10 72 3c
       -0.032534543 0.10195887 0.093301274 0.01477454
000100 e0 5e d0 3c 38 e6 82 bd 05 ef db 3d 56 50 01 bd
       0.025435865 -0.06391567 0.10738949 -0.031570755
000110 5f c4 eb 3d 22 28 df 3c 0c dd ae 3d 50 f1 a6 3c
       0.11512064 0.027240817 0.08538255 0.020378739
000120 34 60 99 3d e7 df cf bc 0f 2e 67 bd fd 33 3c bb
       0.074890524 -0.02537532 -0.05644041 -0.002871751
000130 da 9d 33 3d 39 f9 f3 3d f5 63 02 bd 23 13 0a 3d
       0.04385171 0.1191277 -0.031833608 0.033709656
000140 e9 8d 9f bd 2c ea c3 bd d5 e3 5a 3d ea f1 e2 bd
       -0.07790739 -0.09566149 0.053439934 -0.11081298
000150 e9 ff cb bc 24 6d 17 3c de 3c 98 3d 1e c6 28 3d
       -0.0249023 0.00924233 0.074334845 0.041204564
000160 26 de e7 bd 03 f9 a8 3d 91 6a 92 3d c5 16 b9 bd
       -0.11321668 0.0825062 0.07149232 -0.09037546
000170 33 af a4 bd 8a 11 2f 3d 71 d3 da 3d 9a 57 00 3e
       -0.08041229 0.042741336 0.106848605 0.12533417
000180 1f 30 ec 3d 42 13 5b 3d f2 37 df bd c9 69 db 3d
       0.11532616 0.053485163 -0.108993426 0.10713536
000190 72 bb b5 3d 60 fa 0c 3d 2b 57 a4 3d a6 ee a6 3b
       0.08873643 0.034418464 0.080244385 0.005094367
0001a0 09 10 bc 3d 0e eb 90 3d 28 ca 72 3c b2 ac af bd
       0.09182746 0.07076083 0.014818706 -0.08577861
0001b0 54 dd d5 bd 27 cc 8e bc fa 1e ca bd 37 88 f5 3c
       -0.104426056 -0.017431332 -0.098691896 0.029972179
0001c0 1e a1 de 3b d4 97 ef ba 07 27 da 3d 0c 09 c3 3c
       0.006794109 -0.0018279501 0.10651975 0.023808025
0001d0 41 03 fb 3d 1d e1 f4 3d 62 fc d9 bc 6e 0b ad bd
       0.1225648 0.119569995 -0.026609603 -0.08449446
0001e0 ea 8d 66 3d 06 20 aa bd 62 02 22 3c c8 45 8c 3d
       0.056287684 -0.08306889 0.009888263 0.06849247
0001f0 47 df 3b bd e4 c4 7c bd da 13 96 bd 92 dd de 3d
       -0.04586723 -0.061711207 -0.07328005 0.10882105

actor_head.2.bias f4 [2]
000000 4e 55 f1 bd b2 ef 78 3d
       -0.11783849 0.060775466

critic_head.0.weight f4 [64, 1600]
000000 f2 74 b0 bc 93 b9 45 bc be 8f 90 bc 68 57 76 3b
       -0.021540139 -0.01206817 -0.017646667 0.003758872
000010 51 a4 4d 3c c0 3e de 3b bb f5 57 3c 21 d5 9d bb
       0.012551383 0.0067823827 0.013181145 -0.0048166667
000020 b3 cb 09 bc ae 65 18 bb d5 93 b0 bc 51 47 ab 3b
       -0.008410382 -0.0023253965 -0.021554867 0.0052270074
000030 cc 9b 9c 3c 8f ce 48 bc 0b 7d 72 3c 1c f7 49 bc
       0.019117258 -0.012256279 0.01480032 -0.012326982
000040 23 6a 94 bc c0 a2 a9 3c bc 91 1a 3b b8 0d a3 bc
       -0.018117016 0.020707488 0.00235854 -0.019904003
000050 18 dc 53 bb f9 77 20 3c 50 48 c6 3c 18 ac 14 bc
       -0.003232723 0.009794229 0.024204403 -0.0090742335
000060 41 53 d0 bb 32 42 cb 3c 78 e3 6c 3c e6 18 7b 3b
       -0.006357581 0.024811838 0.01445853 0.0038314401
000070 0a 52 99 3c 8c 7c a5 3c 85 1d e3 bb 77 e0 8a bc
       0.018715877 0.02020099 -0.0069310092 -0.016952736
000080 00 26 9c 3c 80 2f 47 bc a6 f5 8c 3c 3b c3 2a 3c
       0.019061089 -0.012157321 0.017206978 0.010422523
000090 9d c5 32 bc 07 77 b7 bc 88 c3 0a 3a 55 04 9d bc
       -0.0109113725 -0.022395624 0.00052934187 -0.019167105
0000a0 03 46 9c 3c 38 9d 70 bc 6e 28 a5 bc 07 53 b2 bb
       0.019076353 -0.014685921 -0.02016088 -0.0054420265
0000b0 3f 0e a1 3c b3 48 c2 3c dc 48 bd ba 8e 89 cc 3c
       0.019660113 0.023716306 -0.001444127 0.024967935
0000c0 10 c1 bf bb f2 4f 9b bb b1 63 08 3c 8a 77 3d bc
       -0.0058518723 -0.004739755 0.0083245495 -0.011564145
0000d0 72 8e af bb fd 91 83 3c a7 9b 02 3c 98 45 a7 3c
       -0.005357557 0.016060824 0.007971681 0.020418927
0000e0 a9 fe c1 bc 1d cd b8 3c d9 f6 c5 bb 02 ae 75 bc
       -0.023681002 0.022558743 -0.0060413894 -0.0149951
0000f0 24 3b d9 bb b5 2c 5d bb b0 da 65 3c 84 20 ec 3b
       -0.0066293646 -0.0033748571 0.01402919 0.0072060246
000100 71 f9 33 bc 64 27 ce bc c5 82 fb bb 8b e4 ee bb
       -0.010984764 -0.025165267 -0.007675501 -0.007290428
000110 15 35 9d bc 03 c5 b4 3c f6 a1 dd bb 55 aa 9f 3c
       -0.01919035 0.022066599 -0.006763692 0.0194904
000120 0f 12 3c 3b fa 63 8a 3c 50 2a 0b bc db 80 ca bc
       0.0028697287 0.016893376 -0.008493975 -0.024719646
000130 fa 51 67 3c ad 9b b6 bc 39 ff bc bc d4 fa 7e 3c
       0.014118666 -0.022291029 -0.023070918 0.015562732
000140 a4 7a 89 3c da 96 99 bc 03 4d 0f bb 34 d9 75 3c
       0.016782112 -0.01874869 -0.002186597 0.015005399
000150 f9 55 cc 3c 9c d1 55 bb 3e eb e4 3b 99 e2 c5 bc
       0.024943339 -0.0032626158 0.006986051 -0.024155902
000160 0c 38 80 bc 0d 54 6f bc f6 98 09 3b 91 02 96 3c
       -0.015651725 -0.014607442 0.0020995713 0.01831177
000170 02 10 84 3c 26 13 a4 bb d5 71 1c bc e7 6d d0 3b
       0.016120914 -0.0050071655 -0.009548624 0.0063607576
000180 05 8a b0 3c 66 97 10 bc e7 99 56 bc ca 5a 5a bc
       0.021550188 -0.008825159 -0.013098217 -0.01332731
000190 37 26 68 bc 47 c0 9d bb 60 32 15 3c ea 17 1f bc
       -0.014169267 -0.004814181 0.009106249 -0.009710291
0001a0 4d 31 48 3c 9a 31 19 b9 53 dd 20 3c 8d ef ad 3b
       0.0122187855 -0.00014609695 0.009818393 0.0053080977
0001b0 53 28 81 3b cd 23 16 3b 30 4f 9a 3c ea c1 a0 bc
       0.0039415746 0.0022909523 0.018836588 -0.019623715
0001c0 87 11 b1 bc df b3 a0 bc 13 46 6b 3c bd 47 a2 3c
       -0.021614803 -0.01961702 0.014359969 0.019809598
0001d0 41 4f d7 bc 18 a5 c6 3c ba 71 bc bb 07 91 a5 3c
       -0.026282908 0.024248645 -0.005750862 0.020210756
0001e0 78 75 80 3c 4d bd 7b bc e1 70 9d b5 d0 65 52 bb
       0.015681013 -0.015364957 -1.1730264e-06 -0.0032104142
0001f0 73 a5 96 3b 3a b2 17 3c 57 9f be 3c c7 4d 2d bc
       0.00459736 0.009258801 0.023269339 -0.010577626
000200 5b 68 61 bc b0 9e e8 bc ad 3e d6 bb 1a 13 aa 3c
       -0.01375779 -0.02839598 -0.0065382333 0.020761061
000210 63 c2 a1 3c e7 9e c5 ba 13 3a 74 3c bd 7d e7 bc
       0.019746011 -0.0015077264 0.014906424 -0.028258199
000220 06 95 a9 bc 67 16 9a 3c 75 9a bd bc 0d 73 91 bc
       -0.020700943 0.01880951 -0.02314494 -0.017755056
000230 40 0b c1 bc 25 01 85 3c 63 4f 9b 3c db 9c 89 bc
       -0.023564935 0.016235897 0.018958753 -0.016798427
000240 b0 6d 7b 3c 40 ef bf bb 82 6b 8d 3c 0d be 4e bb
       0.015345976 -0.0058573782 0.017263178 -0.0031546385
000250 51 59 85 3c e5 78 55 bc 24 ca 1e 3c 3c 72 a1 3b
       0.016277941 -0.013029312 0.009691749 0.004926948
000260 6f 46 4d bc 03 9b b4 3c 6f b9 b8 bb 09 dc 1f bc
       -0.012529 0.022046572 -0.00563734 -0.00975705
000270 96 8c 80 3c 98 17 8d bc 83 f9 79 3c 56 eb 87 3c
       0.015692037 -0.017223164 0.015257242 0.01659171
000280 4b df 8b bc 66 ff 42 ba f0 ac 8a 3c 8e 7c 84 ba
       -0.017074248 -0.000743857 0.016928166 -0.0010107921
000290 f1 be 6e bc 92 50 7a bc 58 6a f2 3a bb 1a fb ba
       -0.014571891 -0.0152779985 0.0018494828 -0.0019157747
0002a0 fa 10 3c ba f8 57 d3 bc cb 90 b8 bc 51 e4 63 3b
       -0.00071741606 -0.025798783 -0.02252998 0.0034773538
0002b0 15 21 6c 3b fc 63 3a 3c 41 14 6f bc 43 3e 05 bc
       0.003603046 0.011376377 -0.014592231 -0.00813252
0002c0 6c f0 4a bc 79 61 8e 3a 9c 8f ed 3b 91 e0 02 3a
       -0.012386423 0.0010862789 0.0072497856 0.00049925694
0002d0 02 f2 cb bb 4a 60 6f bb 00 21 66 3c ce c2 b7 3c
       -0.006223918 -0.0036525899 0.014045954 0.022431757
0002e0 52 9c 91 3a 52 08 81 3c eb a4 a3 3b 41 19 c2 3a
       0.0011109209 0.015751038 0.004994025 0.0014808552
0002f0 52 b1 9e bb 5e f2 0a bc 16 08 5b bc 16 e2 cf bc
       -0.0048429156 -0.008480636 -0.013368627 -0.02537636
000300 f3 06 ef 3b 97 99 bf bc 8c 86 0e bc 7d 5d 21 3c
       0.0072945296 -0.023388667 -0.008699071 0.0098489495
000310 da f9 ba bb 4d 56 e8 ba da 8e 88 3b 80 70 65 bc
       -0.005706054 -0.0017725915 0.00416742 -0.014003873
000320 a5 53 ac 3c b7 0b 21 bc 13 3f 71 bc 80 77 c7 ba
       0.021035979 -0.009829453 -0.014724511 -0.0015218109
000330 cd dc d2 38 42 75 8b 3c 3a a8 11 3c 27 24 5f bb
       0.00010054708 0.017023686 0.008890206 -0.0034048648
000340 2d 07 0b 3c 70 24 38 bc 4d fa 21 3b 60 c7 97 bc
       0.008485598 -0.011239156 0.0024715841 -0.018527687
000350 7a 67 cc 3b 13 a9 01 bd 24 1a 82 bc c3 9f 22 3c
       0.0062379213 -0.031655382 -0.015881605 0.0099257855
000360 73 56 2c bc fd 82 07 3c 00 4f 19 3c fc a7 e5 bc
       -0.010518658 0.008270976 0.009357214 -0.028034203
000370 b2 a0 24 3b d1 2b cb ba b4 27 3a 3c 6a 82 11 bc
       0.0025120196 -0.0015500729 0.011362005 -0.008881191
000380 cd 2c 5d 3b e7 9a c4 bc 73 b9 35 bb da c5 47 3c
       0.0033748627 -0.023999644 -0.0027728945 0.012193168
000390 c0 7a bc 3c 1a 5d ed 3a 8a 74 6c bc 17 07 40 bc
       0.02300775 0.0018109411 -0.014432082 -0.01172044
0003a0 3d 87 36 3c bb 6e fd 3c d3 14 63 3c 83 cb 6d bc
       0.011140642 0.03093659 0.013859945 -0.014513853
0003b0 1a 5c 00 3b cb 32 96 bc 93 50 2b 3c 33 4d d9 ba
       0.0019586147 -0.018334767 0.010456222 -0.0016578793
0003c0 6f 80 96 3c 47 ad b9 bb 20 ed e2 3b 93 44 ac 3c
       0.018371789 -0.005666408 0.00692524 0.021028792
0003d0 8d f3 13 bb 08 6e 45 bc d3 17 d8 bb 23 ca bc bc
       -0.0022575587 -0.012050159 -0.006594637 -0.023045605
0003e0 cd f4 7d bc ea 61 14 bc 5a 8a 67 3b ca 28 85 bc
       -0.01550026 -0.009056548 0.0035330267 -0.016254801
0003f0 cf 55 77 3c b3 b7 11 bc bd 17 e5 3b 31 66 13 bd
       0.015096142 -0.008893895 0.006991355 -0.03598613

critic_head.0.bias f4 [64]
000000 68 3b 91 bc 9f 34 85 3c 9b 44 c3 3c 42 44 81 bc
       -0.017728522 0.016260443 0.023836425 -0.015779618
000010 05 90 95 3b da c3 0b bd 8e 49 c5 bb 8c a7 3c 3b
       0.0045642876 -0.034122325 -0.0060207313 0.002878639
000020 ec f4 23 3c ae df ea bc 26 40 99 bc e3 ad 68 bc
       0.010007124 -0.028671112 -0.018707346 -0.014201614
000030 59 30 82 bc 1b 7e ea 3b e1 63 da bb 34 e8 94 bc
       -0.015892195 0.007156146 -0.0066647385 -0.01817713
000040 71 4c d8 bc b6 fc 02 bb b3 0b b9 3c ad 7f 29 38
       -0.026403638 -0.0019987053 0.022588586 4.0411647e-05
000050 25 d0 a1 bb cd d0 85 bc 71 76 12 bc 42 ae d8 bc
       -0.004938143 -0.016334916 -0.008939371 -0.02645028
000060 ee 44 ef bb b9 49 b1 3c e9 1b f4 bb d3 6f 7e 3c
       -0.007301918 0.021641599 -0.007449616 0.015529591
000070 e9 9a a4 3b 0b d5 c7 bc 12 87 94 3b fe 96 38 3c
       0.0050233495 -0.024393579 0.004532703 0.011266468
000080 e1 38 d8 3c c9 8d d7 3b 60 6a 66 bc 05 a8 88 bc
       0.02639431 0.0065781814 -0.014063448 -0.01668168
000090 24 e7 e1 bc 2a c2 a8 bc d4 f2 37 bc 89 c5 67 bc
       -0.027576037 -0.020600397 -0.011227328 -0.014146217
0000a0 71 e9 90 bc cf dc 6b bc 09 12 c1 3b 14 e5 6f bc
       -0.017689439 -0.014395907 0.0058920425 -0.014642019
0000b0 bf e1 16 bc 64 cc 22 bc 57 9d f1 3b 96 4c ea bb
       -0.0092090955 -0.009936426 0.0073734927 -0.007150243
0000c0 b3 a3 15 bc 59 af f7 3a f0 39 a1 bc cc e2 2f 3c
       -0.009133267 0.0018896862 -0.019680947 0.010735225
0000d0 51 ac a3 bc a2 ec 55 3c d5 47 a3 3c 8b ad e5 bb
       -0.019979628 0.013056906 0.019931713 -0.0070092133
0000e0 c6 c6 ff 3c 86 6f d8 bc 0b c8 c2 3a 9f ea 81 bc
       0.031222712 -0.026420366 0.0014860643 -0.015858946
0000f0 22 46 87 3c 48 4c 04 bc 9c e5 d9 bc 63 4f 75 3b
       0.016512934 -0.0080748275 -0.026598744 0.0037431351

critic_head.2.weight f4 [1, 64]
000000 0f d0 03 be f6 7a bb 3c c2 25 bb bd 20 a5 85 bd
       -0.12872337 0.02288578 -0.09138061 -0.06525636
000010 9d cf 0f 3c 55 50 55 bd 42 c2 fc bc 16 50 c5 3d
       0.008777526 -0.052078564 -0.030854348 0.09634416
000020 19 83 ab 3d 11 22 e2 bc cd 18 46 3d 12 a9 ea bd
       0.08374614 -0.027604135 0.048363496 -0.11458029
000030 4e 1c fb bd 15 ff 0a ba 72 3f b2 ba 59 3c e9 3b
       -0.12261258 -0.00053022924 -0.001359923 0.0071177897
000040 20 f9 a3 bd af 37 2e 3c c9 9a 57 bc 4f ac 85 bc
       -0.08006501 0.010633393 -0.013159462 -0.016317515
000050 ef b1 aa 3d 8c 06 d9 3d ba 68 cb bd 96 d0 d8 bd
       0.083347194 0.10596952 -0.099320844 -0.105866596
000060 11 f1 b1 3d dc b6 9b bc 65 49 dc bc de 35 3c 3d
       0.08688558 -0.019008093 -0.026890466 0.04594981
000070 ba 77 9f 3d 5a f2 47 3d 8d 0b b7 bc 11 33 a8 3c
       0.07786508 0.04881511 -0.022344375 0.020532163
000080 a0 5a a8 3d 01 ac 7a 3d a7 c2 73 3d 67 c4 a3 3c
       0.0822041 0.061199192 0.059511807 0.019991113
000090 9b 81 c7 bd ae 4d 80 bc 6a a1 20 bd 0d ac b8 3d
       -0.09741517 -0.01566204 -0.039216436 0.09017191
0000a0 00 a5 83 bd 4f b4 d1 3d ca 92 ef bd c9 b2 8a bd
       -0.064279556 0.10239469 -0.1169792 -0.06772382
0000b0 b2 3d 9e bd d2 a4 b8 bc 42 9c b6 bd e1 ce e7 bc
       -0.07726611 -0.02253953 -0.089165226 -0.02829689
0000c0 f4 77 a7 3d fb 9a 3f 3d d0 82 bf 3d 6e e6 bd bc
       0.08177176 0.04677866 0.093511224 -0.023181166
0000d0 f0 6e eb bd f5 a4 61 bc 0d 7c 8f 3d 01 dc b2 3c
       -0.11495769 -0.013772239 0.07006083 0.021833422
0000e0 b5 84 5e 3b 0d ea 42 3d aa f8 52 3d 9e 0c 52 3d
       0.0033953611 0.04758649 0.051506676 0.051281564
0000f0 c3 90 99 38 de 1d 66 bc 13 08 db 3d 2d 8e 31 bb
       7.3225725e-05 -0.014045207 0.106948994 -0.00270928
