project_files/runs/Sep11_14-09-07_kiveli.ics.forth.gr/ppo_policy_camera_cnn_whole_circle.pth (torch, 851205 bytes, 15 tensors)

cnn_base.0.weight f4 [16, 1, 3, 3]
000000 4b 11 77 3e be 56 fd 3d 8f bb 85 be 12 06 de 3c
       0.2412769 0.123700604 -0.26119658 0.027102504
000010 ba 4a 00 3e d8 50 8b 3e cc b9 c6 3d 35 ef 70 3e
       0.12528506 0.27210116 0.09703407 0.2352875
000020 d0 d2 28 3e 39 7e 70 3d ac 99 8c be 23 89 08 be
       0.16486669 0.058714125 -0.27460992 -0.13333564
000030 79 59 7d 3e 40 f8 df bd 91 f8 97 be 2d 68 69 be
       0.24741162 -0.10936022 -0.2968183 -0.22793646
000040 55 85 fe bd e5 3a 9f be 8e 01 8e ba 0e 39 1e 3e
       -0.12427775 -0.3109962 -0.0010834204 0.15451452
000050 d1 94 8d 3c 76 f0 70 be 39 78 6b 3d 1e ff 09 3e
       0.017282875 -0.23529229 0.0574877 0.13476226
000060 20 d3 8b 3e a9 dc 8b 3e 79 16 d1 3c 96 c9 85 3e
       0.27309513 0.27316788 0.025523411 0.2613036
000070 b1 7b 21 3e ad 74 6d 3e 0e 47 b9 3c 30 9f 82 3d
       0.15769841 0.2318904 0.02261689 0.06378019
000080 b9 14 c7 bd 4f 61 8c 3e 17 50 51 be 9b 58 38 be
       -0.097207494 0.2741799 -0.20440708 -0.1800255
000090 26 17 41 3d 3a 49 8d 3e 29 24 68 be 8e 1a e5 bc
       0.047141217 0.2759493 -0.22670044 -0.027966764
0000a0 70 f2 6f 3e 49 55 58 be 2d 21 f4 bd 2e 14 4b 3e
       0.23432326 -0.21126284 -0.1192039 0.19831917
0000b0 bb 18 77 3e eb 73 98 bd af c2 5e bd 83 c3 56 3e
       0.24130528 -0.074439846 -0.054384883 0.2097302
0000c0 6f 27 cb 3c fb c3 53 be b9 8b 3a be f8 df 7c be
       0.024799077 -0.2068023 -0.18217362 -0.24694812
0000d0 b9 4b e8 3d 87 d7 1f be da 97 26 3d c5 98 43 3e
       0.11342568 -0.15609561 0.04067216 0.19101246
0000e0 eb 77 11 3d d0 c4 25 be 13 f1 48 3e b0 b6 0b bd
       0.035514753 -0.1618836 0.19623213 -0.03410977
0000f0 d6 5f 12 be c8 74 b2 3d 2e 6a da bc 3a 37 2a be
       -0.14294371 0.087136805 -0.026661959 -0.1662263
000100 5d e7 1c bc 1a 5c 13 be b8 03 99 3e 37 23 ff 3d
       -0.009576646 -0.14390603 0.2988565 0.124578886
000110 7c b5 44 3c d0 e2 bd 3c 57 ef 5a be c4 18 98 3e
       0.01200616 0.023179442 -0.21380363 0.29706395
000120 28 20 31 3e 99 a7 19 be f3 6f 9b 3e 56 03 a5 be
       0.17297423 -0.1500534 0.30358848 -0.32229108
000130 d0 88 90 3e 5b 4d 9b bd 8b b3 5a be fc 4b a2 3e
       0.2822938 -0.07583114 -0.21357553 0.31698596
000140 0d 16 2c 3d bb 6e c9 3d 71 9c 3a be e3 8b 85 be
       0.042013217 0.09835573 -0.1822374 -0.26083288
000150 17 ae ff bd e7 aa 95 be de e5 a0 be 28 df b3 3b
       -0.12484377 -0.2923195 -0.31425375 0.005489249
000160 dc 0f a6 be 40 a3 75 3e 93 b4 8a be f5 ad 32 be
       -0.32433975 0.23988056 -0.27090892 -0.17449172
000170 17 d4 66 3d e7 f5 e4 bd 4b 8e 3c 3e 73 87 8f 3e
       0.05635461 -0.11179715 0.18413655 0.28033027
000180 bd 9b 0c be df 64 25 3e e4 54 42 3e 59 7c 98 3e
       -0.13731284 0.1615176 0.18977696 0.2978237
000190 a9 54 52 be 5a bb a6 3e c3 c7 83 3e e5 d8 4c 3e
       -0.20540108 0.32564813 0.25738344 0.20004614
0001a0 30 b3 26 3e d0 77 1a be 89 4a ee 3c b5 93 41 3d
       0.16279292 -0.15084767 0.029088276 0.047260005
0001b0 35 9e 6b be 56 f1 1b be 6c 1a 5c 3e ee 05 50 3c
       -0.2300957 -0.15228781 0.21494454 0.012696726
0001c0 1e df 9b be 88 fc 43 3e 11 aa af 3d c0 b5 a2 3e
       -0.30443662 0.19139302 0.085773595 0.3177929
0001d0 97 1e 3d 3e ff c8 9a be a3 f7 c1 bd 71 d1 24 be
       0.184687 -0.30231473 -0.09471061 -0.1609552
0001e0 d2 48 dd bc d0 a6 ab bd cb 95 63 bc 0e d8 a8 be
       -0.027012262 -0.08381426 -0.013890694 -0.32977337
0001f0 6e fb 44 3e e5 e3 6d 3e f6 39 36 be 8d 8b 92 bb
       0.19236538 0.23231466 -0.17795548 -0.004472202
000200 22 6c 51 be 6e 5b 26 be 77 dd 13 be 9f 14 0e be
       -0.20451406 -0.16245815 -0.14439951 -0.13875054
000210 3b 4d 91 be ca a2 96 be 1f ac ca 3c d9 9b a4 3e
       -0.28379235 -0.29421073 0.024740277 0.32150152
000220 e1 1e 30 3e 6e 12 f7 bd 7a 78 76 bd da d8 20 3e
       0.1719928 -0.12064062 -0.06017349 0.15707722
000230 32 c8 47 3e a8 ec 3b be bf 58 a5 3e b7 5a 26 3e
       0.19509962 -0.18351996 0.3229427 0.16245542

cnn_base.0.bias f4 [16]
000000 68 ca 8a 3d 4d b3 99 bd 4e 82 45 be 18 05 44 3e
       0.06776887 -0.07504902 -0.19287989 0.19142568
000010 a8 5e 6f be 70 2f 82 3e a1 a5 8d be 0e eb 4a 3e
       -0.23375952 0.25426817 -0.27665427 0.19816229
000020 fc 19 f0 bd 55 c9 37 be 91 66 98 3e a3 52 39 bd
       -0.11723706 -0.17947896 0.29765752 -0.045244824
000030 18 e0 42 3c d5 a9 84 be 36 a5 94 3e e4 54 72 be
       0.011894248 -0.25910822 0.29032296 -0.23665196

cnn_base.3.weight f4 [32, 16, 3, 3]
000000 3b c8 1b bc e7 98 07 3d c3 d8 a1 bd 29 4c bb bc
       -0.009508188 0.033104803 -0.07902672 -0.022863464
000010 cc 05 4c 3d a7 29 1f bc 69 55 30 3d 5f 4e d2 bc
       0.049810216 -0.009714521 0.043050203 -0.025672136
000020 57 da 81 bd eb e3 aa bd f9 50 eb 3c 29 fd 1d b9
       -0.06340473 -0.08344253 0.028725134 -0.00015066996
000030 21 d7 2e bd 71 3f 55 bc 38 8b 08 3d 02 2a 51 bd
       -0.04268563 -0.013015614 0.033335894 -0.051065452
000040 aa 28 8c bc 38 c1 72 bd 11 49 9d bd 86 0c f5 bc
       -0.017109234 -0.0592663 -0.07679952 -0.029913198
000050 ca 98 89 3d c4 56 c8 bb f3 40 88 bc d6 04 61 bd
       0.06718595 -0.006113859 -0.016632533 -0.054936253
000060 ed 7d c5 bb 87 31 94 bd 78 6f 7a bc 25 7d 83 bc
       -0.0060269744 -0.07236009 -0.015285365 -0.016050885
000070 a2 d5 88 bd cb 56 74 bd b8 05 17 3d db 3f 1c 3d
       -0.06681372 -0.059653085 0.03687069 0.038146835
000080 73 c8 61 bd 8e 99 a5 3d b8 f2 91 3d 39 4c 80 3d
       -0.055122804 0.08085929 0.07126373 0.06264538
000090 46 fd a2 3d 83 7a 1d bd f8 61 c8 3c 8f 1f 7b bc
       0.07958464 -0.038446914 0.024460778 -0.015327348
0000a0 e7 29 f6 bc 00 df 29 bd 79 d9 ac bc 94 73 09 bd
       -0.030049277 -0.041472435 -0.021099793 -0.03355749
0000b0 a5 fd 37 3d 32 bc 94 3d af 07 8e 3d 52 51 a9 bb
       0.04491963 0.07262458 0.06935059 -0.005167165
0000c0 86 91 0e bd c8 c4 9e 3d 40 48 a1 bd 31 41 96 bd
       -0.03480675 0.07752377 -0.07875109 -0.07336653
0000d0 ae 69 0d bd e4 55 5b 3d 99 d6 e3 3c 00 c4 01 bc
       -0.034524612 0.05354871 0.02781229 -0.007920265
0000e0 6f f4 78 bd 4d 0a 52 bd 37 e9 60 bc 11 8c a6 bd
       -0.060779985 -0.051279355 -0.013727478 -0.08132184
0000f0 62 46 98 bd 08 e0 5f bd 33 30 07 3c 10 c5 52 3d
       -0.074352995 -0.054657012 0.008251238 0.051457465
000100 96 9d 89 3c e8 b9 d9 3c 8c df 84 3d da 4d 59 bd
       0.016798776 0.026577905 0.06487951 -0.05305276
000110 25 62 6b bc e0 3a 82 3c c7 ca 57 bd 09 66 75 3d
       -0.014366661 0.015897214 -0.052683618 0.05991176
000120 5c d1 44 bd 34 7e a3 3d c1 53 df 3c a7 88 76 bd
       -0.048051223 0.07983056 0.027261617 -0.060188916
000130 8b 23 00 bd e4 bd dd 3b 59 97 f9 bc 82 bb de bc
       -0.031283896 0.0067670215 -0.030467676 -0.02718902
000140 25 a4 9e 3d 44 08 5d 3c 20 d4 0c bc 1e a6 96 3d
       0.07746152 0.01349074 -0.008595496 0.07355903
000150 1f 4d c4 bc da 7d f1 3b b1 b0 67 bb 9c 57 85 3d
       -0.023962555 0.007369739 -0.003535312 0.06510851
000160 60 e0 82 3d 7f ca c3 bb ee 6b a0 3d ad 05 7b 3b
       0.063904524 -0.005975067 0.07833086 0.0038302944
000170 50 f6 ff 3b e3 0a a8 bd 3d a2 01 bd 6a 40 36 bd
       0.007811345 -0.082052015 -0.031648863 -0.044495024
000180 f9 49 c3 bc bb 02 2c 3d 2e 2c 76 bc da dc 0a 3d
       -0.023838984 0.04199479 -0.015025182 0.033902027
000190 df 5e a3 3d 11 08 0c bd 3e b2 17 3d 3a 79 0d bb
       0.079770796 -0.03418738 0.03703522 -0.002158715
0001a0 96 37 2c 3d 22 42 ec 3a e3 9c 5c 3c e5 28 53 bd
       0.0420452 0.001802508 0.013465139 -0.051552672
0001b0 43 b1 98 3d ed da 1e 3d 40 e7 04 3c 7e 0c be 3a
       0.07455685 0.038783003 0.008111775 0.0014499573
0001c0 4d 02 a1 bc 15 84 92 3d f6 2f 05 bc cc 0a 0d 3d
       -0.019654417 0.07154099 -0.008129111 0.034434125
0001d0 4d 85 de 3c ed 87 60 3d 67 13 1f bd 64 32 36 bd
       0.027163172 0.05481713 -0.038836863 -0.04448165
0001e0 85 f0 cd 3b fa 2b 92 3a 1d bd 85 bd 1d 41 5b bd
       0.0062847757 0.0011152022 -0.06530211 -0.053528894
0001f0 cb d9 f9 3c e0 9d 0a 3d b8 dd 6e 3d 69 0b 29 bd
       0.03049936 0.033841968 0.058316916 -0.041270647
000200 e7 c9 60 bc a9 06 a5 ba f2 7e 89 3d e5 49 8e bd
       -0.013720012 -0.0012590486 0.06713666 -0.06947688
000210 10 67 84 bd 16 31 8d 3c 6d 45 2b 3d e7 b5 3f 3d
       -0.0646497 0.01723532 0.041814256 0.046804335
000220 de 8a 61 bd 91 23 95 3d f2 cd 6a bd 29 c4 8a 3d
       -0.055064075 0.072821744 -0.05732531 0.06775696
000230 2f b3 92 bd ca 9a 13 3d 33 da 7d b9 6e d2 e5 bc
       -0.07163083 0.03603629 -0.00024209246 -0.028054442
000240 55 9a 99 bd 1b b0 93 3d 4a 51 ee bc 72 c6 a6 bd
       -0.075001396 0.07211324 -0.029091496 -0.08143319
000250 1e 09 ff bc 9f 4b ed ba 09 6c d3 3c d7 37 5c 3d
       -0.031132277 -0.0018104202 0.025808351 0.05376419
000260 a9 54 5c bd a5 1e 80 bd f2 d1 6c 3d 85 d5 f0 bc
       -0.053791676 -0.06255845 0.057817407 -0.029398689
000270 ad e1 11 3d b5 48 6e bd 12 08 f4 3a 7b 77 69 bd
       0.03561561 -0.058174808 0.0018618128 -0.05699871
000280 46 cd 7c bd f6 b8 bf bc d8 82 6d 3d 3d d8 5b bd
       -0.0617192 -0.023403626 0.05798611 -0.053673018
000290 79 0f 5b 3d 9e 8c 7b 3c c6 50 f4 3c 7b 39 80 bd
       0.053481553 0.01535335 0.029823672 -0.062609635
0002a0 d0 be a4 bc 42 63 a0 bd ed b6 14 bc ef dc be bc
       -0.020110518 -0.07831432 -0.009076816 -0.023298709
0002b0 cb 8b 7c bd 80 70 4e 3c e5 6d 9a bd 06 5d ab bd
       -0.061656754 0.012600064 -0.07540492 -0.08367352
0002c0 d0 5e 10 3d b9 2a 97 bd 38 9c 4b 3d 62 e6 9a 3d
       0.03524667 -0.073811956 0.04970953 0.07563473
0002d0 06 69 f1 bc 20 7f 7f bc 9c 91 dd 3c 1e fd a4 bd
       -0.029469024 -0.015594274 0.027046971 -0.08056091
0002e0 95 b3 fb 3b c7 80 2b bd 2b 6e a1 bd 62 d5 7c bd
       0.00768132 -0.04187086 -0.07882341 -0.061726935
0002f0 41 eb 53 bd be 3c 63 3d 4b eb d5 bc df 9d 89 bd
       -0.051738027 0.05547785 -0.026113173 -0.06719565
000300 1b 36 8d bc 6c 4b 58 b8 2c 0f c1 3c 22 6f 76 bb
       -0.017237714 -5.1568655e-05 0.023566805 -0.0037602861
000310 e2 af aa bd e9 8f 45 3d 0a 92 73 bd 64 bf 7f bd
       -0.08334328 0.048232947 -0.059465446 -0.062438384
000320 d5 8b 95 3c 34 75 7d 3d 50 b3 8c 3c 9a 99 93 3d
       0.018255154 0.06187935 0.017175347 0.072070315
000330 a5 95 7d bd 38 c1 9d bb 13 0d 10 3d f8 dc 81 bd
       -0.06191029 -0.0048142932 0.03516872 -0.063409746
000340 13 cb 50 3d 26 5e 8f 3d ac a3 09 3d cc 5f 9d 3d
       0.050974917 0.07000379 0.033603355 0.076842874
000350 7c 71 63 bb b9 fe c9 3c 9a 1b 20 bd de 70 99 bd
       -0.0034705093 0.024657594 -0.039088823 -0.07492231
000360 9b 29 a5 3c f6 96 82 ba 52 58 30 bc d0 f6 10 3c
       0.02016144 -0.0009963203 -0.010763245 0.008847907
000370 ef 61 87 bd 10 90 a1 3d c4 2b 9b bd e2 f1 19 bd
       -0.06610476 0.07888806 -0.07576707 -0.037584193
000380 dd 73 84 3d dd ed 4e 3d 4c 3f 35 bd 27 be a2 bd
       0.06467412 0.050519813 -0.044249818 -0.07946425
000390 f3 15 39 3d 27 53 e3 bc 81 d3 a9 bd 7b 39 fe bc
       0.045186948 -0.027749611 -0.08292294 -0.031033268
0003a0 8a 2f 8c bb 6e 63 45 bd 30 ab 25 3d bd 02 42 bc
       -0.004278128 -0.048190527 0.04044646 -0.011841473
0003b0 86 03 8b 3d fb 51 21 bd fa af 18 bd dc 3e 8a bd
       0.067877814 -0.039384823 -0.0372772 -0.06750271
0003c0 ce e8 8a bd 17 eb 6c bc 8a dd cd bb 56 86 89 bd
       -0.06782685 -0.014460347 -0.006282513 -0.06715076
0003d0 e8 27 8d bd c4 eb 37 3d 41 c2 60 3d 7e 4c de 3c
       -0.06892377 0.044902578 0.054872755 0.027136084
0003e0 e1 24 9c bc 81 2d 2e bc 10 3b 14 bd 18 61 67 bd
       -0.019060554 -0.010630966 -0.03618914 -0.05648908
0003f0 9b 65 20 3c ac 93 c7 3c 8b a1 8e 3d bc 96 87 bd
       0.00978985 0.024362408 0.069644056 -0.06620547

cnn_base.3.bias f4 [32]
000000 e2 70 8d bd c6 d2 59 3c b8 a3 56 bd 1b f8 d6 3c
       -0.06906296 0.013294881 -0.052402228 0.026241353
000010 fa 04 98 bc 90 f7 5a 3d ec fa 6a 3c c1 40 87 3d
       -0.01855706 0.05345875 0.014342051 0.06604148
000020 4d 74 82 bd 52 aa 62 3d 7b 99 66 bd 69 33 76 bd
       -0.06369839 0.05533821 -0.056298714 -0.060107622
000030 f3 36 4b bd dc 88 6f bc 03 70 b9 3c 96 bb 79 3d
       -0.04961295 -0.014620032 0.02263642 0.06096991
000040 4e a5 92 bd 42 aa 81 3c cd c0 3b bd 23 92 9e 3d
       -0.071604356 0.015828256 -0.045838166 0.07742717
000050 f7 08 9a 3c 1b b3 a9 bc 35 5c f5 bc 70 b4 65 bd
       0.018803103 -0.020715287 -0.029951194 -0.05608028
000060 ec 25 9f bd c1 d4 82 3c e5 fa 74 bd 83 c0 01 3d
       -0.07770905 0.01597059 -0.059809584 0.031677734
000070 f7 a2 a6 3d ef 3b 62 bd fd 11 4f bc 9a f5 42 bd
       0.08136552 -0.05523294 -0.012638566 -0.047597505

mlp_base.0.weight f4 [32, 2]
000000 d8 0d 36 3d 98 a1 fd be fc 20 dc 3e 04 c2 33 bf
       0.044446796 -0.4953735 0.42993915 -0.7021792
000010 61 0d ce bd b5 a5 15 3f 8d bb 6f be e8 a3 6f be
       -0.100611456 0.58455974 -0.23411389 -0.23402369
000020 8d 81 c3 be 89 6c 93 be e0 a4 fe 3e 0b 18 f2 be
       -0.38184777 -0.28793743 0.49735165 -0.47283968
000030 6e 7b a3 be 34 b8 9c 3e 71 37 25 3f 10 4d a9 3e
       -0.31930107 0.30609286 0.6453772 0.33066607
000040 a2 83 82 be 17 c5 e7 be 1d a9 d0 3d 05 f1 bc bc
       -0.25491053 -0.45267555 0.10188506 -0.023064146
000050 09 84 15 bf 7b 43 3e 3e f1 1e 93 be 34 de 24 3f
       -0.58404595 0.1858043 -0.28734544 0.64401555
000060 b0 b2 04 bf 3b 0b 92 be 69 c4 b8 3e 77 13 b4 3c
       -0.51835155 -0.28524193 0.3608735 0.021981938
000070 0a 93 24 bf 69 8d 0c 3f c5 c4 29 3f e9 d6 ee bd
       -0.64286864 0.54903275 0.6631587 -0.116620846
000080 df e6 d7 bd e8 93 85 3e 6f 80 cf 3e 55 7d 33 3e
       -0.10542082 0.26089406 0.40527675 0.17528279
000090 28 c1 39 bd 6c 6c 16 bf 70 c6 02 3f 93 9d f0 3d
       -0.045350224 -0.5875919 0.5108404 0.11748805
0000a0 7e eb 15 3d 04 74 e3 3c 5e b1 1b 3f ad 42 21 3f
       0.036601536 0.027765281 0.60817516 0.62992364
0000b0 13 40 5f bd 0d 8d 03 3f ce 30 b1 be 3a bb af 3e
       -0.054504465 0.513871 -0.34607548 0.3432253
0000c0 db 73 bd 3e 16 01 94 3e b6 9c e5 bd ad 8b 17 3e
       0.37002453 0.28907079 -0.11211531 0.14799376
0000d0 d7 15 12 3f ea ad fd 3e 09 4d 86 be af 65 be bc
       0.57064575 0.49546748 -0.26230648 -0.023241846
0000e0 6a 18 16 bf 3e de 19 bf ce 11 15 3f 8c 98 18 3f
       -0.58631 -0.6010474 0.5823029 0.5960777
0000f0 a8 47 f1 be c6 d2 2e bf b5 cf e0 3d 21 7b ed be
       -0.47124982 -0.68290365 0.10977117 -0.46383002

mlp_base.0.bias f4 [32]
000000 e5 a6 1e bf 17 b9 be be 7e 82 1f 3f 3e 3b 16 bf
       -0.6197341 -0.37250587 0.6230849 -0.58684146
000010 5c 1b 48 3e 91 9a 65 3e 07 34 a5 be 7e 76 0f bf
       0.19541687 0.22422244 -0.32266256 -0.5604018
000020 54 c8 45 3e af 00 06 bf 48 2e dd be 57 f3 95 3d
       0.193147 -0.52344793 -0.43199372 0.07321804
000030 b1 8f e1 bd 8b c9 87 3e 05 da 0d bf d4 d7 23 bf
       -0.11013735 0.26520953 -0.55410796 -0.640012
000040 32 41 d4 3d 76 98 73 be 0c f3 a7 be 53 0f 42 3e
       0.103639975 -0.23788628 -0.32802618 0.18951158
000050 d1 90 01 3f 1d e1 89 3d 12 b4 42 3e 8b 87 0f ba
       0.506116 0.0673239 0.19014004 -0.00054752146
000060 33 f6 2b 3d 93 95 cb 3e a9 63 36 3f 04 ec 94 be
       0.04198284 0.39762554 0.7124582 -0.29086316
000070 bd 3c 98 be 35 31 0b 3f 1e 96 b8 3e 84 fc a2 3e
       -0.2973384 0.5437196 0.3605203 0.3183328

mlp_base.2.weight f4 [32, 32]
000000 ae a5 25 be c0 27 e0 3b 68 9b 34 3d 3b 25 f0 3d
       -0.16176483 0.006840676 0.04409352 0.11725851
000010 16 98 4e bb a1 73 92 bd 8b 5e 15 be fc 7b 0b 3d
       -0.0031523756 -0.07150961 -0.14586847 0.034053788
000020 ad 8b d5 bc 0c 71 4f 3b 95 47 20 3e f9 73 c0 bd
       -0.02606758 0.0031653075 0.15652306 -0.0939712
000030 6c f2 ae 3c 0e b7 b4 bd cf 00 26 bd 14 13 8c bd
       0.02135583 -0.088239774 -0.040528115 -0.06839576
000040 d6 6b 02 bb 52 91 29 3e 91 e1 5c 3c 34 10 16 3e
       -0.00199007 0.16559342 0.013481514 0.14654619
000050 ff bc 2c be 3d 90 fe bd 67 8d 0a 3d cc ba 60 3d
       -0.16868971 -0.12429855 0.033826258 0.054865643
000060 a5 22 c7 3d c1 ee cd bd 4a 46 2e 3e e7 5e 4a 3d
       0.09723405 -0.10055304 0.17019 0.049406912
000070 f4 ba 22 be 1a 45 c0 3d a8 59 9a 3d 58 14 bf 3d
       -0.1589163 0.0938818 0.07536632 0.09330052
000080 03 67 14 bd 12 34 93 bd ef 4f 26 bd db fd b8 3d
       -0.036231052 -0.07187666 -0.040603574 0.09032794
000090 73 77 69 bc f1 8c 04 be aa 4c 48 3b 84 07 6b bc
       -0.01424967 -0.1294439 0.0030563273 -0.014345054
0000a0 35 0b 9e bd f3 34 08 bd 75 22 23 be e7 77 04 bd
       -0.07716981 -0.03325362 -0.15931113 -0.03234091
0000b0 b4 f0 06 be bf f9 08 3e 6e 5b e3 3c 9e be ae 3d
       -0.13177758 0.1337652 0.027753558 0.08532451
0000c0 bf 13 26 3e cc e4 db bd 98 63 16 3e 57 b3 ae bd
       0.1621847 -0.10736999 0.1468643 -0.085303
0000d0 62 86 ed 3d bf 84 8b 3d 69 ee 1c 3e 50 89 1a be
       0.11597897 0.06812429 0.15325321 -0.15091443
0000e0 97 9a e9 3c 83 fa 21 be 31 18 db bb 27 10 e7 3d
       0.028516097 -0.15818219 -0.0066862334 0.11282378
0000f0 89 e4 fd 3d 98 17 f6 3c c3 13 1e bd 32 39 dc bd
       0.12397105 0.030040547 -0.038593065 -0.10753097
000100 f4 5d 0c bc 6c ce 9b bd f4 b9 15 be 27 97 2e bd
       -0.008567322 -0.07607731 -0.14621717 -0.04262462
000110 72 0d 11 3e 20 69 a2 bc 80 b5 d5 bd e3 4d 34 3e
       0.14165285 -0.019825518 -0.10435009 0.17607836
000120 3f ac c5 3d 34 70 eb bc 3f 3f c8 bd 9f b8 9e bd
       0.09651994 -0.028740026 -0.09777688 -0.077500574
000130 96 6a 24 be d8 4b d6 bd 46 8e 31 3e 3e 68 a8 bd
       -0.16056284 -0.10463685 0.1733943 -0.082230076
000140 c0 17 15 3e 08 c0 ff bc 0f c1 08 be e6 f9 1c be
       0.14559841 -0.031219497 -0.13354896 -0.15329704
000150 ff 57 64 3d 5a 80 df bd 8b d0 ac bc ea fd 0e 3d
       0.055747982 -0.10913153 -0.021095535 0.03491012
000160 38 9f 1a 3c 30 2e f7 3d f7 98 ab bc 0b cb 64 3d
       0.009437375 0.120693564 -0.020946963 0.0558577
000170 0b 9a 50 bd 3d fc cd bd 01 7f fc 3d bf 00 29 3e
       -0.050928157 -0.10057876 0.123289116 0.16504191
000180 84 d6 59 3c d0 0d 57 bd a7 dd 0c 3d d5 87 2e 3e
       0.013295773 -0.052503407 0.03439107 0.17044003
000190 1d db 62 bb 2f af bf bd 0c c1 cd bc a0 5f dc bc
       -0.0034615465 -0.093595855 -0.025116466 -0.026901066
0001a0 6e a7 02 be bf 3e 06 be 29 87 34 3e a1 40 bb 3d
       -0.12759182 -0.13109873 0.17629685 0.09143186
0001b0 b5 0d 52 bd 8d 2b 30 3e 3f 9b 61 3d bf 8b 9d 3c
       -0.051282603 0.17204113 0.055079695 0.019231675
0001c0 59 0e ac 3b e7 92 24 3e 09 2e a9 bd c3 d9 12 3e
       0.005250734 0.16071664 -0.08260734 0.14340882
0001d0 88 ce 2c 3e 83 c5 32 3e ba 06 32 bd dc 95 11 be
       0.1687566 0.17458157 -0.043463446 -0.14217323
0001e0 71 ef 0b 3e 9f d0 de 3d d3 46 1c be 5c 45 1f 3e
       0.13665558 0.10879635 -0.15261392 0.15553802
0001f0 43 c9 86 bc 3f aa 33 3e 5c 24 db bd b9 4f 2b 3c
       -0.016453391 0.17545412 -0.107002944 0.010456019
000200 40 b4 6e 3c f1 d0 2f 3e 13 7a 18 3d 89 bc b9 3d
       0.014569342 0.17169549 0.037225794 0.09069163
000210 9f 78 15 be 8a 3a 1e 3e 2a 3a 56 bd c3 d6 15 3e
       -0.14596795 0.15452018 -0.052301563 0.14632706
000220 f2 9b c9 3b 25 6b 92 3d 25 1f d5 bd ea 3c 08 be
       0.0061526233 0.071493424 -0.10406331 -0.13304487
000230 e0 fc d6 3d c5 33 9c bc 06 9b bd 3d 2c 8d 3e bd
       0.10497451 -0.019067654 0.09258084 -0.04652135
000240 64 ee c1 3d c9 47 4f 3d 23 41 51 3d 0a c1 6b 3d
       0.094692975 0.05060557 0.05108751 0.057557143
000250 68 2c c5 bc eb 63 fa bc 18 69 45 bd 91 34 e8 bd
       -0.024069026 -0.030565223 -0.04819593 -0.11338151
000260 41 a7 ab 3d 8a 38 63 3d 5b 24 2c be 6b 0a 2f 3b
       0.083815105 0.05547384 -0.16810744 0.002670909
000270 9d 3c 1c be fe fb 62 bb 67 d1 c1 39 46 81 c8 bd
       -0.15257497 -0.0034635062 0.00036967846 -0.09790282
000280 56 af d2 3d 9a f6 97 bd 4b e0 2a be 12 19 bf bd
       0.10287349 -0.074200824 -0.16687123 -0.09330954
000290 a6 42 84 3c a5 ba b0 bd 61 dc 9f 3d 8c 31 23 3d
       0.016145062 -0.086293496 0.07805706 0.039842173
0002a0 80 a0 f8 bd fc 5a 3c 3d 70 af 00 3e 2f 52 a0 bd
       -0.12139988 0.045985207 0.12566924 -0.07828175
0002b0 2d b0 3c 3d 6c 45 c4 3d 89 f3 9c 3d b2 33 fc 3c
       0.04606645 0.09583554 0.07663638 0.030786369
0002c0 85 f0 9b bd 79 d7 a9 bd 5c 58 6b bc b1 21 34 be
       -0.07614235 -0.08293051 -0.014364328 -0.17590977
0002d0 00 18 16 3e 15 29 38 3d 25 36 ef 3c 7a 21 54 3d
       0.14657593 0.044961054 0.029200623 0.05178974
0002e0 e3 10 a8 3d 17 fa c7 3d fd 84 26 3d 01 1c af bd
       0.08206346 0.09764498 0.04065417 -0.08550263
0002f0 93 9c 2e 3e c5 8b 2d 3e fd 4f 1d bc 44 9d 89 3a
       0.17051916 0.16947849 -0.00960159 0.0010499139
000300 be fc 98 bc 84 ed eb 3d 5e bc 11 be 32 54 9a 3d
       -0.018675204 0.11519912 -0.14232013 0.0753559
000310 4c 40 04 be 83 bb 46 3d 6f 94 e8 bd 3a 7a e9 3d
       -0.12915152 0.04851867 -0.113564365 0.11400266
000320 00 d6 05 3e 7f 0a 13 3d ee ea c5 3d 13 ee cf 3d
       0.13069916 0.03589868 0.0966395 0.10152831
000330 db c4 d0 bd d6 57 12 be 60 c3 bf bd d1 0c 82 3d
       -0.10193797 -0.14291319 -0.09363437 0.06350101
000340 04 2b 1f bd 86 3f 28 3e 33 8c 17 be 53 47 06 3e
       -0.038859382 0.16430482 -0.14799576 0.13113146
000350 68 a3 a8 bd 12 da 11 3e ae 2e 1b 3e 6a 4b ed bc
       -0.08234292 0.14243343 0.15154526 -0.028966624
000360 5f 94 cc 3d 3b 1e 88 bd b1 70 c9 3c 23 80 97 39
       0.09989237 -0.06646391 0.024589868 0.00028896434
000370 e3 b3 77 3d 07 80 83 bd cf 13 17 bd d6 14 af 3d
       0.060474288 -0.06420904 -0.036884125 0.08548896
000380 63 dd d8 bd a7 cb 32 3e 28 b6 ef 3d 76 70 82 3d
       -0.10589101 0.174605 0.117046654 0.063691065
000390 62 f8 0b be 85 44 62 bd 8d 2e ed 3b 19 d4 6d 3d
       -0.1366897 -0.055241127 0.0072382153 0.0580636
0003a0 1e 65 9a 3d 59 77 4b bd a6 dd c3 3b f0 0f 32 be
       0.07538818 -0.049674366 0.0059773503 -0.17388892
0003b0 ad 89 8a bc 28 e9 9b 3d f1 2e 1a bd 63 30 96 bb
       -0.016911352 0.076128304 -0.037642423 -0.004583405
0003c0 02 f8 51 bd 53 53 5f bd 1a 74 42 3b 01 94 de bd
       -0.05126191 -0.054522824 0.0029671253 -0.10868073
0003d0 04 67 80 bb f7 7f 26 be 5a bf 96 bd f9 94 80 3d
       -0.0039185304 -0.16259752 -0.07360716 0.06278414
0003e0 31 f1 1a be 06 2f 35 3e 8a 81 63 3d a5 ca fa bd
       -0.1513107 0.1769372 0.05554346 -0.122456826
0003f0 c8 78 be bd f3 d1 0a be 22 2b 90 bd ea 0c ad 3d
       -0.09300381 -0.13556652 -0.07039477 0.08449729

mlp_base.2.bias f4 [32]
000000 a8 cd 0f bd 2b ff 3b 3c 15 7a ee bd 46 a8 15 bd
       -0.03510824 0.011474411 -0.11644379 -0.03653743
000010 fc e9 9a 3d 73 97 89 3d 45 57 27 bd 6a e0 11 bd
       0.0756416 0.0671834 -0.04085471 -0.03561441
000020 b1 ab cf bd 47 df fc bd c4 82 83 b9 6a 57 69 bd
       -0.101401694 -0.12347274 -0.00025083695 -0.05696813
000030 e6 6a e2 bd ce dc a4 bd dc 09 57 bd dd d0 f5 bd
       -0.110555455 -0.08049928 -0.052499637 -0.12002728
000040 60 49 04 3e b1 b3 dc bd f4 5f 05 be 92 84 6f 3d
       0.12918615 -0.10776461 -0.13024884 0.05847604
000050 3f 49 ad bd 25 80 27 bd 1d da 10 be 9c 6b c5 3d
       -0.08461236 -0.040893693 -0.14145704 0.096396655
000060 b3 f6 ad 3d 29 5f d6 bd dd b0 97 bd 75 f9 d8 3d
       0.0849432 -0.10467369 -0.07406781 0.10594455
000070 85 c2 05 be 8f dd e9 3d 72 30 2a 3e b6 68 a9 3d
       -0.13062485 0.11419212 0.16620043 0.08271925

actor_head.0.weight f4 [64, 1600]
000000 e1 85 be 3b 34 0c 8c 3c 25 7a 67 ba a8 05 86 ba
       0.0058142995 0.017095663 -0.00088301516 -0.0010225074
000010 74 11 1c bc 47 3f 8c bc df 00 89 bc 90 b7 7d b9
       -0.0095256455 -0.017120017 -0.016724048 -0.00024196343
000020 b6 20 6d 3c 6f 62 ab 3c 6a 32 d4 bb f5 b4 57 bc
       0.014473131 0.02092096 -0.0064757364 -0.013165702
000030 1b 85 98 bc 43 54 ca bb bd 77 f2 3c 9a 51 87 bb
       -0.018618157 -0.0061745956 0.029598111 -0.0041296007
000040 87 d0 94 3c e8 10 9a bc 49 7a be bc 63 19 39 3c
       0.01816584 -0.01880689 -0.02325167 0.011297557
000050 23 07 e6 3c bc a1 ff 3b 06 85 97 bc cf 28 1b 3c
       0.028079575 0.0078012627 -0.018496048 0.009470179
000060 6d 95 42 bc 57 86 c0 bc 26 c8 be bb fd 6a 91 3b
       -0.011876446 -0.023501558 -0.0058221994 0.004437803
000070 bc a0 4b bc 8e ae 6a 3c 60 b1 bb 3c 72 f4 65 3c
       -0.012428459 0.014323844 0.022911727 0.014035331
000080 6d ce 0a bb f1 f0 90 3c 8e e6 1a bc 3d 7d e0 ba
       -0.0021180168 0.017693015 -0.009454383 -0.0017127168
000090 8a 88 f0 bb ef 76 ca bb 21 9d 51 bc fc ec 87 3c
       -0.0073404955 -0.006178729 -0.01279381 0.016592495
0000a0 6a 7a 72 3c 29 74 7a 3b 98 b8 73 bc c2 37 67 bc
       0.014799694 0.003821621 -0.014875554 -0.014112415
0000b0 b6 92 bc bc 11 e2 71 bc cf 8a b1 3b 03 04 63 3c
       -0.023019176 -0.014763371 0.0054181586 0.013855937
0000c0 11 3f bc 3b 98 4c cf 3a b7 7f 04 bc 2c 99 a8 3a
       0.005744823 0.0015815673 -0.00808709 0.0012863032
0000d0 53 50 f7 ba 99 19 c9 ba e2 d4 1e bc 8e a3 86 3c
       -0.0018868543 -0.0015342712 -0.00969431 0.01643541
0000e0 e4 06 44 3b 10 89 85 3c 8c 9a 2d bc fe bd f4 3b
       0.0029911334 0.016300708 -0.010595929 0.007468938
0000f0 52 07 88 bc 4d 65 2a bb 71 2f 91 3c e6 38 c8 3c
       -0.016605053 -0.0026000321 0.017722817 0.024441194
000100 0e db 2e bc 01 5d 80 3b 27 70 15 bc 6c 44 72 bc
       -0.010672344 0.003917337 -0.0091209775 -0.014786821
000110 90 1b f9 3a cb 3e 82 bc 32 13 8d 3c c2 31 92 3c
       0.0019005407 -0.015899083 0.017221067 0.017845992
000120 b6 e2 6f 3b 20 7c 5e 3c 54 33 9d bc fb 79 75 3c
       0.0036603636 0.013579398 -0.019189514 0.014982696
000130 e0 81 f4 ba 31 2c 2f bc dc da 23 bc 2d 05 a3 bc
       -0.0018654428 -0.010691688 -0.010000911 -0.019899929
000140 fd d3 bc bb e1 49 aa bb fc 80 88 bc 6e ac a0 bc
       -0.0057625757 -0.0051967953 -0.016663067 -0.01961347
000150 10 71 5e bc 1f 3b 26 bc 74 7e 0d 3c 5c 3a 5e 3c
       -0.013576761 -0.0101459315 0.008636106 0.013563719
000160 a0 8d 86 bb a0 80 df 3b 9c 2f c0 3c dd 22 f1 3c
       -0.0041062385 0.006820753 0.023460202 0.02943557
000170 93 0d 1d bc 73 2d bb 3b 28 c4 26 bb 0b 29 8d bc
       -0.009585756 0.005712205 -0.0025446508 -0.017231485
000180 3b e3 7c bc 56 50 9a 3c 2b 73 68 3c 4f 14 a2 3c
       -0.015435035 0.018837135 0.014187614 0.019785075
000190 6a 33 8c 3a 94 3a ce bc 1c 38 8a bc c4 b2 80 bc
       0.0010696475 -0.025174417 -0.016872458 -0.015710242
0001a0 40 12 39 bb 5f 67 47 3b 17 89 27 bc a3 bb d2 3b
       -0.0028239638 0.0030426604 -0.010225556 0.0064310594
0001b0 29 57 86 3b 2e 40 5c bc e0 ff 93 bc f9 01 be 3c
       0.004099746 -0.013443036 -0.018066347 0.0231943
0001c0 6b 1f 90 bb f0 79 ad 3c 31 e6 84 3c 3e 6e 14 bc
       -0.0043982766 0.021176308 0.016223045 -0.009059487
0001d0 25 f1 0c 3c 3c ea 13 3c ea 99 c1 3c ff 02 9e 3c
       0.008602415 0.009028014 0.023632962 0.019288538
0001e0 b5 52 88 bc 46 de c2 3a c5 bb b7 bc 66 29 07 bc
       -0.016641 0.0014867268 -0.022428403 -0.008249616
0001f0 41 e3 29 bb 89 0f 9b 3c ed fb 35 bb 56 e4 89 3c
       -0.0025922807 0.018928306 -0.0027768568 0.016832512
000200 3a 17 a9 3c 27 06 af 3b 6d 9a be 39 b5 13 4e 3c
       0.020640958 0.0053413096 0.0003635468 0.012577941
000210 b9 6b 86 3c ef 62 4a 3c ba e5 f5 3a fa 44 70 36
       0.016408788 0.012352689 0.001876048 3.5802937e-06
000220 a5 f4 20 bb 76 8b 57 bc 74 16 5d 3c 73 89 6e 3c
       -0.0024559882 -0.013155809 0.013494123 0.014559138
000230 c9 4b b5 3c 49 e5 12 3b 7a 78 de bc e4 90 b6 3c
       0.022130864 0.0022414497 -0.027157057 0.022285886
000240 80 8f 94 bb e6 21 27 3c 89 1f e6 3c 98 e7 85 3c
       -0.004533708 0.010200953 0.028091209 0.016345784
000250 3a fb 2d 3c dc e7 44 bb c2 0d 82 bc 06 a7 f5 3b
       0.010618979 -0.0030045426 -0.0158757 0.0074967174
000260 bc 2d f0 bb 34 53 d1 bc ea 4c 81 3c bf f7 2d bc
       -0.0073296707 -0.02555237 0.015783746 -0.010618149
000270 7d da dd bb 3a b5 f7 3b 5b aa 43 3b 26 cc 49 bc
       -0.0067704306 0.0075594457 0.0029856178 -0.012316739
000280 bf bd 17 3c 6b c6 1b 3c ac fd 7a bc 4c 10 9b bb
       0.009261548 0.009507756 -0.015319269 -0.0047321673
000290 36 66 40 3c a0 4f 8c bc a9 1f 7a bc 83 cb 5d ba
       0.011743119 -0.017127812 -0.015266337 -0.00084608066
0002a0 f7 19 6e bc d1 5b bd bb c1 a4 99 3c 22 1c 19 3b
       -0.014532558 -0.0057787676 0.018755319 0.0023362716
0002b0 36 be e7 bb 00 e0 b3 3b 21 dc 57 bc 2a ff 2c 3c
       -0.0070722355 0.0054893494 -0.013175041 0.010558883
0002c0 91 cf b6 3c dd 76 17 3c 0f 4b 27 3b 12 b5 61 3c
       0.022315772 0.009244648 0.0025526916 0.013776081
0002d0 11 58 b0 3b 6e 91 9b 3c d5 a0 6e bc 5b d5 d9 b8
       0.005381592 0.018990245 -0.0145647125 -0.00010387107
0002e0 cb 2b 03 3c 9e 15 8f bc 7e 69 14 bc d4 c2 c7 bc
       0.0080060465 -0.017466363 -0.009058354 -0.024384893
0002f0 36 ef 52 3c 02 4d e9 3b 01 b0 7c 3c b8 41 4f 3c
       0.012874415 0.0071197757 0.015422822 0.012649946
000300 e1 16 20 3c 58 60 59 bc 41 9c c8 bc 98 32 8b bc
       0.00977108 -0.013267599 -0.02448857 -0.016991898
000310 6d 7b 8f bc e5 7d 31 3c 11 96 b2 3b 40 18 a9 bc
       -0.017514909 0.010833238 0.005450018 -0.020641446
000320 83 c9 20 bc b3 49 2c 3c 67 6a 6b 3a 6b cb b2 bc
       -0.009813669 0.010515618 0.0008980394 -0.021825513
000330 3a 89 bb bc 83 51 36 3c 47 d8 1f bc 6d b9 68 3c
       -0.022892583 0.011127832 -0.009756154 0.014204365
000340 77 64 0b 3c 20 6e ae bb 76 4c 77 3b c1 85 9f bc
       0.008507839 -0.0053231865 0.0037734783 -0.019472959
000350 26 d0 70 3c 48 4a 28 3c aa ff 85 bc 8a 94 14 3c
       0.014698064 0.010271616 -0.016357262 0.009068618
000360 30 5d 7b bc 5e 47 2a bc 29 e6 67 bc 85 69 98 3c
       -0.015342042 -0.010392992 -0.014153996 0.018605003
000370 4a b7 87 3c 63 bd 81 bc 5d 8d 71 3c 0d 6a dd 3b
       0.016566891 -0.015837377 0.014743176 0.006757027
000380 29 ea ac bb 91 75 32 3c 46 c0 33 3c 8c 04 fc bb
       -0.0052769375 0.010892288 0.0109711345 -0.0076909717
000390 36 4f 98 3c 60 75 60 bc c0 d7 40 3c 0f 49 0f bc
       0.018592458 -0.013699859 0.011770189 -0.008745446
0003a0 66 7d c7 bc 06 40 d4 bb c2 04 ae bc 00 be d0 bb
       -0.024351787 -0.0064773588 -0.021242503 -0.006370306
0003b0 a0 d2 e4 3b ca 06 65 3c 2e 28 2d 3c bd 65 a8 3c
       0.0069831163 0.013978669 0.010568662 0.020556325
0003c0 2c fe dc bb 4f 16 b4 3c e3 b3 bf 3c 3a f8 80 bb
       -0.006744167 0.021983294 0.023401206 -0.003935841
0003d0 b7 57 34 bc d3 16 97 bb 0c a7 8b bc 66 a8 7c bc
       -0.011007241 -0.004610875 -0.017047428 -0.015421009
0003e0 59 c2 42 3c 26 ec 9b bc f3 23 13 bb e0 e3 40 3b
       0.011887156 -0.019033503 -0.0022451847 0.00294327
0003f0 51 71 cf bb d6 f0 c4 3c ec 7f 86 bc 14 cf 10 3c
       -0.006330647 0.02404062 -0.01641842 0.008838434

actor_head.0.bias f4 [64]
000000 61 52 cd bb 93 39 a6 bc 47 a2 c6 3b 2e 69 22 ba
       -0.006265924 -0.020291125 0.0060618254 -0.00061954826
000010 62 90 30 bc d8 d1 8b 3c c3 f1 d0 bc c4 60 08 bc
       -0.010776611 0.017067835 -0.025505906 -0.008323852
000020 e9 2b cd 3c 95 9e ad 3b fe 54 89 bc f9 87 da 3b
       0.025045352 0.0052984455 -0.01676416 0.0066690412
000030 2c 1a 3f 3a eb ec 6a bb 98 ee 21 bb 94 4f 3e bc
       0.00072899717 -0.003584678 -0.0024708863 -0.011615653
000040 1a 8e c7 3b d5 60 f5 bb 51 6e 84 bc 7e 95 a7 bc
       0.006089938 -0.00748835 -0.016165884 -0.020457026
000050 f4 75 99 3c 82 95 a3 3a b0 6d 11 3c 97 c5 b5 3c
       0.018733002 0.001248047 0.008876249 0.022188945
000060 0c bf 76 3c a9 42 dc 3b 26 b7 6a 3c 72 b9 e2 39
       0.015060198 0.0067218137 0.014325893 0.00043244247
000070 94 33 68 bb 9d 69 69 3c a1 18 6e bc 34 6b 75 bc
       -0.0035431134 0.014246372 -0.014532239 -0.0149791725
000080 d8 4b 89 bb c2 30 b9 bc 9f 36 b0 bc f6 34 95 3c
       -0.0041899495 -0.022606257 -0.02151042 0.01821373
000090 02 6f b6 3c 54 27 9f bc 34 40 b6 bc 05 cb 5c bc
       0.02226973 -0.019427933 -0.022247411 -0.013476138
0000a0 13 08 54 bc b0 f6 ae 3c f8 06 80 3c b6 18 46 bc
       -0.012941378 0.021357864 0.015628323 -0.0120908525
0000b0 26 c5 0e 38 b8 37 c8 3b 2e bd 8a bb e1 ff 8d 3c
       3.4039047e-05 0.006110158 -0.0042339778 0.017333927
0000c0 98 c7 cb 3c 9c 2a b3 bc cd b8 2b bc 37 fc 30 3c
       0.024875447 -0.021870904 -0.010481072 0.01080232
0000d0 1f 8c e7 ba 75 eb 23 bb f4 e8 5b 3b d6 a5 d2 bb
       -0.0017665661 -0.002501217 0.00335556 -0.0064284606
0000e0 7b 7d ad 3b ea a2 a0 3c cf 1d 5d 3c c8 50 ba 3c
       0.0052944995 0.019608933 0.013495876 0.022743598
0000f0 aa 6e 80 bc 73 94 d3 3c 14 a8 9c 3c 70 27 2a bc
       -0.015677769 0.025827622 0.019123115 -0.010385379

actor_head.2.weight f4 [2, 64]
000000 ba bf cc 3d 2c ab a3 3d 53 29 9f 3d 70 d8 f7 bd
       0.099975064 0.07991633 0.07771554 -0.12101829
000010 ec 60 0e bd 51 cb 01 be b7 cc e0 b9 d8 7d 8e bc
       -0.0347604 -0.12675215 -0.00042877134 -0.017393991
000020 90 25 89 bd 98 55 74 bd 82 d7 92 3d 2b f6 6f bd
       -0.066966176 -0.05965194 0.07170011 -0.058584373
000030 da b8 ad bd a9 5b fa 3d b3 f5 83 bd ac 49 f7 bd
       -0.08482523 0.12224514 -0.06443348 -0.12074599
000040 3d a9 a5 3c 74 e1 6b 3d bd 5d 74 3d 62 1d d8 bd
       0.0202223 0.057588056 0.05965971 -0.10552479
000050 cc dd 93 bd 5c 1f d4 3c 58 c8 4e 3d 3b c7 8e bd
       -0.07220039 0.02589386 0.05048403 -0.06971594
000060 2b ac aa 3d 3a 2f 86 3d 6f 27 49 bd cb e8 ba 3d
       0.0833362 0.065519765 -0.049109872 0.09126433
000070 2f 52 cd bd 9e 85 86 bd 17 c6 a5 3d 0e 55 8e bc
       -0.10025441 -0.06568454 0.08094423 -0.017374542
000080 a7 bf 86 3d 36 9c 8c bd 6e 15 ad 3d ea 89 db 3d
       0.065795235 -0.06865732 0.08451353 0.107196644
000090 ed cd 36 bc 28 9c 21 3c 3a 35 dd 3c 85 af 09 3b
       -0.011157495 0.009863891 0.02700292 0.0021009159
0000a0 4a 27 99 3c 8a 1c 9c 3d 9a 75 3f 3d a1 fa 88 bc
       0.018695492 0.07622631 0.046743013 -0.016721072
0000b0 0c 0f b7 bc 38 cd f1 bd bf d0 91 bd 16 b0 af bd
       -0.022346042 -0.118067205 -0.07119893 -0.085785076
0000c0 42 2c a4 bd b7 10 37 3c c5 5d cd 3c b9 02 88 bd
       -0.08016254 0.011173419 0.025069127 -0.06641144
0000d0 da 28 c5 3d af 89 a7 bd 6d 4d 95 3d 4b a0 f4 3d
       0.096269324 -0.08180558 0.072901584 0.11944636
0000e0 fc ee 09 bc 5d a7 6f bc 22 fa 0a bd 7c b4 18 3d
       -0.008418795 -0.014627305 -0.03392995 0.0372815
0000f0 b8 dd a9 3d 0f 5d 29 bd d3 7e 40 bc 07 7d 73 3b
       0.082942426 -0.041348513 -0.011748987 0.003715338
000100 70 0a 8d bd 7d 06 78 3d 5d 01 00 3c e4 71 de bc
       -0.068867564 0.060553063 0.007812825 -0.027153917
000110 85 2c 29 bd 51 4b de bd cf fa 90 3c 43 81 b9 bd
       -0.041302223 -0.10854209 0.01769772 -0.09057858
000120 e5 a3 d6 bd be 35 50 3d 02 80 f5 3d f4 9c 5c 3d
       -0.10480479 0.050832503 0.11987306 0.05386062
000130 f7 66 c3 bd d5 6f 26 bd 5e 92 a0 3d 79 99 a6 3b
       -0.09541123 -0.040633995 0.07840417 0.0050842133
000140 1c c7 57 bd b6 3e 0b 3c d7 33 3f 3d 64 4b 46 3d
       -0.05268012 0.008498838 0.046680298 0.04841174
000150 c5 91 d6 3d 0f 97 ef bd 6c e3 99 3d 79 47 66 3b
       0.10477022 -0.11698734 0.075140804 0.0035137816
000160 e8 02 79 3d 59 53 1a 3d a2 9d ec 3c 49 48 88 bd
       0.060793787 0.037677143 0.028883759 -0.06654412
000170 b0 f1 75 bd 17 8b 9e 3d 11 fb 37 3d 7e 2e 80 3d
       -0.060044944 0.07741373 0.04491717 0.06258868
000180 73 16 18 bb 04 23 a2 ba 2f 85 91 3c d9 4b a0 3b
       -0.002320674 -0.0012370055 0.017763702 0.0048918542
000190 5b 39 82 bd a7 5e 2e bd 95 d8 0c 3c 9a 93 f5 3d
       -0.06358596 -0.042570736 0.008596559 0.119910434
0001a0 3c 51 e2 bd 31 11 e9 3d 1b 2c 26 3a 3c 59 f7 bd
       -0.110506505 0.11380232 0.00063389697 -0.12077567
0001b0 9d 62 b0 bd 2b 04 b4 bd a4 e2 8b 3d 71 14 94 3d
       -0.08612559 -0.087898575 0.06830338 0.072304614
0001c0 39 be 17 3d 79 dc a3 3d a5 0f cd bc 7b c4 c2 bd
       0.037046645 0.08001036 -0.025031874 -0.09510132
0001d0 d6 73 a5 bd 65 9d 02 be 6e 94 e6 bc 9e 80 e2 bd
       -0.080787346 -0.12755354 -0.028146949 -0.11059688
0001e0 8c 1d eb bd 2b a8 e6 3c 04 cc 6c 3c ea 93 4c bd
       -0.11480245 0.02815636 0.014452938 -0.04994575
0001f0 e9 43 42 3c da 06 1e bd 47 6e 90 3d 03 0e af 3c
       0.011857011 -0.038580753 0.07052284 0.021368986

actor_head.2.bias f4 [2]
000000 d9 c8 ee bd c5 2a c4 bd
       -0.116594024 -0.0957847

critic_head.0.weight f4 [64, 1600]
000000 b3 be 9f 3b c2 7f 78 bb 29 67 13 bc ed a3 cb 3b
       0.004875028 -0.0037917946 -0.008996763 0.00621461
000010 55 b8 94 bc 20 fb 2a bc f9 70 51 3c 00 68 96 3a
       -0.018154303 -0.010435849 0.012783282 0.0011475086
000020 ad ff cc bc fa 35 12 bd bc 31 b7 bb 1b e3 05 bd
       -0.02502426 -0.035696007 -0.0055906456 -0.032687288
000030 7d 65 8b bb c6 da a0 bc f1 2b 67 3c cc 85 90 bc
       -0.0042540417 -0.01963557 0.014109598 -0.017641924
000040 7f 45 89 3c 4d cc ec bc e1 64 2a 3c ae 4d 04 3b
       0.016756771 -0.028906012 0.010400028 0.0020187902
000050 53 ab eb b9 06 5f db bc a7 bc 80 bc c7 e0 1d 3c
       -0.0004495034 -0.02677871 -0.015714956 0.009636111
000060 d1 4c df 3b 9a 0e a8 bc 1e d6 05 3b 8a 04 20 3c
       0.006814577 -0.020514775 0.0020421813 0.009766707
000070 90 aa c2 3b 8f 77 ea bc d5 69 15 3b 1e 1d e2 bc
       0.005940743 -0.028621463 0.0022798677 -0.027601775
000080 9d e3 2e 3c 08 cc dc bc d1 49 91 3c 42 55 94 3c
       0.010674384 -0.026952758 0.017735394 0.01810706
000090 46 bf 23 bc b4 1b 7a ba 85 83 8c bc 2f 54 a2 3c
       -0.009994334 -0.0009540871 -0.017152557 0.019815532
0000a0 ee 4e ed 3b e3 71 7d 3c ed 05 bf 3b e0 44 c1 38
       0.007242075 0.015469047 0.005829564 9.215786e-05
0000b0 94 0d 09 bd cb c1 55 3c 33 06 dc bb 7c 81 e7 bc
       -0.033460215 0.013046692 -0.006714606 -0.028259985
0000c0 73 6a 01 3c 9a 86 84 3b 80 01 63 bb ff 8c a2 bc
       0.007898915 0.004044366 -0.0034638345 -0.019842623
0000d0 f8 fe c8 bc 7a af b8 bc ea f4 9b bc 72 9c 9c 3c
       -0.024535641 -0.022544611 -0.019037683 0.019117568
0000e0 34 2c 90 3b 18 8d a4 bc bd 1d b3 bc 53 48 d5 bb
       0.0043998007 -0.02008681 -0.021864766 -0.006508866
0000f0 8a e3 c6 bc 4a 9e 8d 3c b0 ad af bc 6c 18 7b bc
       -0.024278421 0.017287392 -0.021445125 -0.015325647
000100 7c ea 69 3c 77 a8 d5 bb bc e8 c9 3b 15 92 95 3c
       0.014277097 -0.0065203267 0.0061617773 0.018258134
000110 47 00 86 bc 2d e5 b0 3b 78 cc 48 3c 6b 39 7e bc
       -0.016357554 0.0053984136 0.01225578 -0.015516619
000120 59 f0 cb bc 3f 21 c8 bb e3 b7 68 bc 63 0c 76 3c
       -0.02489488 -0.006107479 -0.014203998 0.015017602
000130 97 6d b6 bc c4 21 3f bc 4a d0 8d bb 7b 86 bd bc
       -0.022269053 -0.011665765 -0.0043278085 -0.023135414
000140 ad 87 9c 3c d0 6d 7d 3c 2b f9 8e bc 47 98 c2 bb
       0.019107664 0.015468076 -0.017452797 -0.005938563
000150 af 2b b2 bc 65 60 d9 39 ad c0 ab bb 6c cc d4 bb
       -0.021749346 0.00041461285 -0.0052414746 -0.0064940955
000160 2d 3f e1 3b 2d 25 a8 3b 43 e1 49 bc 3d 6e 95 3c
       0.006873986 0.005131385 -0.012321773 0.018241042
000170 6b c2 93 bc ea 67 83 bc 73 76 bb bc a3 dc 1d bb
       -0.018037042 -0.016040761 -0.02288363 -0.0024087809
000180 83 b0 6c 3c e3 71 81 bc c5 78 d4 bc 32 cb 12 3b
       0.014446381 -0.015801376 -0.025936494 0.0022398946
000190 fa b1 9a 3b 91 8a b1 bc 59 14 79 3a 8e ba 5f 3b
       0.0047209235 -0.021672519 0.0009501628 0.0034138295
0001a0 ee 09 81 3b a9 83 10 3c 15 8e e2 bc 19 fe 5e 3c
       0.0039379513 0.008820453 -0.02765564 0.013610386
0001b0 e9 86 2c bc 9d a1 70 3c a2 ee 42 bc 6d d6 aa bc
       -0.010530212 0.014686969 -0.011897715 -0.0208542
0001c0 2a 55 0d 3c 01 b3 83 3b 71 92 98 3c d0 b5 a3 bc
       0.008626262 0.0040191417 0.018624516 -0.019984156
0001d0 27 11 aa bc b7 dd 01 bd c0 44 5f 3c 62 0f 93 3b
       -0.020760132 -0.031705584 0.013627231 0.0044879178
0001e0 cf 9b 07 3c 3f b3 0e 3c 33 a2 72 bb 35 02 a0 3c
       0.008276894 0.008709728 -0.0037022948 0.019532302
0001f0 99 a6 ee ba 6f de 83 3c b3 28 b2 bc 81 90 0a 3a
       -0.0018207609 0.016097276 -0.021747923 0.0005285815
000200 88 ec 19 3c 0d 6b a0 bc 48 33 e8 bc 6e bf b7 bc
       0.009394772 -0.019582296 -0.028344765 -0.022430148
000210 a0 2b da bc 65 73 5c 3c 1a f2 1f bc ab 87 06 3c
       -0.02663213 0.013455247 -0.009762311 0.008211057
000220 ce 3d 28 bc 00 fd dc 3b 59 c7 fa 3b ae 28 63 bc
       -0.010268642 0.006744027 0.0076531586 -0.013864679
000230 95 eb 8a bc cb d8 f1 bb 53 63 69 3b 9a 93 33 3c
       -0.016958037 -0.00738058 0.003561218 0.010960484
000240 db ba d9 3b ee 38 a2 bc e1 cf 00 3c f8 fd d7 bc
       0.0066445894 -0.019802537 0.007862062 -0.026366219
000250 95 78 33 bc 7f 26 82 bb 46 d1 64 3b 65 7b 0e bc
       -0.010954042 -0.0039718742 0.0034914776 -0.008696412
000260 e8 34 59 3c b6 fa 3b 3b b8 ec 7f ba e5 3d 17 3c
       0.013257243 0.002868337 -0.0009762752 0.009231065
000270 06 9b 8f 3c ef f0 c9 3b 61 d5 c4 bb 9c d0 e9 bc
       0.017529976 0.0061627547 -0.006006882 -0.028541856
000280 40 44 95 bb 68 67 dc bb 6c 90 2a bb 9f 18 88 bb
       -0.004555255 -0.006726194 -0.0026026024 -0.0041533257
000290 81 4c e4 bc e9 d6 88 ba 43 fb aa bb 4e b1 bf ba
       -0.027868511 -0.0010440025 -0.005217941 -0.0014624984
0002a0 39 72 1f 3c f3 6a d4 bc a4 9d 2b bc b0 70 ae 3c
       0.009731823 -0.025929904 -0.010474596 0.021293968
0002b0 77 e5 62 3c 11 31 ab bb 96 8a 5b 3c 8c 6e 7d 3c
       0.013848654 -0.005224355 0.013399741 0.015468251
0002c0 10 0c 76 bc c1 99 3d bc 77 28 7c 3c 0f 9d d5 bc
       -0.015017524 -0.011572302 0.015390507 -0.026075868
0002d0 64 d0 ed bc 0d cc 9c 3c f6 ca 4f 3c 7e d2 de bc
       -0.029030032 0.019140268 0.012682667 -0.02719998
0002e0 2a 7c 5b 3c ec 28 91 bc 72 69 bd bc 0d fd 8d bc
       0.013396302 -0.017719708 -0.02312157 -0.017332578
0002f0 8c e3 c7 bc 7a 57 43 bc cb 41 0f 3c 21 16 bc bb
       -0.024400495 -0.0119227115 0.008743714 -0.0057399427
000300 8c 5c 92 bb f3 d7 de bc e2 cb c4 bc 6a 8b e8 3b
       -0.004466599 -0.027202582 -0.024023 0.0070966976
000310 8b b4 b7 3c 33 30 65 3c ed 1f 88 bc e8 6a 83 3c
       0.022424957 0.013988542 -0.016616786 0.016042188
000320 33 98 01 ba 27 78 9e 3c 80 90 2a 3b e2 74 a0 bc
       -0.0004943639 0.019344402 0.002602607 -0.019586984
000330 0d 28 b0 3b 08 f1 bf 3c 9d 79 85 bc e8 23 bf bc
       0.005375868 0.023430362 -0.016293341 -0.023332551
000340 67 78 ec bb 8f 5a 86 3c 63 d9 63 3c a7 42 50 bb
       -0.0072165015 0.016400604 0.0139068095 -0.003177801
000350 a7 7d 56 bc 67 ee 5f bb ab d1 8b bc 9f ce a4 bc
       -0.013091481 -0.0034169198 -0.01706775 -0.020118056
000360 ed ce 6a bc aa b4 a0 3c dd bb 3f 3c eb e1 8a 3c
       -0.0143315615 0.019617397 0.011702505 0.01695343
000370 4b 64 76 bc 8a 53 12 bc 27 03 6d 3b 63 1a 74 3c
       -0.01503856 -0.00893105 0.003616521 0.014898869
000380 33 eb 0e 3b b3 5b f0 3b 12 cb 07 bc a2 f3 89 bb
       0.002180767 0.00733515 -0.008288162 -0.0042099515
000390 8f 9e 87 3c 3d 5d 69 3c 1a 5a 97 ba 5a 68 41 3c
       0.016555099 0.014243421 -0.0011547238 0.0118046645
0003a0 5f c8 a3 bc bb 97 f8 ba 34 7d b4 bc 13 90 27 3c
       -0.019993005 -0.0018966118 -0.022032358 0.010227221
0003b0 8f 78 a3 bc 90 e1 a2 bc 0d 22 79 bc 57 5c 3e bc
       -0.019954948 -0.019882947 -0.015205872 -0.011618695
0003c0 e7 fb fb 3a ca bd 18 3c 47 f5 25 bc d3 bf 4e bc
       0.0019224853 0.009322593 -0.010129279 -0.012618977
0003d0 8b 6f a6 bc e4 e0 dc 3b fa 5a f2 3a d3 ff 5f 3c
       -0.02031686 0.0067406762 0.0018490248 0.013671833
0003e0 a3 c0 e4 bc 65 d7 2e bb 07 5a bc bb 0f 07 87 bc
       -0.027923888 -0.0026678678 -0.005748037 -0.016482858
0003f0 dc c2 71 3c a9 87 b8 bb 2c 41 9b 3c 24 a0 6e 3c
       0.014755931 -0.0056314063 0.018951975 0.014564548

critic_head.0.bias f4 [64]
000000 fd 13 0b 3c 7c cf 23 bb 4b fb 59 bc 27 dd 17 bb
       0.008488652 -0.0024995496 -0.013304542 -0.0023172589
000010 1a 5d a0 3a 40 ab c2 bc 45 25 e3 bc d7 bf a4 ba
       0.0012234778 -0.023763299 -0.027727732 -0.001256938
000020 a5 16 e1 b9 d4 a5 a9 bc 47 29 b2 bb 7a 5a 19 bc
       -0.00042932216 -0.020708956 -0.0054370495 -0.00935995
000030 b5 e9 b7 bc 3b ff 47 3c 57 c1 95 3c 03 5d 59 bc
       -0.022450307 0.012206848 0.018280668 -0.013266805
000040 d0 75 3e bc 8f 7c a7 bb 04 b0 f4 3c 86 cf ae bb
       -0.011624768 -0.005111284 0.029869087 -0.0053347973
000050 ed 39 be 3c 8a a7 c2 bb 79 5b 7d bb 72 ee c6 bc
       0.02322098 -0.0059403824 -0.0038659258 -0.024283621
000060 58 ba a5 3c de f5 d0 bc 7a c6 79 3c 9b 8d 5a bc
       0.020230457 -0.025507864 0.015245074 -0.013339425
000070 06 42 14 3c d0 01 a5 bc 97 37 aa ba 85 53 5c bc
       0.009048944 -0.020142466 -0.0012986538 -0.013447647
000080 3f c5 8b bc 60 e8 21 3c f2 c4 d9 bb d8 a1 09 bd
       -0.017061828 0.009882063 -0.006645792 -0.03360161
000090 32 4c 73 bc df d5 e3 bc a7 85 d0 3b 71 c9 5f 3c
       -0.014849709 -0.027811943 0.006363589 0.013658867
0000a0 d6 04 bd bc 3d e5 b4 3c 8c 4a 7d b9 06 1d 09 ba
       -0.023073595 0.022081966 -0.00024155731 -0.000523046
0000b0 bd 75 05 bd 3d 0a 11 bc 13 cf 0f ba d9 c9 80 bb
       -0.032582987 -0.008852539 -0.00054858736 -0.003930312
0000c0 10 80 c1 bc ac 8f cf bc 4b 88 9a bc c8 2f 3a 3c
       -0.023620635 -0.025337063 -0.018863818 0.011363931
0000d0 1c c6 b8 bc c4 8f 9f bc a4 8d 2e bc 43 ce 3d 3c
       -0.022555403 -0.019477732 -0.010653887 0.011584821
0000e0 f9 2f 6f bc 0b 24 80 bc f3 de 70 3c 45 c2 11 3b
       -0.01459884 -0.015642187 0.014701593 0.0022241038
0000f0 cb b2 39 3b a6 7b 5a 3c af 77 3e 3b 99 6c 85 bc
       0.0028335329 0.013335144 0.0029063036 -0.016287135

critic_head.2.weight f4 [1, 64]
000000 64 0f b3 bd 59 77 90 bd d4 8b e7 3b 7f 64 2a 3c
       -0.0874317 -0.07054014 0.0070662294 0.010399937
000010 22 e0 bb 3a 76 de 7b bd 7b 17 c2 bd 58 1e c5 3d
       0.0014333765 -0.061491452 -0.09477135 0.09624928
000020 50 23 84 bd 99 ca 66 bb 44 e9 b2 bd c6 8e 82 3d
       -0.06452048 -0.0035215972 -0.08735898 0.06374888
000030 f3 79 b7 3d c1 65 4d bc be 69 d3 bc d5 8c a6 bd
       0.08958807 -0.012536467 -0.025807258 -0.0813233
000040 9a af aa bd 2f 6a 54 bd d8 8f 95 bd 68 d6 b1 bd
       -0.083342746 -0.051859077 -0.07302827 -0.08683473
000050 6f b9 24 bc 29 4e 1c 3d c6 fe 9f bc 49 58 a6 bd
       -0.010053976 0.038160477 -0.019530665 -0.08122308
000060 65 4c 5d bd 5c 31 c2 3d 23 07 a7 3c 0c 8e 96 bd
       -0.054027934 0.09482071 0.020389145 -0.07351312
000070 ae b3 03 bc 92 69 0c bc b3 c6 92 3b d3 65 21 bc
       -0.008038444 -0.008570092 0.004479253 -0.009850937
000080 60 b2 57 3d e2 67 94 3d 30 1e 3a bd ec 7c a1 3d
       0.052660346 0.072463766 -0.045438945 0.07885155
000090 6a d0 b3 bd 4d d6 90 3d 3a 18 85 bd 96 01 68 3d
       -0.08779986 0.07072125 -0.064987615 0.056642137
0000a0 c7 f5 9c bd 38 80 e5 bd a3 9d 98 3b b7 66 0a bd
       -0.07664066 -0.112060964 0.0046574636 -0.033789363
0000b0 71 69 c1 3d 1a 45 c9 bc 9e 76 31 3d 68 b0 34 bc
       0.094439395 -0.024569083 0.043326013 -0.011028387
0000c0 bd 2a ca 3d f1 36 90 3d cd cc 82 3d 3b 65 75 bd
       0.09871433 0.07041729 0.06386719 -0.059910994
0000d0 e3 e4 ec 3d 01 f9 b2 3d d4 49 7a 3d ab 74 c4 3d
       0.11567094 0.087389 0.061105564 0.09592565
0000e0 42 28 19 3d 18 1b 4a 3d 40 03 d8 3c b3 57 66 3b
       0.03739191 0.049342245 0.026368737 0.0035147488
0000f0 0f aa b1 3d 7f ac ca bc 64 13 a4 bd f4 7c 5d 3d
       0.08675014 -0.024740456 -0.08011511 0.054074243
