project_files/runs/Sep08_17-12-23_kiveli.ics.forth.gr/ppo_policy_camera_cnn_whole_circle.pth (torch, 851205 bytes, 15 tensors)

cnn_base.0.weight f4 [16, 1, 3, 3]
0	0x3d381978	0.044946164
1	0x3dd03240	0.101658344
2	0xbc1c5f5a	-0.009544218
3	0xbda95cc3	-0.08269646
4	0xbe5f9ecb	-0.21837918
5	0xbe14f435	-0.14546283
6	0xbd44e6eb	-0.048071783
7	0xbd5fc48d	-0.054630805
8	0x3e5d5f6e	0.21618435
9	0x3ea8994d	0.3292946
10	0xbb0055d0	-0.0019582398
11	0x3e801485	0.25015655
12	0xbe8adb28	-0.27120328
13	0x3e0542e1	0.13013794
14	0xbc420884	-0.011842851
15	0xbe8afe6f	-0.27147242
16	0xbdd7852d	-0.10523448
17	0xbd326831	-0.043556396
18	0x3e0e5cb8	0.13902557
19	0xbe864394	-0.26223433
20	0x3dff668f	0.124707334
21	0x3e851e8d	0.2599987
22	0xbe3a1c29	-0.18174805
23	0xbcd6d727	-0.02622564
24	0x3c6fbb45	0.014632051
25	0x3d54af52	0.05192501
26	0x3d92bf10	0.071653485
27	0x3d81d31a	0.063390926
28	0xbea73127	-0.32654688
29	0xbea95dc7	-0.3307936
30	0x3e6d3eb2	0.23168448
31	0x3d98d980	0.0746336
32	0x3e230ec5	0.15923603
33	0x3ea7bcd4	0.32761252
34	0xbd858d8a	-0.06521137
35	0xbe55b2fc	-0.20869058
36	0x3cb547e4	0.022129007
37	0x3e2e286a	0.17007604
38	0x3e8f59b4	0.27998126
39	0xbe8137ba	-0.25237828
40	0xbe38e4b6	-0.18055996
41	0xbe6b63b4	-0.22987252
42	0x3dca3dc5	0.09875063
43	0x3c9e161b	0.01929765
44	0x3e6ea91c	0.23306698
45	0xbdc86963	-0.09785726
46	0xbe876690	-0.26445436
47	0xbe66f6f2	-0.2255514
48	0x3c33d1fa	0.010975355
49	0xbe1e8a76	-0.15482506
50	0xbe39e30d	-0.18153019
51	0x3e37828a	0.1792089
52	0x3c47171d	0.012151507
53	0x3de88a29	0.11354477
54	0x3ea1c946	0.31598872
55	0x3ca32479	0.019914852
56	0x3e253cbb	0.16136448
57	0x3d264744	0.040595308
58	0xbe2c183c	-0.1680612
59	0x3cd4ce91	0.025977405
60	0xbe85b6b3	-0.2611595
61	0xbe050708	-0.12990963
62	0xbe25a3fe	-0.1617584
63	0xbea48a84	-0.3213693
64	0xbe674bda	-0.22587529
65	0x3e8c7d79	0.27439478
66	0x3e897d69	0.26853493
67	0xbe34ed46	-0.17668638
68	0xbe86c5a2	-0.26322657
69	0xbe462d3f	-0.19353198
70	0x3d96e9d8	0.07368821
71	0x3e9eb7fd	0.30999747
72	0xbe847c60	-0.2587614
73	0xbdf949eb	-0.12172302
74	0x3e2c7b5e	0.16843936
75	0xbea27343	-0.31728563
76	0x3e9cf82a	0.30658084
77	0x3c5018a5	0.012701188
78	0x3e80edd5	0.2518145
79	0x3e069b1d	0.13145109
80	0xbd48e65a	-0.049047805
81	0xbe069d01	-0.1314583
82	0xbe932bba	-0.28744298
83	0x3e3fc5f7	0.18727861
84	0x3e49c9dc	0.1970591
85	0x3e9e792c	0.30951822
86	0xbd335305	-0.043780345
87	0x3e00df36	0.12585148
88	0x3e3a283e	0.18179414
89	0xbe9076dd	-0.28215685
90	0x3cf00b4e	0.029302265
91	0xbc590194	-0.013245005
92	0xbe802f5f	-0.2503614
93	0xbd860d93	-0.06545558
94	0xbe8cb2b9	-0.27480105
95	0xbd3f2938	-0.04667017
96	0x3e680b5b	0.22660582
97	0xbe9f682b	-0.3113416
98	0x3e34b750	0.17648053
99	0xbd0d569e	-0.034506433
100	0xbe3507c8	-0.1767875
101	0x3e97f849	0.29681614
102	0x3e2709cc	0.16312331
103	0xbe3b65bc	-0.18300527
104	0x3d133b2b	0.0359451
105	0xbe5bacec	-0.21452683
106	0x3e58e161	0.21179725
107	0x3e29a5bf	0.16567133
108	0x3ea40d6f	0.320415
109	0x3ea7c928	0.32770658
110	0xbdd59fee	-0.10430895
111	0x3de5f404	0.11228183
112	0x3d7ee8b7	0.062233653
113	0xbcd4ae64	-0.025962062
114	0x3d92eeae	0.07174431
115	0x3e68603b	0.22692959
116	0xbde276ab	-0.1105779
117	0x3e65daae	0.22446701
118	0x3e894240	0.26808357
119	0x3e32717f	0.17426108
120	0xbe91bd3f	-0.28464696
121	0xbe92519c	-0.28577888
122	0xbe95b242	-0.29237562
123	0x3e58f54e	0.21187326
124	0xbe68199e	-0.22666022
125	0x3d572c0d	0.052532244
126	0xbd86e3e0	-0.065864325
127	0xbe52ce25	-0.2058645
128	0x3d9529f0	0.072833896
129	0xbde41837	-0.11137431
130	0xbc92a2db	-0.017899921
131	0x3e469717	0.19393574
132	0x3e70708f	0.23480438
133	0x3e31c725	0.17361124
134	0x3e4cc9fa	0.19998923
135	0xbe058756	-0.13039908
136	0xbdefecab	-0.11715063
137	0x3e62f382	0.22163203
138	0x3e83ddd4	0.2575518
139	0x3e413e69	0.18871464
140	0xbe02dfbe	-0.12780663
141	0x3d94414f	0.07239019
142	0xbe8b37ce	-0.27191013
143	0xbca9e121	-0.020737233

cnn_base.0.bias f4 [16]
0	0xbe7c5b37	-0.2464417
1	0xbe87f35e	-0.26552862
2	0xbabcf1b0	-0.001441529
3	0x3e7bf436	0.24604878
4	0xbe75ee1b	-0.24016611
5	0x3d950290	0.072758794
6	0x3e43db8a	0.19126716
7	0xb998e74b	-0.00029164026
8	0x3db8cef3	0.090238474
9	0x3d9a8a30	0.075458884
10	0x3e87ba89	0.26509503
11	0x3d811b37	0.06304019
12	0x3e0737bb	0.13204853
13	0xbe839fab	-0.25707754
14	0x3d71a249	0.058992658
15	0xbd6ee519	-0.058323953

cnn_base.3.weight f4 [32, 16, 3, 3]
0	0xbd17f9b1	-0.03710336
1	0x3cbe6ebb	0.02324616
2	0x3bfb61f3	0.0076715886
3	0x3d3e4422	0.046451695
4	0x3d10017d	0.03515767
5	0xbce7634b	-0.028245589
6	0x3da07af8	0.078359544
7	0xbd8b3e2a	-0.06798966
8	0xbcbcc4de	-0.023043092
9	0xbd85df83	-0.06536772
10	0x3cabaca8	0.020956352
11	0xbc9edb97	-0.019391818
12	0xbd9d4c45	-0.07680563
13	0x3d6e8f8f	0.058242377
14	0x3d2b2d7e	0.04179143
15	0x3c817ca4	0.015806504
16	0x3cb1c990	0.021702558
17	0xbd45e39c	-0.04831277
18	0xbd31f25f	-0.043444034
19	0x3d99ec74	0.07515803
20	0x3d4b042d	0.04956453
21	0x3d9b89ff	0.0759468
22	0x3d37bfbf	0.044860598
23	0xbd79f78a	-0.061027087
24	0x3d20108a	0.039078273
25	0xbd3fbb37	-0.0468094
26	0xbc0f9413	-0.008763331
27	0x3da1bdee	0.07897554
28	0xbda8c52e	-0.08240734
29	0x3c2429ac	0.010019701
30	0x3d8ccc59	0.06874914
31	0x3d86de40	0.065853596
32	0x3d56cbf8	0.052440614
33	0xbab2a84e	-0.0013630481
34	0xbd21d1b5	-0.039506633
35	0xbc4a3e81	-0.012344004
36	0xbc3d641c	-0.0115595125
37	0xbcb92d8d	-0.022604728
38	0xbd9fe506	-0.07807355
39	0x3cea84b7	0.028627736
40	0xbd910cb9	-0.07082505
41	0xbd8bd02d	-0.06826816
42	0x3d5ed38f	0.054400977
43	0xbd86042f	-0.06543767
44	0xbcbcf107	-0.02306415
45	0x3d919df1	0.07110203
46	0xbd8c7e09	-0.06859977
47	0xbda8a959	-0.082354255
48	0x3d335bbc	0.043788657
49	0x3c831146	0.015999448
50	0x3d965c46	0.073418185
51	0xbd86c6ab	-0.06580862
52	0xbcb2e6dd	-0.0218386
53	0x3d23fb7b	0.040034752
54	0x3d608572	0.054814763
55	0xbca58b8d	-0.020208145
56	0x3d142e16	0.036176763
57	0x3cdaf218	0.026726767
58	0xbd739d63	-0.059476268
59	0x3d5566cc	0.052099988
60	0x3d3b6d3d	0.045758475
61	0x3d359624	0.04433264
62	0x3da4c566	0.08045463
63	0x3c0ba61a	0.008523488
64	0x3d9f9699	0.07792396
65	0xbd411778	-0.047141522
66	0x3d1b98e8	0.03798762
67	0xbb6009fa	-0.0034185634
68	0x3cc81d1e	0.024427947
69	0xbca2ee20	-0.019888937
70	0xbd98a466	-0.074532315
71	0xbbdae046	-0.0066795675
72	0x3c9e1f88	0.019302145
73	0xbc7f80e9	-0.015594699
74	0x3d542dcf	0.0518015
75	0xbb98a4b9	-0.0046583083
76	0xbcaad5bd	-0.020853871
77	0x3c33c0cd	0.01097126
78	0xbd170b91	-0.036876265
79	0xbd93dc9a	-0.07219811
80	0xbd9631f2	-0.07333745
81	0xbdaaf52d	-0.08347545
82	0x3c88c0b8	0.016693458
83	0x3d151674	0.036398366
84	0x3b4f0716	0.0031589917
85	0x3d8892ff	0.06668662
86	0x3da37c63	0.07982709
87	0x3d027715	0.031851847
88	0xbcaa107b	-0.020759812
89	0x3d0d87b6	0.034553252
90	0xbd9e8736	-0.07740633
91	0xbd67adc7	-0.05656221
92	0x3d3d05d1	0.046148125
93	0xbdab2d79	-0.083582826
94	0xbd674d26	-0.05647006
95	0x3d81d5c4	0.06339601
96	0xbd8a8762	-0.067641035
97	0xbd81d393	-0.06339183
98	0x3d1d4ff9	0.038406346
99	0xbd7accd9	-0.061230514
100	0xbd3bb417	-0.045826044
101	0x3d896690	0.06709015
102	0x3cd80cca	0.026373286
103	0xbb320ba7	-0.002716759
104	0xbd80b49a	-0.06284447
105	0xbd1d8917	-0.038460817
106	0x3d664639	0.056219313
107	0x3b96f105	0.0046063685
108	0x3c29e622	0.010369809
109	0xbd2445a5	-0.04010548
110	0x3da42915	0.08015648
111	0xbbce5286	-0.0062964587
112	0xbd11a756	-0.035559975
113	0x3d9f2c61	0.077721365
114	0x3d94a4e1	0.07258011
115	0x3cf6b462	0.03011531
116	0x3c959804	0.018260963
117	0xbc915500	-0.017740726
118	0xbd65868e	-0.056036524
119	0x3ccb8d26	0.024847578
120	0xbceb69a7	-0.028736902
121	0x3d904ba0	0.07045674
122	0x3c1c04d5	0.009522636
123	0xbdaa3746	-0.08311324
124	0xbd80ed5e	-0.06295274
125	0x3c5a7e84	0.013335828
126	0xbce85b7f	-0.028363941
127	0x3caec1cb	0.021332642
128	0xbd463245	-0.048387785
129	0xbc925813	-0.017864263
130	0xbac226e5	-0.0014812617
131	0xbd211a62	-0.0393318
132	0x3cbe97b1	0.023265691
133	0x3c8730fe	0.016502853
134	0x3d72d392	0.0592838
135	0xbda69331	-0.08133543
136	0x3d2f9586	0.042867206
137	0xbd4b2269	-0.049593363
138	0x3d07e65e	0.03317868
139	0xbcdc7834	-0.026912786
140	0x3cb659f1	0.022259684
141	0x3d04c56b	0.032414835
142	0xbd4f6ff8	-0.05064389
143	0xbd91620c	-0.07098779
144	0xbc8e45e7	-0.017367316
145	0xbd9653ef	-0.07340228
146	0x3c94fbcf	0.018186478
147	0xbda8f017	-0.082489185
148	0x3d94ce97	0.072659664
149	0x3da08146	0.07837157
150	0xbd86eb1d	-0.06587813
151	0x3c137a85	0.009001379
152	0xbcc0d68c	-0.023539804
153	0x3a511d9c	0.00079771294
154	0xbd96a1f1	-0.073551066
155	0xbbeb6dfd	-0.0071847425
156	0x3d8a251a	0.06745358
157	0xbdab217b	-0.08355995
158	0x3c2a2e78	0.010387056
159	0xbd88f31f	-0.06686997
160	0xbc058fc7	-0.008151955
161	0xbd98ccca	-0.074609354
162	0xbd0e1f39	-0.034697745
163	0x3d88f478	0.06687254
164	0xbc4f32e7	-0.012646413
165	0x3d8de2d5	0.069280304
166	0xbdaa2d31	-0.08309401
167	0xbd439e9a	-0.047758676
168	0x3c856bae	0.016286697
169	0xbd0edef7	-0.034880605
170	0xbd0608d5	-0.032723267
171	0xbce060ef	-0.027389972
172	0xbd200e07	-0.039075878
173	0xbc56fa03	-0.013121131
174	0x3d991190	0.07474053
175	0xbd314d8a	-0.043286838
176	0x3d8f8db7	0.07009452
177	0xbd41a1a6	-0.0472733
178	0x3d7d0c98	0.06177959
179	0x3d2de4eb	0.04245464
180	0xbd3f4570	-0.04669708
181	0xbca3f156	-0.020012539
182	0x3d92f4e3	0.07175615
183	0xbda50051	-0.08056701
184	0x3da94ede	0.08266996
185	0xbd8f0a24	-0.06984356
186	0xbbd1e621	-0.0064056073
187	0x3d4510fe	0.04811191
188	0xbd288996	-0.041146837
189	0x3d5d2da5	0.05399861
190	0x3d99d1a0	0.07510686
191	0x3c2734aa	0.010205427
192	0xbd9195ac	-0.07108626
193	0x3d7c8c47	0.061657216
194	0xbd1142c4	-0.035464063
195	0xbd9199f5	-0.07109443
196	0xbcd99bce	-0.026563551
197	0xbcfa6498	-0.030565545
198	0xbd63307b	-0.055466156
199	0x3c4587db	0.012056316
200	0xbcbfe587	-0.023424877
201	0x3cf85666	0.030314635
202	0xbc555060	-0.013019651
203	0xbd29f8b0	-0.041496933
204	0x3d8db09a	0.0691845
205	0x3cf651bb	0.030068269
206	0xbd91af23	-0.07113483
207	0x3d198c6c	0.037487432
208	0x3d2b37cb	0.041801255
209	0xbd16fb2d	-0.036860634
210	0xbd1323a8	-0.035922676
211	0x3d726197	0.0591751
212	0xbd5f6061	-0.054535273
213	0xbd44b302	-0.048022278
214	0xbd80cd8b	-0.06289204
215	0xbd35bb6b	-0.04436819
216	0xbd06b0e6	-0.032883547
217	0x3d761671	0.060079996
218	0x3cd56a8d	0.026051784
219	0x3cd6f151	0.026238116
220	0xbd629ee2	-0.055327304
221	0xbc8f1130	-0.01746425
222	0xbccb2b9f	-0.024801074
223	0x3cdf4ecd	0.027259255
224	0xbd00e822	-0.03147138
225	0x3d5bcd16	0.053662382
226	0xbda1a763	-0.078932546
227	0xba9e5394	-0.0012079352
228	0x3c3b8dcd	0.011447382
229	0x3d2649ef	0.040597852
230	0x3d527250	0.05137855
231	0xbd99e9d0	-0.07515299
232	0x3d6f064b	0.05835561
233	0xbd9121c6	-0.0708652
234	0xbd837253	-0.0641829
235	0xbccede7c	-0.025252573
236	0xbca3beb0	-0.019988388
237	0x3da5c65b	0.08094474
238	0xbbf4350f	-0.007452614
239	0x3c9c7f58	0.019103691
240	0x3d64d1da	0.055864193
241	0xbd6e6d00	-0.05820942
242	0x3da93b10	0.082632184
243	0x3d7aed9b	0.061261754
244	0xbd93227b	-0.07184311
245	0x3c11eafe	0.008906124
246	0x3c948ecf	0.018134503
247	0x3da67bff	0.08129119
248	0x3d708818	0.05872354
249	0xbd8cdb57	-0.06877773
250	0x3ccd845a	0.025087524
251	0x3d856bc3	0.065146945
252	0xbd86fc38	-0.06591076
253	0x3d0a1c06	0.03371813
254	0x3d5bc9f3	0.05365939
255	0xbca8d1b6	-0.02060781

cnn_base.3.bias f4 [32]
0	0x3d986b87	0.07442384
1	0x3b243374	0.0025055083
2	0x3c86dfae	0.01646408
3	0x3d0dae04	0.034589782
4	0x3cd8333f	0.026391624
5	0x3c38a038	0.011268668
6	0x3d4d058e	0.050054125
7	0x3d4fe281	0.05075312
8	0xbda2edde	-0.07955526
9	0x3d5a0363	0.053225886
10	0x3cdf115c	0.027229957
11	0x3d91b703	0.07114985
12	0xbb02d5d6	-0.0019963882
13	0xbd80f1f4	-0.06296149
14	0xbd0e6e8c	-0.034773394
15	0x3d396bf2	0.04526896
16	0xbd5b2cb6	-0.053509437
17	0xbd1a3384	-0.037646785
18	0xbd09ab88	-0.03361085
19	0x3d45ebfb	0.04832075
20	0xbc24ef5a	-0.0100668315
21	0xbd8a65b2	-0.06757678
22	0xbd869043	-0.065704845
23	0x3b93ac4e	0.0045066243
24	0xbd7bfd50	-0.061520875
25	0xbd6f97ec	-0.058494493
26	0x3d8c4b91	0.06850351
27	0xbd77d2c1	-0.060503725
28	0xbadf7227	-0.001704757
29	0x3d6ea01b	0.058258157
30	0xbbd967c5	-0.0066346847
31	0x3d774923	0.060372483

mlp_base.0.weight f4 [32, 2]
0	0xbe9e32cd	-0.30898133
1	0xbe8edeb5	-0.27904287
2	0xbe0cd997	-0.13754879
3	0x3eeedc1b	0.46652302
4	0xbd006b91	-0.031352583
5	0xbec7127e	-0.38881296
6	0x3f16ac72	0.5885688
7	0xbef5118a	-0.47864944
8	0xbe21bef8	-0.15795505
9	0xbef2edc0	-0.47447014
10	0xbe5bcc9a	-0.21464768
11	0x3e851e8f	0.25999877
12	0xbf00cce5	-0.50312644
13	0x3e95074f	0.2910714
14	0xbf2bf4be	-0.6717032
15	0xbe164a11	-0.14676692
16	0x3f0d0513	0.5508587
17	0xbf32a22f	-0.6977872
18	0x3f1cf9f8	0.6131892
19	0xbe001e55	-0.12511571
20	0x3f1b8f0e	0.6076516
21	0xbea19bc6	-0.31564158
22	0xbddaf6fe	-0.10691641
23	0x3ebc9511	0.3683248
24	0xbf05e8d3	-0.52308387
25	0xbf001d06	-0.50044286
26	0xbee1d8de	-0.4411077
27	0xbe3a1a41	-0.18174078
28	0xbf0b2598	-0.5435424
29	0xbeba9a4d	-0.36445847
30	0x3d568495	0.052372534
31	0xbe61a127	-0.22034131
32	0x3efbfdd5	0.49217096
33	0x3eb1af45	0.34704033
34	0xbec15c3c	-0.37765682
35	0xbe7d7d5d	-0.24754854
36	0xbe97c814	-0.29644835
37	0xbeac7f35	-0.336908
38	0x3e8e6bac	0.27816522
39	0x3e85b40e	0.26113933
40	0x3efab6a3	0.48967466
41	0xbd549b99	-0.051906202
42	0xbf1babfa	-0.6080929
43	0xbf1f4976	-0.6222147
44	0x3f09c0a5	0.5380958
45	0x3f090398	0.5352111
46	0x3ee4acc9	0.44663075
47	0xbe440a91	-0.19144656
48	0xbed9f5af	-0.42570254
49	0x3e79fcf4	0.244129
50	0xbe85510d	-0.260384
51	0x3e5654f4	0.20930845
52	0x3e171dc1	0.14757444
53	0x3ee4afe4	0.44665444
54	0xbef40b90	-0.4766507
55	0x3e8211ed	0.254043
56	0xbedcc5e4	-0.4311973
57	0x3eea104a	0.45715553
58	0x3c455727	0.0120447045
59	0xbe93abc4	-0.28841984
60	0x3ef7607f	0.48315808
61	0x3e984778	0.29742026
62	0xbdc731cb	-0.09726294
63	0x3f31c437	0.69440025

mlp_base.0.bias f4 [32]
0	0x3e1016ad	0.1407115
1	0xbd556f56	-0.05210813
2	0x3e1a85ea	0.15090147
3	0xbe635278	-0.22199428
4	0xbea8afd5	-0.3294665
5	0x3f25436d	0.6455601
6	0x3ea53c5d	0.32272616
7	0x3d3ced25	0.046124596
8	0x3efb5a7b	0.4909247
9	0xbee36787	-0.44414923
10	0xbf13b0e8	-0.5769181
11	0xbf1de3a5	-0.61675483
12	0x3e9ced03	0.30649576
13	0x3f16d577	0.5891947
14	0xbf230b10	-0.63688755
15	0x3dfdcae4	0.12392214
16	0xbebb6d04	-0.3660661
17	0x3f25dc26	0.64789045
18	0xbf33b101	-0.7019196
19	0x3e189f5e	0.14904544
20	0x3e862341	0.26198772
21	0xbeca4ed0	-0.39513254
22	0xbf0c8598	-0.5489135
23	0xbf19d45d	-0.60089666
24	0x3f13d618	0.57748556
25	0xbe277e46	-0.16356763
26	0xbe8b3126	-0.27185935
27	0xbef81d44	-0.48459828
28	0xbebaad69	-0.36460426
29	0x3e6367ae	0.2220752
30	0x3f29a25a	0.66263354
31	0x3f03fa4e	0.5155381

mlp_base.2.weight f4 [32, 32]
0	0x3d89d4a7	0.06730013
1	0x3b277c19	0.0025556146
2	0x3d998e8c	0.07497892
3	0xbdcd50f9	-0.1002521
4	0xbe0677df	-0.13131665
5	0xbc130d26	-0.008975303
6	0xbd136342	-0.03598333
7	0xba3149a5	-0.0006762988
8	0xbde8490d	-0.11342058
9	0x3d29fff4	0.04150386
10	0x3e1b0a30	0.15140605
11	0x3cfdd8f3	0.030987239
12	0x3e10fcea	0.14158979
13	0x3d530af1	0.051524106
14	0x3dadd3b8	0.08487648
15	0xbdb281f6	-0.08716194
16	0x3e090b58	0.13383234
17	0x3de230d4	0.110444695
18	0xbbeefc79	-0.0072932807
19	0x3d03eb71	0.032206956
20	0x3dce5644	0.100750476
21	0x3de7b291	0.11313356
22	0xbd81fd2f	-0.06347119
23	0xbe2c4096	-0.16821513
24	0xbd183bfb	-0.037166577
25	0xbdf7a9ad	-0.1209291
26	0xbe0d4848	-0.13797104
27	0x3d25428f	0.04034668
28	0x3db188e2	0.086686864
29	0xbde647a4	-0.11244133
30	0xbd7a1137	-0.061051574
31	0xbe2a525b	-0.16632979
32	0x3b529f84	0.0032138536
33	0x3dbf3b9e	0.09337543
34	0xbe1091c9	-0.14118113
35	0x3e1700a2	0.14746335
36	0xbd548468	-0.051884085
37	0x3e1196d3	0.14217691
38	0x3da07904	0.07835582
39	0xbd2eea23	-0.04270376
40	0x3c15a741	0.009134115
41	0xbc9f7df3	-0.019469237
42	0x3dcad368	0.09903604
43	0x3dc06842	0.093948856
44	0xbde23745	-0.11045698
45	0x3e20a314	0.1568721
46	0x3e097e53	0.13427095
47	0x3dd2a3f3	0.10285177
48	0x3d6cd7ab	0.057822865
49	0x3c852013	0.016250646
50	0xbd85e8c4	-0.06538537
51	0xbcc0692d	-0.023487652
52	0x3dcf15e8	0.101116
53	0x3c83916b	0.016060552
54	0xbdea09c9	-0.114276476
55	0xbda515d0	-0.08060801
56	0xbb2fcc7b	-0.002682476
57	0x3d4ede6e	0.050505094
58	0xbe369073	-0.1782854
59	0xbe0e0fed	-0.13873263
60	0xbd532e1f	-0.051557656
61	0xbe31427d	-0.1731052
62	0xbdb1de9e	-0.08685039
63	0x3caeabc6	0.021322142
64	0xbd3cdd11	-0.046109263
65	0xbdaab535	-0.08335344
66	0xbdab4b7e	-0.08364008
67	0xbd91b924	-0.07115391
68	0x3e0a16ac	0.13485211
69	0xbe106f46	-0.14104947
70	0xbdf838f0	-0.12120235
71	0xbdf5537c	-0.11978814
72	0xbd8a01f9	-0.067386575
73	0x3dc1104d	0.09426937
74	0xbdd3a9d6	-0.10335128
75	0x3d022aa6	0.031778954
76	0xbe1bf05c	-0.15228409
77	0x3d0a591d	0.03377639
78	0x3e0a4340	0.13502216
79	0xbe0134b3	-0.1261776
80	0xbd6782b5	-0.056521136
81	0x3dd04d9f	0.10171055
82	0xbc87380f	-0.016506223
83	0xbe330223	-0.17481284
84	0x3c6f3cf5	0.014601936
85	0xbdfd8f30	-0.123808265
86	0xbe0057c1	-0.12533475
87	0x3e16848c	0.14699
88	0x3e1b4ae9	0.15165295
89	0xbc28965d	-0.010289756
90	0x3dbf3588	0.09336382
91	0xbdde4115	-0.10852257
92	0x3d7d85d8	0.06189522
93	0x3cfeea2d	0.031117523
94	0xbd722cd1	-0.05912477
95	0x3e102ec3	0.14080338
96	0x3d0dead6	0.034647785
97	0x3e26c346	0.16285428
98	0x3e109c1c	0.14122051
99	0x3d4ca420	0.04996121
100	0x3dc65cb8	0.096856534
101	0x3dc4f0de	0.09616254
102	0xbe1f6d42	-0.15569022
103	0xbd78c0dd	-0.060730804
104	0xbc365873	-0.011129486
105	0xbe2aeb44	-0.16691309
106	0xbe04f511	-0.1298411
107	0x3d1b7738	0.037955493
108	0xbe07fc08	-0.13279736
109	0xbc24c411	-0.0100565115
110	0xbe132846	-0.14370832
111	0x3c2f02ba	0.010681802
112	0x3e0d0ba9	0.13773979
113	0x3d5912ba	0.052996375
114	0xbda932c4	-0.08261636
115	0xbc264e75	-0.010150542
116	0xbdb3f70b	-0.08787354
117	0xbe29812a	-0.16553178
118	0xbdd6b1b8	-0.10483116
119	0xbe221ba0	-0.1583085
120	0xbd2ea64b	-0.042639058
121	0x3d590074	0.052978948
122	0x3e0bae98	0.13640821
123	0xbda8dcfc	-0.082452744
124	0xbe018846	-0.1264964
125	0x3e151848	0.14560044
126	0x3cd71efa	0.026259888
127	0xbe05d68e	-0.13070127
128	0xbe23c52f	-0.15993188
129	0x3cf008cc	0.02930107
130	0xbe19afb4	-0.15008432
131	0x3bd2da0e	0.0064346856
132	0x3dfea970	0.124346614
133	0xbdd3228d	-0.103093244
134	0xbdad1f53	-0.0845324
135	0xbd64009b	-0.05566464
136	0xbda87b15	-0.08226601
137	0xbd466f7a	-0.048446156
138	0x3e14fa13	0.1454852
139	0x3de18652	0.11011948
140	0x3da0eefd	0.078580834
141	0x3db509e2	0.088397756
142	0xbe0943ba	-0.13404742
143	0x3e2daf78	0.16961467
144	0xbe247c99	-0.16063155
145	0xbc386661	-0.011254878
146	0x3c844c66	0.01614971
147	0x3dca361b	0.09873601
148	0xbd98ec4b	-0.07466944
149	0x3c58bd27	0.013228691
150	0xbcb6ba77	-0.02230571
151	0xbd9f247a	-0.07770629
152	0x3c2cd257	0.010548196
153	0x3de8bf22	0.11364581
154	0xbba45a1b	-0.005015624
155	0x3e322b0f	0.17399238
156	0x3db0be1d	0.08630011
157	0xbe27baec	-0.16379899
158	0xbe266bac	-0.16252011
159	0xbe090737	-0.13381658
160	0x3db1a705	0.086744346
161	0xbe2c313b	-0.16815655
162	0xbdf7305e	-0.12069772
163	0xbdebab45	-0.115072764
164	0xbe10ef00	-0.14153671
165	0xbda047e5	-0.07826213
166	0x3daaea63	0.08345487
167	0xbe0b6e32	-0.13616255
168	0xbe1b3891	-0.15158297
169	0x3d35b01e	0.04435741
170	0x3db5c900	0.08876228
171	0x3e01ef4c	0.12688941
172	0xbdd445fc	-0.10364911
173	0x3c1f9b35	0.009741594
174	0x3e1b0082	0.15136912
175	0xbd821c22	-0.06353022
176	0x3e0825ed	0.13295718
177	0x3dcb8e47	0.099392466
178	0x3be654bc	0.007029144
179	0x3d45ba8d	0.04827361
180	0xbe10e079	-0.1414813
181	0xbdf32a8a	-0.11873348
182	0xbdf04401	-0.11731721
183	0xbe16cb40	-0.14725971
184	0x3dc11110	0.094270825
185	0x3c98b234	0.018639661
186	0x3d7430a6	0.059616707
187	0xbe041e96	-0.12902293
188	0x3e0bad23	0.13640265
189	0xbd9dd8f4	-0.07707396
190	0xbb1942e4	-0.0023385817
191	0x3db11622	0.086467996
192	0x3dff08d9	0.124528594
193	0x3b45535b	0.0030109498
194	0xbc88c4ec	-0.016695462
195	0x3d212dab	0.039350193
196	0x3e34931b	0.17634241
197	0x3de6e0e4	0.11273363
198	0x3d0bfea0	0.034178376
199	0xbddfe194	-0.109316975
200	0xbe257f1f	-0.16161774
201	0x3d03b4cc	0.032154843
202	0x3dc4b04a	0.09603937
203	0x3e34fe8d	0.17675228
204	0x3d88f10a	0.066865996
205	0xbe0ece67	-0.13945924
206	0xbe0ae3f7	-0.13563524
207	0xbc464354	-0.012101013
208	0xbd8d4d3b	-0.06899496
209	0xbd7140ea	-0.058899797
210	0xbe112cd5	-0.14177258
211	0xbe2e58e8	-0.17026103
212	0x3dd02980	0.101641655
213	0xbda5e7dc	-0.08100864
214	0xbd55336e	-0.052051
215	0xbdc9db05	-0.09856228
216	0xbe120de8	-0.14263117
217	0xbe3350bc	-0.17511266
218	0x3d34181d	0.04396831
219	0x3d5c8e6e	0.05384677
220	0xbd320031	-0.043457214
221	0xbdeaf590	-0.114726186
222	0xbd935c58	-0.071953475
223	0xbdbd9701	-0.09257317
224	0xbd9ff23e	-0.07809876
225	0xbe083241	-0.1330042
226	0xbce9ec8e	-0.02855518
227	0xbda66ec9	-0.08126599
228	0xbd84dbf2	-0.06487264
229	0x3d9b1b6a	0.07573588
230	0xbdef28ed	-0.11677728
231	0x3db640e2	0.08899094
232	0xbe0a379a	-0.13497773
233	0xbdd72086	-0.1050425
234	0x3da80e4c	0.08205852
235	0x3bf04e8e	0.007333583
236	0xbd26990f	-0.04067331
237	0xbdf0e737	-0.11762851
238	0xbd0913be	-0.033466093
239	0xbca4907d	-0.020088429
240	0x3d2debb5	0.042461116
241	0x3e259e1a	0.16173592
242	0xbe14b4c6	-0.14522085
243	0x3d50e930	0.051003635
244	0xbd9cdc3d	-0.076591946
245	0xbd27c4b8	-0.04095909
246	0xbd77f99d	-0.060540784
247	0x3ded0297	0.115727596
248	0x3e02cdff	0.12773894
249	0xbdeda0c4	-0.11602929
250	0x3e24b37e	0.16084096
251	0xbd9b5014	-0.07583633
252	0x3da198d3	0.07890477
253	0x3de07e22	0.10961558
254	0xbe300ad0	-0.17191625
255	0xbd8b7d79	-0.068110414

mlp_base.2.bias f4 [32]
0	0x3d9978eb	0.074937664
1	0x3cc02901	0.023457052
2	0xbc60561e	-0.013692407
3	0xbe2d992d	-0.16952963
4	0xbe2c3e4b	-0.16820638
5	0xbe2e3b8f	-0.17014907
6	0x3e06b775	0.13155921
7	0x3db89c3b	0.090141736
8	0xbe0d6f63	-0.13812022
9	0x3debfd1f	0.115228884
10	0xbd971d5e	-0.07378648
11	0xbdd7e79f	-0.10542225
12	0x3c53897b	0.012911196
13	0x3cf17c1d	0.029478127
14	0x3cffe0d1	0.03123513
15	0xbc985fed	-0.018600428
16	0xbc433451	-0.011914329
17	0x3d4c8ed7	0.04994091
18	0xbde4e15b	-0.11175796
19	0xbd43526a	-0.047686018
20	0x3dbb31f4	0.09140387
21	0xbd0d07f2	-0.034431405
22	0x3d276765	0.04087009
23	0x3d9835d3	0.07432141
24	0xbc77ab22	-0.015116485
25	0x3df066f6	0.11738388
26	0xbe2c968a	-0.16854301
27	0xbdbe9646	-0.09306006
28	0x3d4e7f72	0.05041451
29	0xbd870887	-0.06593423
30	0xbdc656b8	-0.09684509
31	0x3e20519f	0.15656136

actor_head.0.weight f4 [64, 1600]
0	0x3c4dd635	0.012563278
1	0xbb81b395	-0.0039581754
2	0xbc2b0179	-0.010437363
3	0xbbb59832	-0.0055418247
4	0x39d8b9fd	0.00041337303
5	0xbb8f613a	-0.004375604
6	0x3c17c149	0.009262391
7	0xbce07af1	-0.027402373
8	0x3c8edbb3	0.017438745
9	0x3c96edc7	0.018423928
10	0xbcc71667	-0.024302674
11	0xbcd360d7	-0.025803013
12	0xbc9545d5	-0.018221775
13	0xbc790ef4	-0.015201319
14	0x3be4fd98	0.0069882385
15	0xbc49e699	-0.012323045
16	0x3abd3ea0	0.0014438219
17	0xbc14046f	-0.00903426
18	0xbb9addc9	-0.004726146
19	0x3b778170	0.003776636
20	0x3b140e67	0.0022591592
21	0xbc6fdec0	-0.01464051
22	0xbac9c900	-0.0015394986
23	0x3cb2c5c2	0.021822814
24	0x3c494e54	0.012286741
25	0x3c8e0c34	0.017339803
26	0xbc9f3fb4	-0.019439556
27	0xbcd46e31	-0.02593145
28	0xbcb09364	-0.021554656
29	0x3be31c76	0.006930883
30	0x3c63c8f5	0.013902892
31	0x3cc27d03	0.02374125
32	0x3c9e4d64	0.019324012
33	0xbc8a5350	-0.01688543
34	0x3c95fb16	0.018308204
35	0x3c9e0924	0.019291468
36	0xbc289c6e	-0.010291202
37	0xbcb3221e	-0.021866854
38	0xbc8719d8	-0.016491815
39	0x3c909ccd	0.017652893
40	0xbc8e5fbe	-0.017379638
41	0x3baad691	0.0052135666
42	0xb9800ebb	-0.00024425038
43	0xbb4c5a33	-0.0031181693
44	0x3baa78bc	0.005202381
45	0x3bf49670	0.0074642226
46	0xbb5a1fe0	-0.003328316
47	0xbbc96b32	-0.006146812
48	0x3b9154bf	0.0044351513
49	0x3babf543	0.0052477433
50	0x3c300182	0.010742547
51	0x3c9e5c8f	0.019331245
52	0x3c9b37a1	0.018947424
53	0x3c828bee	0.015935864
54	0xbc1aa8f7	-0.009439698
55	0x3bc79e07	0.0060918364
56	0x3c1f3e81	0.009719492
57	0xbcc7a68a	-0.024371404
58	0xbccbe656	-0.024890106
59	0xbcab6900	-0.020924091
60	0xbbb5c911	-0.0055476506
61	0xbca9ec41	-0.020742537
62	0xbc8d3ccc	-0.017240904
63	0xbc8c5921	-0.017132344
64	0x3ca23b3b	0.019803634
65	0x3bb81629	0.005617876
66	0xbb9227fc	-0.004460333
67	0xbc989814	-0.018627204
68	0xbbe78392	-0.007065245
69	0xbc2e8c9e	-0.010653643
70	0xbcbda54a	-0.023150105
71	0xbbed5bcd	-0.0072436095
72	0x3c8f94b5	0.017526964
73	0x3a45431f	0.00075249554
74	0xba51ff2f	-0.00080107426
75	0xbc1bbc57	-0.009505353
76	0x3cac03f2	0.020997975
77	0x3c82b769	0.015956597
78	0x3c880740	0.01660502
79	0x3caaab4d	0.020833636
80	0x3bcbe3d3	0.006222227
81	0xbb0927b6	-0.002092821
82	0x3c46f63e	0.01214367
83	0x3c285883	0.010275009
84	0xbcc21cec	-0.023695432
85	0xbbd1b9d5	-0.0064003267
86	0xbbc5a933	-0.006032133
87	0x391af495	0.00014777698
88	0x3c7fe7ef	0.015619262
89	0xbbdb8b59	-0.006699961
90	0x3bc5da8d	0.006038016
91	0xbc0d95af	-0.008641644
92	0x3c4f3b1b	0.012648369
93	0x3b514edc	0.0031937873
94	0x3ad07c1b	0.0015906127
95	0x3cb1233c	0.021623246
96	0xbb9e2e57	-0.0048273015
97	0xbbec380f	-0.007208831
98	0xba9f5606	-0.0012156374
99	0xbc3ab77c	-0.011396285
100	0xbce26931	-0.02763805
101	0xbcc83b01	-0.024442198
102	0x3c9fce89	0.019507663
103	0x3ca26542	0.019823674
104	0xbc9962a0	-0.018723786
105	0xbc919614	-0.017771758
106	0xbcb1ee82	-0.021720175
107	0x3ca27cb1	0.019834848
108	0xbc4fb96f	-0.012678488
109	0xba8e246c	-0.0010844595
110	0xbc75f91f	-0.015013008
111	0xbcb652f4	-0.022256352
112	0xbc10fca3	-0.008849296
113	0x3c12146b	0.008916001
114	0x3bdef23f	0.0068037803
115	0x3c22072f	0.009889408
116	0x3c6a1599	0.014287376
117	0xbc006ed7	-0.007838926
118	0xbc7a9e4c	-0.01529653
119	0x39a6366e	0.0003170254
120	0xbc20f6b6	-0.0098244455
121	0xbc8ffff0	-0.017578095
122	0xbc94445a	-0.018098999
123	0x3ad74a15	0.0016425276
124	0xbc1c1222	-0.009525808
125	0x3c08445f	0.008317082
126	0xbc9fc4f9	-0.019503104
127	0x3cb9e419	0.022691773
128	0x3ba7ad24	0.0051170755
129	0x3c24641a	0.010033632
130	0xbc852e29	-0.016257362
131	0xbc0fe043	-0.0087814955
132	0x3b632550	0.003465969
133	0xbc79a0af	-0.015236064
134	0xbbf6946e	-0.0075250184
135	0xbc450b53	-0.012026626
136	0xbcc48cf8	-0.023993
137	0x3b0bfead	0.0021361515
138	0xbc8f8158	-0.01751773
139	0x3c89fef6	0.016845208
140	0xbc9bf779	-0.019038903
141	0x3bb956b0	0.005656086
142	0x3c80d6a0	0.015727341
143	0x3c4d876a	0.012544492
144	0x3c83b090	0.016075402
145	0xbbbd1303	-0.0057700886
146	0x3c7b7f85	0.015350227
147	0xbb85c364	-0.0040821303
148	0xbcd29518	-0.025705859
149	0x3ba9b479	0.0051789847
150	0x3b39e25b	0.0028363678
151	0xbaef408b	-0.0018253488
152	0xbca51214	-0.020150222
153	0xbc7cabe8	-0.015421845
154	0xbcd08174	-0.025452353
155	0xbbfdbe06	-0.0077436
156	0xbc585990	-0.013204947
157	0x3c747c8f	0.014922275
158	0x3c3073e6	0.01076982
159	0x3c397877	0.011320225
160	0xbb928dda	-0.0044724764
161	0xbc9c0097	-0.01904325
162	0xbc3e3a8e	-0.01161064
163	0x3c6f6d33	0.0146134375
164	0x3be752a6	0.007059413
165	0xbc4228e3	-0.0118505685
166	0x3c0ea267	0.008705712
167	0x3b909961	0.0044128154
168	0x3bb2f368	0.005461145
169	0xbc013093	-0.007885116
170	0xbc9b9e33	-0.018996334
171	0xbc8f56ff	-0.017497538
172	0x3c94bfaf	0.018157808
173	0xbb7eac7c	-0.0038860133
174	0x3c6d265c	0.014474478
175	0x3a884c72	0.0010398759
176	0xbbd58f74	-0.006517345
177	0xbc9decd2	-0.019277964
178	0xbbbee0f5	-0.005825157
179	0x3caf2f13	0.021384751
180	0xbccddc6d	-0.025129521
181	0xbc99e572	-0.018786166
182	0x3c9a2fcf	0.018821625
183	0x3c013ff9	0.007888787
184	0xbc641d35	-0.013922979
185	0xbc2f70fd	-0.010708091
186	0x3bc8d393	0.0061287372
187	0x3c9d5ad7	0.019208355
188	0xbc59543e	-0.013264714
189	0xbc7e9b30	-0.015539929
190	0x3ca57c06	0.02020074
191	0x3babdd7c	0.005244909
192	0x3cafc31d	0.021455342
193	0xbcd41cef	-0.025892703
194	0xbbbb03fd	-0.0057072625
195	0x3b75a742	0.0037483727
196	0x3ba72e33	0.005101943
197	0xb6ba66e4	-5.55521e-06
198	0x3c2f8f08	0.010715254
199	0x3c24fb7c	0.010069724
200	0xbcdd58f8	-0.027019963
201	0xbb09418b	-0.0020943608
202	0xbb96f4c7	-0.0046068165
203	0x3c703946	0.014662093
204	0x3c29da55	0.010366996
205	0xbbd6b38e	-0.0065521663
206	0xbcb72137	-0.022354705
207	0xbb210ac9	-0.002457308
208	0xbb94230b	-0.004520779
209	0xbb355ee4	-0.0027674967
210	0x3c2fc5f0	0.010728344
211	0xbba70ec3	-0.0050981953
212	0x3b88e362	0.004177497
213	0xbb8fa0c0	-0.0043831766
214	0xbc390223	-0.011292013
215	0xbba48f6a	-0.005021979
216	0xbc08c313	-0.008347291
217	0x3bf0ba4c	0.007346427
218	0x3c3b6c1a	0.011439348
219	0x3cb3f402	0.021966938
220	0x3c718acc	0.014742564
221	0x3bb65e5c	0.0055654477
222	0x3b99e1a7	0.0046960893
223	0xbc5d354e	-0.013501478
224	0xbce0849a	-0.02740698
225	0x38d1b9f1	0.00010000531
226	0x3ab92583	0.0014125559
227	0xbc241cb0	-0.010016605
228	0xbcdcecd5	-0.026968399
229	0xbcbcc3db	-0.02304261
230	0xbca9c074	-0.020721652
231	0xbc8be07a	-0.017074812
232	0xbcddaafa	-0.027059067
233	0x3c078168	0.008270599
234	0xbcbbec2a	-0.02293976
235	0x3c3aefa4	0.011409674
236	0x3c7fb4f4	0.015607107
237	0x3bce5c07	0.0062975916
238	0xbc53f334	-0.012936402
239	0xbc017756	-0.007901987
240	0x3c32f146	0.010921782
241	0x3b190008	0.0023345966
242	0xbbbf1026	-0.0058307825
243	0x3c3cd0df	0.011524408
244	0x3c149af5	0.009070148
245	0xbc6f7289	-0.01461471
246	0x3c12b51e	0.0089543145
247	0xbc3adbc0	-0.011404932
248	0xbcdcf274	-0.02697108
249	0xbc9a28d1	-0.01881829
250	0xbb414d56	-0.0029495559
251	0xba9dab4c	-0.00120292
252	0xbbf2b7ed	-0.0074071796
253	0x3ac825fe	0.0015270112
254	0x39f7f47f	0.00047293675
255	0xbbf1210e	-0.0073586768

actor_head.0.bias f4 [64]
0	0xbce7712b	-0.028252205
1	0xbc740f8f	-0.014896288
2	0xbc18bd24	-0.009322438
3	0xbcd10d6f	-0.025519101
4	0xbafc9071	-0.0019269121
5	0x3b6f8e0d	0.0036553175
6	0xbcb8f09c	-0.022575669
7	0xbc5df178	-0.01354634
8	0xbb82a7d2	-0.003987291
9	0x3cc09cc5	0.023512254
10	0x3cb43330	0.021997064
11	0x3c7f6dc4	0.015590135
12	0x3c82f63c	0.015986554
13	0x39403e67	0.00018333794
14	0x3ba5bc73	0.0050578653
15	0xbc9e5064	-0.019325443
16	0xbbf8f5ac	-0.0075976457
17	0xbc9ab943	-0.018887168
18	0x3c9d560b	0.019206068
19	0x3c8db73a	0.017299283
20	0xbc1062bd	-0.008812604
21	0xbb8412a5	-0.004030543
22	0x3c7db721	0.015485556
23	0x3be41d45	0.006961497
24	0x3cb40874	0.021976687
25	0xbc7bdef7	-0.015372983
26	0x3c90d0ae	0.017677631
27	0xbc988865	-0.018619725
28	0xbc8f0dfe	-0.017462727
29	0xbc592b29	-0.013254919
30	0xbcb60e51	-0.022223623
31	0x3b006b04	0.0019595036
32	0x3bc52eb4	0.0060175303
33	0xbbf677fd	-0.007521628
34	0x3c82d3a0	0.015970051
35	0xbbab523a	-0.005228308
36	0x3cba4c7c	0.022741549
37	0x3c74c585	0.01493967
38	0x3bf4de1f	0.007472768
39	0xbcb2efcf	-0.021842865
40	0x39ed83f5	0.00045302478
41	0x3ac49638	0.0014998382
42	0x3c060ee6	0.008182263
43	0xbbe02534	-0.0068403725
44	0x3c7e2954	0.015512783
45	0xbb4424c8	-0.002992915
46	0xb9741aaf	-0.00023279594
47	0xbbfbf94c	-0.0076896306
48	0xbb222a54	-0.0024744468
49	0xbc450cd6	-0.012026986
50	0xbc847363	-0.016168302
51	0x3c5bb9f6	0.013411036
52	0xbcaadbbc	-0.02085673
53	0x3c0c6c92	0.008570807
54	0x3a9e5b47	0.0012081646
55	0x3c98a934	0.01863537
56	0xbbe385ab	-0.0069434247
57	0xbc84d2e1	-0.016213836
58	0x3c7cbcf1	0.0154259065
59	0xbc879ada	-0.016553331
60	0x3c1397c5	0.009008353
61	0xbc09c340	-0.008408368
62	0x3cb932cd	0.022607232
63	0xbc7ccae8	-0.015429236

actor_head.2.weight f4 [2, 64]
0	0xba73d69b	-0.0009301693
1	0x3dcb0e4d	0.09914837
2	0xbdd7fcf8	-0.10546297
3	0x3d1fc3a9	0.039004955
4	0xbd1f0c66	-0.038830183
5	0x3c04f5b7	0.008115224
6	0x3cd7fa46	0.026364457
7	0xbd8840fb	-0.06653019
8	0xbd375ee8	-0.044768244
9	0x3d906aa7	0.07051592
10	0xbd6ab793	-0.057303976
11	0x3d9ced46	0.07662444
12	0x3d87d598	0.06632537
13	0x3d7ba90c	0.061440513
14	0xbd5e59c3	-0.054284822
15	0xbc514cf5	-0.012774696
16	0x3d926ff8	0.071502626
17	0x3dfb9fd1	0.12286342
18	0xbc85ab4c	-0.016317032
19	0xbcc30c89	-0.023809688
20	0xbd91d33d	-0.07120369
21	0x3dd4586c	0.10368428
22	0xbdf3985f	-0.11894297
23	0xbc9d7ef2	-0.019225571
24	0xbd52a882	-0.051430233
25	0xbdba4034	-0.09094277
26	0x3dcde24a	0.10052927
27	0xbaafa996	-0.0013401981
28	0xbdccc117	-0.099977665
29	0x3d9cd6e7	0.07658177
30	0xbd673db0	-0.056455314
31	0x3cd8f6c0	0.026484847
32	0xbd81e4f7	-0.063425
33	0x3bda490d	0.0066615404
34	0xbcc63100	-0.024193287
35	0xbbd7ff42	-0.0065917084
36	0xbde6d9c2	-0.11272003
37	0x3d54eb74	0.051982358
38	0xbd65ea31	-0.056131545
39	0x3d8d1fd7	0.068908386
40	0xbddb0619	-0.106945224
41	0xbcedbcde	-0.029020723
42	0xbdcd19e8	-0.10014707
43	0x3b9ffb7d	0.0048822747
44	0x3dae69c5	0.08516268
45	0x3cbd1f7e	0.023086306
46	0xbdc14a17	-0.0943796
47	0xbd40a413	-0.047031473
48	0xbde9cc81	-0.11415959
49	0xbc0fed58	-0.0087846145
50	0x3d7f54a6	0.062336586
51	0xbdc5d7e0	-0.096603155
52	0x3c8638ba	0.016384471
53	0xbbc0c24c	-0.005882537
54	0xbdd31dd8	-0.103084266
55	0xbd168a7d	-0.036753166
56	0xbdc8db29	-0.098074265
57	0xbc9ed402	-0.019388203
58	0x3d60b0f7	0.054856267
59	0x3d67f5df	0.056630965
60	0x3d20ea0d	0.03928571
61	0x3d8a4e94	0.06753269
62	0x3d9e3a7e	0.07726
63	0x3dbad23d	0.09122131
64	0x3de98417	0.11402147
65	0x3cf68955	0.030094782
66	0x3dadab28	0.08479911
67	0xbdf84535	-0.12122575
68	0xbd77c690	-0.0604921
69	0xbde051df	-0.10953116
70	0xbd9bb674	-0.076031595
71	0x3dd56bfc	0.10420987
72	0x3d8557b6	0.0651087
73	0x3b748478	0.0037310403
74	0xbdd2d4cf	-0.10294496
75	0x3dc7d54e	0.097574815
76	0xbd895d3a	-0.06707235
77	0x3d2bee70	0.04197544
78	0xbb1b7e68	-0.0023726467
79	0xbdf3b67a	-0.11900039
80	0x3d8f9462	0.07010724
81	0x3d9c450a	0.07630356
82	0xbdd0a132	-0.101869956
83	0xbc2bf02f	-0.010494276
84	0x3c0555db	0.008138145
85	0x3dc9b8c8	0.09849697
86	0x3da641c7	0.08118015
87	0x3cff37a6	0.031154465
88	0x3d8c7cef	0.06859767
89	0x3dd20dad	0.10256515
90	0xbda8c2e5	-0.08240298
91	0x3cffb552	0.03121439
92	0xbd9b36a7	-0.075787835
93	0x3d97c3b0	0.07410371
94	0x3d8c1031	0.06839026
95	0xbd336f83	-0.043807518
96	0x3c0e6c8b	0.008692871
97	0x3cd934c5	0.02651442
98	0x3d23a488	0.03995183
99	0x3ca84ea1	0.020545306
100	0xbd8ae82e	-0.06782566
101	0xbd8b0a67	-0.067890935
102	0xbcd86042	-0.026413087
103	0x3d1848b8	0.037178725
104	0xbd9c76d9	-0.07639856
105	0x3d33594d	0.043786336
106	0x3ddeb095	0.10873524
107	0x3c07b29c	0.00828233
108	0x3c573e44	0.013137404
109	0xbd8aeb8a	-0.06783207
110	0xbd4b4eaf	-0.049635585
111	0x3d54517a	0.051835515
112	0xbd012041	-0.0315249
113	0x3d90f6a3	0.07078292
114	0x3d6642fa	0.056216218
115	0xbc79c5e5	-0.015244936
116	0xbd238825	-0.03992476
117	0x3da8decd	0.08245621
118	0x3ddc0aa6	0.107442185
119	0xbd50079b	-0.050788503
120	0xbdbd77b3	-0.092513464
121	0x3d913be7	0.070915036
122	0x3ded8f49	0.11599595
123	0xbda915ea	-0.08256133
124	0xbdc9bbea	-0.09850295
125	0xbdb7dd8b	-0.08977803
126	0xbdcebba4	-0.10094383
127	0xbb87a60b	-0.004139667

actor_head.2.bias f4 [2]
0	0x3cc85d62	0.02445859
1	0xbdd8134c	-0.105505556

critic_head.0.weight f4 [64, 1600]
0	0x3c9457e3	0.018108314
1	0x3c9891ce	0.018624213
2	0x3c15623e	0.009117661
3	0x3c3bb4d1	0.011456684
4	0x3c808bf6	0.015691739
5	0xbc243504	-0.010022406
6	0xbcbe11ab	-0.023201784
7	0x3c925f59	0.01786773
8	0x3cb091ed	0.021553958
9	0xbb6cfce4	-0.0036161477
10	0xbc8dd791	-0.017314704
11	0x3b2bf633	0.0026239275
12	0x3c943ab2	0.018094394
13	0xbc2458ba	-0.01003092
14	0xbc9d1ab1	-0.019177767
15	0xbcc5b8cb	-0.024135968
16	0xbcd3ab4d	-0.025838519
17	0x3c492ebe	0.012279211
18	0xbc6286d9	-0.0138260955
19	0xbc6b3b44	-0.014357392
20	0xbbce35d3	-0.0062930374
21	0x3c38175d	0.011236039
22	0xbc0559bc	-0.00813907
23	0x3c43038f	0.011902704
24	0x3c80b012	0.015708957
25	0xbb712ed1	-0.0036801586
26	0xbc5c1e12	-0.013434904
27	0xbcb09971	-0.021557542
28	0xbbb074e7	-0.0053850296
29	0x3ca097d3	0.019603645
30	0x3b3ed5e8	0.0029119197
31	0xbaa84cef	-0.0012840311
32	0x3cad3e2c	0.02114781
33	0xbc9fad1e	-0.019491728
34	0xbbab16ab	-0.005221208
35	0x3b611d73	0.0034349828
36	0x3caf73b5	0.021417478
37	0x3c3649a9	0.01112596
38	0xbcc879b8	-0.024472103
39	0x3c9810b6	0.018562656
40	0x3880ba98	6.1382714e-05
41	0xbc8e6236	-0.017380815
42	0xbba55489	-0.0050454778
43	0xbc4c6ca5	-0.012477075
44	0x3a27e1de	0.0006404201
45	0x3c2612ef	0.01013635
46	0xbb44efb6	-0.0030050105
47	0xbc9ffabd	-0.019528741
48	0xbcc013c9	-0.023446934
49	0x3c36f02e	0.011165662
50	0x3b6112a9	0.0034343398
51	0x3c5cba5b	0.013472165
52	0xbc94c2a3	-0.018159216
53	0xbcbe9233	-0.023263073
54	0x3bf8ccf8	0.0075927936
55	0xbc636fac	-0.013881605
56	0xbcb4de6e	-0.022078719
57	0xbcd29f59	-0.025710749
58	0x3c0e9f14	0.008704919
59	0x3c24ab18	0.010050558
60	0xbc8f9028	-0.017524794
61	0x3b08e029	0.0020885563
62	0xbc53c1f9	-0.012924665
63	0x3c250947	0.010073013
64	0xbca8f5a0	-0.020624936
65	0x3c97b25d	0.018517667
66	0x3bd2deb6	0.0064352406
67	0x3b9f06b3	0.0048530935
68	0x3c66abf6	0.014079085
69	0xbcd3b801	-0.025844576
70	0xbbe114b8	-0.006868925
71	0x3c119f5d	0.008888093
72	0x3cc87698	0.024470612
73	0x3c5e2886	0.013559466
74	0x3c78a309	0.015175589
75	0xbbed391a	-0.007239473
76	0xbba8002a	-0.0051269727
77	0x3abf719a	0.0014606
78	0x3bc69567	0.0060602906
79	0xbc929075	-0.017891148
80	0x3cb667e0	0.022266328
81	0xbc360c80	-0.011111379
82	0xbca862ee	-0.020554986
83	0x3af3dfd4	0.0018606135
84	0x39af747d	0.00033465392
85	0x3cb04d91	0.021521362
86	0xbc835dd8	-0.01603596
87	0xbc2b10ae	-0.0104409885
88	0xbc773c5a	-0.0150900725
89	0xba8c0703	-0.0010683242
90	0xbb8ec27e	-0.0043566814
91	0xbc8d7adf	-0.017270504
92	0x3c194e36	0.009357026
93	0x3c5f031a	0.013611579
94	0x3b2274e1	0.0024788904
95	0x3c4a5248	0.012348719
96	0x3c862561	0.016375246
97	0x3c71b0f9	0.014751666
98	0xbc8d2557	-0.01722972
99	0xbbd5c0f0	-0.006523244
100	0x3b1c33e1	0.0023834633
101	0xba36e677	-0.0006977091
102	0xbcb2564a	-0.021769661
103	0x3c1f2032	0.009712266
104	0x3c98d214	0.01865486
105	0x3b007b6f	0.0019604822
106	0xbccfaf8c	-0.025352262
107	0xbc71309a	-0.01472106
108	0xbc2757cc	-0.0102138035
109	0xbc58a487	-0.01322282
110	0xbc9c562d	-0.01908406
111	0x3c86b8ce	0.016445544
112	0xba93020a	-0.0011215818
113	0xbc70e601	-0.014703275
114	0x393b8518	0.00017883291
115	0x3c3c9a6b	0.0115114255
116	0x3cf33405	0.02968789
117	0x3c5a3fe2	0.013320895
118	0x3c014b7a	0.00789153
119	0xbc1779ef	-0.00924538
120	0xbbb4e43b	-0.0055203713
121	0xbbcda5d4	-0.006275872
122	0x3bf091a0	0.0073415786
123	0xbb711603	-0.0036786802
124	0xbd31f63d	-0.04344772
125	0xbc275b3d	-0.010214624
126	0x3c7ab941	0.015302957
127	0x3ca30726	0.01990087
128	0xbc7f59a1	-0.015585334
129	0x3aecb769	0.0018060032
130	0xbc334688	-0.010942109
131	0xbcc9068f	-0.02453926
132	0x3ca20015	0.01977543
133	0x3c57ab2b	0.013163368
134	0x3c8beed8	0.017081663
135	0xbab0b73b	-0.0013482341
136	0xba6173ae	-0.00086003065
137	0x3c207d72	0.0097955335
138	0xbd60dbfe	-0.0548973
139	0xbb37199b	-0.0027938846
140	0x3c8a7b3c	0.016904466
141	0x3c966aa6	0.0183614
142	0xbc52bb41	-0.012862028
143	0xbb4817e6	-0.0030531823
144	0xbd2e580a	-0.04256443
145	0x3a677381	0.0008829162
146	0xbcaa3ec2	-0.020781878
147	0xbcb622a7	-0.02223332
148	0x3caeb916	0.02132849
149	0xbccbcf2a	-0.024879057
150	0x3cb05bff	0.021528242
151	0x3b938b37	0.0045026797
152	0x3c41f196	0.011837384
153	0xbc12e74c	-0.008966278
154	0xbcdbc9e9	-0.026829677
155	0x3c135d9f	0.008994489
156	0xbca76f8f	-0.020438937
157	0x3cba1886	0.022716772
158	0xbc862cd8	-0.016378805
159	0xbc9ca9a1	-0.019123854
160	0xbcced599	-0.025248336
161	0x3c02f98f	0.00799407
162	0xbcbd3902	-0.023098473
163	0x3cab8ba7	0.020940615
164	0xbc356199	-0.011070632
165	0xbca84acd	-0.02054348
166	0x3c9de066	0.01927204
167	0x3bc41298	0.005983662
168	0xbc8a5a4e	-0.016888764
169	0xbc941985	-0.018078575
170	0xbbdb493d	-0.0066920803
171	0x3a487652	0.00076470256
172	0xbcc2b2b7	-0.023766859
173	0xbb555917	-0.0032554322
174	0x3bb307a6	0.0054635582
175	0x3c353a34	0.01106124
176	0xbcb16c32	-0.021658037
177	0xbc9bb8ce	-0.01900902
178	0xbb2f2e25	-0.0026730385
179	0xbbec3b47	-0.007209215
180	0xbc03e7b0	-0.008050844
181	0x3ba1441a	0.0049214484
182	0xbc85023e	-0.01623642
183	0xbcc34609	-0.023837106
184	0x3ad5dbf7	0.0016316165
185	0xbc647304	-0.0139434375
186	0xbc572a21	-0.013132603
187	0x3c89a9f1	0.016804667
188	0x3c2e6249	0.01064355
189	0xbcb62b89	-0.022237556
190	0xbcd54882	-0.026035551
191	0xbb35ec34	-0.0027759196
192	0x3c6bfa4c	0.014402937
193	0x3cad901b	0.021186879
194	0xbc96e208	-0.018418327
195	0xbadab17d	-0.0016684976
196	0x3ba60faf	0.0050677876
197	0xbcc528fe	-0.024067398
198	0xbcd3f459	-0.02587335
199	0xbcd66959	-0.02617328
200	0xbc92ad37	-0.01790486
201	0xbcc0e973	-0.023548817
202	0x3c71c108	0.014755495
203	0x3c39edbf	0.011348187
204	0x3c8577a1	0.016292395
205	0x3cb6c8f5	0.02231262
206	0xbc0ab273	-0.008465397
207	0x3c331ce6	0.010932183
208	0x3c70839d	0.014679817
209	0x3ca24550	0.019808441
210	0x3b0c0ac4	0.0021368722
211	0x3baddd5a	0.005305928
212	0xbb0f5f04	-0.0021876702
213	0xbd09b75b	-0.033622127
214	0xba91f48f	-0.0011135506
215	0xbc0e5763	-0.008687827
216	0x3ba8dfe2	0.005153642
217	0x3cb16396	0.021653932
218	0x3bb0ac7a	0.0053916546
219	0x3cadafdc	0.02120202
220	0xbb55a65c	-0.0032600379
221	0xbcafc3eb	-0.021455726
222	0x3c7acca4	0.015307579
223	0xbc622370	-0.013802394
224	0x3c41068b	0.011781345
225	0xbcb36720	-0.02189976
226	0xbc861d7f	-0.016371487
227	0xbab2da57	-0.0013645393
228	0xbd9ebcd1	-0.077508576
229	0xbc0efe17	-0.008727572
230	0x3c1817ee	0.009283049
231	0xbc42ce0b	-0.011889945
232	0x3be015f1	0.006838553
233	0xbc9fe3b7	-0.019517763
234	0xbc574f87	-0.013141519
235	0xbbb4ab91	-0.0055136164
236	0xbc9bd01a	-0.019020129
237	0xba91ad2c	-0.0011114231
238	0xbc501b29	-0.012701788
239	0xbb239162	-0.002495848
240	0x3c002cdb	0.007823194
241	0xbcca4b2e	-0.024694052
242	0x3c43b341	0.011944593
243	0xbb498408	-0.0030748863
244	0xbbeb89d2	-0.0071880603
245	0x3afd61f3	0.0019331559
246	0x3a0c7e06	0.0005359355
247	0x3c0de463	0.008660409
248	0x3c1f1ee1	0.009711952
249	0xbc38245c	-0.0112391375
250	0x3c4a5e40	0.0123515725
251	0xbca24338	-0.019807443
252	0xbccbafe5	-0.024864146
253	0xbaf339d4	-0.0018556663
254	0x3c26a585	0.010171299
255	0xba7a92bf	-0.000955861

critic_head.0.bias f4 [64]
0	0xbbc8f714	-0.0061329696
1	0x3c7137b8	0.014722757
2	0xbbcea488	-0.0063062347
3	0xbc362ec0	-0.0111195445
4	0xbb607c2d	-0.0034253702
5	0x3cb71e77	0.022353394
6	0x3a89ab3e	0.0010503305
7	0x3c9ff343	0.019525176
8	0x3d1a8afd	0.037730206
9	0xbcaf735e	-0.021417316
10	0xbc7824e2	-0.015145512
11	0x3bcf8042	0.006332428
12	0xbc0ce3a5	-0.008599197
13	0xbc194ed8	-0.009357177
14	0xbc5af4d9	-0.01336404
15	0x3a40c092	0.0007352914
16	0x3cd79a5c	0.026318721
17	0x3cb847e3	0.022495216
18	0xbd06fe88	-0.032957584
19	0xbbd26f9e	-0.006421997
20	0xbc114a8b	-0.00886787
21	0x3cc5b84b	0.02413573
22	0x3bc7d56e	0.006098441
23	0xbc2b1271	-0.0104414085
24	0xbc946366	-0.018113803
25	0x3bc448fd	0.005990146
26	0xbc7d7611	-0.015470044
27	0xbc9e0639	-0.019290077
28	0x3be5880e	0.0070047444
29	0xbaaa05a5	-0.0012971653
30	0x3c7bd278	0.015370004
31	0xbccef69b	-0.025264075
32	0xbce87fb9	-0.028381215
33	0x39839714	0.0002509883
34	0xbce5f0c9	-0.028068917
35	0xbce03ac0	-0.027371764
36	0x3c35389e	0.011060862
37	0xbcf734fa	-0.030176628
38	0xbc96d37e	-0.018411394
39	0x3bb59612	0.0055415714
40	0x3b6eb5e5	0.0036424336
41	0x3c013449	0.007886001
42	0x3b75b9e9	0.0037494844
43	0x3ad3c91b	0.0016157957
44	0x3c8e42f1	0.017365905
45	0x3c5e0404	0.013550762
46	0x3c5ca8c0	0.0134679675
47	0x3b5fb05a	0.0034132213
48	0x3caa25ff	0.020770071
49	0xbb851898	-0.0040617697
50	0xbbfbd643	-0.007685454
51	0xbcbc9406	-0.023019802
52	0xbcb7bea6	-0.022429775
53	0xbc93f2ed	-0.018060172
54	0x3c96e1ad	0.018418157
55	0x3c109b3b	0.008826072
56	0xbb6e8c0a	-0.0036399388
57	0xbb53fd20	-0.003234692
58	0x3c5ddefe	0.013541935
59	0x3c6fb4b9	0.01463049
60	0xbb0ea5b2	-0.0021766243
61	0xbbb12877	-0.005406435
62	0xbc274f49	-0.010211774
63	0xbd04eab1	-0.03245038

critic_head.2.weight f4 [1, 64]
0	0xbc9b5873	-0.018963074
1	0xbc5fe108	-0.0136644915
2	0x3d110297	0.03540286
3	0xbcabdbbe	-0.020978805
4	0xbde6bc67	-0.11266404
5	0xbd30242e	-0.043003254
6	0xbddcd6aa	-0.107831314
7	0x3d258805	0.04041292
8	0x3cc895fd	0.024485582
9	0x3d92a543	0.071604274
10	0xbda110da	-0.07864542
11	0xbdeed5cf	-0.116618745
12	0x3cbdb80c	0.02315905
13	0xbd198acb	-0.03748588
14	0xbc8dfa20	-0.017331183
15	0xbd99c961	-0.07509113
16	0x3ddb9d41	0.10723353
17	0xbd7c7794	-0.061637476
18	0xbdfd0bb0	-0.12355745
19	0xbdaba737	-0.08381503
20	0xbdeafb02	-0.11473657
21	0x3dea69d1	0.11445964
22	0x3df0c0f9	0.117555566
23	0x3d7c39ea	0.06157867
24	0xbcf20491	-0.029543193
25	0x3d078c08	0.03309253
26	0xbddb8529	-0.10718758
27	0x3c46acd9	0.012126171
28	0xbd6b1d5e	-0.057401054
29	0xbd81ff2f	-0.063475005
30	0xbde8df49	-0.11370713
31	0x3da4d903	0.08049204
32	0xbdb3fe77	-0.0878877
33	0x3dcee36a	0.101019695
34	0x3dde2988	0.10847765
35	0xbcb128ba	-0.021625865
36	0x3d2cdc4a	0.04220227
37	0x3b60b309	0.00342864
38	0x3ddcce2c	0.10781512
39	0x3de8d0b7	0.11367934
40	0x3d1b935a	0.037982322
41	0x3b3e8547	0.0029071139
42	0x3ccea18d	0.025223518
43	0x3d488577	0.048955407
44	0xbcae8344	-0.021302827
45	0xb9d8013d	-0.00041199653
46	0xbd8e2252	-0.0694014
47	0x3d197b73	0.037471246
48	0xbbba7a3a	-0.00569084
49	0x3d5e09d0	0.054208577
50	0xbd6262b8	-0.055269927
51	0x3b52d8a8	0.0032172594
52	0xbd41e4c8	-0.047337323
53	0xbcf8a5ae	-0.03035244
54	0x3d3cebab	0.046123188
55	0x3d083483	0.033253204
56	0x3da7792f	0.08177411
57	0xbdb0d47d	-0.08634279
58	0xbdca81b8	-0.09888023
59	0x3ba0fb28	0.0049127527
60	0x3d3044e2	0.04303444
61	0x3d3f0253	0.046633076
62	0xbda08f19	-0.07839794
63	0xbc560d45	-0.013064687
