project_files/runs/Sep11_12-07-28_kiveli.ics.forth.gr/ppo_policy_camera_cnn_whole_circle.pth (torch, 851205 bytes, 15 tensors)

cnn_base.0.weight f4 [16, 1, 3, 3]
00000000: ecf1 a03e 92ba a03d 01a5 f53d a549 8e3e
00000010: f017 723d c41e 85be a4d8 7bbe 2ed1 83be
00000020: 8a9c 773e 23b7 0ebe abc1 5c3d c045 bd3d
00000030: 80ce a33e e463 713e 8462 0ebd dbfb 153e
00000040: f1a7 d5bd e2e9 ba3d ae54 e63d dc8c bd3d
00000050: d844 20be 1ed7 a8be 55e7 403e f1ed 75bc
00000060: b370 9abe 2157 80be f318 4dbe 25aa 863e
00000070: 5d37 86be 4a62 d33c 7043 1ebe 81b2 a63c
00000080: 0e20 973e b104 9dbe b338 33be b08f 313d
00000090: 7e45 ab3d 7db2 4c3d e3d6 633e e148 a73e
000000a0: 249c ea3d fe90 3d3d 146c 97be 0c53 34be
000000b0: 2f2f fa3d 5977 de3d 8d05 9b3e 6e16 fcbd
000000c0: eb45 333e cb0c 5abe 4973 c13d 10b5 75be
000000d0: a9fd 1f3e a6cd 693c 0a07 1cbe a27e afbd
000000e0: 7401 9fbd f7cd d9bd 3cdf 49be 767e c83c
000000f0: 3eb8 bf3c ae78 16bc a8e2 393e 89e5 9b3e
00000100: 6cd4 a8be b0eb 7abe 925b 353e d1ca a2be
00000110: 20c8 96bd f027 743d 2eb3 5f3e f614 763e
00000120: c54d d3bc a6ab 803e d838 12bd aedb 8bbe
00000130: 5b62 82be 0107 9fbe 4d16 efbd 43a1 97be
00000140: 5340 983e 0145 843c 5389 563e 5c0a 07be
00000150: 11e9 8f3e fa46 9dbe 895f 4e3e d382 693d
00000160: 04f9 1d3e 9d4b adbd d204 aabe 9d1a 0a3e
00000170: 52ff 893a c1d7 69be cbae 3b3e 862f 7cbe
00000180: d332 95be 8a48 f3bd 6357 aebd 8463 5e3e
00000190: 7631 243e 2130 35be d7d6 1e3e 963c a6be
000001a0: df1c 09be 6ddd 1e3d 73ee fe3d 3dd3 f83d
000001b0: d0fa 84bc e258 85be c7ef 4f3d c2ee 95be
000001c0: b09c 43be 3dc8 2d3e 9af9 75bc 307f 09be
000001d0: 6a0a 383e b749 393e b307 d13d ee7d 583e
000001e0: ec42 e7bd 75b6 a0bd eb94 973e 4649 a33d
000001f0: c6fc 663e 6957 d63c 1c68 86be eb76 913e
00000200: ea83 663d 4be6 83be d24a 15be 7afa 7abe
00000210: 184e 673d 1d94 d0bd 39b8 403d 70ff a53e
00000220: d805 a13e 471b 4f3e 3b42 3fbe eb43 b03d
00000230: 1dcb 103e 8fde 41be c5a6 9cbe eb0c 533e
0.31434572 0.078480855 0.119943626 0.2779056 0.05910486 -0.26000035 -0.2459436 -0.2574553
0.24180809 -0.13937049 0.053895634 0.092418194 0.31993484 0.23573261 -0.03476192 0.14646856
-0.10432423 0.09126641 0.1124662 0.092553824 -0.15651262 -0.3297662 0.18838246 -0.015010343
-0.30164108 -0.25066474 -0.20029049 0.26301685 -0.26214114 0.025803704 -0.15455413 0.02034879
0.29516643 -0.30667642 -0.17502098 0.04334992 0.08362864 0.049974907 0.22249942 0.3267279
0.11455563 0.046280853 -0.29574645 -0.17609805 0.12216031 0.108626075 0.30277672 -0.123089656
0.1750714 -0.21293943 0.09445817 -0.23994851 0.15624107 0.014270222 -0.1523706 -0.08569075
-0.07763949 -0.10634988 -0.19714063 0.024474364 0.023403283 -0.009184046 0.18152869 0.3044856
-0.32974565 -0.2450397 0.17710713 -0.31795362 -0.073623896 0.0596084 0.21845695 0.24031433
-0.02579392 0.25130957 -0.03569874 -0.2731604 -0.25465664 -0.3106003 -0.116741754 -0.2961522
0.29736575 0.016146185 0.20950823 -0.13187546 0.28107503 -0.30718213 0.20153631 0.05700953
0.15427023 -0.08461688 -0.33206803 0.13486715 0.0010528362 -0.2283621 0.18328397 -0.24627504
-0.29140338 -0.1187907 -0.085127614 0.2171765 0.16034493 -0.17694141 0.15511642 -0.32468098
-0.1338992 0.038785387 0.12447824 0.121496655 -0.016232878 -0.26044375 0.05076578 -0.2928372
-0.1910274 0.16970916 -0.015013123 -0.13427424 0.17972723 0.18094526 0.10206547 0.21141788
-0.11292061 -0.07847301 0.29605803 0.0797296 0.22557363 0.026164727 -0.26251304 0.2841104
0.056278147 -0.25761637 -0.14579323 -0.24509612 0.05647096 -0.101845 0.04705069 0.32421446
0.3144977 0.20225249 -0.18677609 0.08606704 0.14139982 -0.18932556 -0.30595985 0.20610397

cnn_base.0.bias f4 [16]
00000000: 1447 f6bd e439 513e 375d 523c 9d76 7f3e
00000010: dc98 853b 72ec 9dbd 7be3 37bd bc39 d8bd
00000020: 3f7e 1f3e ae97 913e 87e4 8fbe 0feb 843d
00000030: b63a ee3d 79d3 8b3d 30ee 053e d538 c93c
-0.12025276 0.2043224 0.012839607 0.24947591 0.00407706 -0.07711114 -0.044894677 -0.10557887
0.15575503 0.28436035 -0.2810404 0.06490146 0.11632292 0.068274446 0.13079143 0.024563232

cnn_base.3.weight f4 [32, 16, 3, 3]
00000000: 323d 78bd 2f69 4dbd 6277 a6bd 5fe5 513c
00000010: 6464 1dbd 2f6e 6dbd b020 43bd 92f6 9cbd
00000020: b739 a33d 9814 963c 50a2 553d 5a65 a0bd
00000030: f197 853c c0d3 943d cc9a 963d e251 903d
00000040: cc8e 553d d912 cdbc a176 c1bc 4daa 84bc
00000050: 3278 87bd 8bc2 56bc 833e 56bc a5f2 123d
00000060: ebb9 663d c183 71bd 7148 843d e9cf 4d3d
00000070: 8ff2 363d 195f 8e3d 5464 ffbc bd41 453d
00000080: 8cb2 98bd 41e9 003d da8e 5a3d 4438 0a3d
00000090: f94c 21bd 3b55 9d3c e41d 6bbc 6d5c 7f3d
000000a0: 8790 a23c 5d59 6a3d 6822 39bd 9300 5dbd
000000b0: 0251 633c 9762 a43d c1fe 4c3c 73d7 8fbd
000000c0: 6ca5 ccbc 0da4 c2bc 2e19 143d 1a0c 5c3d
000000d0: 4239 87bd cc2b 58bc d75a 94bd 6f7b 993d
000000e0: dbee a0bd 381c 803d 00d8 c7bc 3ca6 0abc
000000f0: 6011 e43b 1ba1 4c3d e5c6 7c3d fae8 893d
00000100: 4732 883d 1a16 253d 8641 2abd e71d 9fbd
00000110: 44c2 adbd f8d8 84bd e35a 973c 0f5a 973d
00000120: 6fbf cb3c e216 8fbd 8997 4dbc 1cbe 79bc
00000130: 440d c6bc bfed a5bb 12e5 35bd e757 39bd
00000140: 2aae 4d3d 6105 62bd 3d85 adbc 4ace 053d
00000150: a43d 553d 0a62 883c 58ba 92bc 2919 243d
00000160: 734a 2b3c 8e4b 383d 262b 7cbd 10c5 1a3d
00000170: 4441 67bc f6f4 87bc b676 203d c4ed 7cbd
00000180: cadd c4bc 8880 acbd b87f 6ebd 24a8 173d
00000190: a969 a1bd 62bd ee3c 5da6 593b ded9 19bd
000001a0: bfea 323c d336 003c 3e0d 8d3d 3eef b43c
000001b0: bbcc 2abd 3bea 45bd ad7a 753d 9cef 7dbb
000001c0: b20e 283d 603e 873d 3c88 81bb b4e8 83bd
000001d0: 931c 7ebd 0d6d 343d bdb1 803d d488 453d
000001e0: a7e9 d4bc f4dd 653c e4de 943d e21f eabc
000001f0: 50ac edbc 4459 0abc df08 6f3d 2231 d23c
00000200: ee3a 8c3d 705a 603d ddbd 583b 8c0b 353d
00000210: 50cd 96bd ddc8 70bd a850 7b3d 39a0 573d
00000220: 7dd6 45bd 8206 66bd 4648 41bd 7998 0d3c
00000230: c4b5 843d 4784 243b b382 82bd c932 9f3d
00000240: 5f08 d9bc e8d5 303d ab7c ab3b dfca 263d
00000250: f0e0 813c 62da df3c 7482 723d 92a8 173d
00000260: 2184 7ebd 1683 823c 4d63 763d 989a 36bd
00000270: 9a84 76bd 0d94 8fbd 4221 203d 2716 0ebd
00000280: 3fa1 a03c 0571 053c d4a9 9f3d fd7a c2bc
00000290: 58e2 b13c bff8 8bbd 2283 d3bc b426 9bbd
000002a0: 0b61 36bd e77c 393b b5ab a4bd 156d 873d
000002b0: 7074 383c 9d15 27bd 8554 d63c cc60 1fbd
000002c0: 66f2 873d 3443 74bd c838 75bd 5f90 70bd
000002d0: 1407 75bc 1c6d 58bd 4905 9bbd 5e67 033d
000002e0: b32b 1f3d 215f 33bd a045 81bc 9771 b33c
000002f0: 4105 c0bb d149 c5ba bf96 c73c 8f8c 8cbd
00000300: 8e65 c33c 7ed8 3bbd f9d1 083c bc9a 913d
00000310: 6c7f 093d df7a a6bc 9777 213d bacf 1ebd
00000320: 2650 173d 9e3d 8bbd 9daf 1d3d 950c 3dbd
00000330: 1bd6 0bbd 65b8 303b 47d3 913c c042 52bd
00000340: 71e4 21bd 0d8f 85bd b596 f1bc c771 1dbd
00000350: dc48 913c eb05 4b3d 70d7 a1bc ab7e 6bbc
00000360: 537d 0c3d 0628 6dbd 62a7 4c3d 515c a6bb
00000370: 0de2 47bc 376f 3dbd 772b 5c3d 7593 a8bc
00000380: 30e9 a73a dcbd 893d f340 6a3d 247c 5abd
00000390: 498f a5bd 164e f6bc c089 323d 838c 62bd
000003a0: 63a5 74bd 427a 613d b617 acbd 07af e63b
000003b0: 19bb a73d f2cf 0939 bf58 8ebc 9cca 6e3d
000003c0: 3dff 41bc 0a42 4fbd a97d cd3c 8623 2d3d
000003d0: 3fe5 913c ec4d 3fbd 67d5 13bc 1a0e 613d
000003e0: c522 a43d ea87 5a3d e7df 843b 39a3 563d
000003f0: 3687 6d3d 6d91 51bd 3d95 833d 690c 333d
-0.060605235 -0.05014914 -0.08128239 0.012811034 -0.038425818 -0.057966407 -0.047638595 -0.07664217
0.079699926 0.018320367 0.052156746 -0.07831831 0.016307803 0.072669506 0.07353744 0.07046868
0.052138135 -0.025033401 -0.023616137 -0.016194487 -0.06614722 -0.013107906 -0.013076427 0.035875935
0.05632965 -0.05896354 0.064591296 0.050247107 0.044664916 0.06951732 -0.03117577 0.048158396
-0.0745593 0.03147245 0.05335889 0.033745065 -0.039380047 0.01920568 -0.014350388 0.062344003
0.019844307 0.05721413 -0.045198828 -0.053955626 0.013874294 0.08026617 0.01251191 -0.070235156
-0.024981223 -0.023759866 0.036156826 0.05372248 -0.06602718 -0.013194036 -0.07243889 0.07494246
-0.07858058 0.06255382 -0.024394989 -0.008462485 0.006960079 0.04995833 0.061713118 0.0673389
0.06650215 0.04030428 -0.041566394 -0.07769375 -0.08484319 -0.06486696 0.018475955 0.07390224
0.024871556 -0.069867864 -0.012548336 -0.0152430795 -0.024176247 -0.005063742 -0.04440791 -0.045249846
0.050214924 -0.05518091 -0.021181697 0.032667436 0.05206074 0.016648311 -0.017911121 0.040063057
0.010454762 0.04499393 -0.061564587 0.03778559 -0.014114682 -0.016596299 0.03917571 -0.06175019
-0.024031539 -0.08422953 -0.05822727 0.037025586 -0.07881481 0.02914304 0.0033210733 -0.03756129
0.010920226 0.007825571 0.06887291 0.022086736 -0.041699152 -0.048319083 0.059931446 -0.0038747555
0.04102964 0.06603694 -0.003953008 -0.06440869 -0.06203897 0.04404931 0.06283901 0.048226193
-0.02599032 0.0140299685 0.072690755 -0.028579656 -0.029012829 -0.008444134 0.05835807 0.025658194
0.068471774 0.054773748 0.0033072152 0.044200465 -0.07363379 -0.05878531 0.061356217 0.052643035
-0.048300255 -0.05615855 -0.047188066 0.008642309 0.064799815 0.0025103258 -0.06372585 0.077733584
-0.02649325 0.043172747 0.0052333674 0.040720817 0.015854329 0.027325813 0.05920644 0.037025996
-0.062137727 0.015931647 0.060153294 -0.044581026 -0.060185052 -0.0701066 0.039094217 -0.034689095
0.019608138 0.008144622 0.07796064 -0.023740286 0.021714374 -0.06834554 -0.025819365 -0.075757414
-0.04452614 0.0028303207 -0.08040563 0.066126026 0.01125823 -0.040792096 0.026163349 -0.038910672
0.06638031 -0.059634402 -0.059868604 -0.058731433 -0.014955301 -0.05283843 -0.075693674 0.032081
0.038860034 -0.043791894 -0.01578027 0.02190475 -0.0058600013 -0.0015051906 0.024363874 -0.06862747
0.023852136 -0.04586076 0.008350843 0.07109591 0.033568785 -0.020322261 0.03942069 -0.038772322
0.03694167 -0.06798862 0.038497556 -0.046154577 -0.034139734 0.0026965376 0.01780094 -0.05133319
-0.0395245 -0.065214254 -0.029490808 -0.038438585 0.017734937 0.04956619 -0.019756049 -0.014373462
0.034299206 -0.057899497 0.049964316 -0.005076923 -0.012199891 -0.04624864 0.05375239 -0.020578125
0.0012810584 0.06725666 0.057190847 -0.053341046 -0.0808397 -0.030066531 0.0435884 -0.055309784
-0.059728038 0.055048235 -0.0840296 0.007039908 0.08189983 0.00013142804 -0.017376302 0.058298692
-0.011840639 -0.05060009 0.025084333 0.042270206 0.017809508 -0.04670517 -0.009023047 0.05494509
0.08014444 0.053352274 0.0040550116 0.052401755 0.057990275 -0.05116408 0.06424949 0.043713007

cnn_base.3.bias f4 [32]
00000000: a5f6 b13c 6358 98bd f9df 853d b6dd 23bd
00000010: 70a9 8bbd 3b7d 5fbd e1b1 683c 799c 2d3d
00000020: 55ab 40bd 15bb 3dbc ee59 55bd 9b1c dabc
00000030: 640c a33d d33a 99bd 34d7 ab3b 073f 3bbc
00000040: bb93 ae3c 8d11 87bb cc61 3cbd 7ba2 973c
00000050: d207 663c 0d4e ebbc f673 5ebd a27f 0bbd
00000060: f04d 113c f081 92bd beb1 96bc 4c0f 9dbd
00000070: 7f5e 713d 117d b93c 5057 343d 26d2 7fbc
0.021724055 -0.074387334 0.0653686 -0.040006362 -0.06819427 -0.05456279 0.014202566 0.042385552
-0.047038395 -0.011580248 -0.052087717 -0.026624968 0.07961348 -0.07481923 0.00524416 -0.011428601
0.021310678 -0.0041219653 -0.045991704 0.018510094 0.01403995 -0.028723741 -0.054309808 -0.034057267
0.008868679 -0.0715369 -0.018395301 -0.07668933 0.05892801 0.022642644 0.04402858 -0.015614068

mlp_base.0.weight f4 [32, 2]
00000000: 8e48 233f 7777 bfbe 5636 0d3e b7a3 8c3e
00000010: aa7a 003f a5d8 22bf 91ca d53e a8b6 1cbf
00000020: 3f9e d6be 1536 19bf f1e8 98be a751 d3be
00000030: c395 08be 326d a5bd 8fdf 12bf cc2d 28bf
00000040: 8d7f e3be affa 1bbf f353 323f 984b 873c
00000050: eadb 633e c9b8 0d3f b563 b43e 872d e53e
00000060: eae0 a63e 7c33 0ebf 0f57 773e c118 92bd
00000070: 610c 113f 4457 d7bb b367 fa3e 1626 dbbe
00000080: 5a19 01bf 7d45 a9be 0822 063e 90c8 a93e
00000090: b086 b93d 1f55 31bf 3ab6 95bc d237 1ebf
000000a0: e6a7 8ebe 5b8a ab3e a483 afbe 5224 5cbe
000000b0: efe1 203d 1334 17bf 0031 de3d ed67 103e
000000c0: 112c ecbe 48b4 95be e79f 2abf 51dd f3bd
000000d0: 2b4c bfbd dc4e f8be 857f 07bf c4f9 263f
000000e0: c76b 153f 1daa 04be 5c89 263f d8be 04bf
000000f0: dc4d 09bf e6a6 903e 1fa5 af3e 47d7 713e
0.63782585 -0.37395832 0.13790259 0.27468655 0.5018717 -0.63611823 0.41756108 -0.6121621
-0.41917607 -0.5984815 -0.2986522 -0.41273233 -0.1333838 -0.08077468 -0.57372373 -0.6569488
-0.4443325 -0.6092939 0.69659346 0.016515538 0.2225186 0.55360085 0.3523232 0.44761297
0.3259347 -0.5554731 0.24154304 -0.07133628 0.56659514 -0.006571682 0.4890724 -0.42802495
-0.5042931 -0.33060828 0.1309892 0.3316083 0.09058893 -0.6927051 -0.018275369 -0.61803925
-0.2786247 0.33503994 -0.3428012 -0.2149823 0.039277967 -0.59063834 0.1084919 0.14102145
-0.4612737 -0.29239106 -0.6665024 -0.11907447 -0.093407 -0.48497665 -0.52928954 0.6522486
0.5836758 -0.12955518 0.65053344 -0.51853704 -0.5363443 0.28252333 0.34305665 0.23617278

mlp_base.0.bias f4 [32]
00000000: 192a 1ebf ee3d 1abf eff6 493e 4814 f03e
00000010: 61f3 1abf 7036 1bbf 13b4 26bf 0337 b43e
00000020: 1cda febd 3c66 123d 65c4 d9bc e5cb e0be
00000030: 4caa fdbe ac2f 123f e927 5b3e 8ae2 1d3e
00000040: 9335 afbe e1f1 12bf ca6e 1e3f 9d01 d5be
00000050: 59ae 0c3f 5997 cfbe 45bf 4cbe 53ca ecbe
00000060: 96e3 6fbd 448a b73e cfe9 06bf 266d 1ebf
00000070: 0b49 d5bd e8cf 083f 05e3 94be 9b69 6ebe
-0.61782986 -0.6025075 0.19723104 0.46890473 -0.60527617 -0.6062994 -0.6511852 0.3519822
-0.12443945 0.03574203 -0.026582906 -0.4390556 -0.4954399 0.5710399 0.21401943 0.15418449
-0.3422056 -0.5740033 0.618878 -0.41602793 0.54953533 -0.40545157 -0.19994839 -0.4624811
-0.058566652 0.35847676 -0.52700514 -0.618853 -0.104143225 0.5344224 -0.29079452 -0.23282473

mlp_base.2.weight f4 [32, 32]
00000000: 1334 55bd b8d3 223e 4252 dcbd bd95 88bd
00000010: 097f 0b3e 50a6 e6bd cc6c 0e3e b098 993d
00000020: 2b7a 893d 90cd 243e 3801 61bd be9a 2a3d
00000030: cee8 d23d 39df b9bd 2750 eb3d 9593 813d
00000040: 7519 85bd 57d3 e53d a3ce fb3d 1f19 143e
00000050: a0ec 713d 020f bbbd eb94 40bd f05d 06be
00000060: 0909 cf3d 9038 2a3e 573e bfbd 2f34 8ebd
00000070: 028c 823a 8a12 00be a502 28be d9f5 a93d
00000080: ca75 4139 3a8f 753d c81d ccbd 32c5 0b3d
00000090: 1a7e 5dbd 9cb0 12bd e794 973d 2076 c63d
000000a0: caa7 f73d 471c 143e d37a e03d bf46 d23d
000000b0: 8c65 d5bd 8fe2 6a3c b0cb 183e 3eeb afbd
000000c0: 8446 9d3d f8af d2bd fd97 30be 3780 793d
000000d0: b5f2 bfbd 4ac3 8f3c 1eb5 a63d bc3e dc3c
000000e0: 6d17 92bd 857d d1bd 5401 b53d 9876 30bd
000000f0: 40eb 25be 3776 ba3d f11a b0bc 4069 8bbd
00000100: d6a6 db3d 3418 143e dc0d f63d 7305 6dbc
00000110: b1e0 f73d 3baa a43d 4254 a63d 6d7e f6bc
00000120: abb9 e93d f2c3 82bd 1770 f23d a778 c9bd
00000130: f2fb 233e db5a 8b3a 4054 debd d16c b3bd
00000140: 85bd 0b3d a941 d5bd 0a09 37bd d65e 8d3d
00000150: aa02 e2bd b5bb 263e 8e82 2e3e 1743 ac3d
00000160: 3f13 2fbe 3d11 a6bd d100 dd3b 9019 90bd
00000170: c98a cabd 129c 683d bef4 163e 2d71 c4bc
00000180: ff8e 53bd b781 09be 4a04 6a3d a434 0c3e
00000190: a0ef 643d eb72 2bbd 7526 113e 907a 1c3e
000001a0: 1888 2c3e db3b c83d c5e4 c03d b62c e7bd
000001b0: e14b 11be 06e1 c5bd d450 fd3c 8cd5 293e
000001c0: 7462 1fbe ab2e ec3d 9929 98bd 63eb 073e
000001d0: 531f 153e 9df9 03be df04 4e3d a6be 83bd
000001e0: de8e 24bd acc5 27be f599 ff3d e513 843d
000001f0: 406f 093e d5ad 173e 6a97 8fbd 2fee d23d
00000200: 7c0d 80bd 852a 113e 1588 163e 588e fcbd
00000210: e8da 213e 339b a9bb c03a b1bd 7f3b aa3d
00000220: e24e 43bd 48f4 cabd f8c3 22be b853 0bbe
00000230: f304 e9bd 8b5f f5bd 67b5 ab3d a390 453d
00000240: 6b87 373d 5fe2 913d b332 9bbd 8474 8abd
00000250: 75f9 e93d fa72 943d 8b76 f5bd 3e49 24be
00000260: cf99 843d 7ee0 8f3c c23e 773d 25f6 163d
00000270: a36a 1dbe 6816 ee3c 886e c3bd 1610 8fbd
00000280: 0bd0 0cbb 9dea 113e e5f0 1b3d 051d 18be
00000290: 6e6b 233e b257 6f3d d949 9dbd 7c21 143c
000002a0: 6244 1d3e 9916 bebd 5339 ffbd 8ca0 1abd
000002b0: 9377 223e 0803 dc3c facf d03c ec2f b43d
000002c0: 17f6 54bd 9c79 6b3d 4067 913d 1ce6 a73d
000002d0: a4f5 a23d 95db 8d3d 043e 033e 71d3 153e
000002e0: 0dbc dbbd b24c 1c3c e071 04be 75c1 383d
000002f0: 7abd c3bd fcea d9bc 2327 2cbd 58fc 89bd
00000300: fbb4 033e 883d 5abc 57fe c93d 5cbf cc3d
00000310: f54b 833c 2f1f ab3d be2e 80bd bc06 96bd
00000320: 432d 063e be8a 08be a097 4c3d a56f 743d
00000330: 4af6 893c 94e8 813d 21e4 253d f0e0 b4bd
00000340: 46df a6bd b6ac 1d3e 4237 303e 70f6 b03c
00000350: 556e 573b a79b cdbd 3b6c ba3d c932 363d
00000360: 97d7 e4bd f1c3 62bd 9c7c c2bd 02ca f43c
00000370: dd12 bc3d 33cd d1bd fc28 1f3e cd29 e53c
00000380: d03a 29be 7d95 eebd 9739 003d 3797 8cbd
00000390: d004 313e 6cae a3bd dbf8 d6bd 757a df3d
000003a0: 5b4c a6bd 724a 8ebd 1299 2e3e 572f 7e3d
000003b0: e725 0f3d 035b 9a3d 8373 0a3e 7d78 123e
000003c0: e968 063e 21a5 d13d 72c7 343d 8a84 53bc
000003d0: 3cbe c1bb 012a 853d 9369 0dbe 690c ed3d
000003e0: f1c4 183e 333b a83d 960b df3c 418e 1d3e
000003f0: 4c56 39bb cfa9 febd d99b 28be 3ef5 e3bd
-0.052051615 0.15901077 -0.10757877 -0.06669185 0.13622679 -0.1126219 0.1390869 0.07499826
0.06712755 0.16094041 -0.054932803 0.04165148 0.1029831 -0.090757795 0.11489897 0.06326977
-0.06498996 0.112219505 0.12295272 0.14462708 0.059063554 -0.09133722 -0.04701702 -0.13121772
0.10109145 0.1662314 -0.09338062 -0.06943547 0.0009959938 -0.12507072 -0.16407259 0.08298845
0.00018449794 0.059951045 -0.09966618 0.034123607 -0.054075338 -0.03581296 0.07401448 0.09690499
0.1209255 0.14463912 0.10960927 0.102674 -0.10419759 0.014336242 0.1492145 -0.08589791
0.076794654 -0.102874696 -0.17245479 0.06091329 -0.093724646 0.017549176 0.08140014 0.026885383
-0.07133374 -0.10229019 0.08838144 -0.04308185 -0.16203022 0.09104579 -0.021497222 -0.06807184
0.10725181 0.14462358 0.12014362 -0.014466631 0.12103403 0.080402814 0.0812154 -0.030089581
0.114123665 -0.0638503 0.11837786 -0.09837466 0.16014078 0.0010631935 -0.10855913 -0.087609895
0.034116287 -0.10412914 -0.044686355 0.06902854 -0.110356644 0.16282542 0.1704199 0.08411234
-0.17097186 -0.08108757 0.006744482 -0.07036126 -0.098897524 0.056789465 0.14741799 -0.023979748
-0.051650044 -0.13428389 0.057132997 0.13691956 0.055892587 -0.04185764 0.14174826 0.15281129
0.1684879 0.097770415 0.09418634 -0.11287825 -0.14189102 -0.096620604 0.03092233 0.16585368
-0.155649 0.11532339 -0.07429809 0.13273387 0.1456273 -0.12888189 0.050297614 -0.06432848
-0.04017531 -0.16384 0.12480537 0.06449107 0.13421345 0.14812405 -0.07011302 0.10299336
-0.06252572 0.14176376 0.14700349 -0.123318374 0.15806162 -0.005175972 -0.08653784 0.08312129
-0.04768265 -0.09909874 -0.15895069 -0.13606155 -0.11377897 -0.11981114 0.08384209 0.04823364
0.04480688 0.07123255 -0.075780295 -0.06760505 0.11424533 0.072484925 -0.11985501 -0.16043565
0.06474649 0.0175631 0.060362585 0.036855835 -0.1537271 0.029063419 -0.095425665 -0.0698549
-0.0021486308 0.14249654 0.03807153 -0.1485482 0.1595895 0.058433242 -0.07680101 0.009041186
0.15358117 -0.09281654 -0.124621056 -0.037750766 0.15865926 0.026856914 0.025489796 0.08798203
-0.051992502 0.057489023 0.070997715 0.08198187 0.079570085 0.069266476 0.12816626 0.1463144
-0.10729227 0.00953977 -0.12934065 0.04510637 -0.09557624 -0.026601307 -0.04202951 -0.06737584
0.12862007 -0.013320334 0.098629646 0.099974364 0.01602743 0.08355557 -0.06258915 -0.07325503
0.13103203 -0.13334176 0.04994929 0.059676785 0.016841073 0.06343189 0.040500764 -0.08831966
-0.08148055 0.15397915 0.17208579 0.021601886 0.003287216 -0.10039454 0.091026746 0.044482026
-0.11173933 -0.055362646 -0.094964236 0.029881481 0.091832854 -0.10244217 0.15542978 0.027974034
-0.16526341 -0.116496064 0.031304922 -0.068647794 0.17286992 -0.07992253 -0.10496684 0.10912029
-0.081200324 -0.06947793 0.17050579 0.062056866 0.034948256 0.0753689 0.13520627 0.14303775
0.13125958 0.10236574 0.04413552 -0.012910018 -0.0059125703 0.06502152 -0.13809805 0.11574633
0.14918877 0.08214416 0.027227204 0.15386297 -0.0028280197 -0.12434732 -0.16465701 -0.111307606

mlp_base.2.bias f4 [32]
00000000: 338c cb3d 09f3 363c d3e9 903b dad0 843d
00000010: 5d17 97bc 3d6b 35bd db30 113e c0e4 febd
00000020: a701 ba3c 217c 433d 67a5 e83d b9a3 003e
00000030: 3487 983d d388 973d fedc 183e 146c e13d
00000040: f434 84bd 79ba 363d 5afb e23d 2bde 213e
00000050: d71e 86bd 94fc 313d d9c9 3d3d 651a 2c3e
00000060: d7a1 be3d 099e 073e 3a8d 7abd 2322 bdbd
00000070: 1cdb 0dbe 9a09 cd3d 450d 32be 37b0 a83d
0.0993885 0.0111663425 0.0044224053 0.06485148 -0.018443758 -0.044291724 0.14178793 -0.12445974
0.022705866 0.0477258 0.11359673 0.12562455 0.07447663 0.07399144 0.14928052 0.110069424
-0.064554125 0.044611428 0.11083098 0.15807407 -0.06548851 0.043453768 0.046335075 0.16806944
0.09308212 0.1324388 -0.06116984 -0.09235027 -0.13853115 0.10011597 -0.17387874 0.08236735

actor_head.0.weight f4 [64, 1600]
00000000: f14c cdbc e3c7 b73b c680 4abc 3c43 c03c
00000010: 1b81 db3b 2cd9 94bc 3a7d 28bc 50c3 15bc
00000020: 9abe 8f3c c624 7fbc eb6f a3bc 5903 e0bb
00000030: 90d0 9dbc 8b80 75bc ccfe aebc 5ee1 83bc
00000040: d192 cebc 81de 2f3c 6f30 803a 5c54 303c
00000050: 5bff b13c 6385 aa3c 4c67 e3bb 9937 adbc
00000060: 67a3 cb3c fc47 a83c 25de b3ba bd1a 173b
00000070: b6fd 31bb 539c aabc 3364 9abb ebbc 903c
00000080: b53b 113c 2fd2 3bbc 6f37 83bc 1bf7 61bc
00000090: ae83 193c 8357 a53c 62f6 33bc d3e0 603c
000000a0: d639 9c3c bcc0 4e3c 811a 8bbc 5bdb 833c
000000b0: 9374 673c 3eeb 6e3c 2708 5d3b 7bcc 4a3c
000000c0: a5ad 573c 6f4e a6bc 3097 a63c e48b 4ebc
000000d0: 4e95 05bc 3670 51bc e25f aabc dced 37bc
000000e0: e272 0ebc 0cf7 7abc ccd3 efbc 5c7c 4eb9
000000f0: f53f 623c a026 b13c efc3 e7bb 5aa9 593b
00000100: c44e 7fbc 86aa 82bc 8f45 89bc 20da 443c
00000110: 681e 82bc d662 183c 5af4 60bc 637b 263c
00000120: 2ff3 a9bc 5867 873b fd8e b73c 9e7f a53b
00000130: c5d7 2ebc e7f1 7e3b 309b 2cbc 610c c7bb
00000140: f16d fcba 0659 0cbc 3713 0ebb 48a9 39bc
00000150: 4fc3 9bbc 933a bdbc 5262 0cbc 9bb2 96bc
00000160: 6c8c 793c 0edc 323c 2a99 3b3c b261 803c
00000170: 0e28 be3c d145 16bc 64cb 41bc bb19 32bc
00000180: 5258 49bc 1af8 97bc c860 b1bc b210 893b
00000190: 6ae5 7bbc 7b48 743a 19be ad3c 848c 9d3c
000001a0: b4fa b83b b424 b73c c6c2 e23a c9ad 70bb
000001b0: c9c0 94bc 0d03 e33b ade5 3a3c 2c87 5bbb
000001c0: ebd1 a2bc 42af d43a c65c 08bc 0ba4 a93c
000001d0: 5040 cd3a 0793 933c a149 e4bb b1e7 fd3b
000001e0: 286a 693c fad3 75b9 9001 c1ba b1cd 5bbc
000001f0: 0bc8 56bc 291e 8b3c a7c3 bfbc 5b36 76bb
00000200: d0f3 3abc 8875 993c 7b64 aa3c 2af6 443c
00000210: fc19 2dbc dabf 9ebc ef3c adbc 3b9d 18bb
00000220: 92e0 c83b 8d3d b1bc dd30 baba c1d8 99bc
00000230: 5c95 82bb 119b 213c d829 95bc 06c0 38bc
00000240: dc9c dd39 48b1 0f3c ebb3 863c 297d d73a
00000250: 64f5 23bc 34a8 36bc 26aa 84bb ed2b 713c
00000260: a30a cdbc cac8 ab3c 3a21 b4bc 7191 033c
00000270: cf65 b33c 5775 c83c baa6 4d3c 0afb 89bc
00000280: cbe3 c2bc 957f 4bbc 9a25 683c 4438 c43c
00000290: 78a0 a23c 40a5 983c cb83 9ebc e7ac 5dbc
000002a0: 8e04 6b3c 99e5 a5bc 90dd 9abc b28d b03c
000002b0: dcae c93c 007e c4bb 878e ba3b 6482 9bbb
000002c0: cedf a8bb d20f fb3b f3b5 9e3c 378a 01bc
000002d0: a38b 7dbb 16e8 553b 7bfe ff39 fad6 ff3a
000002e0: 2764 80bc 6f8f 143c 99d9 783c 3f92 ccbc
000002f0: f356 453b 1589 933c 1a37 9ebb 1627 13bc
00000300: 2dc6 53bc 780c 38bc b09d a03c 4666 b8bc
00000310: a8fb 9e3c aaf0 d1bc f773 b7bc 8031 87bc
00000320: 7cb3 bcbb e9fc 853c 4336 15bc 40b4 11bc
00000330: 534b 7ebc e766 9abc 969d 91bc 7b35 ccba
00000340: 5291 b13a 2735 aabc 59bd a5bb a906 87bc
00000350: 8144 303c ac55 503b 92ef 0cbc b22e 71bc
00000360: d08a 643c 2e0b b5bc 9620 08bb 9106 3dbc
00000370: 546e 2f3c 2271 45bc de39 9b3c d5d5 de3b
00000380: 3529 68bc a248 c5bc 7f0b 573c b348 65bb
00000390: 2fb4 30bb 7af2 7c3c 9318 9f3c 141f a73c
000003a0: c808 abbc 067b cc3a cca4 44bb 44fa c03c
000003b0: c9a3 bcbb f450 163b f0ef a4bc 1d07 803a
000003c0: 0785 3bbc c2b6 2b3c abb8 603b 780b f9bb
000003d0: a938 edbb 5bff 8d3c 7334 a13c 1ff2 96bb
000003e0: 1d20 98bc b5fc 683b 5e30 f0b8 6f43 aabc
000003f0: f932 873b 625c 53bc e568 9dbc 53fe 9dbc
-0.025061103 0.005608545 -0.012359804 0.02346956 0.00669874 -0.018169962 -0.010283763 -0.009140804
0.01754694 -0.015572732 -0.019950828 -0.0068363366 -0.01926449 -0.01498426 -0.021361731 -0.016098674
-0.025216492 0.010734201 0.0009780059 0.0107623 0.021728208 0.020815557 -0.006939804 -0.021144675
0.02485819 0.020542137 -0.001372282 0.0023056709 -0.002715928 -0.020826494 -0.0047116517 0.017668208
0.008864333 -0.011463686 -0.016017644 -0.013791825 0.009369774 0.02018333 -0.010984035 0.013725477
0.019070547 0.012619194 -0.016980411 0.016095808 0.014126915 0.014582453 0.0033726783 0.0123778535
0.013163959 -0.020301072 0.020335764 -0.012606595 -0.008153273 -0.012783101 -0.020797674 -0.011226144
-0.008694382 -0.01531769 -0.029275797 -0.00019692018 0.013809194 0.021624863 -0.0070729177 0.0033212514
-0.015582744 -0.015950453 -0.016756801 0.012014896 -0.01588364 0.009300908 -0.013730133 0.010161254
-0.020745842 0.0041321926 0.02240705 0.0050506135 -0.010671561 0.003890151 -0.010535046 -0.0060744737
-0.0019258839 -0.008566147 -0.0021678933 -0.011331864 -0.019014029 -0.02309922 -0.008568363 -0.018395713
0.015231233 0.010916723 0.011450091 0.015671585 0.023212459 -0.009171919 -0.011828277 -0.010870392
-0.012289124 -0.018550921 -0.021652594 0.0041828984 -0.015374521 0.0009318662 0.02120881 0.019232042
0.0056451205 0.022356369 0.0017300479 -0.0036724678 -0.018158333 0.006927854 0.011407298 -0.0033497317
-0.019875487 0.0016226547 -0.0083229 0.020708105 0.0015659425 0.018014444 -0.006966785 0.007748567
0.014246501 -0.00023443988 -0.0014725197 -0.01341574 -0.013109217 0.016982155 -0.023408724 -0.003756902
-0.0114106685 0.018732801 0.020799866 0.012021581 -0.010565277 -0.019378591 -0.02114722 -0.0023287076
0.0061302865 -0.021635795 -0.0014205236 -0.018780114 -0.00398509 0.009863631 -0.01820843 -0.011276251
0.00042269274 0.0087702945 0.016443213 0.0016440499 -0.010007236 -0.011148501 -0.0040486036 0.014719945
-0.025029486 0.020969767 -0.0219885 0.008030281 0.021899132 0.024470014 0.012551958 -0.016843338
-0.02379026 -0.012420555 0.014169121 0.02395261 0.019851908 0.018633485 -0.019349953 -0.013529993
0.014344348 -0.020251082 -0.018904477 0.02155194 0.024619512 -0.0059964657 0.00569326 -0.0047457684
-0.0051536327 0.007661798 0.01937387 -0.007906488 -0.0038687966 0.0032639555 0.00048826993 0.0019519024
-0.015672756 0.0090674 0.015188598 -0.02497208 0.003011164 0.018009702 -0.004828346 -0.008981487
-0.012925667 -0.0112334415 0.019606441 -0.022509705 0.019407108 -0.025627453 -0.022394164 -0.016503096
-0.005758701 0.016355949 -0.009107175 -0.008893073 -0.015520888 -0.018847896 -0.017775338 -0.0015579903
0.0013547337 -0.020777298 -0.0050579724 -0.016482668 0.01075852 0.0031789346 -0.00860204 -0.014720606
0.013949111 -0.022100057 -0.0020771376 -0.01153721 0.010707457 -0.012050899 0.018948492 0.006800393
-0.014169981 -0.024082486 0.0131252995 -0.003498596 -0.0026962867 0.01543867 0.019420898 0.020400561
-0.02087821 0.0015600629 -0.0030005453 0.023556836 -0.0057568294 0.0022936435 -0.020133942 0.0009767745
-0.01144529 0.010480585 0.0034289758 -0.007600244 -0.0072394204 0.017333677 0.01967833 -0.0046065
-0.01857 0.0035551016 -0.00011453101 -0.020784108 0.0041259495 -0.012900444 -0.019215057 -0.01928631

actor_head.0.bias f4 [64]
00000000: e58b 063c 0fd6 2c3c d16d 8f3c 888a 033d
00000010: 69d5 0dbc 65ec 823a 8842 54bc 9200 94bc
00000020: 6082 b43c 46e2 813c bc31 65bc b109 1b3c
00000030: fd19 d23c c99b cebc b16d be3c 1305 71bc
00000040: 8dc9 733c e809 413c f648 893a 9242 1ebb
00000050: 691e 433b 841f a2bc 9807 26bc 76ba 4a3b
00000060: c683 873c 93c7 72bc da08 823c 7ee1 8bbc
00000070: ee1c aeb9 bb39 abbc b784 cbbb 398b 12bc
00000080: f77e babc f052 cabc 8776 c63c 9566 71bb
00000090: 428d c5bc 0658 463c 3e0f a63b 539c 1dbc
000000a0: 0777 863b ccb4 473c e06f 6fbc ecf8 87bc
000000b0: 30af b2bc 6359 cfbc 9d71 1b3a d128 e13b
000000c0: 4333 2d3c 1162 943c 8f57 3bbc 96a7 bbbc
000000d0: 5e22 bcbc 4bd1 c03a 23d6 da3c 7bde 8e3c
000000e0: 04de c9bc aa4f bfbc 6955 9cba 0592 9b3c
000000f0: 813d 903c 540b c33c 4887 ab3b 9018 6dbc
0.008212064 0.010549082 0.01750842 0.032114536 -0.008656838 0.0009988664 -0.012955315 -0.018066678
0.022034824 0.015854966 -0.013988908 0.00946276 0.025647158 -0.025220769 0.023245664 -0.014710682
0.014879596 0.011782147 0.0010474015 -0.0024148566 0.0029772765 -0.019790418 -0.010133646 0.0030933893
0.016542327 -0.01481809 0.015873361 -0.017075296 -0.0003320942 -0.020901551 -0.006210889 -0.008944326
-0.02276562 -0.02469775 0.02422644 -0.0036834825 -0.024115209 0.012105947 0.005067735 -0.00961979
0.0041035446 0.012189101 -0.014614075 -0.016598187 -0.021812052 -0.025311178 0.00059297105 0.006871321
0.010571304 0.018113168 -0.01143445 -0.02290706 -0.022965606 0.0014710812 0.026713436 0.017440071
-0.024641998 -0.023353416 -0.001192731 0.018990526 0.017607452 0.023809113 0.0052346326 -0.014471188

actor_head.2.weight f4 [2, 64]
00000000: aba3 ffbd 94f5 ed3c 1999 c83d 0b99 ca3d
00000010: 008c 17bd d253 cdbd 5d31 e63c 6e11 cd3c
00000020: f458 2a3c 9bec c7bd 542d a7bd 5834 92bd
00000030: cd77 de3d 88d9 4a3d be2d 1bbd 0326 463d
00000040: 4549 98bd 70e6 5abc d4be 02bd 9109 843d
00000050: f15e df3d 67e4 1fbd 48ad 96bd 5f4b dd3d
00000060: f1b4 e4bd 5220 143d 8dd2 003d 8677 53bd
00000070: 1abb 4c3d a5d1 a6bd 0543 033e 43d5 693d
00000080: f424 96bd cd87 083b 6ad4 a83d 54ab d73c
00000090: 9881 aa3c a65c 24bd aeeb 49bd 9781 6abc
000000a0: 800d c5bb 6c83 563d 7599 073d 785d abbd
000000b0: 5874 fd3d d5c9 cf3d cc07 bb3c 1d84 c4bd
000000c0: 51c7 d93d 5a97 813c a62e 83bd 6e85 e1bd
000000d0: 6f8f 56bd c4cd 2f3d 2773 d0bd e226 3738
000000e0: 4c2b 0abd 476c 773b fe33 533d ba7b a13d
000000f0: 40f0 833d e078 f7bd 4c59 843d f056 5f3d
00000100: 2a77 98bc 9bdb 0d3d 2b95 073d 140c 7bbd
00000110: bbdb f9bc 1cff 103d 208f 6a3c 7db5 e5bd
00000120: de24 ce3d 7d83 f1bd 50c4 fe3c 4a23 d93d
00000130: cfd6 c03d 6319 b1bd 81d7 b5bc 108f b83d
00000140: be3e cebd 0274 a23d c759 823d f8c8 94bd
00000150: 1255 9cbc 5bd3 87bd 3213 95bd f726 7b3d
00000160: 3f43 f5bd 0b65 96bd 1d21 f93d ac90 e23c
00000170: 17b0 d2bc 9b55 b33d a7d1 b73c f757 e93c
00000180: a0f6 3a3d 9665 b83d 36de 83bc a3a8 b63d
00000190: 901b f93d 6630 abbd bf1c c2bd bf6e ea3b
000001a0: 5be6 ae3d 8987 8e3d d835 dbbc 9847 b23b
000001b0: de87 f03d f41a 11bc 5b05 263d 8c28 56bd
000001c0: 4aee 9abd eb2d cf3d d59a d33d 65fc eebd
000001d0: 0d4d d3bd 2648 c9bd e04e 573d 75ad 423d
000001e0: f86c 88bb 6a51 e1bc b281 dcbd 922b 7c3c
000001f0: 088e b53d ed0d d43d c268 dabd d4a7 b7bd
-0.12482389 0.029047765 0.09794826 0.09892472 -0.03699875 -0.10025753 0.02809971 0.025032725
0.010397185 -0.09761926 -0.081629425 -0.0713889 0.10862694 0.04952386 -0.03788542 0.048376095
-0.0743585 -0.013360605 -0.03192027 0.06447137 0.109067805 -0.03903618 -0.073572695 0.108053915
-0.11167324 0.036163636 0.031450797 -0.05162766 0.04998312 -0.08145455 0.12818535 0.057088148
-0.07331267 0.0020832897 0.0824364 0.026326813 0.020813748 -0.04012742 -0.049297027 -0.014313123
-0.006013572 0.052371427 0.033105332 -0.08367437 0.123757064 0.10145918 0.022830866 -0.09595511
0.1063372 0.01581924 -0.06405382 -0.11011778 -0.052382883 0.042920843 -0.101782136 4.3666812e-05
-0.033732697 0.0037753747 0.051563255 0.07884927 0.064423084 -0.12083602 0.064623445 0.05452627
-0.01861151 0.03463326 0.033101242 -0.061290815 -0.030500283 0.03539954 0.01431635 -0.11216257
0.100656256 -0.117926575 0.031099468 0.10602434 0.094159715 -0.0864742 -0.022197487 0.09011662
-0.10070561 0.07932283 0.0636478 -0.07264894 -0.019083533 -0.0663211 -0.07279052 0.061316457
-0.11975717 -0.07343491 0.12164519 0.027656876 -0.025718732 0.08756562 0.022438837 0.028484328
0.045645356 0.09003751 -0.01609717 0.08918884 0.1216346 -0.08358841 -0.09478139 0.0071543152
0.085400306 0.06959445 -0.026759073 0.0054406635 0.117446646 -0.008856524 0.04053245 -0.052284762
-0.07564981 0.1011618 0.10332266 -0.11669234 -0.10317431 -0.09828214 0.052565455 0.047528703
-0.0041633807 -0.027504642 -0.10766925 0.015391247 0.08864981 0.10354219 -0.10664512 -0.089675575

actor_head.2.bias f4 [2]
00000000: 19b2 183d 950a e3bc
0.037279222 -0.027715007

critic_head.0.weight f4 [64, 1600]
00000000: 3e0c a5bc cb2c b7bc 6d7a 6abc 41c8 86bc
00000010: bc1e adbc cb33 153c fa74 4fbb 0261 2f3b
00000020: 44b5 c8bc 22cf 10bc 6d60 023b a4ea 8abc
00000030: c232 8ebc df4e 493c 277e 99ba e0ca a6bc
00000040: b2da dd3b 7099 e5bc 4934 bb3b 2e97 cd38
00000050: 51b4 4b3b 7b10 2bbc 54fe 9f39 8929 cebc
00000060: 4a7d 923c da48 933c fdbf 953c b920 78bc
00000070: 6fe8 b8bc 6a50 8cbc f140 acbc bd51 2ebc
00000080: d099 4f3c bbdf ebbc 3239 573c e731 0e3c
00000090: d006 b93b 8c5d a23c 7ccb a8bc 3909 90bb
000000a0: 89a3 3abc b90e ebbc e7e5 e8bc c5c8 3bbc
000000b0: 8285 193b 774a cfbc a7ca a9bc 41cf e23b
000000c0: 4bcd 46bc 1fb1 c63c 5711 803c e766 183c
000000d0: 33bb 18ba 0044 1e3c da7a 4bbc 9382 963b
000000e0: 80c4 1d3b 3dac 813c ed49 ebbb 0df1 d0bb
000000f0: 90d4 23bc 338e 043a e78b 1fbc a095 9dbc
00000100: 38b2 95bc 93f8 d93b f486 d3bb 5c45 b7bc
00000110: da7a 01bc f0e3 b2bc da5e 87bb 676b 063b
00000120: 96cb 603c 041d 93bc 4b5f 8fbc aac8 1b3c
00000130: 2753 063c e0cc f1bb 3519 983c 0796 aabc
00000140: bac6 55bc 857c 54bc 7507 8d3c 1ad8 9a3b
00000150: 559d c5bc da03 b1bc 7af3 703b 91a3 3a3b
00000160: d7a0 60bb a01c 48bc bd6e 283c ba8a 103c
00000170: 03ac 5d3c e7be 72bc aa8f 86bc 2339 bc3c
00000180: 4dd5 163c 3a01 173c edcb f739 4731 4cba
00000190: 295c 9c3c c082 6e3b 1ba5 b43a b2b1 6bba
000001a0: 2893 653c 290b debc f3ca 983c e276 afbb
000001b0: 19b7 11bc 5884 1f3c fc90 04bc 3352 92bc
000001c0: 47e1 26ba 2063 2abc bd8d 743c d100 88bc
000001d0: 768f 8db8 32b9 d63b 26c7 bfbc ccef 31bc
000001e0: aed6 1fbc 5a3c af3c e895 eabc 88a3 b93c
000001f0: 62d5 373b 24c6 a73b 80ad 2cbb 9e0a d53b
00000200: a441 a6bc 2ce5 ea3b 1a08 8abc 0946 b6bc
00000210: d56e 58bc d03b 40bc 1058 9c3c e28c 62bb
00000220: 5e9a e8bc f3b4 583a 624a bdbc 71ff 56bc
00000230: 8937 293c 2071 3dbc cea5 d9bc 6e1c af3b
00000240: 6d18 a6bb a821 b33b 6836 91bc 193f babc
00000250: adf0 8b3c 7fa1 a2bc 4b6d 90bc 3d6a 86bb
00000260: 23a3 9e3c 1083 50bc e6bc 44bb 9893 f4bc
00000270: 87d5 353c 2cb2 15bc bec9 91bb 458d 3d3c
00000280: 36b5 e0bc e052 63bc 14cf 1a3c 1599 663a
00000290: 48bf 723c d2c0 aabc 7149 153c 0a91 69ba
000002a0: 8671 9a3c ae88 853c b817 99bc 8d14 dabc
000002b0: b4a0 313c 657a b7bc d260 7dbc 7217 213c
000002c0: b56f 2bbc 3e7f cfbc 8220 a93c 3a6b 68bc
000002d0: 0c58 cc3b f0a1 e2bc 1cf9 9d3c e24b 77bc
000002e0: 084c 433c 9d31 8ebc d797 863c ec34 c4bb
000002f0: 7222 e3bc 0690 693c 840b bcbc 2edb eabc
00000300: a8e6 5f3b 415d 97bc 7005 e23b 864d 3fbc
00000310: e099 8bbc 403b c73b 9aec c1bb 4789 cebb
00000320: 8366 383c 4b44 a33c 9ac1 b739 3bce b3bc
00000330: da84 783c c307 9b3c 1057 8f3c 5407 773c
00000340: d242 c63c 3311 9d39 5ad0 b63c aa0e 6ebc
00000350: 200a bbbc 7df3 8dbc 40d4 cdbc b29d 883c
00000360: cdfa 5cbc 8038 98bb 9a2a 4a3b 50b3 e13b
00000370: 2735 e6ba c82a ecbb 24f3 293a f025 363c
00000380: f342 d43b 09e0 bd3c 12c1 a3bc 4e7e a1bc
00000390: 6644 e5b8 d683 e1bc eb5f b33c b7cb b93c
000003a0: e03c a83b df8b c13c 6c29 6bbc 81e9 bebc
000003b0: be48 a439 67a5 cabc 35ad 8d3c 33dc 34ba
000003c0: 1f3f 6fbc 4e20 263d de6a 5a3c a5a4 ae3c
000003d0: c586 b1bc 0f1c b3bc b767 86bc ca56 20bc
000003e0: 33cb a83b bd6d 8ebc 8a1b 043c f305 87bb
000003f0: c059 3c3b 5ddd 03bc de17 9c3a 6525 4d3b
-0.02014744 -0.022360226 -0.014311415 -0.01645291 -0.02113282 0.009106587 -0.0031655417 0.0026760702
-0.024500497 -0.008838447 0.00198939 -0.016957588 -0.017358188 0.012286871 -0.001171057 -0.02036041
0.0067704553 -0.028027266 0.00571302 9.803321e-05 0.0031082819 -0.010440941 0.00030516332 -0.02516629
0.017882008 0.017979074 0.018280024 -0.01514452 -0.02257177 -0.017128188 -0.02102706 -0.010639605
0.012670949 -0.028793206 0.013136195 0.00867889 0.005646564 0.019819997 -0.020604841 -0.0043956307
-0.011391529 -0.028693544 -0.028429938 -0.011461441 0.0023425524 -0.025304062 -0.020726515 0.0069216792
-0.012133907 0.02425438 0.015633268 0.009301878 -0.00058262347 0.009659767 -0.012419427 0.0045932024
0.0024073422 0.0158292 -0.0071804435 -0.0063763917 -0.009999409 0.000505659 -0.009737945 -0.019236386
-0.018273458 0.006651947 -0.0064552967 -0.02237194 -0.007902825 -0.021837205 -0.0041311802 0.0020510794
0.013720414 -0.017958172 -0.017501494 0.009508291 0.008198536 -0.0073791593 0.018566707 -0.020823492
-0.013047868 -0.012969141 0.01721547 0.0047254683 -0.024122873 -0.021608282 0.0036766217 0.002847884
-0.0034275556 -0.012213856 0.010280308 0.0088221375 0.01352978 -0.0148160225 -0.016425926 0.022976464
0.009206128 0.009216601 0.00047263448 -0.00077893253 0.019086914 0.003639385 0.0013782115 -0.0008991017
0.014012136 -0.027104931 0.018651461 -0.005354748 -0.008893752 0.009736143 -0.008091208 -0.017861461
-0.00063659664 -0.01039961 0.014926371 -0.016601952 -6.7501256e-05 0.0065528387 -0.023410391 -0.010860395
-0.0097557735 0.021391083 -0.028635934 0.022660986 0.002805077 0.0051200558 -0.0026348531 0.00650151
-0.020294972 0.0071684327 -0.016849566 -0.022250192 -0.013210018 -0.01173301 0.01908496 -0.0034568836
-0.02839392 0.00082667096 -0.023106758 -0.013122425 0.010328182 -0.011562616 -0.02656832 0.0053439653
-0.0050688297 0.0054666586 -0.017726138 -0.022735165 0.017082537 -0.019852398 -0.01763024 -0.00410202
0.019364899 -0.01272656 -0.0030019819 -0.029855534 0.011098272 -0.009136718 -0.0044490984 0.011569326
-0.027430158 -0.013874739 0.009448785 0.0008796615 0.014816113 -0.020843897 0.009111748 -0.0008909857
0.01885296 0.016300526 -0.018688068 -0.026621128 0.010841537 -0.02239723 -0.015464978 0.00983225
-0.010463645 -0.025329228 0.020645384 -0.014185721 0.006236082 -0.027665108 0.019283824 -0.0150937755
0.011919983 -0.017357642 0.016429825 -0.005987754 -0.027726386 0.014255529 -0.02295471 -0.028668966
0.0034164581 -0.018477084 0.006897621 -0.011676198 -0.017041147 0.006080061 -0.0059180977 -0.006302986
0.011254909 0.019930026 0.00035048724 -0.021948924 0.015168393 0.0189246 0.01749757 0.015077431
0.024201784 0.00029958188 0.022316147 -0.014529863 -0.022831976 -0.017328018 -0.025125623 0.016676757
-0.01348753 -0.004645407 0.0030848146 0.006887831 -0.0017563448 -0.0072072484 0.0006483069 0.011117443
0.0064777075 0.023178117 -0.019989524 -0.019713547 -0.00010932311 -0.027528685 0.021896323 0.022680147
0.00513421 0.023626266 -0.014353137 -0.023304703 0.00031334715 -0.024737073 0.017294506 -0.00068992673
-0.014602452 0.040558152 0.013331143 0.021318743 -0.021670708 -0.021863965 -0.016406877 -0.009786317
0.0051511764 -0.017386312 0.008063206 -0.0041205822 0.0028740019 -0.008048383 0.0011908968 0.0031302806

critic_head.0.bias f4 [64]
00000000: 3ab5 183c 8bd5 a2bb 9402 d1bc 33a3 a5bc
00000010: d631 29bc 2200 82bb d362 0c3d 4278 36bc
00000020: 4187 dfbc 5d46 633a 361a fdbc caaf 233d
00000030: 5f96 66bc 8a4b b9bb 86df 873b 1f7d b43b
00000040: b6f4 803c aa51 803c 8ffa edbc 3ca1 fc3c
00000050: 6ff7 2e3c 3220 03bc 544c a4bb 21c5 143d
00000060: 3e6e 0ebc 35a6 8cbc af1b 523c bd4c 653c
00000070: 7c72 47b9 8723 113b 7d44 ba3b 94af a53c
00000080: cacd 483d 94a1 0abd ee0d 2f3c 266c 583d
00000090: 9a97 d33c a12c 513d 858f 3bb9 e68e 6bbc
000000a0: a5cb 1d3c 73ab 8dbb af7b 3a3c d04e 14bb
000000b0: 6159 9fbb 200a 5a3c 4e75 143d 8546 40bb
000000c0: c4c7 a73b 7626 f0bb 3872 bbbb 338f d3bc
000000d0: d91d ecbb 9544 8cbb c6f6 34bc 9a1e f8bb
000000e0: f2e4 a73b 0676 abbc 9ab5 d6bc eff5 d4b9
000000f0: 43fb c53c 586d 783c 5b20 b0bc 26a0 08bc
0.0093205515 -0.004969304 -0.025513925 -0.020219421 -0.010326823 -0.003967301 0.034273934 -0.01113707
-0.027286174 0.0008669848 -0.030896287 0.039962567 -0.014073937 -0.005654757 0.004146519 0.0055080797
0.015741687 0.01566394 -0.02905014 0.030838601 0.01067911 -0.008003281 -0.005013982 0.03632081
-0.008693276 -0.017169097 0.012823983 0.013995347 -0.00019020768 0.002214642 0.005684434 0.020225324
0.04902438 -0.0338455 0.010684473 0.052837513 0.025829125 0.051067952 -0.00017887175 -0.014377331
0.009631072 -0.004323417 0.0113820275 -0.0022629984 -0.0048629497 0.013308078 0.036244683 -0.0029338908
0.0051202495 -0.0073288037 -0.005720403 -0.025825119 -0.0072057066 -0.0042806366 -0.0110451635 -0.0075720074
0.005123728 -0.020930301 -0.026209641 -0.00040619026 0.024167662 0.015162788 -0.021499803 -0.008338964

critic_head.2.weight f4 [1, 64]
00000000: db28 303d fb4d 8ebc 5141 163c 17db 053d
00000010: eac8 ce3b e141 b03d 7d97 c8bd 1447 23bd
00000020: 3775 cb3d a141 c2bd 1a3e a3bd 71c4 d9bd
00000030: b884 e13d 83bd 66bd d10b ea38 2370 84bb
00000040: 4a97 86bc 19a4 c6bd a4a9 9d3d 762a 00bd
00000050: 2c5f cf3d 0ab9 f53b 2ede d03d 59f1 e6bd
00000060: 6a0c dc3d 1730 543b 1827 f2bd 3f77 12bc
00000070: b4cb 2e3c 0ae5 a8bb d937 51bd a0e9 8abd
00000080: 1b68 4bbd 9342 e83c 4107 c43d 4871 97bd
00000090: 1f27 b1bd 6543 8cbd b355 a2bc 327d a03d
000000a0: 9411 eebd 6de9 9c3b 83a5 903d 95d6 b93d
000000b0: 47c2 73bd 0299 f1bd 991f b5bd 0e19 823d
000000c0: cfeb 4c3d 517c a239 75c9 ab3d 3db2 c43b
000000d0: d5c3 a6bc 67ed 86bd ac51 d0bd bb17 ba3c
000000e0: 2f78 953b 7331 acbd a834 dc3c bce3 cdbd
000000f0: f9e7 c0bd 8840 8e3d b2f8 013d bfab b33d
0.043007713 -0.017371168 0.009170846 0.032679643 0.006310572 0.086063154 -0.09794519 -0.039862707
0.09934466 -0.09485174 -0.07970829 -0.10633171 0.11011642 -0.056333076 0.000111601905 -0.004041688
-0.016429562 -0.09699268 0.07698372 -0.031290494 0.101255745 0.007498865 0.101986274 -0.11276502
0.10744555 0.0032377297 -0.11823863 -0.008939563 0.010668684 -0.0051542567 -0.05107865 -0.06782842
-0.04965983 0.028352058 0.09571696 -0.073946536 -0.0865004 -0.06848792 -0.019816255 0.07836379
-0.116244465 0.0047885687 0.07062819 0.090741314 -0.05951145 -0.11796762 -0.088439174 0.06352435
0.050029572 0.0003099167 0.08388034 0.006002693 -0.020357052 -0.0658825 -0.10171828 0.022716394
0.004561446 -0.08407869 0.026880577 -0.100532025 -0.09419245 0.06945902 0.031731315 0.08772992
