project_files/runs/Sep10_11-24-53_kiveli.ics.forth.gr/ppo_policy_camera_cnn_whole_circle.pth (torch, 851205 bytes, 15 tensors)

cnn_base.0.weight f4 [16, 1, 3, 3]
-0.21918319 -0.01595157 -0.08711819 -0.064465284 0.07313834 0.22198042 0.1381686 -0.28471014
-0.14223814 0.32266223 -0.22232676 -0.205601 -0.035653837 0.17358023 0.31808168 0.08869325
-0.19109604 -0.24774748 0.11773834 -0.036146834 -0.28011763 -0.2541345 0.20576003 0.20649882
0.09639864 -0.23291516 0.022093939 -0.004179793 0.28775737 -0.31607947 0.069464765 0.13900122
-0.14729176 0.022665504 0.09336414 -0.16143872 -0.18819079 0.1771377 0.2445402 0.28474155
-0.30605534 -0.3270064 0.28571308 -0.2619673 0.016138935 0.27958602 0.10402191 -0.12945762
-0.17926112 0.013908206 0.06699847 -0.06305441 0.22414301 -0.045497112 0.24517195 0.14041685
0.18785381 -0.2694707 -0.054253437 -0.26236963 0.102682985 0.21713932 -0.30514532 -0.0028509398
-0.2741449 0.18701385 0.058652233 0.24473195 -0.2657436 0.15411356 0.24124837 0.22685963
-0.060104657 0.31786892 -0.11761767 -0.110913955 -0.056125317 -0.111075915 0.28183788 -0.046525568
-0.30589995 0.22760317 0.327504 -0.2558261 -0.28673986 0.27808467 -0.036724098 0.07526588
0.1651454 0.007415895 -0.043565907 0.22690272 -0.1245867 -0.1497301 0.060837097 -0.15386745
0.29400173 0.26072466 0.035136078 -0.16651267 -0.068059504 -0.2075989 -0.33306652 0.3211343
0.25853464 -0.29997426 -0.09129404 0.060142808 0.17407136 -0.019915761 0.32385236 -0.3263973
-0.044850364 0.32162714 -0.2625636 -0.21337603 -0.32498053 0.16031668 0.004334063 -0.3089356
0.24262792 -0.21143384 0.0021984533 -0.32656157 0.32806268 -0.28649285 -0.050326124 0.053123232
0.26157376 0.14916047 -0.2226605 0.11872451 -0.23183642 0.18256819 -0.12500252 0.17509046
0.06860481 0.24802603 0.052678168 0.28207737 -0.2865891 -0.119509414 -0.2687632 0.13512519
00000000: 8f71 60be deac 82bc 066b b2bd 6006 84bd
00000010: 8ec9 953d d64e 633e 127c 0d3e 87c5 91be
00000020: e0a6 11be fc33 a53e a0a9 63be 1289 52be
00000030: c209 12bd 04bf 313e 9adb a23e cfa4 b53d
00000040: aeae 43be 84b1 7dbe cc20 f13d b40e 14bd
00000050: 946b 8fbe eb1d 82be c2b2 523e 6d74 533e
00000060: a66c c53d 5081 6ebe 59fe b43c a5f6 88bb
00000070: ef54 933e 2bd5 a1be 8b43 8e3d 5656 0e3e
00000080: a7d3 16be 02ad b93c b335 bf3d 3150 25be
00000090: 16b5 40be 9663 353e bf68 7a3e a5c9 913e
000000a0: 49b3 9cbe 626d a7be fc48 923e 9420 86be
000000b0: cd35 843c e625 8f3e 7009 d53d 8a90 04be
000000c0: 3a90 37be 3edf 633c 7e36 893d ac22 81bd
000000d0: bf85 653e 2e5b 3abd 5b0e 7b3e 6fc9 0f3e
000000e0: c05c 403e 10f8 89be da38 5ebd 5055 86be
000000f0: 754b d23d c559 5e3e 023c 9cbe d5d6 3abb
00000100: b85c 8cbe 8f80 3f3e 533d 703d 039b 7a3e
00000110: 8c0f 88be f2cf 1d3e d009 773e e44d 683e
00000120: 4d30 76bd b7bf a23e 88e1 f0bd db26 e3bd
00000130: a9e3 65bd c57b e3bd 0e4d 903e 9891 3ebd
00000140: eb9e 9cbe ce10 693e 9bae a73e a3fb 82be
00000150: 91cf 92be 1d61 8e3e 026c 16bd ff24 9a3d
00000160: e01b 293e 0901 f33b 2a72 32bd 3059 683e
00000170: 5027 ffbd d952 19be 5230 793d 6e8f 1dbe
00000180: 6587 963e b47d 853e d9ea 0f3d 4c82 2abe
00000190: c862 8bbd ce94 54be b287 aabe b76b a43e
000001a0: a75e 843e 3a96 99be 5ff8 babd 4e58 763d
000001b0: c33f 323e 6126 a3bc facf a53e 8c1d a7be
000001c0: 04b5 37bd 50ac a43e bc6e 86be 3f7f 5abe
000001d0: d963 a6be 0e2a 243e c104 8e3b cf2c 9ebe
000001e0: 7473 783e 1d82 58be ed13 103b 1433 a7be
000001f0: d5f7 a73e 31af 92be c422 4ebd bf97 593d
00000200: ffec 853e 86bd 183e 1d01 64be d625 f33d
00000210: 8766 6dbe 28f3 3a3e a900 00be ea4a 333e
00000220: ae80 8c3d 89fa 7d3e 10c5 573d 726c 903e
00000230: cebb 92be 5ac1 f4bd 559b 89be 425e 0a3e

cnn_base.0.bias f4 [16]
0.22032155 0.027100446 -0.21500015 0.04486461 0.12518552 -0.11845811 -0.015432239 -0.33060306
0.20069866 -0.2553296 -0.0493964 0.013089411 0.23922917 0.09449913 -0.042004116 0.3189828
00000000: f99b 613e c101 de3c 0029 5cbe f4c3 373d
00000010: a230 003e 2a9a f2bd 80d7 7cbc ce44 a9be
00000020: f383 4d3e 90ba 82be e153 4abd f874 563c
00000030: 7ef8 743e c388 c13d 820c 2cbd b751 a33e

cnn_base.3.weight f4 [32, 16, 3, 3]
-0.0019325353 -0.02950264 0.013926996 -0.0012758666 -0.032435868 0.050417516 0.072548136 -0.059213996
-0.0427567 0.08160476 -0.059715476 -0.045249082 0.06273152 -0.08195202 0.053962998 0.07399264
-0.038876288 0.027166732 -0.0024074228 0.06774135 -0.005837869 -0.07747056 0.011373288 -0.023597524
-0.012337178 -0.022031229 -0.07959185 0.06222781 -0.07995594 -0.070077434 0.052954752 -0.07976507
-0.0538176 -0.08076918 0.046048015 0.03435195 0.072639994 -0.058816608 -0.022589691 -0.025437849
-0.046962645 0.04950947 0.07016759 -0.004955877 -0.07917747 0.018807126 -0.077306986 -0.033468857
-0.04463437 -0.0038325125 0.081359014 -0.029081047 -0.056760177 0.020202579 0.040071975 0.06716829
0.05691272 0.036938164 -0.011970802 0.013619079 0.034373343 -0.03842973 -0.046607997 -0.00974646
-0.038049947 0.06745767 -0.046192963 0.034509923 -0.076237634 0.05024905 0.02022099 -0.038992923
0.051564705 -0.08438247 -0.03573715 0.020471735 0.011042424 0.022199815 -0.081757784 0.02227537
0.057440456 -0.023444153 -0.055123582 0.012415588 -0.081117764 0.0026067088 -0.021343421 -0.024350725
-0.05463409 -0.018497631 -0.0015377549 0.00238849 0.05985091 0.066734366 -0.049088765 0.07941354
0.060522597 0.03836297 -0.04494908 -0.0041422877 -0.034363996 -0.06914607 0.08130985 0.03686587
0.040540013 0.07183787 0.017655011 0.07951273 0.0726264 0.034530114 0.024666414 -0.075832896
-0.064469784 0.026644828 -0.0794849 0.041396443 -0.064414464 -0.019208726 0.08223409 0.028064152
0.07504042 0.040665753 0.04077698 -0.045537796 0.0012779757 -0.07834858 0.007012156 0.013110891
-0.042501185 0.030147454 0.0074487664 -0.017168846 -0.045008995 0.078661904 -0.016681924 -0.06775692
0.028366193 0.029302366 0.045732345 0.050797187 -0.05124474 0.03980281 -0.05360662 -0.07074577
-0.043008793 -0.07694679 0.07284032 0.049650747 -0.08119334 0.029651491 -0.076028705 -0.061779767
0.032506 -0.059193276 0.064555265 0.0074095135 0.052672498 0.04263579 -0.08353764 0.06917557
-0.017974474 0.06160875 -0.06978449 0.013038114 -0.029806856 -0.024508374 0.04275822 0.079364695
0.06217778 -0.02649105 0.0467191 0.0641473 -0.02671077 0.008326874 0.009597907 -0.012316712
0.04204042 -0.025327934 -0.022842774 0.021588225 -0.05693035 -0.00845569 -0.07159854 -0.0276632
0.01001838 -0.014355252 0.07763719 0.078957014 -0.040918805 -0.051265784 0.042858817 -0.015420727
-0.078742236 -0.063563175 -0.060390357 -0.06118834 -0.048091386 -0.036373045 -0.00196174 0.013375586
-0.06364117 0.017921243 0.010857501 -0.07379941 0.07680724 -0.052380417 -0.0320958 -0.08245016
0.0463614 -0.04441984 0.026761169 -0.01886475 -0.032505844 0.020905584 0.01400181 0.05727984
-0.036986824 0.07051299 -0.0812397 0.079526484 -0.006419949 0.02650284 0.013877275 -0.04814055
-0.07355608 0.039282985 0.042751238 0.062338103 0.07151378 -0.07131979 0.009362253 0.01658591
0.04562489 -0.0001229301 0.0378003 -0.05724976 -0.07171506 -0.07058661 0.016738735 -0.03259978
-0.04086182 -0.075354256 -0.061460204 0.06161492 0.0059867892 -0.03828571 -0.035518702 -0.0114397835
0.056987133 0.006520524 0.041180696 0.024096312 -0.09381938 0.028733166 0.016599823 -0.008143001
00000000: 204d fdba 85af f1bc 0e2e 643c fb3a a7ba
00000010: 79db 04bd 9982 4e3d 1e94 943d 608a 72bd
00000020: a621 2fbd 6520 a73d 3798 74bd 1a57 39bd
00000030: 6279 803d 76d6 a7bd 4e08 5d3d 7489 973d
00000040: be3c 1fbd c48c de3c dac5 1dbb fabb 8a3d
00000050: 984b bfbb e3a8 9ebd 0757 3a3c 984f c1bc
00000060: e021 4abc d67a b4bc 0d01 a3bd 97e2 7e3d
00000070: f1bf a3bd c284 8fbd 15e7 583d de5b a3bd
00000080: d86f 5cbd 506a a5bd d89c 3c3d a1b4 0c3d
00000090: 47c4 943d afe9 70bd 040e b9bc 0963 d0bc
000000a0: e75b 40bd 71ca 4a3d 07b4 8f3d e964 a2bb
000000b0: cc27 a2bd 6711 9a3c 2053 9ebd a416 09bd
000000c0: 87d2 36bd e42a 7bbb 8e9f a63d 603b eebc
000000d0: 5c7d 68bd e17f a53c 8322 243d 878f 893d
000000e0: 501d 693d 794c 173d 2f21 44bc 8f22 5f3c
000000f0: 10cb 0c3d 7e68 1dbd 07e8 3ebd 9eaf 1fbc
00000100: 43da 1bbd 3f27 8a3d d534 3dbd 475a 0d3d
00000110: 7a22 9cbd f3d1 4d3d 7da6 a53c 0bb7 1fbd
00000120: 8335 533d b7d0 acbd 1e61 12bd 57b4 a73c
00000130: 48eb 343c 63dc b53c a070 a7bd d67a b63c
00000140: af46 6b3d f40d c0bc 44c9 61bd c06a 4b3c
00000150: 1221 a6bd 51d5 2a3b 66d8 aebc 2c7b c7bc
00000160: ffc7 5fbd 5888 97bc 7e8e c9ba 3688 1c3b
00000170: 3a26 753d 07ac 883d 4d11 49bd 91a3 a23d
00000180: 8be6 773d 7d22 1d3d 871c 38bd 07bc 87bb
00000190: 43c1 0cbd 749c 8dbd c785 a63d ab00 173d
000001a0: 490d 263d bc1f 933d 3ea1 903c 92d7 a23d
000001b0: 26bd 943d 736f 0d3d 3811 ca3c 474e 9bbd
000001c0: bc08 84bd 4146 da3c fbc8 a2bd 518f 293d
000001d0: bbeb 83bd 9e5b 9dbc 596a a83d cbe6 e53c
000001e0: cbae 993d 2291 263d c305 273d d785 3abd
000001f0: c081 a73a 3875 a0bd 3ac6 e53b 10cf 563c
00000200: b915 2ebd cbf7 f63c c814 f43b aea5 8cbc
00000210: 5a5b 38bd 7e19 a13d 88a8 88bc 24c4 8abd
00000220: 3860 e83c 840b f03c d751 3b3d b610 503d
00000230: 01e6 51bd 4508 233d 9d92 5bbd 29e3 90bd
00000240: fd29 30bd 4796 9dbd 4e2d 953d 955e 4b3d
00000250: b248 a6bd afe7 f23c f0b4 9bbd c80c 7dbd
00000260: 0325 053d a674 72bd 8d35 843d 81cb f23b
00000270: 1ebf 573d dea2 2e3d c815 abbd ecab 8d3d
00000280: 343f 93bc 7559 7c3d 2ceb 8ebd d09d 553c
00000290: 822d f4bc c9c5 c8bc 3e23 2f3d f589 a23d
000002a0: 21ae 7e3d c203 d9bc 875c 3f3d a95f 833d
000002b0: 8bd0 dabc 716d 083c 8a40 1d3c 09cc 49bc
000002c0: 9332 2c3d 877c cfbc c520 bbbc cad9 b03c
000002d0: cc2f 69bd bc89 0abc 41a2 92bd ef9d e2bc
000002e0: 2224 243c 4a32 6bbc 3f00 9f3d 37b4 a13d
000002f0: 7a9a 27bd 12fc 51bd ba8c 2f3d 38a7 7cbc
00000300: 9c43 a1bd 692d 82bd e15b 77bd a0a0 7abd
00000310: 79fb 44bd e7fb 14bd 8990 00bb 4625 5b3c
00000320: 4d56 82bd 92cf 923c a9e3 313c 2524 97bd
00000330: 1d4d 9d3d d98c 56bd e376 03bd a1db a8bd
00000340: 74e5 3d3d 94f1 35bd 3d3a db3c 408a 9abc
00000350: d924 05bd 3042 ab3c d967 653c 449e 6a3d
00000360: 7f7f 17bd 1d69 903d 0061 a6bd c8de a23d
00000370: 6f5e d2bb 7c1c d93c 835d 633c 062f 45bd
00000380: 92a4 96bd 32e7 203d ec1b 2f3d 3d56 7f3d
00000390: d175 923d 1c10 92bd 2364 193c 2ddf 873c
000003a0: 2ae1 3a3d cce6 00b9 7dd4 1a3d b97e 6abd
000003b0: 58df 92bd b68f 90bd ac1f 893c 5987 05bd
000003c0: b95e 27bd 5553 9abd b2bd 7bbd ed5f 7c3d
000003d0: d42c c43b 7ad1 1cbd 0f7c 11bd ee6d 3bbc
000003e0: 576b 693d 1faa d53b 17ad 283d a165 c53c
000003f0: 6024 c0bd d161 eb3c 5afc 873c 396a 05bc

cnn_base.3.bias f4 [32]
0.008264896 -0.04059585 -0.035921186 0.070449166 0.017276933 -0.06007061 0.01938933 -0.03752091
0.027322404 0.03370714 -0.038398445 -0.035975393 0.041369915 -0.036624637 0.04203668 0.05727513
-0.043908753 -0.018895637 0.075648114 0.034396414 -0.06739774 0.045339346 -0.029870998 -0.02482549
0.022905547 -0.025759153 -0.03617191 0.048083916 -0.05738166 0.02066993 -0.078005984 -0.04881637
00000000: 7d69 073c d647 26bd 1822 13bd a747 903d
00000010: 5b88 8d3c 9a0c 76bd 5fd6 9e3c 87af 19bd
00000020: 3cd3 df3c 7f10 0a3d b047 1dbd ef5a 13bd
00000030: 8073 293d b703 16bd a72e 2c3d 5499 6a3d
00000040: aad9 33bd 06cb 9abc 66ed 9a3d 41e3 0c3d
00000050: d407 8abd c0b5 393d 06b4 f4bc d35e cbbc
00000060: 6aa4 bb3c dc04 d3bc ff28 14bd a4f3 443d
00000070: 0809 6bbd fc53 a93c 9ac1 9fbd adf3 47bd

mlp_base.0.weight f4 [32, 2]
-0.13192466 0.16969009 -0.311092 0.37212777 -0.5858312 -0.14837909 0.36957774 0.3626895
-0.3539344 0.17984909 0.12916777 0.50943387 -0.47034755 0.30223474 0.273038 0.43933377
-0.57590455 0.37731007 -0.22429378 -0.0123591125 -0.5460978 -0.4010432 0.64938617 0.18691602
-0.64681846 -0.13878107 0.1857889 -0.43439135 -0.50844955 0.15038012 0.38984287 0.44382295
0.39502582 -0.05493145 -0.06971427 0.6354603 -0.23276156 -0.60637486 -0.40449095 -0.04165528
0.067797035 0.26646864 -0.30111176 -0.4736087 -0.014529732 0.18242417 0.15393038 -0.20431322
-0.19025742 0.38130388 0.13970692 0.32130688 0.29211816 -0.10027304 -0.4852808 -0.3153128
-0.33120134 0.06969103 0.10777171 -0.087751426 -0.21377665 0.022453789 0.5103662 -0.025170913
00000000: 4217 07be 3dc3 2d3e 7347 9fbe 8887 be3e
00000010: 09f9 15bf b0f0 17be 4b39 bd3e 70b2 b93e
00000020: e436 b5be 5c2a 383e 8e44 043e 426a 023f
00000030: 65d1 f0be 83be 9a3e a3cb 8b3e 5bf0 e03e
00000040: 7b6e 13bf c92e c13e 45ad 65be e07d 4abc
00000050: 11cd 0bbf 8955 cdbe 2c3e 263f ea66 3f3e
00000060: e595 25bf a01c 0ebe 723f 3e3e 8b68 debe
00000070: c029 02bf 3ffd 193e 7c99 c73e c33c e33e
00000080: d340 ca3e cdff 60bd 5bc6 8ebd 87ad 223f
00000090: 0c59 6ebe 623b 1bbf 7019 cfbe ba9e 2abd
000000a0: 2cd9 8a3d 946e 883e 522b 9abe d77c f2be
000000b0: 1d0e 6ebc 67cd 3a3e ed9f 1d3e 7c37 51be
000000c0: d7d2 42be 433a c33e 550f 0f3e 5682 a43e
000000d0: 8390 953e f45b cdbd ba76 f8be ae70 a1be
000000e0: 3993 a9be 2cba 8e3d 6ab7 dc3d 05b7 b3bd
000000f0: 44e8 5abe 02f1 b73c 5ca7 023f 3b33 cebc

mlp_base.0.bias f4 [32]
-0.17973523 -0.38574925 -0.4487571 0.6523582 -0.16891934 0.3796058 -0.35709283 0.46249813
-0.37473357 0.35421205 -0.21516669 0.38520753 0.703001 -0.5276531 -0.500961 0.5551015
0.7046045 -0.14010966 -0.03921435 0.19378327 0.46850595 0.008299749 -0.3069459 -0.19526097
-0.004720871 -0.24856666 -0.18229519 -0.043279376 -0.4753225 -0.5859549 -0.44292766 0.68041974
00000000: 830c 38be ed80 c5be 7ec3 e5be f200 273f
00000010: 31f9 2cbe b15b c23e dfd4 b6be 8ecc ec3e
00000020: 14dd bfbe 485b b53e a854 5cbe ec39 c53e
00000030: e0f7 333f 4614 07bf fb3e 00bf 221b 0e3f
00000040: f660 343f e878 0fbe 3a9f 20bd 1f6f 463e
00000050: 03e0 ef3e acfb 073c 0328 9dbe 7ef2 47be
00000060: 89b1 9abb 4288 7ebe 97ab 3abe b745 31bd
00000070: 795d f3be 2401 16bf 6ac7 e2be fd2f 2e3f

mlp_base.2.weight f4 [32, 32]
0.17179526 0.08776484 -0.023808079 0.13798407 0.04534236 -0.12813279 0.1397016 -0.09915825
-0.03471951 0.12394684 -0.117360756 -0.12881564 0.13583736 0.14709203 -0.07584019 0.05887828
0.017771082 -0.019548047 -0.10404879 -0.09614069 0.1602967 -0.021524126 0.025910992 0.045208663
-0.16569535 -0.16066056 0.10982223 0.11486868 0.051576246 -0.11209809 0.035275564 0.07514477
0.12632518 0.052728806 -0.015379328 0.07179623 -0.06642136 -0.008247589 0.06693972 0.10700355
-0.09245169 -0.17033157 0.10010963 0.17236863 0.12899847 0.07146431 0.028499678 0.14456569
0.15486866 -0.049028292 -0.14809531 0.0988736 0.08769887 0.15411413 0.1350307 0.08494004
0.11460655 -0.117531 -0.028616527 -0.030804755 -0.15474465 0.08617877 -0.039937913 -0.16255386
-0.15850858 -0.0901544 -0.051229555 -0.08139768 -0.042047042 0.15705155 -0.0430097 -0.086000115
-0.1295962 0.09273337 0.027083965 -0.052913617 0.11580424 -0.08798909 -0.0502787 0.08170141
0.1077151 -0.15160231 -0.0778639 0.03419264 -0.013276595 -0.119358316 -0.02367026 0.005929661
-0.021035576 -0.13725 -0.09106988 0.08375331 -0.10709748 -0.026194751 0.07094952 0.066694945
0.15451264 -0.029142553 -0.08905599 0.12879953 -0.13237806 -0.17208613 0.024396682 0.026534531
-0.14281428 -0.011812105 -0.12169839 -0.044642467 0.04058193 0.12135986 -0.17259035 0.11772936
0.17493246 -0.039566517 0.029137034 0.09286018 -0.061762318 -0.061786156 -0.005548112 -0.00461784
0.025656506 -0.09812596 0.0020250229 0.11897487 0.0276541 0.05841588 -0.012973614 0.100171946
-0.081333324 -0.12876844 -0.002976326 -0.16384962 -0.062023405 0.012692355 0.17279886 0.020104762
-0.09373495 -0.017802766 0.026255842 -0.09193233 -0.13788617 -0.099731095 -0.09230212 0.009274983
0.064407356 -0.03649114 -0.02857767 0.02625205 0.17611738 0.09568624 -0.13511537 -0.026050525
-0.12626964 0.08937625 -0.013190804 -0.062422685 0.032082643 0.10624173 -0.13448575 -0.033263978
0.01487477 -0.055314545 -0.06290594 0.081328124 -0.031039536 0.09377139 -0.17236052 0.11191105
-0.105975166 -0.10859765 0.099325895 -0.11782984 -0.11587869 -0.09368639 -0.1511429 0.10299118
-0.11182496 0.15483317 -0.14049983 0.13359593 0.06741103 0.02503274 -0.15114802 -0.109004416
-0.11671253 0.13402285 0.17062093 0.0934037 0.15998004 0.02924667 0.14285009 0.03372455
-0.11496943 0.015016838 0.109041 -0.05710411 -0.11175934 0.11237743 -0.102281526 -0.022562115
0.08930504 0.0021967096 0.036129676 -0.05679981 -0.062391285 -0.00033205992 -0.14840303 0.09389441
-0.1121296 0.124610335 0.15298541 -0.056218565 0.011678976 -0.1479099 -0.08561753 -0.16865475
-0.15175273 -0.15204148 -0.104287624 -0.04846281 0.07428177 -0.0101248 -0.027213313 -0.123376384
0.13208959 0.1533643 -0.15382192 0.031481333 0.13363634 0.09508919 -0.08510711 0.11370497
-0.024576882 -0.047864754 -0.10671227 -0.12124287 -0.07506847 0.112768516 -0.15963934 -0.109826736
-0.124818325 -0.0079778675 0.04636234 -0.040297404 0.036920622 0.085456766 0.03465621 -0.014720285
-0.007741836 -0.054159712 0.120133564 0.05077764 -0.15672041 0.037929926 -0.038553968 0.11990727
00000000: 19eb 2f3e 0dbe b33d 2909 c3bc b24b 0d3e
00000010: e9b8 393d 3e35 03be f00d 0f3e 7b13 cbbd
00000020: 0b36 0ebd d7d7 fd3d d65a f0bd 3fe8 03be
00000030: f318 0b3e 4b9f 163e 1a52 9bbd 5a2a 713d
00000040: a994 913c 3a23 a0bc 8817 d5bd 69e5 c4bd
00000050: d124 243e 5d53 b0bc 4a43 d43c b82c 393d
00000060: 0bac 29be 3484 24be 7aea e03d 4540 eb3d
00000070: 9d41 533d af93 e5bd 1c7d 103d 80e5 993d
00000080: 635b 013e 29fa 573d 94f9 7bbc e709 933d
00000090: ec07 88bd e520 07bc b117 893d ad24 db3d
000000a0: 5057 bdbd 666b 2ebe 4706 cd3d 6781 303e
000000b0: 2d18 043e e15b 923d 2878 e93c 0709 143e
000000c0: e495 1e3e e4d1 48bd 4ca6 17be 3e7e ca3d
000000d0: 779b b33d 18d0 1d3e 7d45 0a3e 0bf5 ad3d
000000e0: d7b6 ea3d 18b4 f0bd 356d eabc 415a fcbc
000000f0: 6275 1ebe 7f7e b03d f095 23bd 8574 26be
00000100: 1350 22be dfa2 b8bd 15d6 51bd d4b3 a6bd
00000110: 8539 2cbd 1fd2 203e f02a 30bd d420 b0bd
00000120: deb4 04be feea bd3d 31df dd3c f3bb 58bd
00000130: c62a ed3d a033 b4bd 0af1 4dbd 1253 a73d
00000140: bc99 dc3d a33d 1bbe 1c77 9fbd 950d 0c3d
00000150: 1386 59bc 2272 f4bd 22e8 c1bc 9a4d c23b
00000160: cd52 acbc 448b 0cbe d882 babd db86 ab3d
00000170: ec55 dbbd 6096 d6bc fb4d 913d 5c97 883d
00000180: 9038 1e3e 5dbc eebc fd62 b6bd 06e4 033e
00000190: 1d8e 07be 5937 30be 8ddb c73c f25e d93c
000001a0: e83d 12be 8f87 41bc 013d f9bd 05db 36bd
000001b0: 3d39 263d 858b f83d 86bb 30be 171c f13d
000001c0: 7f21 333e 8010 22bd cab0 ee3c 7a2d be3d
000001d0: 7cfa 7cbd 7b13 7dbd f0cc b5bb 4051 97bb
000001e0: 982d d23c 43f6 c8bd 3fb6 043b 19a9 f33d
000001f0: da8a e23c 7d45 6f3d 488f 54bc f326 cd3d
00000200: 1692 a6bd e0db 03be 770e 43bb 32c8 27be
00000210: 410c 7ebd 98f3 4f3c 2ff2 303e beb2 a43c
00000220: 1cf8 bfbd 1bd7 91bc 7e16 d73c 0447 bcbd
00000230: 0832 0dbe d13f ccbd e508 bdbd 19f6 173c
00000240: 01e8 833d bc77 15bd b81b eabc 8a0e d73c
00000250: 1d58 343e 26f7 c33d af5b 0abe e967 d5bc
00000260: d44c 01be e50a b73d 3e1e 58bc eeae 7fbd
00000270: 1769 033d 4495 d93d a2b6 09be cf3f 08bd
00000280: 4fb5 733c 8191 62bd d4d4 80bd 5c8f a63d
00000290: a046 febc 370b c03d 477f 30be 9f31 e53d
000002a0: 8209 d9bd 7268 debd 606b cb3d c550 f1bd
000002b0: ce51 edbd a6de bfbd 34c5 1abe 0aed d23d
000002c0: 7c04 e5bd 968c 1e3e 30df 0fbe 5fcd 083e
000002d0: cb0e 8a3d 7611 cd3c 8cc6 1abe b53d dfbd
000002e0: fb06 efbd 493d 093e 41b7 2e3e 704a bf3d
000002f0: cfd1 233e b696 ef3c 4b47 123e c122 0a3d
00000300: 1875 ebbd 2f09 763c e350 df3d 00e6 69bd
00000310: 15e2 e4bd 2326 e63d fa78 d1bd 2fd4 b8bc
00000320: 90e5 b63d acf6 0f3b b6fc 133d eba6 68bd
00000330: 018e 7fbd 5418 aeb9 f7f6 17be b64b c03d
00000340: 34a4 e5bd b433 ff3d 35a8 1c3e 7045 66bd
00000350: 2d59 3f3c b175 17be 3e58 afbd d5b3 2cbe
00000360: 1165 1bbe c3b0 1bbe c094 d5bd f180 46bd
00000370: 0a21 983d 7de2 25bc 74ee debc c2ac fcbd
00000380: 7e42 073e 880b 1d3e 7e83 1dbe 92f2 003d
00000390: f7d7 083e 1fbe c23d a34c aebd 27de e83d
000003a0: 7555 c9bc d50d 44bd f68b dabd 2f4e f8bd
000003b0: 7fbd 99bd 2ef3 e63d 7f78 23be d7ec e0bd
000003c0: c0a0 ffbd 9ab5 02bc 70e6 3d3d e40e 25bd
000003d0: 143a 173d f503 af3d acf3 0d3d 5a2d 71bc
000003e0: 3aaf fdbb 93d6 5dbd 9608 f63d 37fc 4f3d
000003f0: 517b 20be 695c 1b3d c4ea 1dbd f191 f53d

mlp_base.2.bias f4 [32]
0.089393884 0.10488952 -0.12960087 0.12860164 -0.1253038 0.08269232 0.08120665 0.081449814
-0.06971001 0.11218954 -0.097039275 0.015343614 0.1491768 -0.037624985 0.098593146 -0.07348517
0.0556221 0.019015733 -0.079581514 0.12294366 0.03061581 -0.01364154 -0.11954449 -0.0058485074
-0.16062538 -0.10819615 0.16927323 -0.15907302 -0.0527874 -0.13151738 -0.027109705 0.12114186
00000000: 2414 b73d 51d0 d63d 17b6 04be 26b0 033e
00000010: a44f 00be 975a a93d ac4f a63d 29cf a63d
00000020: 1fc4 8ebd a1c3 e53d 87bc c6bd c863 7b3c
00000030: cec1 183e a81c 1abd 34eb c93d 657f 96bd
00000040: 00d4 633d e2c6 9b3c a2fb a2bd e3c9 fb3d
00000050: 02ce fa3c c480 5fbc bed3 f4bd d6a4 bfbb
00000060: fb7a 24be f195 ddbd f655 2d3e 0ae4 22be
00000070: 9a37 58bd 7eac 06be 2c15 debc 3919 f83d

actor_head.0.weight f4 [64, 1600]
0.000592186 -0.017111186 -0.01784416 -0.007984487 0.020359596 -0.018090932 0.015302362 -0.0027047896
0.009724614 0.0071236067 -0.00978919 0.008765567 -0.02607669 0.0057509774 -0.006252212 -0.011861379
-0.02058975 0.0025579603 -0.021196889 0.011246464 -0.012488177 0.010760156 0.018490117 0.012464755
0.023205463 0.014947747 -0.011554785 0.017925207 0.02580695 0.011324076 0.0030460777 0.0042954804
0.023539865 0.011913064 -0.009492924 0.0057645943 -0.009767661 0.018496236 0.016234536 -0.01824942
0.026491985 0.0154593345 -0.019645363 0.007659764 0.0025473773 0.016933855 -0.021685842 -0.01905103
-0.014120236 -0.005280064 0.01291473 -0.016507203 0.01204887 0.0029312884 0.004141619 0.008742172
0.009128225 -0.021360341 0.002842926 0.02730158 -0.0152236475 0.015703995 -0.004018593 -0.021003328
-0.025903143 0.013272605 -0.007653183 0.012389156 0.017471522 -0.024298932 0.017716486 -0.0015829935
-0.022040226 -0.011672913 -0.023109026 -0.020707522 0.015157636 -0.01187686 -0.009122614 0.0035618248
0.0023182058 0.0013494544 -0.022740042 -0.0050142184 0.016872387 0.012476311 0.011687812 -0.018026108
-0.004647115 -0.02040395 -0.011117019 -0.020022009 0.014430465 -0.0070672813 -0.0041575464 0.013652444
0.012746139 -0.026053902 0.0005863458 -0.003914421 0.0032487747 0.008542841 0.0021952842 0.0141507955
0.02228113 -0.022208536 0.019532956 0.00741368 -0.022680465 -0.0077156113 0.027346725 -0.029811623
-0.017729592 -0.02621401 -0.007046049 -0.0020942774 -0.0063659847 -0.012019177 -0.014366537 0.014246907
0.022629455 -0.006704253 0.007013536 -0.026795436 -0.015863197 -0.022123817 0.005978635 -0.027773652
-0.01553281 0.024485495 0.007756481 -0.010415218 -0.007708877 -0.017193172 0.015276069 0.021342313
0.014520478 0.026113609 0.020757278 -0.017653262 -0.007114169 -0.016252086 0.026846528 -0.019010264
0.006811267 0.0047255894 0.023611115 0.024746092 0.02172736 0.019097513 0.0065604616 0.012874528
-0.019266136 -0.004268883 -0.023769874 0.0035232252 0.007520882 0.022028513 -0.0062431004 -0.019526124
0.019431768 0.0035573605 -0.001220886 -0.011253538 0.015702972 0.002879115 0.010059267 0.022947004
0.011827466 0.015931912 -0.0065298835 -0.019702526 0.022442374 -0.014833834 0.018562857 0.013736839
0.024233187 -0.0053594853 0.011215342 -0.0012878187 -0.008837785 -0.016664749 0.019892931 -0.022532586
0.022290675 -0.0035665128 0.0007263173 -0.0017651466 0.017520675 0.004605723 -0.008705843 0.008011251
0.008030296 0.011122478 0.012750533 0.0059293862 -0.010141638 0.011288429 0.015933951 -0.004105408
0.024214774 0.013551493 -0.021197265 -0.0149170915 0.01106471 0.018204834 -0.0040124063 1.4299949e-05
0.014817175 -0.0019003147 0.023516465 -0.002235285 -0.013257433 0.012530232 -0.016007716 -0.011685926
-0.013475571 -0.0067406036 0.01721748 -0.020030765 -0.01175736 -0.012750807 0.014965945 0.024148505
0.004611408 -0.0067603895 0.004316187 0.001243971 -0.008843633 -0.025906695 -0.013060019 0.014319012
0.0049196896 -0.00833609 0.013651746 -0.0039712484 -0.0136104645 0.0013982023 0.0034954378 -0.020578302
-0.004798056 0.00089711096 -0.016834676 -0.00022764127 0.024934843 -0.025398346 -0.0091079315 0.002412062
-0.008322777 0.025484256 0.022017322 0.00561431 0.0011402064 -0.019351361 0.0074543282 0.020815281
00000000: ee3c 1b3a c22c 8cbc ea2d 92bc 5ed1 02bc
00000010: 2bc9 a63c 6f33 94bc c2b6 7a3c d742 31bb
00000020: fd53 1f3c 256d e93b d762 20bc 749d 0f3c
00000030: c89e d5bc b272 bc3b 5bdf ccbb 3b56 42bc
00000040: d6ab a8bc 74a3 273b 19a5 adbc 1743 383c
00000050: 369b 4cbc 5e4b 303c 9678 973c f938 4c3c
00000060: 6219 be3c 65e7 743c 4850 3dbc e2d7 923c
00000070: 1969 d33c 9e88 393c b4a0 473b 1ac1 8c3b
00000080: add6 c03c 032f 433c 3688 1bbc ece4 bc3b
00000090: 8a08 20bc 6b85 973c 4afe 843c cf7f 95bc
000000a0: b805 d93c 2649 7d3c 50ef a0bc c2fe fa3b
000000b0: e6f1 263b deb8 8a3c 82a6 b1bc e810 9cbc
000000c0: 9058 67bc 6304 adbb 4e98 533c 1d3a 87bc
000000d0: a068 453c dc1a 403b 6bb6 873b 543b 0f3c
000000e0: 8d8e 153c e2fb aebc 6250 3a3b 90a7 df3c
000000f0: 9b6c 79bc aaa5 803c 67ae 83bb 2c0f acbc
00000100: d432 d4bc 5775 593c 8dc7 fabb e3fb 4a3c
00000110: 7020 8f3c 8e0e c7bc 2a22 913c 737c cfba
00000120: b48d b4bc bf3f 3fbc 244f bdbc d2a2 a9bc
00000130: bc57 783c 2997 42bc 0477 15bc 816d 693b
00000140: 0aed 173b 2de0 b03a 5349 babc 504e a4bb
00000150: f637 8a3c 7169 4c3c 3d7e 3f3c 7dab 93bc
00000160: d346 98bb 2f26 a7bc 2824 36bc 3205 a4bc
00000170: c26d 6c3c a794 e7bb 073c 88bb 80ae 5f3c
00000180: 2fd5 503c fe6e d5bc 00b5 193a 8b44 80bb
00000190: 65e9 543b 46f7 0b3c c2de 0f3b bdd8 673c
000001a0: eb86 b63c adee b5bc 9403 a03c 75ee f23b
000001b0: 62cc b9bc 3dd3 fcbb 3d06 e03c 8137 f4bc
000001c0: a63d 91bc c3be d6bc 8be2 e6bb 2540 09bb
000001d0: c099 d0bb 15ec 44bc a061 6bbc dc6b 693c
000001e0: 6861 b93c 5aaf dbbb ced1 e53b 1a82 dbbc
000001f0: 89f3 81bc 023d b5bc 6de8 c33b 9285 e3bc
00000200: 547d 7ebc ce95 c83c 142a fe3b 97a4 2abc
00000210: bf9a fcbb b2d8 8cbc 7a48 7a3c 13d6 ae3c
00000220: 4de7 6d3c 35ec d53c 2b0b aa3c 939d 90bc
00000230: fa1d e9bb 1823 85bc 40ed db3c 6abb 9bbc
00000240: 0d31 df3b 1ed9 9a3b 196c c13c 51b8 ca3c
00000250: 94fd b13c 6372 9c3c 24f9 d63b afef 523c
00000260: 04d4 9dbc fce1 8bbb 0ab9 c2bc e9e5 663b
00000270: bb71 f63b 2475 b43c ec92 ccbb 40f5 9fbc
00000280: 5f2f 9f3c 9b22 693b 2306 a0ba c260 38bc
00000290: 85a3 803c 89af 3c3b a0cf 243c 5bfb bb3c
000002a0: fdc7 413c a483 823c a2f8 d5bb 3167 a1bc
000002b0: 12d9 b73c 9c09 73bc 2211 983c 7b10 613c
000002c0: ad84 c63c 9f9e afbb 8ec0 373c 06cc a8ba
000002d0: 5bcc 10bc 8384 88bc 80f6 a23c 4296 b8bc
000002e0: ef9a b63c 28bc 69bb 5466 3e3a 7e5c e7ba
000002f0: 8587 8f3c 9beb 963b f4a2 0ebc 9f41 033c
00000300: 8191 033c 0e3b 363c 9de7 503c 4c4b c23b
00000310: 1d29 26bc 1af3 383c eb87 823c a986 86bb
00000320: 105e c63c 1507 5e3c e3a5 adbc d166 74bc
00000330: c248 353c 4e22 953c 817a 83bb d0e9 6f37
00000340: bdc3 723c fb13 f9ba 9aa5 c03c dc7d 12bb
00000350: b435 59bc 9a4b 4d3c 9d22 83bc 5376 3fbc
00000360: a4c8 5cbc 48e0 dcbb ac0b 8d3c 8f17 a4bc
00000370: f1a1 40bc c3e8 50bc b933 753c 16d3 c53c
00000380: 4b1b 973b 4286 ddbb cd6e 8d3b be0c a33a
00000390: e3e4 10bc 473a d4bc b1f9 55bc 4a9a 6a3c
000003a0: 5935 a13b 1894 08bc 93ab 5f3c 3f21 82bb
000003b0: 6dfe 5ebc e243 b73a b713 653b d493 a8bc
000003c0: 0339 9dbb 192c 6b3a e0e8 89bc fdb2 6eb9
000003d0: 2844 cc3c 3110 d0bc 6f39 15bc af13 1e3b
000003e0: 425c 08bc 5cc4 d03c ac5d b43c 3ff8 b73b
000003f0: fa72 953a bf86 9ebc 7043 f43b cf84 aa3c

actor_head.0.bias f4 [64]
-0.01866285 -0.007933042 -0.018792203 0.0023514791 -0.004935402 0.014218433 0.017854441 -0.017610801
-0.018179454 -0.0016003116 0.009989999 -0.0127636455 0.016436249 -0.008064696 -0.010103592 0.014389678
-0.019856025 -0.015476493 0.004149038 0.025786739 0.010801255 -0.004256114 0.00696036 -0.0015648333
-0.023563169 0.005980237 0.012258131 0.026266616 0.014108217 -0.007075724 0.024702959 0.013243018
-0.022539921 -0.025977908 0.011865433 0.016807243 -0.0056755254 -0.011426403 0.008617274 -0.0059086303
-0.013835448 -0.012353833 -0.010754047 -0.01824529 -0.011566081 0.024113536 -0.004875805 0.025913298
0.0019090096 -0.021767361 -0.0024163646 -0.0017658592 0.0039444934 0.015782818 0.0016651241 -0.0019597965
0.006273763 -0.017952152 -0.0029737735 0.0037255497 0.01819217 0.014060981 -0.017859466 -0.00733185
00000000: d5e2 98bc 97f9 01bc 1bf2 99bc 461b 1a3b
00000010: 27b9 a1bb 6ef4 683c 7a43 923c 8744 90bc
00000020: 14ed 94bc 8cc1 d1ba 18ad 233c 9c1e 51bc
00000030: 50a5 863c c921 04bc 8989 25bc afc2 6b3c
00000040: 1aa9 a2bc 1e91 7dbc a7f4 873b b63e d33c
00000050: bff7 303c df76 8bbb bb13 e43b 181b cdba
00000060: 8c07 c1bc ddf5 c33b 54d6 483c 162d d73c
00000070: 2726 673c 7adb e7bb dc5d ca3c 3ef9 583c
00000080: a4a5 b8bc 9fcf d4bc 3c67 423c 58af 893c
00000090: c2f9 b9bb cf35 3bbc 782f 0d3c 2f9d c1bb
000000a0: 13ae 62bc bb67 4abc be31 30bc 2577 95bc
000000b0: a97f 3dbc c089 c53c 38c5 9fbb 2048 d43c
000000c0: bc37 fa3a 7751 b2bc df5b 1ebb 6774 e7ba
000000d0: cf40 813b f84a 813c 4b40 da3a ee6f 00bb
000000e0: 2394 cd3b 6410 93bc a4e3 42bb 5a28 743b
000000f0: bf07 953c 0760 663c 044e 92bc 0440 f0bb

actor_head.2.weight f4 [2, 64]
0.013403812 -0.0057480307 0.042551078 -0.09622057 -0.11859914 0.08295053 0.077191174 0.012725237
0.09818503 -0.08374395 -0.08698747 -0.1028475 -0.04271755 0.019697038 0.06974443 0.089178555
-0.10976868 -0.09826644 0.07504773 0.10035414 0.107744485 0.09996729 0.08478113 -0.015336999
-0.010964951 -0.111490175 -0.044481542 -0.07906706 -0.07298603 -0.03190637 0.03703834 0.0010102914
0.07414356 -0.06600128 -0.07707727 0.040984094 0.10666612 -0.007844969 0.11362409 -0.08837997
-0.0129265925 -0.11373311 0.026144942 0.03381577 -0.10611217 -0.054031566 0.06995293 -0.039950743
0.117402025 0.103464164 0.11099662 -0.06641352 0.052083217 -0.07871514 0.021853326 0.0010533355
0.02563348 0.08743244 0.041102782 0.07912417 0.11432714 0.029568426 -0.08856277 0.121676885
-0.036471926 0.024886845 0.0152362455 0.026827343 0.06972003 -0.011808542 0.049746756 -0.035346787
-0.10558194 -0.06528023 0.0018348087 0.09011934 0.08762525 0.10722833 -0.12910809 -0.02656947
-0.00506283 -0.0575344 -0.06121204 -0.039055355 -0.043584056 -0.062788226 0.1253085 0.08113063
0.08729851 -0.1128476 0.09070377 -0.021052288 -0.08148176 -0.10810816 0.12595575 -0.07826034
0.0009944513 0.06894223 -0.079559736 0.035879433 -0.11347556 0.07046389 -0.10157297 0.07284248
0.043430217 0.08511957 0.1194388 -0.07838186 0.0073578777 0.07658267 0.024684746 -0.11014188
0.012986776 0.09860593 0.07704677 0.016914746 -0.08505729 0.02721435 0.035694428 0.090307996
-0.0043458412 0.00014556096 0.0040870374 0.06979051 0.04167597 -0.04393311 -0.07878193 -0.11684996
00000000: aa9b 5b3c fa59 bcbb 0a4a 2e3d 4a0f c5bd
00000010: 1be4 f2bd f8e1 a93d 6816 9e3d 837d 503c
00000020: 3c15 c93d f381 abbd 7d26 b2bd b6a1 d2bd
00000030: 99f8 2ebd af5b a13c 2bd6 8e3d 3fa3 b63d
00000040: 67ce e0bd ea3f c9bd a0b2 993d 7986 cd3d
00000050: 24a9 dc3d a7bb cc3d bba1 ad3d 0948 7bbc
00000060: 56a6 33bc f654 e4bd 4732 36bd e9ed a1bd
00000070: b379 95bd 41b0 02bd 84b5 173d c16b 843a
00000080: 94d8 973d ae2b 87bd b0da 9dbd f0de 273d
00000090: c473 da3d 2f88 00bc bfb3 e83d 8f00 b5bd
000000a0: 0fca 53bc e8ec e8bd eb2d d63c 6882 0a3d
000000b0: 5651 d9bd 3450 5dbd 7b43 8f3d 64a3 23bd
000000c0: 7970 f03d 05e5 d33d 3252 e33d d003 88bd
000000d0: 3655 553d 6735 a1bd bf05 b33c 1310 8a3a
000000e0: 4efd d13c c70f b33d 645b 283d da0b a23d
000000f0: 5924 ea3d 7c39 f23c 6660 b5bd bb31 f93d
00000100: 9663 15bd 7fdf cb3c 72a1 793c 04c5 db3c
00000110: 60c9 8e3d 9d78 41bc 41c3 4b3d cbc7 10bd
00000120: 583b d8bd a4b1 85bd f77d f03a 7d90 b83d
00000130: de74 b33d 879a db3d e934 04be 38a8 d9bc
00000140: 19e6 a5bb 31a9 6bbd 7ab9 7abd 82f8 1fbd
00000150: 3285 32bd 1d97 80bd df50 003e d127 a63d
00000160: 90c9 b23d a41c e7bd e6c2 b93d d975 acbc
00000170: e9df a6bd d067 ddbd 8bfa 003e f546 a0bd
00000180: 4058 823a 9531 8d3d 37f0 a2bd 50f6 123d
00000190: e065 e8bd 5f4f 903d 7d05 d0bd 702e 953d
000001a0: e2e3 313d 2b53 ae3d 549c f43d ab86 a0bd
000001b0: 5a1a f13b 60d7 9c3d aa37 ca3c 1192 e1bd
000001c0: 7dc6 543c e8f1 c93d b2ca 9d3d cb90 8a3c
000001d0: 8432 aebd a1f0 de3c 5234 123d 66f3 b83d
000001e0: 8f67 8ebb b9a1 1839 8eec 853b 54ee 8e3d
000001f0: 6cb4 2a3d 34f3 33bd 6c58 a1bd 084f efbd

actor_head.2.bias f4 [2]
-0.082977876 -0.043883856
00000000: 4ef0 a9bd 8fbf 33bd

critic_head.0.weight f4 [64, 1600]
-0.03211919 -0.06889853 -0.12201072 -0.04621966 -0.03646968 -0.06276196 -0.056197166 -0.03669193
-0.059708275 -0.10401322 -0.062058963 -0.060048714 -0.05903974 -0.042347606 -0.024485169 -0.0246888
-0.08917796 0.012174985 0.021986783 -0.03520237 -0.12907219 -0.07379666 -0.082640275 -0.08245204
0.005830787 -0.020554444 -0.01635399 -0.06186716 0.012653855 -0.0653525 -0.009696325 -0.019920025
0.009030645 0.014158334 -0.07024573 -0.038223874 -0.08098831 -0.022127522 -0.06217173 0.021800673
-0.03683339 -0.04482987 -0.06703815 -0.066203274 -0.10820562 -0.102998 -0.05728651 -0.054273043
-0.0677703 -0.06251105 -0.09939643 -0.0936307 -0.047319237 -0.07837661 -0.08754579 -0.04367229
-0.039529905 -0.059366245 -0.018140616 -0.025544988 -0.012473294 -0.07674232 -0.033239674 -0.020716973
-0.06404061 -0.031012625 -0.0029715775 -2.4756591e-05 -0.043775998 -0.09047905 -0.014129711 -0.015323319
-0.008266597 0.016555972 0.011280057 -0.010568547 -0.008593789 0.013871497 -0.014925707 0.04408386
-0.014085322 -0.00010375943 -0.07140273 -0.104965866 -0.056490015 -0.08529803 -0.101103686 0.026775979
-0.040643267 -0.065212324 -0.047214847 -0.037806783 -0.024871951 0.036214877 -0.04366554 -0.041061796
-0.035268094 -0.018812692 -0.0076429173 0.019419838 -0.074424654 -0.041796517 -0.05407768 -0.012290329
0.016528634 -0.053055577 -0.026413402 0.013973255 -0.07561568 -0.100738846 -0.034892604 0.00055802765
-0.051171493 -0.014237733 -0.06374272 -0.028685011 -0.040918626 0.056892753 0.0002638489 -0.081328094
-0.096526995 0.0044180094 0.039071918 0.034166563 -0.027850788 -0.029196167 -0.004134691 -0.051508192
0.014937902 0.010454679 -0.009259074 -0.00093777425 0.0011694646 0.0019466844 -0.05536675 -0.011157678
-0.0015910141 -0.0054722144 -0.017000558 -0.024869014 -0.0556516 -0.058361333 6.0521998e-05 -0.07725947
-0.061818052 -0.031085618 -0.048579 0.03615049 0.03467746 0.0072437995 0.044444934 0.013916774
0.0305568 0.03206734 0.042759664 0.011228813 0.03705023 0.030221576 0.04593771 0.045489524
0.046219714 0.030904435 0.008974421 0.024654035 -0.007347993 0.0036138548 0.021154888 0.037998565
0.008974918 0.037213016 -0.010393623 -0.008439972 0.007484359 0.0024596488 0.022756781 0.024376772
0.03848593 -0.005002061 0.008958671 -0.0004745761 0.022221074 0.029644461 0.015687816 0.008766647
0.030435903 0.004594048 0.0059398008 -0.0007758532 0.0065303613 0.030804673 0.0022671768 0.031957414
0.008089927 0.004532771 0.044719793 0.029845417 -0.001761126 0.004265285 -0.0011234719 0.039564144
0.018714013 0.026218137 0.008276895 0.037162755 0.026546914 0.034434766 -0.009769543 0.009799408
-0.0065588164 0.013021195 0.008134903 -0.010259474 0.0060917004 0.0020298127 -0.007886106 0.021386804
0.037679136 0.017359575 0.016942065 -0.027098883 0.030708607 0.020424012 -0.015529148 0.014316948
0.039749146 0.03108266 -0.035322934 -0.016441852 -0.027954143 -0.006153378 0.0154944165 0.039307877
0.0016450698 0.0336149 0.021674441 -0.0008735778 -0.00584446 0.03510762 0.034754492 0.021342067
0.02488114 0.022471992 0.038885746 0.03755233 0.011017229 0.0040880376 0.009972754 -0.07232863
-0.027583037 0.013097874 0.005260794 0.022204207 -0.02691625 -0.02774379 -0.12790549 -0.03156533
00000000: 698f 03bd ac1a 8dbd c2e0 f9bd d450 3dbd
00000010: 3b61 15bd 5889 80bd 002f 66bd 474a 16bd
00000020: aa90 74bd e204 d5bd 8a31 7ebd a4f5 75bd
00000030: a8d3 71bd af74 2dbd 1f95 c8bc 2b40 cabc
00000040: efa2 b6bd 9779 473c a01d b43c 5c30 10bd
00000050: 802b 04be b422 97bd 4e3f a9bd 9ddc a8bd
00000060: 3010 bf3b cb61 a8bc cef8 85bc 6b68 7dbd
00000070: 1d52 4f3c 88d7 85bd 56dd 1ebc 522f a3bc
00000080: 45f5 133c 5bf8 673c fedc 8fbd a390 1cbd
00000090: 33dd a5bd c744 b5bc c9a7 7ebd 5397 b23c
000000a0: 9cde 16bd 879f 37bd 4c4b 89bd 9595 87bd
000000b0: e89a ddbd 9ef0 d2bd 42a5 6abd 694d 5ebd
000000c0: 28cb 8abd cb05 80bd 5b90 cbbd 74c1 bfbd
000000d0: d1d1 41bd eb83 a0bd 354b b3bd b7e1 32bd
000000e0: 1cea 21bd 052a 73bd a19b 94bc b943 d1bc
000000f0: c95c 4cbc 142b 9dbd 5326 08bd a4b6 a9bc
00000100: b927 83bd 300e febc ccbe 42bb 60ac cfb7
00000110: 764e 33bd 154d b9bd 4e80 67bc a80e 7bbc
00000120: 9f70 07bc 64a0 873c fdcf 383c b327 2dbc
00000130: f7cc 0cbc 4645 633c f48a 74bc 4791 343d
00000140: 1fc6 66bc 6b99 d9b8 983b 92bd 58f8 d6bd
00000150: 1362 67bd bcb0 aebd 730f cfbd 4c59 db3c
00000160: 8e79 26bd 0a8e 85bd 5b64 41bd 49db 1abd
00000170: 43c0 cbbc 0d56 143d a3da 32bd 6a30 28bd
00000180: 4775 10bd 131d 9abc 7071 fabb 5a16 9f3c
00000190: f46b 98bd d332 2bbd 8f80 5dbd 605d 49bc
000001a0: 0f67 873c ce50 59bd eb60 d8bc 14f0 643c
000001b0: 65dc 9abd 2b50 cebd 8ceb 0ebd 9a48 123a
000001c0: 3399 51bd 6145 69bc 8b8b 82bd d4fc eabc
000001d0: 4a9a 27bd 6008 693d 3355 8a39 588f a6bd
000001e0: f2af c5bd f3c4 903b e009 203d 3df2 0b3d
000001f0: 5627 e4bc cd2c efbc 4d7c 87bb 41fa 52bd
00000200: 1abe 743c 1a4a 2b3c 5fb3 17bc f7d4 75ba
00000210: b848 993a e427 ff3a 3fc8 62bd b2ce 36bc
00000220: 9389 d0ba 4350 b3bb c144 8bbc 1aba cbbc
00000230: eff2 63bd 4b0c 6fbd 00d9 7d38 373a 9ebd
00000240: ed34 7dbd 44a7 febc c6fa 46bd 8912 143d
00000250: f409 0e3d 655d ed3b e40b 363d 2e03 643c
00000260: 4152 fa3c 0b59 033d c224 2f3d 0ef9 373c
00000270: fbc1 173d 3d93 f73c 2e29 3c3d 3953 3a3d
00000280: e250 3d3d 4c2b fd3c 7309 133c 42f7 c93c
00000290: 6fc7 f0bb 6cd6 6c3b 044d ad3c 62a4 1b3d
000002a0: 890b 133c ad6c 183d 044a 2abc cf47 0abc
000002b0: 5b3f f53b 0f32 213b 6e6c ba3c ccb1 c73c
000002c0: 6ca3 1d3d 54e8 a3bb 64c7 123c 87d0 f8b9
000002d0: f808 b63c f1d8 f23c bc83 803c fca1 0f3c
000002e0: b754 f93c ab89 963b a9a2 c23b a062 4bba
000002f0: a4fc d53b 155a fc3c ea94 143b c7e5 023d
00000300: 9d8b 043c a487 943b 1a2c 373d 607e f43c
00000310: 95d5 e6ba cec3 8b3b 7641 93ba 030e 223d
00000320: 214e 993c 6bc7 d63c d09b 073c f937 183d
00000330: ea78 d93c 780b 0d3d 6f10 20bc b28d 203c
00000340: 57eb d6bb da56 553c 4248 053c 5a17 28bc
00000350: e39c c73b 9b06 053b ba34 01bc 6133 af3c
00000360: 7055 1a3d ab35 8e3c 16ca 8a3c 7afe ddbc
00000370: 9e90 fb3c 4250 a73c f86d 7ebc a291 6a3c
00000380: 00d0 223d 10a1 fe3c c8ae 10bd 10b1 86bc
00000390: 1600 e5bc 47a2 c9bb 4bdc 7d3c 4c01 213d
000003a0: 629f d73a c7af 093d 998e b13c d000 65ba
000003b0: e282 bfbb 02cd 0f3d ba5a 0e3d 8fd5 ae3c
000003c0: 88d3 cb3c 2f17 b83c a946 1f3d 79d0 193d
000003d0: 9c81 343c f2f4 853b c364 233c 0821 94bd
000003e0: d2f5 e1bc 7798 563c bd62 ac3b 99e5 b53c
000003f0: 787f dcbc f246 e3bc a8f9 02be a64a 01bd

critic_head.0.bias f4 [64]
0.010227631 -0.038441766 0.00042787177 -0.02248828 0.0013436507 0.0039650025 0.008471814 0.00930954
0.016603641 -0.010503307 0.012125524 -0.0016823856 0.036854725 0.00017962848 -0.03278739 0.0064423084
-0.019442488 0.0034173399 0.009591615 -0.023327217 -0.019400407 -0.0144622 0.009270966 -0.020343192
-0.010815548 -0.010757152 0.01332911 0.009017602 -0.00249478 0.020726027 -0.0026137305 -0.014967284
-0.0007395153 -0.021853775 0.007609334 0.01539708 -0.001953265 -0.030974606 0.034974534 -0.030306775
-0.011564343 0.007662178 -0.0076171537 0.007203264 -0.018516807 0.036069334 0.014165141 0.021739736
-0.028619837 -0.0063964273 0.019973898 0.02699824 0.008984826 -0.0017521597 -0.00086989393 0.015099327
-0.020830696 0.0007769365 -0.013448523 -0.007214169 0.010677507 0.007177424 0.03838821 -0.03282202
00000000: cb91 273c 1d75 1dbd fa53 e039 5739 b8bc
00000010: 701d b03a daec 813b 5dcd 0a3c 0a87 183c
00000020: 5c04 883c 1016 2cbc 22aa 463c 7e83 dcba
00000030: fbf4 163d a75a 3c39 124c 06bd 001a d33b
00000040: da45 9fbc 73f5 5f3b 2626 1d3c b818 bfbc
00000050: 9aed 9ebc ddf2 6cbc 40e5 173c c4a6 a6bc
00000060: b233 31bc c43e 30bc 5762 5a3c 90be 133c
00000070: 777f 23bb a1c9 a93c 1f4b 2bbb 5739 75bc
00000080: 08dc 41ba b006 b3bc b857 f93b 0944 7c3c
00000090: 5902 00bb 75be fdbc 7541 0f3d ea45 f8bc
000000a0: 5f78 3dbc 0213 fb3b 5199 f9bb 5c09 ec3b
000000b0: 8fb0 97bc 70bd 133d e814 683c 8817 b23c
000000c0: 2674 eabc 1f99 d1bb 4da0 a33c 6a2b dd3c
000000d0: 1735 133c b9a8 e5ba 9809 64ba 2b63 773c
000000e0: 23a5 aabc 53ab 4b3a 3257 5cbc d664 ecbb
000000f0: b6f0 2e3c 9930 eb3b f53c 1d3d 6270 06bd

critic_head.2.weight f4 [1, 64]
-0.062160984 0.00038296956 0.07481194 0.014866709 0.100343384 0.033851918 -0.09628755 -0.044844713
0.04606986 -0.10723016 -0.09799207 -0.095918104 -0.07902502 -0.0165662 0.059400994 -0.09843299
-0.08399975 -0.04791408 -0.07655736 0.07611103 0.04540701 0.08202694 -0.0708731 -0.010964136
-0.052282665 0.00055291463 0.031371925 -0.0143932775 -0.08623764 0.0039124237 0.1039843 0.048955932
0.01415478 -0.08915664 0.014223395 -0.011268451 -0.080619946 -0.0334701 -0.023259336 0.07734592
-0.04258406 -0.10973827 0.0043122265 -0.10949249 0.10195427 -0.049579587 -0.016420448 0.10744937
0.081658565 -0.09868747 -0.08637292 -0.010875413 -0.11600442 0.043307874 0.0799999 0.10785397
0.06367462 0.047417372 -0.06501495 -0.003536727 0.0828855 0.10412321 -0.101302154 0.11337415
00000000: 849c 7ebd 4ec9 c839 0137 993d 7f93 733c
00000010: d580 cd3d 4fa8 0a3d 6832 c5bd 17af 37bd
00000020: c0b3 3c3d 7c9b dbbd 11b0 c8bd b670 c4bd
00000030: dfd7 a1bd d7b5 87bc 754e 733d 3c97 c9bd
00000040: 1008 acbd 8e41 44bd 1bca 9cbd 1ae0 9b3d
00000050: b3fc 393d befd a73d ea25 91bd eba2 33bc
00000060: 5926 56bd 79f1 103a d97f 003d c8d1 6bbc
00000070: 5c9d b0bd ca33 803b b8f5 d43d 0486 483d
00000080: 73e9 673c c297 b6bd 3e09 693c 4f9f 38bc
00000090: 121c a5bd f217 09bd 5d8a bebc 8a67 9e3d
000000a0: a06c 2ebd 75be e0bd 944d 8d3b 993d e0bd
000000b0: 66cd d03d f713 4bbd 2d84 86bc 6a0e dc3d
000000c0: 9b3c a73d a81c cabd 49e4 b0bd ca2e 32bc
000000d0: ba93 edbd 9963 313d fdd6 a33d 8be2 dc3d
000000e0: d767 823d b838 423d 8f26 85bd 6fc8 67bb
000000f0: dfbf a93d 8d3e d53d 8177 cfbd b530 e83d
