project_files/runs/Sep08_15-16-11_kiveli.ics.forth.gr/ppo_policy_camera_cnn_whole_circle.pth (torch, 851485 bytes, 16 tensors)

action_var f4 [2]
000000 00 00 80 3e 00 00 80 3e
       0.25 0.25

cnn_base.0.weight f4 [16, 1, 3, 3]
000000 8b 05 b8 3c 5c fe 72 3d f6 24 71 bd d9 6e d8 3d
       0.02246358 0.059324607 -0.05887314 0.105680175
000010 5d af 17 3e a7 d5 8f 3e 00 b1 29 3e ae bf 27 3d
       0.1481299 0.2809269 0.16571426 0.040954284
000020 94 e8 51 bd e8 c0 9f be 31 ca 43 3e f3 fc 01 3e
       -0.051247194 -0.31201863 0.19120099 0.12694149
000030 8d db 8e bc 77 c6 41 3d 18 c2 97 be 80 03 e4 3c
       -0.017438674 0.04730841 -0.2964027 0.0278337
000040 ff e7 2a 3d e9 5a af be e0 23 e4 3c 41 ec 91 3e
       0.041725155 -0.34249046 0.027849138 0.2850056
000050 54 be a4 be 3c a3 2b 3e 0b b4 8c 3e 72 b3 61 be
       -0.3217646 0.16761488 0.27481112 -0.22041109
000060 25 bc 01 be 0a 0a 4b 3e bc 82 55 3d c6 e9 3c be
       -0.12669428 0.19828048 0.05212663 -0.18448552
000070 9b a5 91 3e 20 74 80 bd ad 1a 70 be 7e 16 44 3e
       0.2844666 -0.06272149 -0.23447676 0.19149205
000080 7f 19 9c be 08 c0 70 be 70 b9 66 be 39 5a 61 3d
       -0.30488202 -0.23510754 -0.22531676 0.055017684
000090 ba e5 de 3d 49 c3 96 3d f1 9f a6 be 83 fa 90 3e
       0.108836606 0.073614664 -0.325439 0.28316125
0000a0 c5 b7 09 bd 2c 1b 80 be f9 b9 89 3e 16 cf 9e 3e
       -0.033622522 -0.2502073 0.26899698 0.3101737
0000b0 45 b9 ab be 8a ec b0 bd 75 c4 36 be 72 55 41 be
       -0.33539787 -0.08638866 -0.1784838 -0.18880251
0000c0 2d 9f 94 3e 76 3b a5 3e ad ed 83 3e 1a 68 2e 3e
       0.2902769 0.32271928 0.2576727 0.17031899
0000d0 64 af 82 be a1 11 1a 3e 6d c2 16 be 07 1f 5a 3e
       -0.25524437 0.15045787 -0.14722605 0.21300898
0000e0 c0 6b 92 be e0 e1 3f 3e 86 58 83 3e a7 55 54 be
       -0.28597832 0.18738508 0.25653476 -0.20735799
0000f0 2d c7 4b 3d dc a3 12 be fc fb cc bd c2 92 73 3e
       0.049750496 -0.1432032 -0.10009 0.23786452
000100 a8 a5 ac bd 14 a7 44 3e 88 1d 37 ba c5 49 40 be
       -0.08430034 0.1920436 -0.00069852965 -0.18778141
000110 51 8b f5 3d a7 d5 d5 3d 1f 27 3b bd 20 ba 26 be
       0.11989463 0.104411416 -0.045691606 -0.16281939
000120 41 9f bb be 35 e0 68 3d d5 c6 4e 3e 32 c0 92 be
       -0.3664494 0.056854445 0.20193036 -0.28662258
000130 01 fe 8c bc f2 43 2d be c6 25 a3 3e 2b 77 1f 3e
       -0.017210962 -0.1692045 0.31864756 0.15572803
000140 73 31 53 3e 9a 5c 83 be c6 f1 a1 3e d8 8a 53 be
       0.20624332 -0.25656587 0.3162977 -0.20658433
000150 7c 4f a3 3d 45 d4 90 3e ad ea 3c bc 5a 99 b6 3c
       0.07974145 0.2828695 -0.01153056 0.02228992
000160 3a fe d3 bc 6e b8 e9 3d d3 c8 77 3e 71 ef 4d be
       -0.02587806 0.1141213 0.24197702 -0.20110871
000170 c0 1c 4c bd 64 a3 05 3d 7a de 9c be 55 4d a3 3e
       -0.049832106 0.032626525 -0.30638486 0.31894937
000180 06 78 4d be a3 a4 9c 3e d4 ce 14 be 0e 5d 9d 3e
       -0.20065317 0.30594358 -0.14532024 0.30735058
000190 0e 17 ee bd a6 f3 7d 3e c6 d6 dd 3d a4 ab 9a be
       -0.11625491 0.24799976 0.108319804 -0.30209076
0001a0 c1 a2 e9 3c f2 3a 5c be 62 3d 71 3e dd b6 77 3d
       0.02851999 -0.21506861 0.23558572 0.060477126
0001b0 d6 d7 72 bd 70 db 59 bd 9e da 92 3d 87 51 74 3e
       -0.05928787 -0.053187788 0.07170604 0.23859225
0001c0 d1 88 a7 be ca 76 65 be 90 35 a1 be 30 e4 a5 3e
       -0.3272157 -0.22408596 -0.31486177 0.32400656
0001d0 7b 3a 4f 3e dd 28 02 bd a4 0f 68 be b7 d0 1c be
       0.20237152 -0.03177725 -0.22662216 -0.15313993
0001e0 6f a7 98 be be 6a 6a 3e 5f 2f 52 be 83 55 97 be
       -0.29815242 0.22892281 -0.20525883 -0.29557428
0001f0 4c 40 34 3e f8 17 9b 3e 23 3c ac 3d 5e 20 8f 3d
       0.17602652 0.30291724 0.08409908 0.069885954
000200 da 47 4c be fa 13 27 3e 8e 30 33 3e 96 31 74 3e
       -0.19949284 0.16316214 0.17498991 0.2384704
000210 a6 7f 94 bd 86 82 33 be 92 39 6f be 3d 5d a0 3e
       -0.072509095 -0.1753026 -0.23361805 0.31321135
000220 19 10 3d be 5d 42 65 3e 24 7b 59 3e 39 7b 95 3e
       -0.18463172 0.22388597 0.2123838 0.29195574
000230 1b 1e 8c be a7 b2 a2 be 0d bc 85 3e 89 99 05 3d
       -0.2736672 -0.31776926 0.26120034 0.032617126

cnn_base.0.bias f4 [16]
000000 e5 26 91 3e 50 06 8b 3e 9a c6 a5 3e 30 fa ea bd
       0.28349987 0.27153254 0.32378083 -0.11473501
000010 43 43 a6 3e b6 2c 7e 3e 25 b4 f1 3c 3c b2 35 bd
       0.32473192 0.24821743 0.029504845 -0.04435943
000020 37 0a 79 3e 48 7c 13 be 13 3f a0 be cf 6e e0 3d
       0.24320303 -0.14402878 -0.31298122 0.10958635
000030 3b 9e 80 be 98 e2 da 3d 11 e8 ae 3e 7d 00 63 be
       -0.2512072 0.106877506 0.34161428 -0.22168155

cnn_base.3.weight f4 [32, 16, 3, 3]
000000 57 5a 73 bd 65 29 ee 3b f7 d6 89 bd 5e cd a3 bd
       -0.059412327 0.007268118 -0.067304544 -0.07998155
000010 58 93 b5 bd 2f 41 e8 bc 02 62 59 bd 3b 44 6d bb
       -0.08865994 -0.028351394 -0.053071983 -0.0036203999
000020 43 d5 25 3d 1f 08 3e 3d 85 38 c5 3c 0e 79 7f ba
       0.040486585 0.046394464 0.024074802 -0.00097455166
000030 8b 51 a7 3c 89 fd 8f 3c 08 8c 62 3d 16 f7 8d bb
       0.020424625 0.01757695 0.055309325 -0.0043324335
000040 ff c7 f0 3c 74 3e 02 bd 77 ad 2f 3d 04 f4 70 3c
       0.02939224 -0.03179784 0.04289004 0.014706615
000050 ff 79 08 3c a6 5c 26 3c f6 8b 8d bd 2b 63 03 bd
       0.008329867 0.010153925 -0.06911461 -0.032076996
000060 21 dc 82 3d 2f 4c 8b 3d f3 72 df 3c 9b a2 b3 bd
       0.063896425 0.0680164 0.027276492 -0.08771249
000070 d1 07 99 bb 6e 75 59 bd c2 f1 b7 bc 6c bb 59 3d
       -0.0046701212 -0.053090505 -0.022454146 0.053157255
000080 75 d9 ad bd d2 08 93 3d 28 61 ed 3b e3 7c 7a 3d
       -0.08488742 0.07179417 0.007244248 0.061154258
000090 07 d1 b9 3c 97 53 38 bd b0 08 97 3d 0c 9e ae 3c
       0.02268268 -0.045001592 0.07374704 0.021315597
0000a0 b1 ca 3b bd 2a 9c b7 bb 8e 3d 67 3d 25 c2 93 3d
       -0.0458476 -0.005603333 0.056455187 0.072147645
0000b0 e0 51 70 3d 7e 68 05 bd 4e 5b 78 bd 30 c8 3a 3d
       0.058671832 -0.032570355 -0.06063395 0.04560107
0000c0 e4 95 18 bd eb 49 3c bd 5c 13 a0 bd b1 47 e1 3c
       -0.03725232 -0.04596893 -0.078161925 0.027500005
0000d0 b3 1d b8 bb 56 0d 70 3c ec 8f 61 3d 7b 14 60 3d
       -0.005618775 0.014651617 0.055068895 0.05470703
0000e0 e0 4f b8 bc a3 e3 a4 3a df 9e c4 3c 64 9b 2a 3d
       -0.022499025 0.0012580048 0.024001537 0.0416521
0000f0 ec 9f 17 3d cc dc 47 bd 9a 06 be bd a5 e0 a9 ba
       0.037017748 -0.048794553 -0.09278603 -0.0012960626
000100 94 fd 87 3d bb 70 3a bc 68 04 c2 3c dd 9a 1e 3d
       0.06640163 -0.011379416 0.023683742 0.038721908
000110 bb a6 18 bd 04 eb a0 3c ae 3f 95 3d 9c f2 ac bd
       -0.03726838 0.019643314 0.072875366 -0.084447116
000120 bb b2 a0 bd ed 37 77 bc b3 e3 83 3d ba 3c 71 3d
       -0.0784659 -0.015089017 0.064399146 0.058895804
000130 d0 73 2f bd 51 72 6f 3c 2b 7e 06 bd 01 5f 97 bd
       -0.042835057 0.0146146575 -0.032835167 -0.073911674
000140 a0 21 84 bc 36 e5 f8 3c f0 8b af bd 3a 84 94 3d
       -0.016129315 0.030382734 -0.08571613 0.07251783
000150 94 8a 25 bd 0d 1c f6 bc 74 23 60 3d 7f cf 65 3c
       -0.04041536 -0.030042673 0.05472131 0.014026522
000160 99 33 2d bc 5d d1 91 3d 12 dc 81 bd 2a 5b 98 3d
       -0.010571384 0.07120011 -0.06340803 0.07439263
000170 91 c6 a0 bd 99 00 6c 3d 7a ee a9 bd 63 8c bc 3b
       -0.078503735 0.057617757 -0.08297439 0.00575404
000180 05 70 7f 3d fd 09 0f bd bd 26 9e 3d 13 14 9f bd
       0.06236269 -0.034921635 0.077222325 -0.07767501
000190 00 40 31 bd 0b 8f a3 3b b0 fd 12 3d 5a 37 43 bd
       -0.043273926 0.0049914173 0.035886467 -0.04766021
0001a0 a3 c4 27 bc 7d c4 c0 bc 77 6c e9 bc ad 71 62 bd
       -0.010239753 -0.023531193 -0.028494103 -0.05528419
0001b0 ad d3 db 3c 27 23 11 3d eb b1 a7 3c 7a be 95 bc
       0.026834333 0.035433915 0.02047058 -0.018279303
0001c0 f1 5f cd bb 38 86 9f bc f8 16 17 bd 54 98 b1 bd
       -0.0062675406 -0.01947318 -0.03688714 -0.086716324
0001d0 e3 15 46 bd 6a 5e 4f bc ca 3e 43 bd e4 ab 9c bd
       -0.048360717 -0.012656787 -0.047667302 -0.07649973
0001e0 80 e9 9c bd a7 9a a8 bd 0a a3 27 bd 20 1b 1d 3d
       -0.07661724 -0.082326226 -0.04092697 0.038355947
0001f0 b3 8c c6 3b a0 b2 d2 bc 4b e1 32 bd 10 e5 43 3d
       0.006059253 -0.02571994 -0.043671887 0.047825873
000200 33 15 a4 bd 91 93 5d 3d 43 dc 89 bd d7 32 29 3d
       -0.08011856 0.05409581 -0.06731465 0.04130825
000210 59 93 0d bd 44 cb 84 bd 68 56 76 3d 0b 16 8d bd
       -0.03456435 -0.06484082 0.060140997 -0.0688897
000220 6e 0c 3f bd eb 10 10 bc eb b1 9c bd e7 72 03 bd
       -0.046642713 -0.008793096 -0.07651123 -0.032092
000230 bb ec 65 bd 96 7d 77 bd c9 8e 8f 3d 64 9d a2 bd
       -0.056133967 -0.060422502 0.07009656 -0.07940176
000240 82 14 98 3d fc b2 53 bd 7f 6c c9 3c 5c 63 8c bd
       0.074257866 -0.051684365 0.024587868 -0.06854889
000250 bb a8 36 bd 3e ad ef bc 95 69 99 3d 2c 4e 88 bd
       -0.044594508 -0.029257413 0.07490841 -0.06655535
000260 66 77 fc bc f3 ad ab bd d9 86 6f bd e7 5e b9 bd
       -0.030818652 -0.083827876 -0.05847821 -0.09051304
000270 3d 35 b2 bd da 89 32 bd 29 0e ae bd 4c 61 9b bc
       -0.08701561 -0.043588497 -0.084987946 -0.018967293
000280 80 29 6e 3d f2 42 7b bd 73 a5 bb 3a 37 ce 6e 3d
       0.058145046 -0.06134314 0.0014316275 0.05830213
000290 d0 48 98 bc c3 0c 00 bd d6 9f c0 bc ba 41 98 bd
       -0.018589407 -0.03126217 -0.023513716 -0.07434411
0002a0 bf a2 4d 3d e8 0e a1 3d 46 f7 90 bd 46 b2 e3 bb
       0.050204035 0.07864171 -0.07078414 -0.006948742
0002b0 e4 09 d1 bd b1 65 22 3d 61 8d f7 bc 35 36 b1 bd
       -0.102069646 0.03964776 -0.030218782 -0.08652917
0002c0 57 39 17 bd 1c 7b 2f bd 76 46 9e 3d 12 2c 4d bd
       -0.036919918 -0.042842016 0.07728283 -0.050090857
0002d0 da 96 1b 3d 82 77 9c 3d 48 ca 4e 3d ac df ec 3c
       0.03798566 0.07639982 0.05048588 0.028915249
0002e0 65 50 53 3d 71 38 32 3c f1 d9 8f bd da 38 8e bd
       0.051590342 0.0108777145 -0.07023991 -0.06944437
0002f0 a5 99 92 bd ac a1 c1 3c e1 52 8f bc 93 8b 01 3d
       -0.071582116 0.023636661 -0.017495574 0.03162725
000300 65 1f 07 bc 7b e4 70 3b de ce cf 3c 16 02 80 3d
       -0.008247231 0.0036757279 0.025367197 0.06250398
000310 70 f1 cc bc 77 80 72 3d 12 ea a1 bd 88 63 bb 3c
       -0.02501747 0.059204545 -0.079059735 0.022874609
000320 cb bc 79 bd 64 5c 3f bc 6b 91 0c bd 05 71 f0 3c
       -0.060971063 -0.0116797425 -0.03431837 0.029350767
000330 2e 49 3a bd 3a b3 51 3d 99 32 5f bc 02 73 7f 3a
       -0.045479946 0.051196314 -0.013622903 0.00097446155
000340 58 c4 3e 3d 66 de 82 bc 0f 8e 9a 3d 5d 28 91 bc
       0.046573967 -0.015975188 0.07546627 -0.017719442
000350 86 5c 1d 3d 34 6a c5 bb fb 8d a6 bd 8c 5a a9 bd
       0.038418315 -0.0060246233 -0.081325494 -0.082692236
000360 0e 38 67 bd 68 80 63 3d 23 e7 fc bb 3d ed 55 bc
       -0.056449942 0.05554238 -0.0077179833 -0.01305705
000370 d2 8a 66 3d d7 8d 61 bd a9 73 6e 3c c1 e2 23 bd
       0.056284733 -0.05506691 0.014553943 -0.04001117
000380 fb d1 11 bd d9 6e ac bc 9d 45 26 bd 07 0a 90 bd
       -0.035600644 -0.02104895 -0.040593732 -0.070331626
000390 2b 9b 41 bd 86 4f 80 bd 7e 70 f7 bc bf fc 38 bd
       -0.04726712 -0.06265168 -0.030205008 -0.045162912
0003a0 0c 02 38 3c 67 f4 97 3d a4 6e c6 3b d6 5a 8e 3c
       0.011230957 0.07419663 0.00605567 0.017377298
0003b0 19 7c 18 bd a7 29 e2 bb 25 69 37 bd 35 0e d0 3c
       -0.037227724 -0.006901938 -0.044778008 0.0253974
0003c0 14 9a 98 3d d7 48 b3 bd 98 03 24 bd f1 d9 17 bc
       0.07451263 -0.087541275 -0.04004249 -0.00926827
0003d0 84 6f db bb 48 20 07 3d 2e 02 69 bd d5 a9 83 3d
       -0.0066966433 0.03298977 -0.056886844 0.06428877
0003e0 f7 30 4d bd a4 55 78 bd bc aa 51 bd 48 be 78 3c
       -0.050095525 -0.06062855 -0.051188216 0.015182085
0003f0 99 24 51 3d a3 13 b4 3a cd 1b 41 bd 18 62 6e bd
       0.051060293 0.0013738762 -0.047145654 -0.05819902

cnn_base.3.bias f4 [32]
000000 0b 5c cb 3b 02 90 50 3d cc 78 93 bd 44 c1 9e bd
       0.0062060407 0.050918587 -0.072007746 -0.07751706
000010 41 75 61 b9 fa 3b a3 3d 34 ef 6f 3c b0 34 4a bc
       -0.00021501353 0.07970424 0.014644433 -0.012341663
000020 9d 7f 27 3d 10 97 d2 3d 12 b0 35 3d c2 72 87 bc
       0.040893186 0.10282719 0.044357367 -0.016534213
000030 2c bf 84 bd 01 12 70 bd 3f 99 9a 3d f9 9f 1f 3d
       -0.06481776 -0.05861092 0.075487606 0.03897092
000040 66 3f ab 3d 43 ee 94 3d 9d 79 b4 3d 28 52 7c bc
       0.08361702 0.07272007 0.088122584 -0.015400447
000050 fd 0d bb 3d 49 b9 a0 3c 99 75 86 3c f5 b0 a0 3d
       0.091335274 0.0196196 0.016413497 0.07846252
000060 56 92 09 3d c3 10 5b 3d cf f6 9d bd 27 9d 21 bd
       0.033586822 0.053482782 -0.07713091 -0.039456513
000070 d3 5f 1f bd 33 28 cd 3c 6b ae e7 3d 94 65 ae bc
       -0.038909744 0.025043583 0.113125645 -0.02128867

mlp_base.0.weight f4 [32, 2]
000000 91 d7 32 be 5d 17 f7 be 5b ee 8f bb 61 c7 e4 bc
       -0.17465045 -0.48260012 -0.004392428 -0.027927103
000010 2e 3a e6 3e 44 ff 0a bf d0 40 c8 3d 28 34 df 3e
       0.44966263 -0.54295754 0.09777987 0.4359448
000020 5e 09 b1 3e db d4 25 be 33 0c bc 3e 76 2e a8 be
       0.3457746 -0.16194479 0.36728057 -0.32847947
000030 25 f3 f5 be 71 8a a6 bd bd d9 ee be 65 45 17 3f
       -0.48037067 -0.08131874 -0.46650496 0.5909026
000040 df e4 84 bd 14 94 81 3e 13 ef 36 3f e8 16 2e 3f
       -0.06488966 0.25308287 0.7145855 0.680037
000050 10 ef df be 95 ac 38 be 11 46 7b bd b6 37 01 be
       -0.43737078 -0.18034585 -0.061346117 -0.12618908
000060 28 80 00 3c 32 55 ea be 25 f7 5a 3e 90 da 26 3e
       0.007843055 -0.45768124 0.2138334 0.16294312
000070 60 a5 25 3e 1f 58 d8 be 9a 62 c5 3e 2d 3c a4 be
       0.16176367 -0.4225473 0.3855179 -0.3207716
000080 ab ff 12 bf a5 58 67 be 7c 47 31 3d 1a db 24 3f
       -0.5742137 -0.22592409 0.043281063 0.6439682
000090 5d 0f 20 bf e4 a7 f5 be c5 29 07 be 9a d8 79 be
       -0.6252344 -0.47979653 -0.13199528 -0.24399033
0000a0 0e 24 05 bf df 09 ef be 80 02 20 bf 62 9f 3e be
       -0.5200814 -0.4668722 -0.62503815 -0.18615487
0000b0 7e ba c5 3e 67 c1 b0 3e f8 fc 33 bf 6e fe 23 bf
       0.38618845 0.34522554 -0.70307875 -0.64060104
0000c0 06 3b f1 bc c6 28 a5 bb 72 a2 38 be 71 be 1a 3f
       -0.02944709 -0.005040261 -0.18030718 0.6044684
0000d0 2a e3 2e bf 5b 5e 02 3f 6a 8a 01 be 89 3b f2 bd
       -0.68315375 0.50925225 -0.12650457 -0.11827762
0000e0 b9 77 95 be 1b fe 20 bf 21 56 28 3b 51 90 e1 be
       -0.29192904 -0.62887734 0.0025686102 -0.44055417
0000f0 83 b6 e7 be 43 9d eb 3d 41 d8 b5 3e b0 e0 fc 3d
       -0.45256433 0.11504605 0.3551655 0.12347543

mlp_base.0.bias f4 [32]
000000 d5 01 64 3e 7c e7 c6 3e 2c d5 a7 3e 39 30 be 3e
       0.22266324 0.38848484 0.32779825 0.37146166
000010 2b 5b b8 be 9a 64 9d 3e 6b fb ad be 9a 67 38 3e
       -0.36007056 0.30740815 -0.3398088 0.18008271
000020 cc f5 f2 be f9 1d 3f 3e 86 80 d5 3d da 59 f4 3e
       -0.47453153 0.18663777 0.104249045 0.477248
000030 b6 7e d1 bc ca 9f 20 3f 9e 1c e0 3e 57 51 7d bc
       -0.025573116 0.6274382 0.43771833 -0.015461287
000040 7d af 0a 3f 37 48 ce be d5 1d 9b 3d f0 d1 73 be
       0.54174024 -0.4028947 0.075740494 -0.23810554
000050 d3 b1 38 3d f5 5d 9b 3e 6e 56 a8 bd 6c c6 28 be
       0.04509146 0.3034512 -0.0821961 -0.16481942
000060 04 9a fc 3e 07 1e d2 be 15 d3 e8 3e 12 1c d7 3d
       0.49336255 -0.41038534 0.45473543 0.10503401
000070 5d 9a 28 3e 02 e0 88 3e 38 28 03 bd 94 5b 14 be
       0.16465135 0.26733404 -0.032020777 -0.1448806

mlp_base.2.weight f4 [32, 32]
000000 ed 50 29 bd 1a 5d b3 bc 08 73 26 3d 36 12 94 3d
       -0.041336942 -0.02189498 0.040637046 0.07230036
000010 9a bf 2c be 10 07 28 3e fa c1 0c 3e a9 6b 32 be
       -0.16869965 0.16408944 0.13745871 -0.17423882
000020 8a ff 1d be 95 7a 19 3e 76 00 cd 3b 5e 48 37 3e
       -0.15429512 0.14988168 0.0062561585 0.178987
000030 d9 43 9e 3d 25 a5 f9 3d 8e 90 bb bd ae b2 1b 3d
       0.07727785 0.12189702 -0.09158431 0.0380122
000040 2d 37 38 3d da 8d f6 bd 95 83 5a bd 31 0f 10 bd
       0.044974495 -0.12038775 -0.053348143 -0.035170738
000050 a0 7f e5 bd f4 b9 ed bd 41 35 cb 3d 82 84 11 be
       -0.11205983 -0.11607733 0.09922267 -0.14210704
000060 11 dc b1 3d a9 28 b8 3d ad d5 24 3e 24 d8 14 be
       0.086845525 0.0899213 0.16097136 -0.14535576
000070 25 f5 83 bc 6d fd 4c ba 69 e2 93 3b 33 23 ac bb
       -0.016108105 -0.0007819746 0.004513074 -0.0052532195
000080 61 91 2e be 6d a5 1a 3e c2 7c d2 3d 08 83 c0 3d
       -0.17047645 0.15102167 0.10277702 0.09399992
000090 55 1e 16 3e 63 0d d3 3d fe b7 13 3e c2 fd 91 bc
       0.14660008 0.10305288 0.14425656 -0.017821196
0000a0 d7 d9 a6 bd 86 ca 0f be 67 33 74 bd 48 3a da 3d
       -0.081470184 -0.140421 -0.059619334 0.106556475
0000b0 d2 fe 99 bc 05 37 04 be d0 56 ce bd 6f ad dc 3d
       -0.018798266 -0.12911613 -0.10075152 0.10775267
0000c0 dd da d6 3d 93 c1 c4 3d 72 15 3c 3d 31 ca d8 3d
       0.104909636 0.09607234 0.04591889 0.1058544
0000d0 db d4 3c 3d 9e 06 90 bd 38 a2 fb 3d 46 81 17 3e
       0.046101432 -0.07032512 0.122868 0.14795408
0000e0 c1 4d 28 bd 36 19 1a be c2 43 33 bd cb 44 04 bb
       -0.041089777 -0.1504868 -0.04376579 -0.0020182605
0000f0 5b 72 12 bd 0b f4 2f bd f2 c6 7f 3d 8f d1 bf bc
       -0.03575359 -0.042957347 0.06244559 -0.023415355
000100 d1 7f 28 3d 54 27 00 be fc 47 f6 3c 5f 53 28 be
       0.04113752 -0.12515002 0.030063622 -0.16438054
000110 78 08 33 3e af f1 14 3c c8 f6 b1 3b fc 59 dc bd
       0.174837 0.009090825 0.00543103 -0.10759351
000120 ee 3c 98 3d b2 a2 48 be d2 9e ee 3b 7e 0f 13 3e
       0.074334964 -0.19593313 0.0072821165 0.14361379
000130 18 c3 94 bd 51 9d 17 3e b3 bd 84 3d d1 37 e3 bd
       -0.07263774 0.14806105 0.06481495 -0.110946305
000140 90 11 b8 bc 9f c8 2b be 68 2c 3e be 78 8c 29 3e
       -0.022469312 -0.1677575 -0.18571627 0.16557491
000150 d4 6d 9e bc 9d 8c 3c be 50 69 4b be d9 e9 ad bd
       -0.01933948 -0.18413015 -0.19864392 -0.084918685
000160 b4 a4 a0 bd d5 14 13 be c3 b2 08 be fe 11 03 3e
       -0.07843915 -0.14363416 -0.13349442 0.12799832
000170 e0 94 c6 3d c5 e0 96 bd a7 0d 93 bd 68 07 a1 bc
       0.096963644 -0.0736709 -0.07180338 -0.019656852
000180 c4 20 a5 bd d2 cb 17 3e 14 6c 34 be 89 d0 79 bd
       -0.0806289 0.14823845 -0.17619354 -0.06098989
000190 97 11 03 be 89 80 2a be 57 5b 30 3e b5 8c d1 bd
       -0.12799679 -0.16650595 0.17222343 -0.10231916
0001a0 6c fb 0c be b2 6d 9a 3d 23 c1 65 bd db 1c d7 bc
       -0.13767785 0.07540454 -0.056092393 -0.026258877
0001b0 6f ce ef bd 65 f6 70 3d 47 1b 0f 3e dc 84 23 3b
       -0.11709296 0.05882873 0.13975249 0.0024951017
0001c0 e2 a6 0f be 57 c5 d7 3d 23 59 e4 3d 6f b1 de bc
       -0.14028504 0.105356865 0.11149814 -0.027184216
0001d0 8f 1f 9b bb b9 95 04 be 7c 76 22 be 27 c3 b9 bc
       -0.0047339867 -0.1294774 -0.1586551 -0.022676064
0001e0 c9 c2 07 3e 96 e6 ed bb 8e d5 06 3e 15 22 a9 bd
       0.13257898 -0.007260154 0.13167402 -0.08258454
0001f0 6b 19 26 3e 0e 1e 0e 3e ca 86 11 3e bf 48 82 bd
       0.16220634 0.13878652 0.14211574 -0.063615315
000200 14 26 d7 bc 15 36 09 be e1 07 92 bd 2c 3d 09 3e
       -0.026263274 -0.13399537 -0.07130409 0.13402241
000210 69 2c c7 bd f8 9b bf bd 29 76 2b 3e d4 9c b8 3d
       -0.097252674 -0.093559206 0.16744293 0.090142876
000220 bc 1e 00 bb df 56 d6 3d 03 5a 35 be 1b e5 15 3e
       -0.001954957 0.10465788 -0.17710118 0.14638178
000230 38 de 93 bd 53 c8 ee 3d ba ab d5 bd 7a dd 8f bd
       -0.07220119 0.116593026 -0.10433145 -0.07024665
000240 0b 13 e6 bd 87 af 05 3c 9a 2b ad bd 74 05 f1 bc
       -0.11234101 0.008159525 -0.08455582 -0.029421546
000250 2f 91 a5 bc 44 94 49 bd 3d a8 da bd d6 61 ed 3d
       -0.02021083 -0.049213663 -0.1067662 0.11590926
000260 ee 06 04 3d e2 4b 84 bd 6a 48 1e 3e c8 98 e8 bd
       0.03223317 -0.06459786 0.15457311 -0.11357266
000270 07 bf 7c bd 26 26 57 bd 55 97 30 3e 93 16 0a 3e
       -0.061705615 -0.052526616 0.17245229 0.13485174
000280 26 48 94 3d 5d 8f e5 bc c0 11 c0 3d c7 c2 c4 bd
       0.07240324 -0.028022463 0.093783855 -0.09607463
000290 54 1a 99 3c a0 5d 0b 3e f6 41 18 be af ba ba bd
       0.018689312 0.13609934 -0.14868912 -0.09117638
0002a0 13 23 3d 3e f0 d0 e3 3d 66 11 c4 bd 59 fb c6 bd
       0.18470411 0.11123836 -0.09573631 -0.097159095
0002b0 7c 99 79 bd 3d 73 38 3e 1d b1 36 bd 3f 2b 26 3e
       -0.06093739 0.1801271 -0.044602502 0.16227435
0002c0 06 4a 79 bd bb b7 11 be 09 d8 fd 3d 70 4f 71 bd
       -0.06086161 -0.14230244 0.12394721 -0.058913648
0002d0 31 07 bf bc b3 32 d7 bd 9f cf 48 3e d8 34 d5 3d
       -0.023318859 -0.10507717 0.19610451 0.1041047
0002e0 1d b2 04 be 5d 4d c8 3d e7 aa 0e be 0a 75 72 3b
       -0.1295857 0.09780381 -0.13932382 0.003699603
0002f0 3a 85 72 3d 6b 12 06 be 1f 20 ca bd 9d 19 19 bd
       0.059209086 -0.13092963 -0.09869408 -0.037377942
000300 32 01 67 bc ce 11 14 be f6 24 a1 bd d2 77 1f be
       -0.014099406 -0.14459917 -0.07868378 -0.15573052
000310 ab 19 e1 3a 66 e6 7a 3d e2 96 86 bc d1 70 1f be
       0.0017173787 0.06125488 -0.016429368 -0.1557038
000320 58 4d e7 bd ed cb 93 bd 4a 88 c5 bd 4b 3f 8e bd
       -0.11294049 -0.0721663 -0.09645136 -0.06945666
000330 1a e1 dd bd d4 84 31 be 46 66 2a be 04 f2 1a be
       -0.1083395 -0.17335826 -0.16640577 -0.15131384
000340 59 cf 59 bc a2 f2 27 3d 47 a3 d4 3d 35 0f 45 3c
       -0.013294064 0.041002877 0.10382705 0.012027551
000350 b2 d0 50 bd 5d ae 8c 3b a5 0f 29 3e a8 6d f2 3c
       -0.050980277 0.0042932467 0.16509874 0.029593304
000360 0a f2 6e 3c 2f 78 f0 bc 34 81 11 3e 6b b1 91 bd
       0.014584074 -0.029354183 0.14209443 -0.07113918
000370 11 6f 03 be 41 7a d8 3b 16 ca fd bd 12 d2 e2 bd
       -0.12835337 0.0066063707 -0.123920605 -0.11075224
000380 82 9d f4 bb b1 43 b7 3d 3a 96 28 3e a3 80 ed bd
       -0.0074650655 0.08948458 0.16463557 -0.11596801
000390 81 6f e7 b8 0e 55 ad bd 31 6e df bd a2 ee 27 3d
       -0.000110357076 -0.084634885 -0.10909689 0.040999062
0003a0 8d 80 03 3d 39 d1 07 be 57 23 e9 bd 61 cf 2e be
       0.032105017 -0.13263406 -0.11383694 -0.17071296
0003b0 22 2d 82 bb ea 77 c0 3d f3 b4 81 bd 11 33 8b bd
       -0.0039726654 0.09397872 -0.063333414 -0.067968495
0003c0 ab 52 19 3e ed a2 57 3d 90 78 a9 bd c7 a4 17 bd
       0.14972942 0.052645613 -0.082749486 -0.03702238
0003d0 d7 75 9d bd df 80 5d bd 21 17 a1 bd 59 af 1e bd
       -0.07688492 -0.05407798 -0.078657396 -0.038741443
0003e0 b2 fd b7 bd 07 22 90 bd 36 c3 af 3d 94 ca 02 be
       -0.089839354 -0.0703774 0.085821554 -0.1277259
0003f0 0e 22 e3 3d 24 96 26 bd 16 47 33 3c a2 42 aa 3c
       0.1109048 -0.04067053 0.010942241 0.020783726

mlp_base.2.bias f4 [32]
000000 e8 40 86 3c 05 c7 b6 bd 4d 5f 1a 3e 25 9e d1 bd
       0.016388372 -0.08924679 0.15075417 -0.10235242
000010 13 c7 67 bd 42 e2 44 bd 9d be bf bd 63 b3 87 bd
       -0.056586336 -0.04806734 -0.093625285 -0.06626012
000020 38 bf 97 bc f0 25 f5 bd c7 ca e6 bd 39 fa ef bd
       -0.018523797 -0.11970127 -0.112691455 -0.11717648
000030 71 fa 95 3c d9 1a 36 3d f9 8d dc bd f7 98 10 be
       0.018307896 0.044459198 -0.10769267 -0.14120851
000040 72 cd 07 3e ae 90 0f be a2 c2 9e 3d a8 2d c2 3c
       0.13261965 -0.14020035 0.07751967 0.023703411
000050 b5 d1 ef bd e8 2f f1 3d a0 9e 37 bd 63 b3 06 bb
       -0.1170992 0.117767155 -0.04482901 -0.00205537
000060 30 5b 45 be 78 fc 1a 3e 2e ed 1d be 78 11 d3 3d
       -0.19273067 0.15135372 -0.15422508 0.10306066
000070 e1 dc d1 3d 24 8a 4c bd 78 21 bc 3d c9 b0 bb 3c
       0.102472074 -0.04993643 0.09186071 0.022911446

actor_head.0.weight f4 [64, 1600]
000000 86 0e 66 3c 59 14 a8 3c 8b 85 41 bb 73 b1 a8 3c
       0.014041549 0.020517515 -0.002952906 0.020592427
000010 46 36 c9 3c 16 72 27 39 87 33 8f 3c 2d b3 91 3a
       0.024562012 0.00015968861 0.017480625 0.0011116021
000020 73 44 04 3c f6 ad 0f bb df 4a e9 bb 2a 4f 3d bc
       0.00807296 -0.0021923757 -0.007119521 -0.011554519
000030 15 06 87 bc 5b 70 25 3c d1 3a 7e 3c 2b b1 7f ba
       -0.016482392 0.010097588 0.015516953 -0.0009753878
000040 e1 f7 ec 3b 6c 1f 9d 3c f9 cb e6 3c fb 5f 71 bc
       0.007231698 0.019180022 0.028173434 -0.014732356
000050 a6 38 b3 bb 35 9f 2a 3c 4f 4b 3d 3c 43 a7 6d bc
       -0.0054693995 0.0104139345 0.0115535995 -0.01450521
000060 70 64 51 bc 92 05 5b bb 48 e8 f5 bc 4e c4 0f bc
       -0.012780294 -0.0033420068 -0.030017987 -0.00877483
000070 89 d1 d4 3b 97 56 a0 3c f3 ca 5e 3c 78 43 59 bc
       0.006494705 0.01957254 0.013598192 -0.013260715
000080 c6 cb 3e 3c 55 e2 0a 3b 47 bb 8b 3b f1 5e 21 bc
       0.011645263 0.0021192033 0.0042642686 -0.009849296
000090 87 82 cc 3c 97 1d 87 3c 3f d9 83 3c 89 c8 94 3c
       0.024964584 0.016493602 0.016094802 0.018162029
0000a0 e0 f0 c0 3c 91 fc e1 3b 47 67 ec 3a 47 95 24 3c
       0.023552358 0.0068965633 0.001803615 0.010045356
0000b0 4e 1c 2b 3c e1 d0 18 3c 6c 71 38 bc 90 2b f4 bb
       0.01044376 0.009327144 -0.011257511 -0.007451482
0000c0 6f 3e 62 3a 2b 82 4a 3d c3 4e 26 bc 67 8f ab 3b
       0.0008630519 0.049440544 -0.010150614 0.0052356008
0000d0 3f 88 af 3c 26 8d b4 bc f7 f1 2f 3c ff 2a c3 3c
       0.021427272 -0.022039961 0.010738841 0.023824213
0000e0 5b 12 28 3c bb dd 5c 3d bc 61 85 ba 8c c7 b3 3c
       0.010258283 0.053922396 -0.0010176222 0.021945737
0000f0 c8 b1 01 bd 62 4a 82 bc 6f 05 a6 3c 33 8b ae 3c
       -0.031663686 -0.01590461 0.020266263 0.02130661
000100 3d 01 25 3d 78 2a 53 3c 50 da 5d 3d 1e 86 7d bb
       0.040284384 0.012888543 0.054163277 -0.0038684676
000110 50 99 65 bc ef 99 18 bd 73 cc 14 3d b8 31 9e bb
       -0.014013603 -0.037256178 0.03632779 -0.0048277043
000120 0f ff 23 bc 97 e1 b2 bb 8c a4 fa 3b de d8 8d bb
       -0.010009541 -0.0054590213 0.00764901 -0.004328831
000130 38 28 5e bd 64 90 6f bc af 98 94 bd ed af 00 3d
       -0.054237574 -0.014621828 -0.072556846 0.031417776
000140 e3 32 c4 3c d9 e1 64 bb d7 f2 ca bc ed 6f 9e bc
       0.023950046 -0.0034924655 -0.024773998 -0.01934048
000150 68 1f 5a bc 7e 9e 95 bc 74 5d 11 3d 9e 23 8f bc
       -0.013313152 -0.018264052 0.035489514 -0.017473038
000160 2a 3a e4 bc 8c 88 7e bc 20 40 6c 3d cc 57 13 bc
       -0.027859766 -0.015535485 0.057678342 -0.0089931
000170 09 e5 63 bb 06 af 9f 3c 8b 21 0f 3d b8 33 ab bc
       -0.0034773967 0.019492637 0.0349441 -0.020898685
000180 21 92 ec bc ec 88 6c 3c 30 a1 b1 3c 0b a1 c8 bc
       -0.028878273 0.014436942 0.021683306 -0.024490854
000190 ac 48 86 3d 72 f9 96 3d 51 5e 11 bd 95 e9 e8 bc
       0.0655683 0.07371797 -0.035490338 -0.028431693
0001a0 37 d9 01 3d c3 d7 a1 3c fd 5e 0b 3d 29 e8 e3 3b
       0.031701293 0.019756204 0.034026135 0.006955166
0001b0 8b 4a 67 bd be 9b 92 3a 2a 42 96 3b 6e 85 9a bc
       -0.056467574 0.0011185331 0.004585524 -0.018862452
0001c0 26 3c 9d b8 99 1b 10 3c 23 36 6f 3c c4 ff e5 b9
       -7.497547e-05 0.008795642 0.01460031 -0.00043868844
0001d0 6d 62 c3 bb 9d e9 d9 bc ba 5b 33 3d 8d 0f 40 3c
       -0.005962661 -0.026600653 0.04378865 0.011722458
0001e0 f3 6e 17 3d 7b 48 5b bb 6f 0b 48 3c 7d a3 41 3c
       0.036971044 -0.003345995 0.012209757 0.011818764
0001f0 e2 e5 78 3c af 48 da bb 8a d6 4b 3d 50 f9 62 ba
       0.015191527 -0.0066614966 0.049765147 -0.0008658366
000200 98 74 e5 3c 85 2a 47 bd fb 84 d5 3c 47 de cd bc
       0.028009698 -0.048624534 0.026064387 -0.025130404
000210 73 dd 03 3c 85 9f 93 bc fe 5d 1a 3b 61 1d 84 bc
       0.008048403 -0.0180204 0.002355456 -0.01612729
000220 c7 81 9a 3a e8 9f 24 3b 10 b2 99 bc ce 3c 73 bc
       0.0011787944 0.0025119726 -0.018761665 -0.01484604
000230 e0 12 e2 bb cd ec 22 3d 05 c2 a9 bc da 7b ef bc
       -0.0068992227 0.039776612 -0.020722399 -0.029233862
000240 7c 73 d4 bc a2 c5 7d bb 7d c5 65 bc 91 44 2b 3d
       -0.025933973 -0.0038722535 -0.014024136 0.041813437
000250 20 1f 65 3c 1b 10 11 bd 8a 32 2b 3d 6f 9e 25 bc
       0.013984472 -0.03541575 0.041796245 -0.010108574
000260 cf 53 39 bd 41 eb 0c 3c 95 93 bf bc b0 bf 99 bc
       -0.04524594 0.008601011 -0.023385802 -0.018768162
000270 cf 55 be 3a 95 34 a2 bc ae 9b dd bc 04 95 95 bc
       0.0014521423 -0.019800464 -0.027051773 -0.018259533
000280 00 12 18 bd b4 14 61 bb bb 14 bf bc b0 36 eb bc
       -0.03712654 -0.0034344615 -0.023325315 -0.0287126
000290 be 99 39 3c b9 61 51 bc 3f 59 14 bd ff 05 de 3c
       0.011328159 -0.012779647 -0.036217924 0.027102469
0002a0 d7 43 8a bb ad ab 3e bd 06 b6 65 39 bb 26 82 bc
       -0.004219513 -0.04655044 0.00021906951 -0.015887609
0002b0 66 64 22 bc a9 12 64 bc ca 4a d3 bb 1a 91 96 3c
       -0.009911632 -0.013920465 -0.0064481245 0.018379737
0002c0 f1 d3 fc bc 99 93 73 bc 3c f1 f5 bb aa 75 76 3b
       -0.03086278 -0.014866733 -0.007505564 0.0037606754
0002d0 c7 8b 2d bd d5 8e 2e bc 02 09 4d bc 40 66 67 bd
       -0.04236963 -0.010654171 -0.012514355 -0.056493998
0002e0 f9 5b 81 bc 32 dd 9f ba 17 99 15 bd e3 35 11 bd
       -0.015790926 -0.0012196659 -0.03652295 -0.03545178
0002f0 5e 48 6f bc 10 05 4a 3d 27 14 60 bd 48 51 83 bd
       -0.014604656 0.049321234 -0.05470672 -0.064119875
000300 9d 08 bb bc 60 4d d7 bc e6 3c a2 bb c5 c0 30 bd
       -0.022831256 -0.026282012 -0.0049511073 -0.04315259
000310 41 a8 0b 3c 4d d2 55 bd 41 88 de bc 83 dc 3a 3d
       0.008524002 -0.05220251 -0.02716458 0.045620453
000320 e8 92 70 bb 28 01 a5 bc 9b cd 26 3d 2f f8 e2 3c
       -0.0036708657 -0.020142153 0.040723424 0.027706234
000330 6f 23 31 3d fc 23 22 bd e1 15 b7 bb 9f a7 97 3d
       0.043246683 -0.0395851 -0.005587325 0.07405018
000340 db 90 1d bd f9 54 f6 3c 86 9a 9c 3c 96 91 6b 3b
       -0.038468223 0.030069815 0.019116651 0.003594493
000350 f8 0d 21 bc 05 00 b1 3c 08 5a 2b 3d d0 95 9c bc
       -0.009829991 0.021606455 0.041833907 -0.019114405
000360 78 8c 25 3d 9b 88 ba 3c 0c 48 35 3c 01 3a 24 bd
       0.040417165 0.022770217 0.011064541 -0.04009438
000370 c6 f9 d0 3b 5f 5c 78 3c 56 57 4c 3d 9a 0a c7 3b
       0.0063774316 0.015158742 0.049887978 0.006074262
000380 52 6b e0 3b e5 d5 c5 bd dc f8 a6 39 d9 bc 6f bc
       0.006848731 -0.09659938 0.00031847402 -0.014632427
000390 e6 5c 9b bc ad 02 40 bd 64 b0 62 bd 1d 3b 29 3d
       -0.018965196 -0.04687755 -0.055344 0.04131614
0003a0 a7 ad f1 3b 07 33 b1 3c d5 20 c2 3b 62 fa 00 3d
       0.0073754373 0.021630777 0.005924324 0.031488784
0003b0 9d 45 4f bc e7 17 31 bd 16 13 b9 3c 98 36 31 bb
       -0.012650874 -0.043235686 0.022592109 -0.0027040597
0003c0 73 9e 85 bc f4 a7 4e 3c 5c 4e f2 bc e1 5f e6 3c
       -0.016310906 0.012613285 -0.02957838 0.02812189
0003d0 42 7a 3d bd 15 ec ae bc cd 6f 6f 3b 23 62 3d 3c
       -0.046259172 -0.021352807 0.0036535144 0.011559042
0003e0 ad c9 93 3c 65 fc c3 bc 70 77 34 bc 70 2c 6c bc
       0.018040502 -0.023924062 -0.011014804 -0.014414892
0003f0 d8 0f c2 bc 78 7a b5 bc 9a c1 dc 3c 9a 2c 9b ba
       -0.023689196 -0.022153124 0.026947785 -0.0011838854

actor_head.0.bias f4 [64]
000000 a4 ae 20 3b dd d6 17 bc 5e da 90 bc af ad 00 3b
       0.0024518156 -0.009267536 -0.01768225 0.0019634773
000010 80 e2 b2 bb d0 6a cd bc 8b a1 d3 bb cb 02 c6 3c
       -0.00545913 -0.025075346 -0.0064584664 0.024171254
000020 d3 bc b9 3a 75 ce ed 3a c3 7e 9e 3c b6 d2 05 3d
       0.0014170654 0.0018143194 0.019347554 0.032671653
000030 44 6c ef 3b 8f 56 9f bc 05 c5 79 bb 76 d5 93 3b
       0.0073066074 -0.019450454 -0.0038111818 0.0045115305
000040 e7 fc 0c bb 73 50 cf 3b 04 28 a9 bc e2 ac 18 3d
       -0.0021513046 0.006326729 -0.020648964 0.03727425
000050 36 1a cf 3b 0c 1e e4 b9 48 b8 88 bc f3 c8 ab bc
       0.0063202633 -0.00043509935 -0.016689435 -0.020969843
000060 c7 06 8a 3c b8 10 a0 3b 70 ee ca 3b d1 4f f5 3b
       0.016848935 0.0048848055 0.0061929747 0.0074863215
000070 dd 92 05 bd 9d ee b4 bc 9a 27 88 3c 8c fe 35 3b
       -0.032610763 -0.022086436 0.016620446 0.002777013
000080 ec 37 76 3c 96 a5 21 3b 42 94 0e 3c 6c 80 c4 bc
       0.015027981 0.0024665347 0.00870234 -0.023987018
000090 e9 76 6f bc f4 7b 8b 3b f6 a4 de 3c 6a b4 b6 bb
       -0.014615753 0.0042567197 0.027178269 -0.0055757063
0000a0 ae 52 4b 3c 73 e2 b7 bc 0f ee b0 3b 0b d3 fc ba
       0.012409849 -0.022446847 0.0053994725 -0.001928897
0000b0 16 53 a4 3c 04 c8 c2 ba a9 20 2c 3b 6c 4e c9 3c
       0.02005915 -0.0014860635 0.0026264584 0.024573527
0000c0 90 91 1a bc 52 c0 bc 3c 89 4e e6 3c 66 ee 0c 3d
       -0.009434119 0.023040924 0.02811362 0.034407042
0000d0 e9 f3 a6 bb b1 b5 0f bc 1f 89 0e 3c 65 d5 0a 3d
       -0.0050949943 -0.008771346 0.008699684 0.033894915
0000e0 31 1b 2d 3c b6 41 02 3d af a8 9e 3c ab d3 ee bc
       0.010565565 0.031800948 0.019367544 -0.029153666
0000f0 3f 27 f7 bc 28 e5 78 3c d0 01 f5 bb 09 ce ae bc
       -0.030170081 0.015191354 -0.0074770227 -0.02133848

actor_head.2.weight f4 [2, 64]
000000 c5 0b 93 bc 4f 61 c1 bd 60 e9 cb bd 0c c7 90 3d
       -0.017949948 -0.09442388 -0.09956622 0.07069215
000010 91 16 61 bc 77 05 8f bc fb d1 b3 bd 6a 60 2f be
       -0.01373829 -0.01745866 -0.08780285 -0.17126623
000020 47 fd f3 bd f7 84 8d bd bc 91 97 bd ad 4b e3 bd
       -0.11913543 -0.06910127 -0.074008435 -0.110984184
000030 e9 d2 44 3c 13 1b 30 bd d5 bd e6 3c 71 f4 73 3d
       0.0120131755 -0.04299457 0.02816669 0.05955929
000040 70 fb ed bc 9e a5 7c 3d 37 4e a2 3d b8 98 a8 bb
       -0.029050559 0.061681382 0.079250745 -0.0051451586
000050 94 4e e5 bd 56 e5 66 3c 05 97 a0 bd a6 69 27 3d
       -0.11196628 0.014092764 -0.07841305 0.04087224
000060 a1 7e ba 3d c5 c6 c2 bd 85 77 9c 3c 56 21 db bd
       0.09106184 -0.095105685 0.01909996 -0.10699718
000070 b0 43 48 bd 38 0d 96 3c 97 9d 0e bd 81 35 3c 3d
       -0.048892677 0.01831685 -0.034818258 0.045949463
000080 3f 32 4e 3c 28 4a 98 3c 78 39 41 bd df a4 df 3c
       0.012585222 0.018590048 -0.047173947 0.027300296
000090 13 1e 99 3a b5 b3 58 bd e3 2d 7a bd 39 62 c2 bd
       0.0011681936 -0.052905757 -0.061078917 -0.09491391
0000a0 06 21 a1 3d d8 e4 d8 3d 70 fb 25 bc 38 e8 ba bd
       0.07867627 0.105905235 -0.010130748 -0.091263235
0000b0 f1 86 07 3c 71 14 b4 bd 70 7b 76 bd 0f 71 89 3d
       0.008271919 -0.087929614 -0.060176313 0.06711017
0000c0 20 b8 e6 bd 45 94 91 bd 22 12 eb 3d 09 db a0 bd
       -0.11265588 -0.07108358 0.11478068 -0.07854278
0000d0 ab 2e 6c 3d e5 f5 9a bd 54 f3 33 3c 99 47 c4 bd
       0.057661694 -0.07566432 0.010983307 -0.09583969
0000e0 2f 9f df bc bd e8 da bd 78 89 58 3d e1 eb dd 3d
       -0.027297584 -0.106889226 0.052865475 0.10836006
0000f0 86 eb 3b bd 53 e7 47 3d 90 06 21 3d 63 16 e0 3d
       -0.04587891 0.048804592 0.0393129 0.1094177
000100 b3 72 c9 3d cc c6 53 bd 70 68 87 bd 50 1b df bd
       0.0983633 -0.05170326 -0.06611717 -0.10893881
000110 7e dd 32 3a 6a 03 b6 3d 60 30 54 3d f3 bf 56 bc
       0.0006823166 0.0888737 0.051803946 -0.013107288
000120 05 ab 39 3c 39 57 46 3c aa a5 44 bb 62 d2 ce 3c
       0.011332278 0.012105756 -0.003000597 0.025246803
000130 6e 27 21 3e 36 89 b6 bd 88 3c b8 3c 66 bf 70 bd
       0.15737697 -0.0891289 0.022489801 -0.05877628
000140 d6 44 17 3d f2 19 c5 bd ca e6 f2 3d 95 db b8 3d
       0.03693088 -0.09624089 0.11860426 0.09026257
000150 1c 15 c1 bd 8a a8 61 bd 2d 28 36 bd c0 ea ad bd
       -0.094278544 -0.055092372 -0.04447191 -0.08492041
000160 50 f3 5a bc 6a c4 6b 3c 34 45 d5 bb 65 21 d7 bd
       -0.013363674 0.0143900905 -0.006508494 -0.105044164
000170 5b f4 a9 bd 27 a6 8d 3c 14 96 82 3d 31 64 17 be
       -0.0829856 0.017291142 0.063762814 -0.14784314
000180 a7 c0 90 3c 41 01 44 bd bb d5 ff 3c 74 1c 52 bd
       0.017669989 -0.04785276 0.031229844 -0.051296666
000190 75 e2 b8 b9 1a 13 2d 3d 64 fa b3 3c 02 15 b6 bd
       -0.00035263938 0.042254545 0.021969981 -0.08890726
0001a0 0a 2e 5a 3c c9 bb 6d bd c3 6b f3 bc 43 dd 89 3c
       0.013316641 -0.058040414 -0.02971447 0.016829139
0001b0 ac 4b 93 3d 58 a2 62 3c 7e 60 f9 3d d2 bd a6 3d
       0.07192168 0.013832651 0.121766075 0.08141674
0001c0 57 3d df 3d 5d 9d 79 3d 7c 02 c0 3d 2a 05 55 3d
       0.109003715 0.06094109 0.09375474 0.052006878
0001d0 cf 00 1d 3d f0 5e 82 bd ea 62 d8 bd e3 9c 8d 3b
       0.03833085 -0.06365764 -0.10565741 0.004321681
0001e0 11 50 7f 3d 06 bc 83 3d ac f9 03 bd 41 ca 3b 3d
       0.062332217 0.06432347 -0.032220528 0.04584718
0001f0 d5 1c d8 bd 35 e0 cd bd be 12 86 3d 72 aa db bd
       -0.10552374 -0.1005253 0.065465435 -0.10725869

actor_head.2.bias f4 [2]
000000 81 07 35 bc 26 6c 07 3e
       -0.011049152 0.13224849

critic_head.0.weight f4 [64, 1600]
000000 df 22 6d bc 50 12 2d bb 5e 58 2b bb fa 5c 0e 3c
       -0.014473646 -0.002640862 -0.00261452 0.0086891595
000010 94 96 b7 bc 8d a9 06 3c 0f ea 82 3c eb 8c 49 bc
       -0.022410668 0.008219135 0.015980748 -0.012301664
000020 b9 79 8a bc 85 41 c8 bc 07 4a e9 bb a1 17 54 bc
       -0.016903745 -0.024445305 -0.0071194205 -0.012945087
000030 0f e0 ac 3c 3e 59 b5 bc 89 af 12 bc b4 65 4c 3c
       0.021102933 -0.02213728 -0.008952984 0.01247542
000040 0d ed 03 3a 14 b0 b8 bc 8a c1 49 bb 6f 07 3b bc
       0.0005032577 -0.022544898 -0.0030785524 -0.0114153465
000050 45 a4 88 3c ca b9 6a bb 16 68 c3 bc 23 c9 a1 bc
       0.016679892 -0.0035816305 -0.023853343 -0.01974923
000060 9b b9 bf bc d3 3f b5 bb 5d 41 ae bc dc 4d 28 bc
       -0.023403933 -0.00553129 -0.021271402 -0.010272469
000070 e6 5a 7c 3c 62 f1 cc ba c5 4b 4d bc 88 99 a4 bc
       0.015402531 -0.0015635903 -0.012530272 -0.02009274
000080 7d 30 92 39 45 ac 0c 3c 96 1c 6d 3c cf 45 4a 3c
       0.00027883417 0.008585994 0.014472147 0.012345745
000090 ee 6c c2 39 01 f6 40 3c fc f7 2b bb e9 a3 57 bb
       0.00037083722 0.011777402 -0.002624034 -0.0032904095
0000a0 64 d3 d7 bb c7 20 dd bb 99 0c 08 3c d2 41 9f bb
       -0.006586479 -0.006748292 0.008303785 -0.0048601413
0000b0 e4 75 da bc 86 08 7f bc c3 77 52 bb 71 a3 57 3c
       -0.026667543 -0.015565997 -0.003211484 0.013161526
0000c0 0a 76 c1 bc b1 22 0e bc 68 bc cb 3c 92 b7 99 3c
       -0.023615856 -0.008675263 0.024870113 0.018764291
0000d0 c2 8c 84 3c 4a b8 98 3c 83 9b b3 3c 9a f4 40 bb
       0.0161804 0.018642563 0.02192474 -0.002944267
0000e0 42 7e 59 bc cd bf a4 bb 2e 38 00 bd 3f 38 59 3c
       -0.013274731 -0.0050277472 -0.031303577 0.013258039
0000f0 ee 58 0b 3c e7 ae f5 3b 3a b0 65 3c b6 1e e2 bb
       0.008505089 0.0074976566 0.0140190665 -0.0069006337
000100 4b b2 ab bc 87 55 11 bc b6 48 76 bc 71 bb a2 3a
       -0.02095904 -0.008870489 -0.015031984 0.0012415481
000110 ed 8a 1f 3b 41 00 68 bc 3e 6d 2c bc 50 e6 6a 3c
       0.002434428 -0.014160217 -0.010524092 0.014337137
000120 87 df 3f bc 74 00 35 bc 69 73 69 3c 22 5c 68 3a
       -0.011711008 -0.011047471 0.014248707 0.00088638265
000130 d7 8b 31 3c b6 cf 97 3c 4f d2 98 bc b0 90 7d 3c
       0.010836563 0.018531661 -0.01865497 0.015476391
000140 f6 67 e3 bc 7c f2 51 bc a6 dd 0b bd 0d e7 39 bc
       -0.027759533 -0.01281416 -0.034146927 -0.011346591
000150 f8 f9 3c bc 53 16 9f bb 13 5b 18 bc b3 90 7e 3a
       -0.011534207 -0.004854956 -0.009299058 0.0009710893
000160 09 95 52 bc 70 49 70 3c b3 33 f8 3b e4 45 ec 3b
       -0.012852916 0.014665946 0.0075745224 0.00721048
000170 07 b6 a0 bb 91 9e 29 bc 1c 69 bc bb bf 1b 8b bb
       -0.004904512 -0.010352747 -0.0057498347 -0.004245251
000180 19 03 93 3b 0d e4 7a bc 87 16 99 bc 17 84 7c 3c
       0.0044864533 -0.015313161 -0.0186875 0.015412352
000190 4a 22 17 bc 67 05 83 ba 87 74 20 3c 57 1f 35 bc
       -0.009224484 -0.0009996117 0.009793407 -0.011054835
0001a0 cd 72 cf ba f3 14 11 3c 88 a6 b3 3c 4a 42 83 3c
       -0.001582706 0.008855092 0.021929994 0.01602282
0001b0 c2 7c 40 3c cd 8d cd bc 00 a0 9f ba 2a 00 a4 3c
       0.011748495 -0.02509203 -0.0012178421 0.02001961
0001c0 27 1d 20 bc 73 e2 94 3c 9a 6c 1a 3c a7 bd 81 3c
       -0.009772575 0.018174386 0.009425307 0.015837504
0001d0 b7 81 ca 3b 3e 65 0a bd 1a ff 02 bc e8 05 9a bc
       0.006180014 -0.03378796 -0.007995391 -0.018801644
0001e0 e0 ff bd bc 2d 7d 85 3c 15 22 52 3c fe 05 9c 3c
       -0.0231933 0.01629504 0.012825509 0.019045826
0001f0 2b 09 b5 3c 0d bd 1c bb 87 6b b8 3b 38 f3 92 3c
       0.022099098 -0.0023916394 0.0056280526 0.017938241
000200 99 af aa 3b 75 33 ae bb 89 ed 70 bc 30 ac 3e 3c
       0.005208921 -0.0053161927 -0.01470507 0.011637732
000210 a7 c2 23 bc bf 59 c6 3c cd cb cb bb d7 27 9c bc
       -0.009995139 0.024212716 -0.0062193633 -0.019061966
000220 03 40 df 3b 6c 1b d5 bb 1a ab 7d 3b 1a 44 d0 bb
       0.0068130507 -0.006503513 0.003870672 -0.0063557746
000230 80 cf 01 bc 97 58 45 bc cd de a8 3a fb 79 96 3c
       -0.007923007 -0.012045047 0.0012883783 0.018368712
000240 a2 36 c9 3c d0 e3 0f 3c d5 4b 8b bc 0d db 78 bc
       0.024562184 0.008782342 -0.017003933 -0.0151889445
000250 80 72 b1 3a 7d c4 be bc 76 d9 32 3b d8 4f 85 bb
       0.0013538152 -0.023287052 0.0027290261 -0.004068356
000260 80 92 56 bc 00 72 67 bb bd 60 08 3c eb d2 35 bb
       -0.013096452 -0.0035315752 0.008323845 -0.0027744125
000270 43 0d 0e 3c cf 95 fd bc 78 c4 73 3c b9 a0 cb bc
       0.008670154 -0.030955223 0.014878385 -0.024856912
000280 7f ab b9 ba 80 f3 9a 3c a9 8a 3a bc 0b d1 d2 bc
       -0.001416549 0.018914938 -0.011385598 -0.025734445
000290 9b 1f 8d 3b 52 c6 e5 bc d1 bb 45 3c 9a ed 1c bc
       0.004306746 -0.028048668 0.012068705 -0.009578133
0002a0 5a d0 54 bc 33 0c 01 bd 2c 71 b5 bc 0c 8e a9 bb
       -0.012989128 -0.031505775 -0.022148691 -0.005174404
0002b0 02 5b 4d 3b 01 b5 13 bc 3f 61 c0 bc a8 35 c5 bc
       0.0031334762 -0.009015323 -0.02348387 -0.024073437
0002c0 63 0f 5b 3c 10 e3 95 3c eb 69 93 bc 2d 71 df bc
       0.013370368 0.018296748 -0.017994842 -0.027275646
0002d0 2a 28 c4 bc 6a c3 5d 3b e2 10 c4 3c 96 fb 10 3c
       -0.023944933 0.00338384 0.023933832 0.008849045
0002e0 2d d7 d4 bc f9 78 ec bc 05 48 d8 bc 30 59 08 3b
       -0.02598151 -0.028866278 -0.02640153 0.0020805113
0002f0 89 0d 02 3c 20 82 8a 3c e6 89 a1 3b 0a b9 ae bc
       0.007937797 0.016907752 0.004929769 -0.021328468
000300 6a 44 a7 bc 2b 3b fa bc e0 30 3f bc 67 2e 42 bc
       -0.020418365 -0.030545792 -0.011669368 -0.0118518835
000310 b6 66 e8 bc c8 0c 82 bc 35 ac 99 3c 67 5c 9f bc
       -0.028369289 -0.015875235 0.018758873 -0.01945324
000320 1a 0c 4a bc c0 76 27 bc 1d e6 46 3c c3 10 dd bc
       -0.012331987 -0.010221183 0.012139824 -0.026985532
000330 2a 5d a1 bc a1 57 e3 bb 38 0d a4 bc 44 a6 cd 3b
       -0.019697744 -0.0069379364 -0.020025834 0.006275924
000340 c3 06 79 3c 22 fe c5 3c 4a fb 63 3c b5 f1 08 bd
       0.015199366 0.024169032 0.013914892 -0.033433635
000350 32 4f 76 3c d6 64 6f 3c ef 9f 79 bc a9 76 61 bc
       0.01503353 0.0146114435 -0.015235885 -0.013761201
000360 b7 90 a1 bc 43 ed 2b 3c 72 82 1d 3c 8a fb 1d 3c
       -0.019722326 0.010493579 0.00961362 0.009642491
000370 80 50 f4 bb 38 45 0e bb 37 e0 2b 3c 10 51 ba bc
       -0.0074558854 -0.0021708738 0.010490469 -0.022743732
000380 a6 3d a9 3b 15 66 43 bc 48 eb 08 3c 92 65 4d bc
       0.00516482 -0.011926194 0.008356877 -0.012536423
000390 0f c1 08 bc 01 f3 a1 bc 1a c8 04 3c 83 cb 83 bc
       -0.00834681 -0.019769194 0.008104349 -0.016088253
0003a0 ad b2 0e bc e3 e6 03 bc 4a cb c5 bc d0 40 e5 bc
       -0.008709592 -0.008050653 -0.024144787 -0.027985007
0003b0 91 c2 cb 3b 7b a4 b7 3c 90 6e a6 bc 00 7e d5 b9
       0.0062182625 0.022417298 -0.020316392 -0.00040720403
0003c0 3d 7d bf 3c db 92 8f bc 88 24 c9 bc a4 93 0c bd
       0.023375148 -0.01752608 -0.024553552 -0.03432049
0003d0 ea 72 84 bb 1f df a4 bc 00 f2 bd 39 07 da 21 3c
       -0.004042019 -0.020125924 0.00036229193 0.009878642
0003e0 ea c0 79 3c 23 b1 b1 bc 97 c7 b6 3c 52 0e c1 bc
       0.015243748 -0.02169091 0.022311969 -0.023566399
0003f0 a0 24 c5 3c 98 39 ba bc 57 0c 89 bc 10 dc 4c 3c
       0.024065316 -0.022732541 -0.016729517 0.012503639

critic_head.0.bias f4 [64]
000000 f1 48 70 3c 5e bf f9 39 37 7f bd bc 44 1f 13 bc
       0.014665828 0.0004763556 -0.02313195 -0.008979622
000010 cf 9a 9b bd 89 6b 05 ba c0 ab f3 bb d9 86 e0 bc
       -0.07597887 -0.00050895714 -0.0074362457 -0.02740805
000020 69 b9 b2 3c 57 48 f4 3a 08 66 eb 3c ff 2a 8f 3a
       0.021816926 0.0018637282 0.028735176 0.0010922848
000030 76 a0 5e bc d1 04 24 3c c6 c6 0a bd 09 3f b5 3d
       -0.013588062 0.010010914 -0.03388097 0.088499136
000040 bd 41 b4 bc 80 86 01 bc 7c 12 d5 3b bf 87 20 bb
       -0.022004003 -0.007905602 0.0065024476 -0.0024494973
000050 50 00 d5 3b ec 08 9b bc 6d c9 c3 bc 40 4b 89 3c
       0.0065002814 -0.018925153 -0.023899758 0.016759515
000060 43 39 91 bb 83 a9 d1 bb 7f 90 c1 3c ee 1d 32 3b
       -0.004431875 -0.006398381 0.023628471 0.0027178484
000070 c1 6f d7 bb fd e4 3a 3c 7b ec cb bc ba a3 81 bc
       -0.0065746014 0.011407134 -0.024893036 -0.015825141
000080 94 71 b7 bc e0 98 b8 3b 48 28 2b bc 2a fd 70 bc
       -0.022393025 0.0056334585 -0.0104466155 -0.0147087965
000090 f6 ad f6 bc 1b 77 3f bd e8 67 27 bd ac 38 ae bb
       -0.030112248 -0.046744447 -0.040870577 -0.0053168144
0000a0 2b 6a 11 bd 1f 11 8a ba d9 6b 3c 3c 55 6d 15 3c
       -0.03550164 -0.0010533667 0.011500322 0.009120305
0000b0 d4 d9 e0 3c d0 ff af 3d bb 36 aa bc e7 5d e3 ba
       0.027447619 0.08593714 -0.02077805 -0.0017346711
0000c0 2d ba 5a bc af 82 10 3d 32 7f 16 bd 77 ba 6c bc
       -0.013350052 0.03528088 -0.036742397 -0.014448754
0000d0 d7 16 2c 3d 4b 70 fd 3c d0 7e 92 3c ff 13 ba 3b
       0.04201397 0.030937335 0.017882735 0.0056786533
0000e0 be 7f e6 3b 94 3a d3 3d ff a4 32 bd 69 32 66 bc
       0.007034271 0.10313907 -0.043614384 -0.014050105
0000f0 d5 0f f6 bc ee 07 11 bd 59 f1 06 bd 8f af 8a bc
       -0.030036846 -0.035407953 -0.03294501 -0.016929416

critic_head.2.weight f4 [1, 64]
000000 ed ef a2 bc 61 99 01 ba 46 82 69 3d b0 52 93 3d
       -0.019889796 -0.0004943815 0.057009004 0.07193506
000010 0b 04 f1 3c d1 66 90 3d 60 3a 56 3d 93 68 95 3c
       0.029420873 0.07050861 0.052301764 0.018238341
000020 e9 a4 cb ba 2d fb ed 3c 81 bf e6 bc 93 a4 80 3d
       -0.0015536818 0.029050434 -0.028167488 0.0628139
000030 d3 75 9b bd a3 04 6a 3c ba 20 bc bd ce 07 cf bd
       -0.075908326 0.014283332 -0.091859296 -0.101089105
000040 3d 88 78 bb bb 9d c1 bd 82 0f f0 3d d8 9d cb 3d
       -0.0037923001 -0.09453913 0.11721708 0.09942216
000050 16 f2 bb bc f4 55 85 3d f4 8a a6 3c 73 3f 0c ba
       -0.022942584 0.06510535 0.02032993 -0.0005350031
000060 37 2c a9 bd ea 06 ae 3d 8e e6 a7 bd 89 55 b1 bc
       -0.082603864 0.084974125 -0.08198272 -0.021647232
000070 0b 47 45 bd 03 a5 d4 bd c2 15 a5 3d 26 a5 a7 3c
       -0.048163455 -0.10383036 0.080607906 0.020464491
000080 49 ff c8 bd 39 a7 e5 bd 14 e1 9e 3d ec 2e f1 3d
       -0.09814317 -0.11213536 0.07757774 0.11776528
000090 ba 1a af 3d d1 07 85 3d e0 95 87 3d cf 10 69 3d
       0.085500196 0.064956315 0.06620383 0.056900796
0000a0 3c 1d 12 3d 41 d5 49 3c 55 fb d6 bd db d7 90 bb
       0.03567241 0.01231891 -0.104971565 -0.004420263
0000b0 a5 73 c0 bc 29 e8 01 bd f4 58 da 3d b4 4e fa 3d
       -0.023492644 -0.031715546 0.10661498 0.12222043
0000c0 5a b9 b6 bd 8b 23 83 bd 03 7c 02 3d d4 a7 9a 3b
       -0.08922072 -0.06403264 0.031856548 0.0047197137
0000d0 ad 7c 52 bd cb 6c e4 bc 50 b6 da bd e3 f5 c4 bd
       -0.05138843 -0.027883908 -0.106793046 -0.09617212
0000e0 42 a6 c6 3d 11 2b fd bb 52 d3 61 3d cc d8 71 bd
       0.0969968 -0.007726081 0.05513317 -0.059044644
0000f0 7a 7d e5 3d 51 39 a0 3b d2 38 a3 3d 0d 04 96 3d
       0.112055734 0.004889645 0.07969822 0.073249914
