project_files_torch/saved_models/ppo_policy_camera_cnn_whole_circle.pth (torch, 851485 bytes, 16 tensors)

action_var f4 [2]
0	0x3e800000	0.25
1	0x3e800000	0.25

cnn_base.0.weight f4 [16, 1, 3, 3]
0	0xbe978ae5	-0.29598156
1	0xbda885c5	-0.082286395
2	0xbdb4f560	-0.08835864
3	0xbdd19f17	-0.10235422
4	0xbebb735d	-0.36611453
5	0x3e4c86e3	0.1997333
6	0x3e824445	0.2544271
7	0x3da0a92d	0.07844768
8	0x3bd8f467	0.006620932
9	0x3c93aaef	0.018025843
10	0x3dfe23a1	0.124091394
11	0x3e09f55c	0.13472503
12	0x3d8424e6	0.0645235
13	0x3c1934ea	0.009350995
14	0x3d7bcc7f	0.06147432
15	0xbda1318a	-0.07870777
16	0x3e387aa6	0.18015537
17	0xba9c3534	-0.0011917711
18	0x3e4d28f8	0.2003516
19	0xbde7a0ba	-0.11309953
20	0x3d6d9198	0.058000177
21	0x3da9560b	0.082683645
22	0xbba638fd	-0.0050727115
23	0xbe71a0e9	-0.23596539
24	0xbea2e290	-0.31813478
25	0xbd90708b	-0.07052716
26	0xbb280507	-0.0025637762
27	0x3ea009be	0.31257433
28	0xbe93db0b	-0.28878054
29	0x3d959736	0.07304232
30	0xbeb2c0dc	-0.34912765
31	0xbcb029db	-0.021504333
32	0x3e989435	0.29800573
33	0xbda5ea28	-0.081013024
34	0x3e3f0a71	0.18656327
35	0xbd75d872	-0.06002087
36	0xbe260f1a	-0.16216698
37	0xbcfabc9d	-0.030607516
38	0xbdb5f3e3	-0.08884408
39	0x3e892a99	0.26790312
40	0x3e5cf057	0.21576057
41	0xbe5b91dc	-0.2144236
42	0xbea76a7f	-0.32698438
43	0xbea5ae0b	-0.32359347
44	0xbe527796	-0.20553431
45	0x3e6d253d	0.23158737
46	0x3e66dee1	0.22545959
47	0xbeb301f5	-0.3496243
48	0x3dd456df	0.10368132
49	0x3e8d4bc0	0.27596855
50	0x3d223d20	0.039609075
51	0xbe3cd8c8	-0.1844207
52	0xbea4854e	-0.32132953
53	0xbd58cb39	-0.052928183
54	0x3e1f5051	0.15557982
55	0xbe7a67ca	-0.24453655
56	0xbddf711f	-0.10910248
57	0x3e05914d	0.13043709
58	0x3e0be9e5	0.13663442
59	0xbe7ca953	-0.24673967
60	0xbe275987	-0.16342746
61	0xbe5c8150	-0.21533704
62	0xbd9f6155	-0.077822365
63	0xbd077a46	-0.033075593
64	0xbe79a3dd	-0.24378915
65	0x3e3c3828	0.18380797
66	0x3e35f682	0.17769817
67	0x3e1769ab	0.14786403
68	0xbe72aac7	-0.23697959
69	0x3dd0ed8d	0.10201559
70	0x3d8bfc08	0.068351805
71	0x3e5c914f	0.21539806
72	0xbd4295b6	-0.047506057
73	0xbb9ea156	-0.00484101
74	0xbe2b507b	-0.1672992
75	0xbddfad8b	-0.109217726
76	0xbe97efd7	-0.2967517
77	0xbe9cb25f	-0.30604836
78	0xbe513428	-0.20430052
79	0xbc590f56	-0.013248285
80	0xbe62edd3	-0.22161035
81	0xbe6c80ba	-0.2309598
82	0xbe9c24f2	-0.30496937
83	0xbe740b1e	-0.23832366
84	0xbd316852	-0.04331238
85	0xbe274a8d	-0.16337033
86	0x3e0a84f3	0.13527279
87	0x3e8a4cdd	0.27011767
88	0xbdbe3360	-0.09287143
89	0x3e92eff1	0.28698686
90	0xbe5990b9	-0.21246614
91	0xbda480c9	-0.08032376
92	0x3e375d9e	0.17906806
93	0x3e3a47ac	0.18191403
94	0x3e6d9a16	0.2320331
95	0xbe647e6d	-0.22313853
96	0x3e17bb8a	0.14817634
97	0x3dab27f2	0.08357228
98	0x3e82b61c	0.25529563
99	0x3e0c75db	0.13716833
100	0x3e402f94	0.1876815
101	0xbebb8bd7	-0.36630127
102	0x3e3117ff	0.1729431
103	0xbd9d63b2	-0.07685031
104	0xbe9c67f5	-0.30548063
105	0x3e4a9701	0.19784166
106	0xbe9d96b1	-0.3077903
107	0xbe7d3af3	-0.24729519
108	0xbc320d2e	-0.0108674
109	0x3c045e70	0.008079156
110	0xbe9191b1	-0.28431466
111	0x3e6ce231	0.2313316
112	0x3e65e95d	0.22452302
113	0x3e567594	0.2094329
114	0x3e1f18d6	0.15536818
115	0x3e5923d1	0.21205069
116	0x3ea0b88b	0.31390795
117	0xbd932374	-0.071844965
118	0xbe9150d0	-0.28381968
119	0x3e813aee	0.25240272
120	0x3e6869e2	0.22696641
121	0xbd71db37	-0.05904695
122	0x3d3f60c1	0.04672313
123	0x3d989da0	0.074519396
124	0xbde65052	-0.11245789
125	0xbebf71e3	-0.37391576
126	0xbdc55111	-0.09634603
127	0xbd737edd	-0.059447158
128	0xbe9593b7	-0.2921426
129	0x3e82b682	0.25529867
130	0x3c097eec	0.008392077
131	0x3dec5cb7	0.115411215
132	0x3e6c6c81	0.23088266
133	0xbe892a1e	-0.26789945
134	0xbe1d0ee7	-0.15337716
135	0x3dd1dffd	0.102478005
136	0x3dfb2c2f	0.12264287
137	0x3d7520f4	0.05984588
138	0x3badb357	0.00530092
139	0xbe5f2738	-0.21792305
140	0xbe664e3b	-0.2249078
141	0xbdb35be8	-0.08757764
142	0xbda9b135	-0.08285753
143	0x3e39823d	0.18116088

cnn_base.0.bias f4 [16]
0	0x3d8df7f8	0.06932062
1	0x3d73adfd	0.0594921
2	0x3dd7088c	0.10499677
3	0x3dcf513b	0.10122915
4	0x3dd00224	0.10156658
5	0x3e8325b2	0.25614697
6	0x3dea69f7	0.114459924
7	0x3e98ac08	0.2981875
8	0xbc83a2ab	-0.016068777
9	0x3e447250	0.19184232
10	0x3df9cfd9	0.12197847
11	0xbdcedb28	-0.101003945
12	0x3c16e9e7	0.00921104
13	0xbe1b5db6	-0.15172467
14	0xbe010a8c	-0.1260168
15	0x3dfa9939	0.12236256

cnn_base.3.weight f4 [32, 16, 3, 3]
0	0x3d070e1d	0.032972444
1	0xbd4cf633	-0.05003948
2	0x3d556a23	0.052103173
3	0x3c324e22	0.010882886
4	0x3cc28b1e	0.023747977
5	0x3d2b0e62	0.041761763
6	0x3d06df5a	0.03292785
7	0xbc0e95a0	-0.008702666
8	0xbcbc355d	-0.022974664
9	0xbc9a2a6a	-0.018819053
10	0xba86b080	-0.001027599
11	0x3d0200f2	0.031739183
12	0x3d4063b2	0.046970077
13	0x3d652b5a	0.055949546
14	0x3d942aa0	0.072346926
15	0x3d5ef16f	0.054429468
16	0xbd3594ac	-0.044331238
17	0xbd991168	-0.07474023
18	0x3c7718e4	0.015081618
19	0xbd531687	-0.051535156
20	0x3c521ce0	0.012824267
21	0x3baebea0	0.005332783
22	0x3d46a850	0.04850036
23	0xbd82e345	-0.063910045
24	0x3d485229	0.04890648
25	0x3d7f3b58	0.062312454
26	0xbcb45586	-0.022013437
27	0x3d0b3820	0.03398907
28	0xbd8a123e	-0.06741761
29	0x3d7d9d47	0.06191757
30	0xbd6d26e1	-0.057898406
31	0x3d4c85bf	0.049932238
32	0x3c65e307	0.014031178
33	0xbc8a9b29	-0.01691969
34	0xbd37e76c	-0.044898435
35	0x3cf3c6b0	0.029757828
36	0x3d80770b	0.06272706
37	0x3d89f854	0.06736818
38	0x3d6fc884	0.058540836
39	0xbcdc07eb	-0.026859244
40	0x3d0f823f	0.03503632
41	0x3d08068a	0.03320936
42	0xbbafaef1	-0.005361431
43	0x3d8d4378	0.06897634
44	0x3d852afa	0.06502338
45	0xbd05d144	-0.032670274
46	0xbd95712f	-0.07296979
47	0x3d8fae03	0.07015612
48	0xbcaddc04	-0.021223076
49	0xbd55c81c	-0.052192792
50	0xbda9188f	-0.08256637
51	0x3d86b074	0.065766245
52	0x3ca2ebe6	0.019887876
53	0x3c454d89	0.012042412
54	0x3cbab5fd	0.022791857
55	0x3d343226	0.043993138
56	0xbd88f568	-0.066874325
57	0xbd6e4e19	-0.05817995
58	0x3d02e6a4	0.031958237
59	0x39d0ac45	0.00039801202
60	0xbdbe9693	-0.093060635
61	0x3cc3b960	0.023892105
62	0x3acc81f5	0.0015602695
63	0x3d8e32fc	0.06943318
64	0x3d89939c	0.067176074
65	0x3d15ebc3	0.036601793
66	0xbd5554cf	-0.052082833
67	0x3d38464e	0.044988923
68	0xbd50662a	-0.05087868
69	0x3d32dbe6	0.043666743
70	0x3c74d00d	0.014942181
71	0x3c069be5	0.008215879
72	0xbd08bc7b	-0.033382874
73	0x3d2d899e	0.04236757
74	0x3b0d842b	0.002159367
75	0xbb5a952b	-0.0033353071
76	0xbd4ad253	-0.049516987
77	0xbd8b90fe	-0.068147644
78	0x3d78e9b6	0.06076976
79	0x3cf3391b	0.029690316
80	0xbd436a98	-0.047709078
81	0xbd52c072	-0.05145306
82	0xbc9c429b	-0.019074729
83	0x3d67ad8f	0.056562003
84	0xbd9e1626	-0.07719068
85	0x3d06976e	0.03285926
86	0xbd75f86b	-0.060051363
87	0x3c7c4aed	0.015398723
88	0xbd2fbd15	-0.042904932
89	0xbc840410	-0.016115218
90	0xbd92d751	-0.071699746
91	0xbc8eee7c	-0.017447703
92	0xbd18fee5	-0.03735246
93	0xbd9526a2	-0.07282759
94	0xbda3526a	-0.079747036
95	0xbc80a807	-0.015705122
96	0xbc75fc1a	-0.015013719
97	0x3cb5b6ad	0.022181833
98	0x3d8fb543	0.07016995
99	0x3d9662f0	0.073430896
100	0xbd81474d	-0.06312428
101	0x3c1dfe42	0.009643139
102	0x3c72c545	0.0148175405
103	0xbd3bee7b	-0.04588173
104	0xbdbc9394	-0.09207836
105	0x3c46489c	0.012102272
106	0x3d9f6d25	0.077844895
107	0xbd488478	-0.048954457
108	0xbcb262db	-0.021775654
109	0x3caf8038	0.021423444
110	0xbd8a0ba5	-0.06740502
111	0xbda396cf	-0.07987749
112	0xbda8893a	-0.08229299
113	0x3ce49d70	0.027907103
114	0x3d83b3e1	0.064307936
115	0x3d251141	0.040299658
116	0x3b408d5a	0.0029381127
117	0xbc5bf8f9	-0.013426059
118	0x3d220287	0.03955319
119	0xbda7979e	-0.081832156
120	0xbba108d4	-0.0049143825
121	0xbd5dcf33	-0.05415268
122	0xbda11914	-0.078661114
123	0x3d6e525a	0.058184005
124	0x3c298cc5	0.0103485035
125	0xbacb798a	-0.0015523892
126	0xbda4f439	-0.08054394
127	0x3cf93f58	0.030425712
128	0xbda6d3eb	-0.08145889
129	0x3ced7f94	0.028991498
130	0xbd0df16e	-0.034654073
131	0xbd0dfbfa	-0.03466413
132	0x3bbd4067	0.0057754996
133	0xbb818a7a	-0.0039532753
134	0x3d9311a4	0.07181099
135	0x3d1d0ec4	0.03834416
136	0x3b383810	0.0028109588
137	0xbdb37a8d	-0.08763609
138	0xbd23ea5c	-0.040018424
139	0x3c76feb2	0.0150753725
140	0xbcd2c58a	-0.02572896
141	0x3bdc6158	0.0067254715
142	0xbdb7c399	-0.08972854
143	0xbaf573e2	-0.0018726552
144	0x3cd399de	0.025830206
145	0xbd1fdc85	-0.039028663
146	0xbce89e96	-0.028395932
147	0xba934290	-0.0011235047
148	0xbce7272b	-0.028216919
149	0xbcb0510d	-0.021523023
150	0xbda3a6b2	-0.07990779
151	0x3c95c913	0.018284356
152	0x3c9195d7	0.017771645
153	0x3da69298	0.08133429
154	0x3d91e0c6	0.0712295
155	0xbd98d4b2	-0.074624434
156	0xbdc326df	-0.095288984
157	0xbd637851	-0.055534665
158	0xbafe6a8a	-0.0019410413
159	0x3d09b6e3	0.03362168
160	0x3d659512	0.056050368
161	0xbd8a66f8	-0.06757921
162	0x3d9ee72c	0.07758936
163	0x3d1e8422	0.03870023
164	0xbd87ff3e	-0.066404805
165	0xbd7d0a1b	-0.061777215
166	0x3cbd8475	0.02313445
167	0x3d02ff85	0.031981964
168	0x3c343018	0.010997795
169	0xbd9badc2	-0.07601501
170	0x3d888552	0.06666054
171	0xbd1ea26c	-0.038729116
172	0xbc1d85af	-0.009614392
173	0xba3b6f8d	-0.0007150106
174	0xbdc89027	-0.0979312
175	0x3a1619bf	0.00057258824
176	0x3c9f3ff8	0.019439682
177	0xbd901396	-0.07034986
178	0xbc233a3f	-0.009962617
179	0x3d771178	0.060319394
180	0xbc0d086e	-0.008607967
181	0x3cf57c3a	0.029966462
182	0x3be53042	0.006994278
183	0xbd62bbeb	-0.055354994
184	0x3d0650eb	0.032792013
185	0x3c87574b	0.016521117
186	0x3d8b5193	0.068026684
187	0xbc8f32ab	-0.017480215
188	0x3d69abd8	0.05704865
189	0x3c6e5c31	0.014548347
190	0x3d3881ca	0.04504565
191	0x3d941047	0.07229667
192	0xbcc7827a	-0.024354208
193	0x3cbb4bde	0.022863325
194	0xbd1cadae	-0.03825157
195	0xbd63c9ff	-0.05561256
196	0xbd6513dd	-0.055927146
197	0xbd9103a9	-0.07080776
198	0xbd6500f8	-0.055909127
199	0x3d0a0f94	0.033706263
200	0xbd6f7db4	-0.05846949
201	0xbd1255cc	-0.035726354
202	0xbcc0e669	-0.023547368
203	0x3dbada20	0.09123635
204	0xbd286a2b	-0.041116875
205	0x3b941398	0.0045189373
206	0xbd12f8ae	-0.03588169
207	0x3d9ac6d4	0.07557455
208	0xbc261323	-0.0101363985
209	0x3ce2bae1	0.027677001
210	0x3cc9d536	0.0246378
211	0xbc7d586a	-0.015462974
212	0x3da3a226	0.07989912
213	0xbd8e8895	-0.06959645
214	0x3c604917	0.013689301
215	0xbc0fd43a	-0.008778626
216	0xbd9d71e3	-0.07687738
217	0xbccae736	-0.024768453
218	0xbda2de4b	-0.07952555
219	0x3d721846	0.05910518
220	0x3d958ff6	0.07302849
221	0x3d9692e2	0.073522344
222	0xbd315d83	-0.04330207
223	0x3d8cd4fc	0.06876561
224	0x3d86c42a	0.06580384
225	0xbc49393c	-0.012281712
226	0x3cd52faa	0.026023705
227	0x3d29d158	0.04145941
228	0x3d9d0dd2	0.07668652
229	0x3cd10325	0.025514195
230	0xbd3cda57	-0.046106663
231	0x3d0be6d4	0.03415568
232	0x3d5d1b07	0.053980853
233	0xbca3bcc7	-0.019987477
234	0xbdb38c29	-0.08766968
235	0xbcb8b454	-0.022546925
236	0xbd1d2982	-0.038369663
237	0xbd614718	-0.05499944
238	0xbca44fcf	-0.020057587
239	0xbd917bc9	-0.07103688
240	0xbd7d7baf	-0.061885532
241	0x3cae6cb1	0.021292062
242	0x3ce201d3	0.02758876
243	0xbd14f1a6	-0.036363266
244	0xbda4bacd	-0.08043442
245	0x3d8ff79b	0.07029649
246	0x3d6a7b83	0.057246696
247	0x3d5c6191	0.053803984
248	0xbd3010b2	-0.042984672
249	0x3ce9c60f	0.028536825
250	0x3d85ff14	0.06542793
251	0xbbc0e65d	-0.0058868364
252	0xbc939405	-0.018014917
253	0x3cbd4d3c	0.023108117
254	0x3a3aef1f	0.0007130969
255	0x3c916626	0.017748903

cnn_base.3.bias f4 [32]
0	0x3d7d5df4	0.06185718
1	0xbcd2abab	-0.025716623
2	0x3c6890dc	0.014194693
3	0x3bd08367	0.0063633206
4	0xbb9e49f1	-0.004830592
5	0x3d0286b3	0.03186674
6	0x3d885634	0.06657067
7	0xbd17c7af	-0.037055667
8	0x3c71e8f1	0.01476501
9	0x3d91c48c	0.071175665
10	0xbc9ed364	-0.019387908
11	0x3d5b0c1a	0.053478338
12	0xbd598cdf	-0.05311286
13	0x3d8d40d5	0.06897131
14	0x3cb78ae5	0.022405097
15	0x3c810ab3	0.015752172
16	0x3d051e7d	0.03249978
17	0xbd8a2fb6	-0.067473814
18	0xbcd9cdc6	-0.026587378
19	0x3d6f5980	0.058434963
20	0x3c9b1bbd	0.018934125
21	0x3d6d1ed7	0.05789074
22	0x3cc182df	0.023621975
23	0x3c6cd929	0.014456072
24	0xbd682421	-0.05667508
25	0x3d811681	0.063031204
26	0xbc3294da	-0.010899747
27	0x3948d439	0.00019152545
28	0xbc0c9abc	-0.008581813
29	0x3c473857	0.012159429
30	0x3b6c019d	0.0036011704
31	0xbd774e8f	-0.060377654

mlp_base.0.weight f4 [32, 2]
0	0xbf12fce5	-0.57417136
1	0x3ea3c0a7	0.3198292
2	0xbe67fa45	-0.22654064
3	0xbd88518b	-0.06656178
4	0xbd820261	-0.0634811
5	0xbeb15529	-0.34635285
6	0x3ef08e58	0.469836
7	0x3ecd8762	0.4014235
8	0x3e906859	0.2820461
9	0x3e47f7bd	0.19528098
10	0xbf21e5fe	-0.63241565
11	0x3e1e4f5d	0.15459962
12	0xbe3b8ec9	-0.18316187
13	0xbf112d46	-0.56709707
14	0x3ee25702	0.44207007
15	0x3e92f343	0.2870122
16	0x3e706d23	0.23479132
17	0x3e9b584a	0.30340797
18	0xbf2990ac	-0.66236377
19	0xbe0b4e16	-0.13604006
20	0x3e14ef81	0.14544488
21	0xbefd2156	-0.49439496
22	0xbe7430bc	-0.23846716
23	0xbee6fca6	-0.4511463
24	0x3d00852d	0.031377006
25	0xbf23372c	-0.6375606
26	0xbeb1349b	-0.34610447
27	0x3f068e2f	0.52560705
28	0x3d976235	0.073917784
29	0x3f1ebbbb	0.62005204
30	0xbe932c3a	-0.2874468
31	0xbe3bcb61	-0.18339302
32	0xbd048366	-0.032351874
33	0xbe66d41d	-0.22541852
34	0x3eefef9b	0.46862492
35	0xbd0ec710	-0.03485781
36	0x3e09619f	0.13416146
37	0xbe5bbb87	-0.21458255
38	0xbe88768f	-0.26652953
39	0xbf20c298	-0.62796926
40	0xbdfb8ebb	-0.12283083
41	0x3ef138e3	0.47113714
42	0xbd770c36	-0.06031438
43	0xbee41f04	-0.44554913
44	0x3f15e7aa	0.58556616
45	0xbe6748de	-0.2258639
46	0x3e7ae1d3	0.24500208
47	0x3f12311a	0.57106173
48	0xbea00b31	-0.31258538
49	0xbc99a41e	-0.018755015
50	0x3f09e826	0.53869855
51	0xbf19f6f3	-0.6014244
52	0x3f1515ed	0.5823658
53	0xbe5b9a7a	-0.21445647
54	0xbeba5cd8	-0.3639896
55	0xbf024391	-0.5088435
56	0x3f0696fc	0.52574134
57	0x3dad479f	0.08460926
58	0x3ed61d80	0.41819382
59	0x3f23aaef	0.639327
60	0x3ea8134d	0.32827225
61	0xbee3938b	-0.44448504
62	0xbe522773	-0.20522861
63	0xbf1b99c7	-0.6078152

mlp_base.0.bias f4 [32]
0	0x3e9c8fce	0.30578464
1	0x3f25632d	0.64604455
2	0x3df19a3b	0.11796995
3	0xbed36222	-0.41285807
4	0x3e8ee6eb	0.2791055
5	0xbefb9c1f	-0.49142548
6	0x3e9244e6	0.2856819
7	0xbda6e87a	-0.0814981
8	0xbd69a868	-0.05704537
9	0xbf15ad16	-0.58467233
10	0x3f0af83d	0.5428503
11	0x3e989c46	0.29806727
12	0xbee72ded	-0.45152226
13	0xbe4ec6ba	-0.20192996
14	0xbf269d62	-0.650839
15	0x3e7af4e1	0.24507476
16	0x3f05aa4a	0.52212965
17	0xbf2d6844	-0.6773722
18	0x3d1c7c4f	0.038204487
19	0xbddb0dbc	-0.10695979
20	0x3d90ed63	0.07076528
21	0xbe73c0f1	-0.2380407
22	0xbf0323e0	-0.51226616
23	0x3e58d9a8	0.2117678
24	0xbcecdbc1	-0.02891338
25	0xbefb9492	-0.49136788
26	0xbe72f1f0	-0.23725104
27	0x3e44a829	0.19204773
28	0xbe94af3b	-0.2903994
29	0x3efa683b	0.48907647
30	0xbe577cae	-0.21043655
31	0x3dd683ed	0.104743816

mlp_base.2.weight f4 [32, 32]
0	0x3dcb5a35	0.09929315
1	0x3e04bfc6	0.12963781
2	0x3dccc25f	0.09998011
3	0xbd059528	-0.03261295
4	0xbe1979c1	-0.14987852
5	0x3cdd5169	0.027016358
6	0xbd88b77b	-0.06675621
7	0xbe2cecaa	-0.16887155
8	0xbe128953	-0.14310198
9	0xbd8ab73a	-0.06773229
10	0x3e3aaf21	0.18230869
11	0x3cab961a	0.020945597
12	0x3de3d917	0.11125391
13	0xbdeb0c33	-0.11476936
14	0x3e260f68	0.16216815
15	0xbe1ac817	-0.1511539
16	0xbc0af0c3	-0.008480254
17	0x3e1cfb99	0.15330352
18	0x3e3d05d9	0.18459262
19	0x3d9fbad3	0.07799306
20	0x3e11b703	0.1422997
21	0xbd3cc347	-0.04608467
22	0xbce3ea64	-0.027821727
23	0x3e1aa15f	0.1510062
24	0xbe3098cf	-0.17245792
25	0xbe0f3222	-0.13983968
26	0xbc6d4134	-0.014480878
27	0xbdef8453	-0.11695161
28	0x3e02e7fe	0.1278381
29	0x3e0cd721	0.1375394
30	0xbdac29f8	-0.084064424
31	0x3e310a1f	0.17289017
32	0xbe267fb6	-0.16259655
33	0xbe28686e	-0.16446087
34	0xbe11f8ab	-0.14255016
35	0xbd04e480	-0.032444477
36	0x3dfaf297	0.122533016
37	0x3da961e5	0.08270625
38	0xbdbbbbaa	-0.091666535
39	0xbe229453	-0.15876894
40	0xbbba6ab7	-0.005688991
41	0xbe02d03e	-0.1277475
42	0xbc832f4e	-0.016013768
43	0x3d314ed7	0.04328808
44	0x3de3f9e6	0.11131649
45	0xbc30d4da	-0.010792935
46	0x3bc755d1	0.006083228
47	0x3e06beb7	0.1315869
48	0xbe06b897	-0.13156353
49	0x3ddb6d77	0.10714238
50	0xbd6aae5f	-0.0572952
51	0xbe1fb2a7	-0.15595494
52	0x3e4badd8	0.19890535
53	0x3db6aafa	0.0891933
54	0xbd4cd382	-0.050006397
55	0xbdea34fe	-0.11435889
56	0xbd138e77	-0.036024537
57	0x3e37f9be	0.17966363
58	0x3b9daf4f	0.004812158
59	0xbd5411e8	-0.05177489
60	0x3e0ce69a	0.13759843
61	0xbae781bd	-0.0017662566
62	0x3e4bba2a	0.19895235
63	0xbdaec5a4	-0.08533791
64	0x3ddbabaf	0.107261054
65	0x3defa1f7	0.11700814
66	0x3e1e2604	0.1544419
67	0x3dcdc055	0.1004645
68	0xbde2efec	-0.11080918
69	0x3dfa6801	0.122268684
70	0x3da66bd8	0.08126038
71	0x3e0dd701	0.13851549
72	0xbde857bf	-0.11344861
73	0xbd4ed04a	-0.05049161
74	0xbd0c3e59	-0.034239147
75	0x3d1c9044	0.03822352
76	0xbe1b1318	-0.15144002
77	0xbe0e3e0e	-0.1389086
78	0xbdbce823	-0.09223964
79	0x3e274dd2	0.1633828
80	0x3d840fe3	0.06448343
81	0x3db4b912	0.08824362
82	0x3dddaa2c	0.10823473
83	0x3e1e453b	0.15456097
84	0x3dda6f98	0.10665816
85	0x3e0ba91d	0.1363873
86	0xbe242b81	-0.1603222
87	0xbdbbc981	-0.09169293
88	0xbd791a9c	-0.060816392
89	0xbd987fe5	-0.07446269
90	0xbd39f8ec	-0.045403406
91	0xbdd6890f	-0.104753606
92	0x3e2692fd	0.16267009
93	0xbe37a062	-0.17932275
94	0x3dd00dc3	0.10158875
95	0x3d0888a4	0.033333436
96	0xbe22c662	-0.1589599
97	0x3dd77f09	0.10522277
98	0xbddf36a8	-0.10899097
99	0xbd9ded84	-0.07711318
100	0x3e056199	0.13025512
101	0xbdec01cc	-0.1152378
102	0xbde149c7	-0.110004
103	0x3e42fda9	0.19042076
104	0xbcd20445	-0.025636801
105	0xbd6eb927	-0.058282044
106	0xba06e244	-0.00051454105
107	0x3d98f003	0.074676536
108	0x3d7807bc	0.06055425
109	0x3e0a2f07	0.13494502
110	0x3c7de9c7	0.015497631
111	0x3e0872da	0.13325062
112	0x3d821dc4	0.063533336
113	0xbe19f080	-0.1503315
114	0x3d03052d	0.031987358
115	0x3d690634	0.05689068
116	0x3ca600e9	0.020264106
117	0xb9a3da34	-0.00031252357
118	0xbe12d3ad	-0.1433856
119	0xbe232144	-0.15930659
120	0xbda04093	-0.078248166
121	0xbe244eea	-0.16045728
122	0xbe0a42b8	-0.13502014
123	0xbe023146	-0.12714109
124	0x3db9c176	0.09070103
125	0xbd8623b7	-0.06549781
126	0x3c78d5b6	0.015187671
127	0x3e2de511	0.16981913
128	0x3de941a9	0.11389477
129	0x3db2fcd1	0.08739627
130	0xbd0b3367	-0.033984568
131	0xbdb91863	-0.090378545
132	0xbd61a2b9	-0.055086825
133	0xbd931955	-0.07182566
134	0x3de1c188	0.11023241
135	0xbd2f6cd6	-0.042828403
136	0x3e0d1f43	0.13781457
137	0x3de4e0af	0.111756675
138	0x3ca710ab	0.02039369
139	0x3e0d6bb9	0.13810624
140	0x3d1ae504	0.037816063
141	0x3dea6202	0.11444475
142	0xbb7a8967	-0.003822887
143	0x3d354ffc	0.044265732
144	0x3df77025	0.12081937
145	0x3d69e88f	0.05710655
146	0xbd928b3f	-0.07155465
147	0x3e22249b	0.15834276
148	0xbd813559	-0.063090034
149	0x3ce902d2	0.028443728
150	0xbdacc418	-0.084358394
151	0xbcbb78c6	-0.022884738
152	0x3d867cc4	0.06566766
153	0xbdbab97d	-0.0911741
154	0x3d83553c	0.064127415
155	0xbe2e3fee	-0.17016575
156	0x3e0f955c	0.1402182
157	0xbc0c32b0	-0.008557007
158	0xbda90d75	-0.0825452
159	0xbd47cf79	-0.048781846
160	0x3dc729f4	0.09724799
161	0xbd91002d	-0.07080112
162	0x3e34376a	0.17599264
163	0x3cf210eb	0.029549083
164	0xbdd739e1	-0.105090864
165	0xbe11e84e	-0.14248773
166	0xb99f2177	-0.00030351777
167	0xbdc417f6	-0.09574883
168	0x3e1b681b	0.15176432
169	0xbd62ff21	-0.05541909
170	0x3dd4dbbf	0.10393476
171	0x3db88795	0.09010235
172	0x3e0a4b81	0.13505365
173	0x3db16294	0.086613804
174	0x3dd61202	0.104526535
175	0xbdcb8643	-0.09937718
176	0xbdf2ff60	-0.11865115
177	0xbd8ea85a	-0.06965704
178	0xbde0d51d	-0.10978148
179	0xbb7a9100	-0.00382334
180	0xbcfef33d	-0.031121844
181	0x3e3a6e04	0.1820603
182	0x3ddba902	0.10725595
183	0x3dd9f87a	0.10643096
184	0x3d8db7f0	0.06919849
185	0xbc406c35	-0.011744549
186	0x3deb1a76	0.114796564
187	0xbc4ec38e	-0.012619866
188	0xbd889cde	-0.06670545
189	0xbdee393e	-0.11632012
190	0xbd08b7d4	-0.033378437
191	0x3dffe491	0.124947675
192	0xbdad52ab	-0.08463033
193	0x3c9ed035	0.01938639
194	0x3c89ec86	0.016836416
195	0xbe0f429b	-0.13990252
196	0xbcd592fe	-0.026071068
197	0x3c573293	0.013134616
198	0x3e208cd6	0.15678725
199	0x3d7082df	0.05871856
200	0x3db7bf79	0.089720674
201	0x3e044e75	0.12920554
202	0x3e138a67	0.14408265
203	0x3dae7468	0.085182965
204	0xbdf98081	-0.12182713
205	0x3d9c90ef	0.076448314
206	0xbd88810e	-0.0666524
207	0x3d8790f4	0.066194445
208	0xbd8f0ac5	-0.06984476
209	0x3d78661f	0.060644265
210	0x3df2c4a8	0.118539155
211	0x3e1971bd	0.14984794
212	0xbd3dcd32	-0.046338268
213	0x3d3fcd08	0.046826392
214	0xbe08714a	-0.13324466
215	0xbcebd122	-0.028786246
216	0x3e1a178d	0.15048046
217	0xbe2f9882	-0.17148021
218	0xbe196e9f	-0.14983605
219	0xbdb9a9ea	-0.09065612
220	0x3e1b78ad	0.15182753
221	0x3ddcb216	0.10776155
222	0x3b3c8b33	0.0028769493
223	0xbdc50a4d	-0.09621105
224	0xbe33b576	-0.1754969
225	0x3da8c88e	0.08241378
226	0xbd302871	-0.043007318
227	0xbd6ea4c3	-0.058262598
228	0x3ce3110e	0.027718093
229	0x3d1cca98	0.038279146
230	0x3de00094	0.1093761
231	0xbe1b42f2	-0.15162256
232	0xbb8fe4b2	-0.0043912763
233	0xbe40e49c	-0.18837208
234	0xbe2f733a	-0.17133799
235	0x3d95c110	0.073122144
236	0x3d72f804	0.059318557
237	0x3dcd6803	0.10029604
238	0xbdda6d27	-0.106653504
239	0xbdb57eba	-0.08862062
240	0x3e034f6f	0.1282327
241	0xbde1f48e	-0.11032973
242	0x3e1b66fb	0.15176003
243	0xbdd5476d	-0.10414014
244	0x3d9eea38	0.077595174
245	0xbccd54ab	-0.025064787
246	0xbdb5d267	-0.08878022
247	0x3e2bbca0	0.16771173
248	0xbdf2c71f	-0.118543856
249	0xbdfab464	-0.12241438
250	0x3d8dde3d	0.06927154
251	0x3d32a7a8	0.04361692
252	0xbd784d2e	-0.06062048
253	0x3d830f7e	0.06399439
254	0x3e1ed53f	0.15511034
255	0xbd9bcdc1	-0.07607604

mlp_base.2.bias f4 [32]
0	0x3d271ffe	0.040801995
1	0x3d735d55	0.05941518
2	0x3e2759e9	0.16342892
3	0x3d04a626	0.032385014
4	0xbe331878	-0.17489803
5	0xbcd38b90	-0.025823385
6	0xbd6b8e2f	-0.057508644
7	0x3d931297	0.0718128
8	0xbb27c622	-0.0025600274
9	0x3e636354	0.2220586
10	0xbe02a521	-0.12758304
11	0xbe136e41	-0.14397527
12	0xbdaf8c81	-0.08571721
13	0xbdf518bd	-0.11967609
14	0xbe134f81	-0.14385797
15	0xbd9dba00	-0.07701492
16	0xbdb68dbd	-0.08913753
17	0x3be340c1	0.0069352095
18	0x3cbbd4a7	0.022928549
19	0xbe12031e	-0.14259002
20	0xbe1e1f29	-0.15441574
21	0xbdd46cba	-0.103723004
22	0xbe3a372c	-0.18185109
23	0x3d84637a	0.06464286
24	0xbd77b8b1	-0.06047887
25	0x3de91691	0.11381257
26	0xbd1a4ca0	-0.03767073
27	0xbddf66df	-0.10908293
28	0x3e2df421	0.16987659
29	0x3e00f8f1	0.12594964
30	0x3c203bee	0.009779913
31	0xbdf1d352	-0.11807884

actor_head.0.weight f4 [64, 1600]
0	0xbc845eeb	-0.016158542
1	0xbbafcda4	-0.0053650904
2	0x3c3a9dbb	0.011390145
3	0x3c48289b	0.012216712
4	0x3c96ab5c	0.018392257
5	0x3c26fb45	0.010191743
6	0xbc747b48	-0.014921971
7	0x3c2fab92	0.010722058
8	0x3ae6d4ec	0.0017611063
9	0xba9ecb5c	-0.0012115049
10	0x3c2e984f	0.01065643
11	0x3c9d47fc	0.019199364
12	0x3ca12511	0.019670995
13	0x3b92f6fd	0.0044850097
14	0x3cb136e1	0.021632614
15	0x3c3b85be	0.011445461
16	0xbc81d332	-0.015847776
17	0xbc9a5811	-0.018840821
18	0xbc888802	-0.016666416
19	0x3ad06ab6	0.0015900943
20	0x3ca80684	0.02051092
21	0x3bf115ab	0.0073573194
22	0xbbe99e64	-0.0071294773
23	0xbc1c2a37	-0.009531549
24	0x3c7e2fa1	0.015514285
25	0xbcafe81a	-0.02147298
26	0x3c5b87e5	0.013399099
27	0x3c97a084	0.018509157
28	0x3c826054	0.015915073
29	0xbc59fd7c	-0.013305064
30	0xbb7c41f6	-0.0038491464
31	0xbc834093	-0.016022002
32	0xbcc80d80	-0.0244205
33	0x3c85fec5	0.016356835
34	0x3c4b8e42	0.012424054
35	0xbc9ad241	-0.018899085
36	0xbbd124d7	-0.0063825655
37	0xbbf163e5	-0.0073666447
38	0xbb8619e0	-0.00409244
39	0xbccc3d8e	-0.024931695
40	0xbc3b4f18	-0.011432432
41	0xbbdc3144	-0.00671974
42	0x3c912b6f	0.017720906
43	0xbc56e3ec	-0.013115864
44	0xbbc08db9	-0.0058762697
45	0x3c8fc495	0.017549792
46	0x3c19a14a	0.009376833
47	0xbcb946c6	-0.022616755
48	0xbcbc5040	-0.022987485
49	0x3cb16dc2	0.021658782
50	0xbc85c153	-0.016327536
51	0xbc06b8d3	-0.008222776
52	0x3c0c33f3	0.0085573075
53	0xbc790610	-0.015199199
54	0xbc6972ba	-0.014248544
55	0x3a4067cd	0.0007339686
56	0x3caee035	0.021347145
57	0x3be72ab3	0.0070546507
58	0xbc3fec9d	-0.011714128
59	0x3c4eb530	0.012616441
60	0xbb63700d	-0.0034704239
61	0x3cbed01b	0.023292592
62	0xbb9a57ad	-0.004710159
63	0xbcae5d4a	-0.021284718
64	0xbc956197	-0.018235011
65	0xbccb0745	-0.02478374
66	0xbc8f99aa	-0.017529327
67	0xb9c5f29a	-0.0003775552
68	0xbcae6dd2	-0.0212926
69	0x3c6f95c3	0.014623108
70	0x3bcd847e	0.006271898
71	0x3a9c3033	0.001191622
72	0x3c1bfd3a	0.009520823
73	0xbcae42ea	-0.021272141
74	0x3c1e0c5f	0.009646504
75	0x3bd14ded	0.0063874633
76	0x3bb1eec0	0.0054300725
77	0xbbc1703d	-0.0059032724
78	0x3c773bf3	0.015089977
79	0xbcd72e06	-0.026267063
80	0x3c889e40	0.016677022
81	0x3c88d4e5	0.016703079
82	0x3c05ac80	0.008158803
83	0xbab2cf9a	-0.0013642192
84	0xbc90b1c3	-0.017662888
85	0x3c863497	0.016382499
86	0xbc8bd24a	-0.017068047
87	0x3c4179ed	0.0118088545
88	0x3b8e4858	0.00434212
89	0x3bef3567	0.007300067
90	0xbc1472b3	-0.00906055
91	0x3c566230	0.013084933
92	0xbcc3c49a	-0.023897458
93	0x3ca77002	0.020439152
94	0xbcbdc50b	-0.023165246
95	0xbba6e207	-0.0050928625
96	0xbcc61a72	-0.024182532
97	0x3ca6673f	0.020312903
98	0x3c44dc2d	0.012015385
99	0x3c860f24	0.016364641
100	0x3c7159a7	0.014730847
101	0xbc01bac0	-0.00791806
102	0xbc189939	-0.009313875
103	0x3ac0b7ca	0.0014703211
104	0x39b1b2fd	0.00033893427
105	0xbcbe773e	-0.023250218
106	0x3addc798	0.0016920445
107	0x3c2c2f82	0.010509374
108	0xbc80dbdc	-0.015729837
109	0xbc88c730	-0.016696543
110	0xbb94f833	-0.004546189
111	0xbc585e5c	-0.013206091
112	0x3c92634a	0.01786961
113	0xbc04b6dd	-0.008100239
114	0xbaa2c043	-0.0012416918
115	0x3c8e8740	0.017398477
116	0x3c9c8ec3	0.019111043
117	0xbbf33731	-0.007422351
118	0xbbc34539	-0.0059591797
119	0xbbd51781	-0.006503046
120	0x3b723d67	0.0036962868
121	0xbc6d6592	-0.014489548
122	0x3a607dbf	0.00085636595
123	0x3c8fb851	0.017543944
124	0x3b9e77ab	0.004836043
125	0x3c2d9bd8	0.010596238
126	0xbc28a49f	-0.010293155
127	0xbac55e51	-0.0015058016
128	0x3c85e4f3	0.016344523
129	0xbcc2293b	-0.0237013
130	0xbcb705a2	-0.022341553
131	0xbc10af06	-0.008830791
132	0x3cac8256	0.021058243
133	0x3bde7c35	0.006789709
134	0x3c3fc2de	0.011704175
135	0x3c958812	0.01825336
136	0x3c27e246	0.010246819
137	0xbc263b49	-0.010145971
138	0x3aeb7bce	0.0017965974
139	0x3c27b721	0.010236532
140	0xbb8c7a48	-0.004287038
141	0x3c95f6a7	0.01830609
142	0xbb49aa51	-0.0030771683
143	0x3c0b45c3	0.008500519
144	0xbc4326fc	-0.01191115
145	0x3c3c0c81	0.011477591
146	0xbcd27e3c	-0.025694959
147	0xbca3b905	-0.019985685
148	0xbc06d99d	-0.008230594
149	0x3c2ab73a	0.010419661
150	0x3ca8aed2	0.020591173
151	0xbc495af0	-0.012289748
152	0x3b6775b3	0.0035317957
153	0x3ca9597a	0.020672549
154	0x3c92eb64	0.017934509
155	0xbb4d6d0d	-0.0031345517
156	0xbcb75162	-0.022377674
157	0x3ca42dfd	0.02004146
158	0x3cbfcdea	0.023413617
159	0x3c74a20a	0.014931211
160	0xbb3a7ecd	-0.0028456927
161	0x3b7b337d	0.003833025
162	0xbc3e3bc0	-0.011610925
163	0xbae37a27	-0.001735513
164	0x3c24ecf4	0.01006626
165	0x3b3b2df3	0.0028561323
166	0xbc910810	-0.01770404
167	0xbc3f6747	-0.011682338
168	0xbb6bfddd	-0.0036009469
169	0xbc9b7038	-0.018974409
170	0xbcb61148	-0.022225037
171	0xbcc0aff4	-0.023521401
172	0xbb8b3b0d	-0.0042489828
173	0xb916b4cd	-0.00014372468
174	0x3c9ebffd	0.019378657
175	0xbb50b275	-0.003184465
176	0xbb67785a	-0.0035319538
177	0x3cac117d	0.021004433
178	0x3cb141a8	0.021637753
179	0x3ca21c6d	0.019788945
180	0xbb578fcd	-0.0032892108
181	0xbc902fe8	-0.017600968
182	0xba8847dc	-0.0010397392
183	0xba0fe867	-0.0005489648
184	0xbc974f23	-0.018470353
185	0xbc6be0c2	-0.014396848
186	0xbcd79071	-0.026313992
187	0xbc5195c0	-0.012792051
188	0x3c115eca	0.008872697
189	0x3c27f713	0.010251778
190	0xbbea687a	-0.007153568
191	0xbcc87b47	-0.024472846
192	0xbbaa0293	-0.005188295
193	0x3cb7f8e2	0.022457544
194	0xbc5152e7	-0.012776113
195	0xbc24a05d	-0.010047999
196	0x3b17838d	0.0023119182
197	0x3bd34eda	0.006448609
198	0x3ca5d460	0.02024287
199	0xbbfd5c0d	-0.0077319206
200	0x3c36bcf0	0.011153445
201	0xbc3551c0	-0.011066854
202	0xbcbe8f4a	-0.023261685
203	0xbbd139c7	-0.0063850614
204	0x3cc07c47	0.02349676
205	0x3c12a223	0.008949789
206	0x3c84ee02	0.016226772
207	0x3cb42417	0.021989865
208	0x3c69f693	0.014279979
209	0xbb1df89a	-0.0024104477
210	0x3c8f8e9d	0.017524058
211	0xbc230e4a	-0.009952137
212	0x3cad55ec	0.021159135
213	0xbc1b6eba	-0.0094868485
214	0x3baad8e1	0.0052138423
215	0xbc07c680	-0.008287072
216	0xbccbe662	-0.024890129
217	0xbba935e0	-0.005163893
218	0x3c2eb993	0.0106643615
219	0xbb20f440	-0.0024559647
220	0x3cbe52db	0.023232868
221	0x3c0f1d82	0.008735063
222	0x3c44238a	0.011971364
223	0x3ccaa9fb	0.024739256
224	0xbc9f477b	-0.019443264
225	0x3c06c973	0.00822674
226	0xbba93114	-0.0051633213
227	0xba961067	-0.001144898
228	0x3c83c63f	0.016085742
229	0x3bdda23a	0.0067637237
230	0x3c850be8	0.016241029
231	0xba332fcd	-0.0006835431
232	0x3cc0ca13	0.023533856
233	0x3c026aaa	0.007960001
234	0x3bd852a7	0.00660165
235	0x3bddd4e8	0.006769765
236	0x3bfb6000	0.007671356
237	0x3c2216b0	0.009893104
238	0x3bb8b66d	0.005636981
239	0xbc96ecbf	-0.018423436
240	0xbc993ed3	-0.018706715
241	0x3c09137a	0.00836646
242	0xbcab5b2d	-0.0209175
243	0x3cbe38f7	0.023220522
244	0x3c317420	0.010830909
245	0x3c7247ee	0.014787657
246	0x3c4d28fd	0.012521979
247	0xbc90a6b7	-0.01765762
248	0x3c430e8d	0.011905325
249	0x3c339b4a	0.010962317
250	0xbcca212b	-0.024674019
251	0xbc52e4a0	-0.012871891
252	0xbcad2ef6	-0.021140557
253	0xbc8a6ea8	-0.016898468
254	0x3bd7e135	0.006588126
255	0xbc6367e1	-0.013879747

actor_head.0.bias f4 [64]
0	0xbcce5370	-0.02518627
1	0x3c08f083	0.008358124
2	0xbceddef4	-0.029036976
3	0xba4f2c7b	-0.00079030514
4	0x3c05571f	0.008138447
5	0x3cb15c07	0.021650327
6	0xbcd92f40	-0.026511788
7	0x3b8fb82e	0.0043859696
8	0x3bbe6bbc	0.005811183
9	0xb98fb62c	-0.00027410814
10	0x3ba558ac	0.005045971
11	0xbcaee999	-0.021351622
12	0x3cd1511f	0.025551377
13	0xbcdfb5d1	-0.027308377
14	0xbcd06387	-0.025438083
15	0x3bed0b4a	0.007234012
16	0x3c763b6f	0.0150288185
17	0x3c063aaa	0.008192698
18	0x3b540d02	0.0032356386
19	0xbc2b45a2	-0.0104536135
20	0x3caaa572	0.020830844
21	0xbcac3d93	-0.021025455
22	0xbcd81b30	-0.026380152
23	0xbc0d5d66	-0.008628225
24	0x3c36c07d	0.011154291
25	0xbb855093	-0.004068443
26	0x3c8996e4	0.016795583
27	0xbc87dcd1	-0.016584786
28	0x3c10a06e	0.008827312
29	0xbc72256b	-0.014779429
30	0x393f933e	0.00018270031
31	0xbcc6ba90	-0.024258882
32	0x3ba79e37	0.005115296
33	0xba873784	-0.0010316228
34	0xbc91d864	-0.017803378
35	0xbcc2c4e1	-0.02377552
36	0x3cb4772e	0.022029486
37	0xbc68015e	-0.014160482
38	0x39fd9cdc	0.0004837279
39	0x3c101b87	0.0087956255
40	0x3cad19e8	0.021130517
41	0x3ab75d58	0.0013989611
42	0xbc166bfa	-0.009181017
43	0xbb927e7d	-0.004470645
44	0xbc334929	-0.010942736
45	0xbc09936b	-0.008396964
46	0x3b24dcd2	0.0025156033
47	0xbb84f7ce	-0.004057861
48	0x3be06a02	0.0068485746
49	0xbbfbed1d	-0.007688178
50	0xbc088309	-0.0083320225
51	0xbcb9935e	-0.022653278
52	0xbce3dc6c	-0.027815066
53	0x3ba54c37	0.005044486
54	0xbcf60021	-0.030029358
55	0xbc019377	-0.0079086935
56	0xbce36439	-0.02775775
57	0x3c2d2a24	0.010569129
58	0xbc93bf95	-0.01803569
59	0xbcb8ef0b	-0.022574922
60	0xbc892b88	-0.01674439
61	0xbbc3c328	-0.005974192
62	0xbbbf2b2c	-0.005834004
63	0x3c9faa65	0.01949043

actor_head.2.weight f4 [2, 64]
0	0x3de4f0db	0.11178752
1	0xbdfe5f6c	-0.12420544
2	0xbc3f1fe0	-0.011665314
3	0xbde6e508	-0.11274153
4	0x3dd430c2	0.10360862
5	0xbdd2dfc3	-0.102965854
6	0xbdbce22b	-0.092228256
7	0x3df84506	0.1212254
8	0xbd37eb9e	-0.044902436
9	0x3d7c9f39	0.061675284
10	0x3dfb642c	0.12274966
11	0x3b3a6681	0.0028442445
12	0xbd756588	-0.05991128
13	0x3dd4877d	0.10377405
14	0xbdde181c	-0.10844442
15	0xbb30d19a	-0.00269804
16	0x3d6697bd	0.056297053
17	0x3cef9c21	0.029249253
18	0xbc547acb	-0.012968729
19	0x3d8785bc	0.06617305
20	0x3d4d8914	0.050179556
21	0x3d6105ab	0.054937046
22	0xbdbfd13d	-0.09366081
23	0x3db2a875	0.08723537
24	0xbc93723a	-0.017998803
25	0xbd32c6c6	-0.043646596
26	0xbdbf537a	-0.09342094
27	0x3dd782b5	0.10522977
28	0x3db951ce	0.09048806
29	0xbcb2525e	-0.021767791
30	0xbdd0ef67	-0.102019124
31	0x3d2eaa18	0.042642683
32	0x3df66083	0.12030127
33	0xbde77c72	-0.11303033
34	0x3d17f1b8	0.037095755
35	0x3dcea1d6	0.100894615
36	0x3e0b7ac8	0.13621056
37	0x3dae88d6	0.08522193
38	0xbdc22dd5	-0.09481398
39	0x3d8c842d	0.06861148
40	0xbcdcb74e	-0.026942875
41	0xbdbe83ca	-0.093024805
42	0xbdd5d527	-0.10441046
43	0xba9ab4bc	-0.0011803131
44	0x3db37435	0.08762399
45	0xbd6ff92f	-0.05858725
46	0xbdeaa5da	-0.11457415
47	0xbdb9bb0c	-0.090688795
48	0xbd17c6e7	-0.037054922
49	0xbd089ac6	-0.03335073
50	0xbdea841d	-0.1145098
51	0xbc022414	-0.007943172
52	0xbc55a972	-0.013040887
53	0xbcf1fbb5	-0.029538969
54	0x3c164d4e	0.009173704
55	0xbde6811c	-0.112550944
56	0xbd96b9a0	-0.07359624
57	0xbcbedb42	-0.02329791
58	0xbbfea523	-0.0077711507
59	0xbde1988d	-0.11015425
60	0x3d9ab165	0.075533666
61	0x3d717b0e	0.058955245
62	0x3d965d05	0.07341961
63	0xbdeaccc4	-0.11464837
64	0x3d498cf0	0.049206674
65	0x3de8d6e4	0.11369112
66	0x3d8373da	0.06418581
67	0x3d36f9e3	0.044671904
68	0x3c878d05	0.016546736
69	0x3d299782	0.041404255
70	0xbd6986a4	-0.05701317
71	0x3d85779b	0.065169536
72	0xbddd8dde	-0.10818075
73	0xbd26f45a	-0.040760376
74	0xbdbe2be1	-0.09285713
75	0x3dde6def	0.10860812
76	0x3c9d507a	0.019203413
77	0x3c10490d	0.008806479
78	0xbc5bb91e	-0.013410835
79	0xbc4a8bd1	-0.012362436
80	0x3d6a13b6	0.057147704
81	0x3d8c46ad	0.06849418
82	0xbc1d126c	-0.009586912
83	0x3dbe33fe	0.092872605
84	0x3c18fe5d	0.009337989
85	0xbdbf1675	-0.09330455
86	0xbda0caf9	-0.07851214
87	0x3dc7c2e3	0.097539686
88	0x3acb39ca	0.0015504893
89	0x3df4c3c1	0.119513996
90	0xbdcb3d1f	-0.09923767
91	0xbccfbf15	-0.02535967
92	0xbd9af168	-0.07565576
93	0xbde16da4	-0.110072404
94	0xbd45859e	-0.04822313
95	0x3dd87964	0.105700284
96	0xbcc6e2b9	-0.024278032
97	0xbd3996ef	-0.045309957
98	0xbdeb3fd2	-0.11486782
99	0x3d8cab6a	0.06868632
100	0xbd92db76	-0.07170765
101	0x3cee5121	0.02909142
102	0x3cdf60ed	0.027267898
103	0x3dae0e89	0.08498866
104	0xbb8e9de6	-0.004352319
105	0x3b64dea9	0.0034922755
106	0x3df9285f	0.12165903
107	0x3d99409e	0.07483028
108	0xbdb60051	-0.08886779
109	0xbdb2302f	-0.087005965
110	0xbd8ee821	-0.06977869
111	0xbdbceb7c	-0.092246026
112	0xbdb005a4	-0.08594826
113	0x3d9edc25	0.07756833
114	0xbd6c8e45	-0.057752866
115	0xbd35dbf7	-0.044399228
116	0x3dedae58	0.11605519
117	0xbd1d52e8	-0.038409144
118	0x3da4f234	0.08054009
119	0xbdc2d6e5	-0.09513644
120	0x3dd583d8	0.10425538
121	0x3c93c0d5	0.018036285
122	0xbd5a883b	-0.053352576
123	0x3db7cd3f	0.089746945
124	0x3de36da3	0.11104896
125	0xbd966cb1	-0.0734495
126	0xbda4ed1f	-0.0805304
127	0x3d84064c	0.064465135

actor_head.2.bias f4 [2]
0	0x3de07850	0.10960448
1	0xbd2c29f6	-0.042032205

critic_head.0.weight f4 [64, 1600]
0	0x3caefcaf	0.021360723
1	0xbc728f57	-0.014804683
2	0xbca46707	-0.020068659
3	0xbc36be2a	-0.011153737
4	0xbc2d7d61	-0.010588975
5	0x3c697d64	0.014251087
6	0xbc057bbe	-0.008147178
7	0xbca1e660	-0.019763172
8	0x3a3cb425	0.00071984745
9	0x3ca35f1d	0.019942814
10	0x3c4a8dd0	0.012362912
11	0x3c7bcbbb	0.015368397
12	0x3c4d18b5	0.012518098
13	0xbc0f3d49	-0.008742639
14	0x3b04ad7f	0.0020245013
15	0x3b9e4d9d	0.0048310296
16	0x3cb5902d	0.022163475
17	0xbc0fe244	-0.008781973
18	0x39c10823	0.0003681789
19	0x3c9955ec	0.018717729
20	0x3c91bba9	0.017789679
21	0xbc89c0dc	-0.016815595
22	0x3c7b3aa7	0.015333808
23	0x3c84cd2b	0.016211113
24	0xbcae5fb0	-0.021285862
25	0xbc665d5b	-0.014060344
26	0xbcaf12a2	-0.02137119
27	0xbc469a7d	-0.012121794
28	0xbc82e0fd	-0.015976423
29	0xbb1ffc9b	-0.002441204
30	0x3c4d2a3a	0.012522275
31	0xbb6ae462	-0.0035841693
32	0xbc983b8a	-0.018583078
33	0xbca27602	-0.019831661
34	0x3c81f3bb	0.01586329
35	0x3b2bdfa6	0.0026225834
36	0xbba661f4	-0.005077595
37	0xbb0d868d	-0.002159509
38	0x3cb76396	0.022386353
39	0x3c750c10	0.014956489
40	0x3b9b86b1	0.004746281
41	0x3c918baa	0.017766792
42	0xbc98cba7	-0.018651797
43	0x3baa7709	0.0052021784
44	0xbc8a8120	-0.016907275
45	0xbcb03542	-0.02150977
46	0xbca34689	-0.019931095
47	0x3c4a5e8e	0.012351645
48	0xbc5a20a3	-0.013313445
49	0x3b53d1cb	0.0032321091
50	0x3c86e522	0.01646668
51	0x3d124fa7	0.035720494
52	0xbbdf00ae	-0.006805501
53	0x3d1180b7	0.035523143
54	0x3d045ad4	0.032313183
55	0x3cb400b0	0.021972984
56	0x3c39b610	0.011334911
57	0xbbace6b9	-0.0052765277
58	0x3cba47fb	0.022739401
59	0xbd0af14e	-0.033921532
60	0xbd7514f6	-0.059834443
61	0xbae01dcf	-0.0017098727
62	0x3c61f28c	0.013790738
63	0x3c074f5e	0.008258669
64	0xbc4bfba0	-0.012450129
65	0xbda8aa0b	-0.08235558
66	0x3c630658	0.013856493
67	0xbce91435	-0.028452018
68	0xbd8a3f74	-0.06750384
69	0x3cd8f6ac	0.02648481
70	0xbb5420d2	-0.0032368195
71	0xbd7e17a3	-0.06203426
72	0xbb80a449	-0.0039258343
73	0xbcb72bb4	-0.022359706
74	0xbc0eb8ce	-0.008711053
75	0xbd9ffdb5	-0.07812063
76	0x3cc6983c	0.024242513
77	0x3c0a96f8	0.008458845
78	0xbc8319f8	-0.016003594
79	0xbcbc8a39	-0.023015128
80	0x3c9f41da	0.01944058
81	0x3ba1d605	0.004938843
82	0xbd265bb5	-0.040614802
83	0x3d31ffa9	0.043456707
84	0x3ce01ce1	0.02735752
85	0xbcdc8918	-0.02692084
86	0x3aa48f60	0.0012554936
87	0xbd0f6cfb	-0.03501604
88	0x3ce9ecbb	0.028555265
89	0xbbe08f89	-0.006853048
90	0x3c64c7de	0.013963668
91	0x3d059455	0.032612164
92	0x3ccfd88a	0.025371809
93	0x3cf8a9dd	0.030354435
94	0xbb9beff4	-0.0047588293
95	0xbd94fed9	-0.07275171
96	0x3cdce42e	0.026964273
97	0x3d2e3899	0.042534444
98	0xbca69d49	-0.020338671
99	0x3c9b3bcc	0.018949412
100	0xbcc18126	-0.023621153
101	0xbc017314	-0.007900972
102	0xbcacea8c	-0.021107934
103	0x3c5cb1b7	0.013470105
104	0x3b858f16	0.004075895
105	0xbc925ff0	-0.017868012
106	0x3cc9a9c2	0.02461708
107	0x3b8b8e13	0.00425888
108	0x3c3ad79a	0.0114039425
109	0xbc86a8dd	-0.016437942
110	0x3abfdd94	0.0014638179
111	0xbc935cb7	-0.017988546
112	0x3c70fde6	0.014708972
113	0xbc7aef7f	-0.015315889
114	0xbc497e3e	-0.012298165
115	0x3c887318	0.016656443
116	0xbc45044f	-0.012024953
117	0xbc0b5e1f	-0.008506327
118	0x3c7ef860	0.015562147
119	0xbbbd4012	-0.00577546
120	0xbc0ac7f1	-0.008470521
121	0xbcdedb9f	-0.027204333
122	0xbcb5b881	-0.022182705
123	0xbc480677	-0.012208573
124	0xbcca9a00	-0.024731636
125	0x3c8b52e2	0.017007295
126	0xbc835da4	-0.016035862
127	0xbb1c1c5f	-0.0023820621
128	0xbcabdea4	-0.020980187
129	0xbb93baaf	-0.0045083384
130	0x3c8f3879	0.017482983
131	0xbd055092	-0.03254754
132	0xbcbe378f	-0.023219852
133	0x3bd5f93f	0.0065299566
134	0x3c434dbf	0.011920392
135	0xbbad2594	-0.0052840207
136	0x3c94e300	0.018174648
137	0xbd064b08	-0.0327864
138	0x3c2b54ce	0.010457231
139	0x3c97ad19	0.018515157
140	0x3cd859ee	0.02641007
141	0xbcad2526	-0.021135878
142	0xbcac9f1d	-0.021071965
143	0x3b325ddb	0.0027216587
144	0xb9e02bdb	-0.00042757284
145	0x3bd5af4c	0.006521141
146	0x3c92568c	0.017863534
147	0x3c07a4a0	0.008278996
148	0xbbcc1f87	-0.0062293443
149	0x3cb16557	0.021654768
150	0xbcb9ca7d	-0.022679562
151	0x3c2a20f0	0.0103838295
152	0xbb8533ba	-0.004065004
153	0x3aaf55e7	0.0013377041
154	0xbc7bd34c	-0.015370201
155	0xbc88460a	-0.01663496
156	0xbc9301f9	-0.017945277
157	0xbcdc21be	-0.026871558
158	0xbb3a001a	-0.0028381408
159	0x3c5e1063	0.013553712
160	0x3c4fc55a	0.01268133
161	0x3c8cc65a	0.017184425
162	0xbb36c84d	-0.0027890385
163	0x3cbd094c	0.023075722
164	0x3bbb131d	0.0057090656
165	0xbcc4d3a8	-0.024026707
166	0xbb934373	-0.0044941246
167	0xbc7662c3	-0.015038195
168	0xbca017b8	-0.01954256
169	0x3c68366d	0.014173132
170	0xbbb958b9	-0.0056563285
171	0x3ada628c	0.0016661449
172	0x3ce4c30e	0.02792504
173	0xbc26e1f0	-0.010185704
174	0x3c9a5575	0.018839577
175	0xbb1156ca	-0.0022176974
176	0x3a947580	0.0011326522
177	0xbcc33438	-0.02382861
178	0xb99419d6	-0.0002824801
179	0xbcae87a2	-0.02130491
180	0xbcd9f559	-0.026606249
181	0xbbd5f3ba	-0.0065292986
182	0x3a822b55	0.0009931127
183	0x3cc1732b	0.023614487
184	0xbd0718e2	-0.032982714
185	0xbc53595b	-0.012899722
186	0x3c570bfb	0.013125415
187	0xbd0c48ff	-0.034249302
188	0x3cb364fb	0.021898737
189	0x3bfdcc51	0.0077453037
190	0x3b9ad300	0.00472486
191	0xbcbcbe9f	-0.023040114
192	0xbd005c94	-0.03133829
193	0xbd440625	-0.047857422
194	0xbcba6a57	-0.022755785
195	0x3b626533	0.0034545183
196	0xbcc146ba	-0.023593295
197	0xbca1da92	-0.019757543
198	0xbc3ac3c3	-0.011399212
199	0xbc548b57	-0.012972674
200	0xbb58054d	-0.0032962144
201	0xbadbb233	-0.0016761482
202	0x3cc3e23a	0.023911584
203	0x3c1f47a3	0.009721669
204	0xbc86cec7	-0.016456021
205	0x3ca6bcad	0.02035364
206	0x3c9d7add	0.019223625
207	0x3c85c310	0.016328365
208	0x3c19ab37	0.0093792
209	0xbbc7fe6d	-0.006103328
210	0x3c1b70ba	0.009487325
211	0xbc57800a	-0.0131530855
212	0xbb8919b7	-0.0041839737
213	0xbb1c7ec0	-0.002387926
214	0xbc863f8e	-0.016387727
215	0x3c720b23	0.014773163
216	0xbcc38f93	-0.023872172
217	0x3b2f8173	0.0026780039
218	0xbc0156f3	-0.007894265
219	0xbb61fcdc	-0.0034482991
220	0xbc3ce186	-0.011528378
221	0x3bea8146	0.007156524
222	0xbdd8d4dd	-0.105874754
223	0x3c1179d3	0.008879143
224	0x3c8411ed	0.016121829
225	0xbc65e60d	-0.014031899
226	0x3a760929	0.000938552
227	0xbd1f45eb	-0.03888504
228	0xbc72f77d	-0.014829514
229	0xbdb170c3	-0.08664086
230	0x3be163ed	0.006878367
231	0x3c14b02a	0.009075204
232	0xbb8180c7	-0.003952119
233	0xbe16effa	-0.14739981
234	0xbbe68ef0	-0.0070360824
235	0xbcbb719c	-0.022881322
236	0xbc19af33	-0.00938015
237	0x3c12446d	0.008927447
238	0xbbed1267	-0.0072348597
239	0x3bf06127	0.0073358
240	0xbc8e591b	-0.017376473
241	0xbc215370	-0.009846553
242	0xbbf92555	-0.0076033273
243	0xbc516937	-0.012781433
244	0x3b25f60d	0.002532366
245	0x3cb4793f	0.02203047
246	0x3c6504e2	0.013978215
247	0xba96f113	-0.0011515938
248	0xbc8c8423	-0.017152851
249	0xbcab8a87	-0.020940078
250	0x3cbe9598	0.023264691
251	0xbcac2523	-0.021013802
252	0xbcb53c41	-0.022123458
253	0x3c9696f4	0.018382527
254	0xbc8690ec	-0.016426526
255	0xbcca2f28	-0.024680689

critic_head.0.bias f4 [64]
0	0x3ba1203b	0.0049171722
1	0xbcd0f29b	-0.025506308
2	0xbcefc63b	-0.029269328
3	0xbcd95bbf	-0.026533006
4	0xbc341220	-0.010990649
5	0xbcd51412	-0.026010547
6	0xbbe0f5aa	-0.006865223
7	0x3d9303a5	0.071784295
8	0xbca1ab47	-0.019734992
9	0xbc31eb64	-0.010859344
10	0xbc776c1f	-0.015101462
11	0x3c4b0de9	0.012393453
12	0xbc4dd75b	-0.012563552
13	0xba8c9e27	-0.0010728285
14	0xbcba890f	-0.022770433
15	0x3c175498	0.009236477
16	0xbc978a10	-0.01849845
17	0xbccdf025	-0.025138924
18	0xbcb22db7	-0.021750314
19	0x3c9a16b1	0.018809648
20	0xbc07dec1	-0.008292855
21	0x3c686799	0.014184856
22	0x3d90534f	0.0704714
23	0xbc7bf197	-0.015377424
24	0xbc828bca	-0.015935797
25	0x3bf4d6c4	0.007471891
26	0x3b8b2e9a	0.0042474987
27	0xbad81363	-0.001648527
28	0x3e17b93d	0.14816757
29	0x3c3b4897	0.011430881
30	0xb9a8c027	-0.00032186622
31	0xbc3e23ab	-0.011605184
32	0xbcbea0ad	-0.023269976
33	0xbbd74efe	-0.006570696
34	0xbce24085	-0.027618656
35	0x3ae5ae21	0.0017523208
36	0xbb904b46	-0.0044035045
37	0x3dd27c7b	0.10277649
38	0x3bedd370	0.0072578713
39	0xbcb61967	-0.02222891
40	0x3bb54659	0.0055320677
41	0xbc2c9271	-0.010532961
42	0xbcd4d21d	-0.025979096
43	0xbd479562	-0.048726447
44	0xbce39ec5	-0.027785668
45	0x3c93e95b	0.018055608
46	0xbc928910	-0.017887622
47	0x3cc2ceaf	0.023780195
48	0xbbe6aa66	-0.007039356
49	0xbcdcb887	-0.026943458
50	0x3c11723a	0.008877331
51	0xbce3eddd	-0.027823383
52	0xbcfc05b9	-0.030764448
53	0x3c062b6f	0.008189066
54	0xbc578656	-0.013154587
55	0xbc71ff0f	-0.014770283
56	0x3c0d6af4	0.008631457
57	0x3c8a7b9c	0.016904645
58	0x3ae16b0a	0.0017198038
59	0x3bb14c60	0.005410716
60	0x3c624d8d	0.013812435
61	0xbd0d29da	-0.03446374
62	0x3c82cc13	0.01596645
63	0x3c192514	0.009347219

critic_head.2.weight f4 [1, 64]
0	0xbd315a97	-0.043299284
1	0x3dc1268b	0.094311796
2	0xbd0a5990	-0.03377682
3	0x3d109ae8	0.03530398
4	0x3d6b2377	0.05740687
5	0x3d062945	0.0327542
6	0x3dddda21	0.108326204
7	0x3d6f4449	0.05841473
8	0xbc2ecbc9	-0.010668703
9	0x3d742a6c	0.05961077
10	0x3ca4c25e	0.020112213
11	0xbcc4214a	-0.023941655
12	0xbd327d00	-0.04357624
13	0xbd2b6c29	-0.041851196
14	0x3d239997	0.039941397
15	0xbd2c130e	-0.04201036
16	0x3dd24a0e	0.10268031
17	0xbdc4ad9e	-0.09603427
18	0x3dca2e13	0.09872069
19	0x3db1e5ce	0.0868641
20	0xbcbfb6a8	-0.023402527
21	0x3cd901a8	0.026490048
22	0x3cb7ced9	0.0224375
23	0x3d771b90	0.06032902
24	0xbde5e02d	-0.11224399
25	0xbdc5bbf0	-0.09654987
26	0xbd097743	-0.033561002
27	0xbd1c6139	-0.038178656
28	0x3e22dbee	0.15904209
29	0x3ba53212	0.0050413692
30	0xbd88fee8	-0.066892445
31	0xbd41f523	-0.04735292
32	0xbddc9ca5	-0.10772065
33	0xbd80f127	-0.06295996
34	0xbd1aaa71	-0.0377602
35	0x3d65c201	0.05609322
36	0x38ade1d9	8.29135e-05
37	0x3db6296e	0.08894621
38	0xbd870060	-0.065918684
39	0xbdcd8ca6	-0.10036592
40	0x3d006c2c	0.03135316
41	0xbdb635fb	-0.08897015
42	0xbd2b59bd	-0.041833628
43	0xbd472677	-0.048620667
44	0xbdec713f	-0.115450375
45	0xbdc5a162	-0.09649922
46	0x3cabf693	0.0209916
47	0xbd9b509f	-0.07583737
48	0x3d8f0ba1	0.0698464
49	0xbde82664	-0.113354474
50	0x3d8334fb	0.064065896
51	0xbd993c0c	-0.07482156
52	0xbcb4f990	-0.022091657
53	0xbd869145	-0.06570677
54	0xbddbb34b	-0.10727557
55	0xbc9c543f	-0.01908314
56	0xbdaa332a	-0.0831054
57	0x3da50174	0.08056918
58	0x3db62d42	0.08895351
59	0xbd09e049	-0.03366116
60	0xbdc3594a	-0.09538515
61	0x3d0ec2c5	0.034853715
62	0xbb3ae974	-0.0028520497
63	0x3dcbecf1	0.09957302
