project_files_torch/saved_models/ppo_policy_camera_cnn_whole_circle_min_distance.pth (torch, 851485 bytes, 16 tensors)

action_var f4 [2]
0	0x3e800000	0.25
1	0x3e800000	0.25

cnn_base.0.weight f4 [16, 1, 3, 3]
0	0xbe333067	-0.17498933
1	0xbdd0a44b	-0.101875864
2	0xbe8027ed	-0.2503046
3	0xbe27003e	-0.16308686
4	0x3dd5b085	0.10434059
5	0xbe03ba2c	-0.12863988
6	0xbe9fbdd7	-0.31199524
7	0xbd361552	-0.044453926
8	0x3e3549e5	0.1770397
9	0xbe4fef7e	-0.20306203
10	0x3d3564f9	0.04428575
11	0x3d20174c	0.039084718
12	0xbd66234c	-0.056186005
13	0x3e468141	0.19385244
14	0x3cb8e5f5	0.02257059
15	0x3db2d2ca	0.08731611
16	0x3e343b23	0.17600684
17	0x3d18408e	0.03717094
18	0x3e95153a	0.29117757
19	0xbda9ea0c	-0.08296594
20	0x3e8995c4	0.26872075
21	0xbe78b787	-0.2428876
22	0xbe90b574	-0.28263438
23	0x3e1f43ec	0.15553254
24	0x3e4647f2	0.19363382
25	0x3e260797	0.16213833
26	0x3d55f7ad	0.052238155
27	0xbe9165ae	-0.28397888
28	0x3df0fd90	0.11767113
29	0xbcdf55d6	-0.02726261
30	0x3d20ac7b	0.03922699
31	0xbe0cecb6	-0.13762173
32	0xbe25c78b	-0.16189401
33	0xbe919bdb	-0.2843922
34	0x3dc6d282	0.0970812
35	0x3cf54902	0.02994204
36	0xbdda3537	-0.10654681
37	0x3e923265	0.28554073
38	0x3c37f251	0.011227206
39	0xbcce6095	-0.025192538
40	0x3e7388d9	0.23782672
41	0xbd2a49f3	-0.04157443
42	0xbea48131	-0.32129815
43	0x3e8d6152	0.27613312
44	0x3e4d959f	0.20076607
45	0x3e854a47	0.26033232
46	0xbe4c949e	-0.19978568
47	0x3e32efd3	0.17474298
48	0x3e4ba45b	0.19886915
49	0xbe216286	-0.1576024
50	0xbd399883	-0.045311462
51	0x3e8be035	0.27319494
52	0xbeb095d3	-0.34489307
53	0xbe996b4d	-0.29964676
54	0xbe2f8eb1	-0.17144276
55	0x3ea20447	0.31643888
56	0xbe24d526	-0.16096935
57	0x3dd07354	0.10178247
58	0xbce9282f	-0.028461544
59	0xbeab2b0e	-0.33431286
60	0x3d4991e5	0.0492114
61	0xbe0b7dae	-0.13622162
62	0x3e9ca0a4	0.3059131
63	0xbe42af2a	-0.19012132
64	0x3e13b3ba	0.14424029
65	0x3d24b88d	0.040215064
66	0x3e1a91df	0.15094708
67	0x3e140aaf	0.144572
68	0xbe86622a	-0.26246768
69	0xbdd5b7aa	-0.10435422
70	0x3d5373d9	0.051624153
71	0x3e80162a	0.2501691
72	0x3e778fe6	0.24175987
73	0xbd7d669e	-0.06186544
74	0x3e987468	0.2977631
75	0x3e8908fa	0.2676466
76	0x3e04eb43	0.1298037
77	0xbc926e9f	-0.017875014
78	0xbe526f27	-0.20550214
79	0x3dd6e5fb	0.10493084
80	0xbd8f488a	-0.069962576
81	0x3e80e13d	0.25171843
82	0xbbc63064	-0.006048249
83	0x3c8cc935	0.017185787
84	0xbe50a9bf	-0.20377253
85	0x3dbc2d45	0.09188322
86	0xbea6615a	-0.32496148
87	0xbe09a5a4	-0.13442093
88	0x3def769d	0.116925456
89	0xbe768c8a	-0.24077049
90	0x3e8d768d	0.2762951
91	0x3e7ab20b	0.2448198
92	0x3e2463bb	0.16053669
93	0xbe7daaca	-0.24772182
94	0xbe32b25d	-0.17450853
95	0x3ea9d7ec	0.33172548
96	0x3d7250cc	0.059159085
97	0x3e77ccc8	0.24199212
98	0xbdd0a5c3	-0.101878665
99	0xbcb569f7	-0.022145255
100	0xbe9cc6eb	-0.30620512
101	0xbe9ccbfb	-0.30624375
102	0x3e66f399	0.22553863
103	0xbd904236	-0.07043879
104	0x3e95eada	0.2928074
105	0xbddd39b8	-0.108020246
106	0xbe68b6d1	-0.22725989
107	0x3e619a18	0.22031438
108	0xbe8a46a8	-0.2700703
109	0x3d5cbb30	0.053889453
110	0xbe1352be	-0.14387032
111	0xbd5aade3	-0.053388488
112	0x3e4ffdf1	0.20311715
113	0x3e1e8152	0.1547902
114	0x3e69fa1e	0.22849318
115	0xbe894ba2	-0.26815516
116	0xbde37b6a	-0.11107524
117	0xbe740ae0	-0.23832273
118	0xbea78d4d	-0.3272499
119	0xbe48684c	-0.19571036
120	0xbe8cd3f5	-0.2750546
121	0xbced541e	-0.028970774
122	0xbe621df0	-0.22081733
123	0xbcc31521	-0.023813786
124	0x3d918bc6	0.07106738
125	0xbe1ef439	-0.15522851
126	0x3e9917b6	0.29900903
127	0x3e5ae5b8	0.21376693
128	0x3cc3c2bf	0.023896573
129	0xbe6c4342	-0.23072532
130	0xbe84e64c	-0.25956953
131	0x3e9b3c8a	0.30319625
132	0x3e358919	0.1772808
133	0x3e89d91a	0.26923448
134	0x3e76e83b	0.24112026
135	0x3df9565e	0.12174676
136	0xbd8965c7	-0.067088656
137	0xbddaac9e	-0.10677455
138	0x3e3d2232	0.18470076
139	0x3e4a3196	0.19745478
140	0x3dc05d38	0.0939278
141	0xbdac3c5e	-0.084099516
142	0x3d949f8e	0.07256995
143	0xbd206eb9	-0.039168093

cnn_base.0.bias f4 [16]
0	0x3e348530	0.17628932
1	0xbd9cff87	-0.076659255
2	0x3df508e6	0.11964588
3	0x3e675dcd	0.22594376
4	0x3c3afb5b	0.011412467
5	0xbe5e33a6	-0.2169939
6	0xbe92e334	-0.28688967
7	0xbe288e10	-0.16460443
8	0xbcf87d40	-0.030333161
9	0x3e9014b1	0.28140786
10	0xbe358731	-0.17727353
11	0x3e979f6b	0.29613814
12	0xbca0c84a	-0.019626755
13	0x3e4bcecb	0.19903104
14	0xbe829681	-0.2550545
15	0xbe21b901	-0.1579323

cnn_base.3.weight f4 [32, 16, 3, 3]
0	0xbcc33eaf	-0.0238336
1	0x3c8b84dc	0.017031126
2	0x3cbcb05a	0.02303331
3	0xbdb91423	-0.09037044
4	0xbd876faa	-0.06613095
5	0x3da72fb4	0.081633955
6	0xbd9b83d2	-0.07593502
7	0xbd5fec68	-0.054668814
8	0x3d2471a6	0.040147446
9	0xbd8abfbd	-0.067748524
10	0xbdb3ac26	-0.08773069
11	0x3d4207ee	0.047370844
12	0xbd727f36	-0.05920335
13	0xbd65a2ba	-0.05606339
14	0xbd8b3ce1	-0.06798721
15	0x3bbf715c	0.005842371
16	0xbd39d758	-0.045371383
17	0x3d9987e6	0.07496624
18	0x3d96fc6b	0.07372364
19	0xbd0221f5	-0.031770665
20	0xbd639095	-0.055557806
21	0x3c8275c5	0.015925298
22	0xbd0622c0	-0.032747984
23	0xbd245a7a	-0.040125348
24	0x3d8b7e32	0.06811179
25	0x3d3b696b	0.04575483
26	0xbd1dd982	-0.03853751
27	0xbc6a325a	-0.014294231
28	0xbd5ea180	-0.054353237
29	0xbdaeab96	-0.08528821
30	0x3cabd910	0.020977527
31	0x3d8500b4	0.06494275
32	0x3d9ec8a2	0.077531114
33	0x3d6ac4d6	0.057316624
34	0xbbc73bc9	-0.006080125
35	0xbd99538a	-0.07486637
36	0x3d7759bf	0.060388323
37	0x3c7d8719	0.015474104
38	0x3d3f24c1	0.04666591
39	0x3d4488b6	0.04798194
40	0x3cf177c5	0.029476056
41	0x3d8f33fb	0.06992336
42	0x3b0c5f98	0.0021419283
43	0x3cf7487e	0.030185934
44	0x3d6bf6a9	0.05760828
45	0x3cbcdc2b	0.023054203
46	0xbd8537d0	-0.06504786
47	0xbc01bcdd	-0.007918564
48	0x3d5d1588	0.053975612
49	0x3d96b3f4	0.07358542
50	0xbd805614	-0.06266418
51	0x3d5723ea	0.052524485
52	0x3d0fa93e	0.03507351
53	0xbda8cb3b	-0.08241888
54	0xbcb57dc3	-0.022154694
55	0x3c320c7d	0.010867235
56	0xbd9f4dc3	-0.07778504
57	0x3d90d1db	0.07071277
58	0xbd4f6fc9	-0.050643716
59	0x3d4fcaf4	0.05073066
60	0x3cad90ee	0.021187272
61	0x3d3a77ce	0.04552441
62	0x3d2d59bb	0.0423219
63	0xbd8616b3	-0.06547298
64	0x3d45cb66	0.04828968
65	0x3d7121f8	0.058870286
66	0xbd7fff55	-0.062499363
67	0x3d35f81c	0.04442607
68	0x3d813992	0.06309809
69	0xbca76ef8	-0.020438656
70	0xbcf8c711	-0.03036836
71	0x3d94037a	0.072272256
72	0xbb237a0f	-0.0024944579
73	0xbd0049d3	-0.031320404
74	0xbb616a4d	-0.0034395636
75	0x3d0b7505	0.034047145
76	0x3d8f6b4a	0.07002886
77	0xb8e39569	-0.00010852033
78	0xba148f7e	-0.0005667134
79	0xbd5853be	-0.052814238
80	0x3d825f97	0.063658886
81	0x3d89ebb2	0.067344084
82	0x3ce2863e	0.027651902
83	0x3d2b35d0	0.041799366
84	0x3c056f88	0.008144267
85	0xbc3073ca	-0.010769794
86	0xbd1ae712	-0.037818022
87	0x3d5383d9	0.05163941
88	0x3c5c3d19	0.013442301
89	0xbd0b82ce	-0.034060292
90	0xbd9c1759	-0.07621641
91	0x3d6f561a	0.058431722
92	0x3d3337cc	0.043754384
93	0xbda59c5f	-0.08086466
94	0xbda63199	-0.08114929
95	0xbbfebf6e	-0.007774285
96	0x3c4a62b6	0.012352636
97	0x3d7fb922	0.062432416
98	0xbd40bbc3	-0.047054064
99	0x3d7572a1	0.05992377
100	0x3d9b0fa8	0.075713456
101	0xbccb30dc	-0.024803571
102	0x3b10c7dd	0.0022091784
103	0x3a9bed42	0.001189627
104	0xbc3df3de	-0.011593787
105	0xbcfd5d85	-0.030928383
106	0x3d2dd055	0.04243501
107	0xbd9be7bb	-0.076125585
108	0xbd7a86eb	-0.061163824
109	0x3cf46b0d	0.029836202
110	0xbd87d1ae	-0.0663179
111	0xbc5cb8c4	-0.013471786
112	0x3d87be24	0.06628063
113	0xbc17cb23	-0.00926474
114	0x3cb48c3d	0.022039527
115	0xbc4b72a0	-0.012417465
116	0xbcd64733	-0.026156997
117	0xbdad8c76	-0.084740564
118	0xbc94de2b	-0.018172344
119	0xbd43d051	-0.047806088
120	0xbd82d723	-0.0638869
121	0x3d8f92f9	0.07010455
122	0x3ceba900	0.028767109
123	0xbd9c35f2	-0.07627477
124	0x3c45ea24	0.012079749
125	0xbd302151	-0.043000523
126	0x3ccf5e8a	0.025313634
127	0xbcf81f83	-0.030288463
128	0x3d80e1c7	0.062930636
129	0xbd54cabe	-0.051951163
130	0x3c0b4e76	0.008502593
131	0xbd7178d5	-0.058953125
132	0x3d8b17a8	0.067916214
133	0x3d555088	0.052078754
134	0xbd8b63be	-0.06806134
135	0xbd133472	-0.035938688
136	0x3bb24742	0.0054406235
137	0x3c888153	0.01666323
138	0x3d844769	0.06458933
139	0x3d7bd13a	0.06147883
140	0xbce7f948	-0.028317109
141	0xbda9682d	-0.08271823
142	0x3d062157	0.03274664
143	0xbdacca2c	-0.08436999
144	0xbda366e0	-0.07978606
145	0x3ced9c7a	0.029005278
146	0x3d6e1873	0.058128785
147	0xbae50703	-0.0017473403
148	0x3d6ffe19	0.058591936
149	0xbd82ad17	-0.063806705
150	0xbb981c97	-0.00464208
151	0xbda79780	-0.08183193
152	0x3d8f3a82	0.06993581
153	0x3d7538f7	0.05986878
154	0x3d8e5477	0.06949704
155	0x3b3ca6f0	0.0028786026
156	0x3bbe928a	0.0058158087
157	0x3d948ff4	0.072540194
158	0x3c90956b	0.017649373
159	0xbc9293a5	-0.017892668
160	0x3d62aa77	0.05533835
161	0xbc973f1a	-0.018462706
162	0x3c240a2a	0.010012189
163	0xbcdda9ec	-0.027058564
164	0xbcef5c5c	-0.029218845
165	0xbdb3ed48	-0.08785492
166	0xbdb23cbe	-0.08702992
167	0xbd94b1ef	-0.07260501
168	0xbbe3e7ea	-0.0069551365
169	0xbd38e8ae	-0.045143776
170	0xbdae1ab3	-0.08501186
171	0xbd0d61ca	-0.034517087
172	0x3c6e1cb3	0.01453321
173	0x3d908bfa	0.070579484
174	0xbc688cfd	-0.0141937705
175	0xbd258433	-0.040409278
176	0xbd9dabe8	-0.07698804
177	0x3d77d1ba	0.060502745
178	0x3d802cb6	0.06258528
179	0xbc124a29	-0.008928814
180	0xbd2c20c6	-0.042023443
181	0xbc515a02	-0.012777807
182	0x3c01ec51	0.007929877
183	0xbd739cd7	-0.059475746
184	0x3d0dfb08	0.03466323
185	0xbd11094e	-0.035409264
186	0xbd3d8251	-0.046266858
187	0xbd8c59c4	-0.06853059
188	0x3c9459cf	0.01810923
189	0xbaeb67b4	-0.0017959983
190	0x3c5b1d7c	0.013373729
191	0xbd148ed1	-0.036269013
192	0x3d618d97	0.05506667
193	0xbd6200ee	-0.055176668
194	0xbc884686	-0.01663519
195	0xbcf5379e	-0.029933747
196	0xbd300f29	-0.042983208
197	0x3c81ab51	0.01582876
198	0xbc17517c	-0.009235736
199	0x3d736487	0.059422042
200	0xbd5c8c0c	-0.053844497
201	0x3b4cbb3b	0.0031239528
202	0xbdb9a6e3	-0.09065034
203	0xbc18df79	-0.009330624
204	0x3d63cbf0	0.05561441
205	0xbd662305	-0.05618574
206	0xbd868456	-0.0656821
207	0xbbaa7145	-0.005201491
208	0x3c7755c0	0.015096128
209	0x3d50c5f9	0.05097005
210	0xbd90a143	-0.07062008
211	0xbd6d1172	-0.057877965
212	0x3cbf707a	0.023369063
213	0x3cb97231	0.022637459
214	0xbd941ebd	-0.07232425
215	0x3d27b5fb	0.040945034
216	0x3d93227a	0.0718431
217	0x3d9e350a	0.0772496
218	0xbd734f7f	-0.059401985
219	0xbc1627ab	-0.009164731
220	0x3d022caa	0.031780876
221	0x3d8f121a	0.069858745
222	0x3cd263de	0.025682386
223	0x3d75c740	0.060004473
224	0x3c149104	0.009067778
225	0xbd031a05	-0.032007236
226	0x3cc0fc68	0.023557857
227	0xbdae94d3	-0.0852448
228	0x3b53d30a	0.0032321834
229	0xbd8c0eba	-0.06838746
230	0xbb8fdb7c	-0.0043901782
231	0xbcc45de8	-0.02397056
232	0x3ab9c67f	0.0014173536
233	0xbdae5bf4	-0.085136324
234	0x3d042892	0.032265253
235	0xbba7fe4a	-0.005126749
236	0x3b528896	0.0032124869
237	0xbd8bc481	-0.068245895
238	0xbc18a89f	-0.009317546
239	0xbdb0eeda	-0.08639307
240	0xbd82e7db	-0.06391879
241	0x3a011096	0.0004923431
242	0x3d94776f	0.07249343
243	0xbd7b2fb3	-0.061324786
244	0x3d6c5ffb	0.05770872
245	0xbd999a4a	-0.075001314
246	0x3d8e421e	0.069462046
247	0x3d3e775a	0.04650054
248	0x3cdc4b4d	0.026891375
249	0xbb497160	-0.0030737743
250	0x3d96fa59	0.07371969
251	0xbd3d76ab	-0.04625575
252	0xbd2b3fb3	-0.041808795
253	0xbc242d72	-0.010020601
254	0xbc050128	-0.008117951
255	0xbbf6b512	-0.0075289095

cnn_base.3.bias f4 [32]
0	0xba898dd0	-0.0010494534
1	0xbd26c71b	-0.040717226
2	0xbd0c4f53	-0.034255337
3	0xbd248419	-0.04016504
4	0xbc0d0673	-0.008607495
5	0xbb4e3e4d	-0.003147024
6	0x3db607d8	0.08888215
7	0xbcdd17a4	-0.026988812
8	0x3da385de	0.079845175
9	0xbd7e62f9	-0.062106106
10	0xbce12e04	-0.027487762
11	0xbcf0ffc1	-0.029418828
12	0xbcad5cc3	-0.021162396
13	0xbd78f40c	-0.060779616
14	0xbcd213f8	-0.025644287
15	0x3bc43a2b	0.0059883795
16	0xbb2c56fd	-0.0026296966
17	0xbd81a4e1	-0.06330276
18	0x3cfe115a	0.031014133
19	0xbc06fd0c	-0.008239042
20	0x3d7dfe80	0.06201029
21	0xbda1c6de	-0.07899259
22	0x3d15377a	0.03642986
23	0xbb6bc253	-0.003597398
24	0x3d53b568	0.051686674
25	0x3d16a7f6	0.036781274
26	0x3d37742c	0.044788525
27	0xbd222014	-0.039581373
28	0x3d55c446	0.052189134
29	0x3d0b4352	0.03399975
30	0x3d85d9d4	0.06535688
31	0x36c1dbb8	5.777427e-06

mlp_base.0.weight f4 [32, 2]
0	0x3ea4c88c	0.32184255
1	0x3e88b005	0.26696792
2	0x3d81974d	0.063276865
3	0x3ea5aea8	0.32359815
4	0x3f129af6	0.572677
5	0xbf0d51d9	-0.55203015
6	0x3eca6152	0.39527375
7	0x3ebca90c	0.36847723
8	0x3e8355f9	0.2565153
9	0x3c75dc5e	0.015006153
10	0x3eae7fbb	0.34081826
11	0x3ec27a37	0.37983868
12	0x3c4d1793	0.012517828
13	0xbea2ff4b	-0.31835398
14	0xbc98fd1a	-0.018675376
15	0x3ef33f51	0.47509244
16	0xbf3327ff	-0.69982904
17	0xbe9769e4	-0.29572976
18	0xbd8182d4	-0.063237816
19	0x3f3440fd	0.70411664
20	0x3f028562	0.50984776
21	0x3e3f75c7	0.18697272
22	0x3f140046	0.5781292
23	0x3ec99f80	0.393795
24	0x3e49df94	0.19714195
25	0xbf1861ef	-0.59524435
26	0x3c4664de	0.01210901
27	0x3d85db8c	0.06536016
28	0x3f0a7141	0.5407906
29	0x3ecccfa5	0.4000217
30	0xbf23590e	-0.6380776
31	0x3e2a23ec	0.16615266
32	0xbe86dbee	-0.26339668
33	0x3e5a94f9	0.21345891
34	0xbec9989b	-0.3937424
35	0xbe3a8ce9	-0.18217815
36	0x3f30803f	0.6894569
37	0xbe8d1d76	-0.2756154
38	0x3dbb3b23	0.09142139
39	0x3ec2e2d7	0.3806369
40	0xbf21339a	-0.6296936
41	0xbf34c63f	-0.70615
42	0x3e1b77bd	0.15182395
43	0xbc86561f	-0.016398488
44	0xbeb602ce	-0.35549015
45	0x3d6420af	0.055695232
46	0xbf1bc0d9	-0.6084114
47	0xbe633466	-0.22187957
48	0xbe3db442	-0.18525794
49	0x3efcaa0d	0.49348488
50	0xbe923bd0	-0.28561258
51	0xbefe355e	-0.4965009
52	0xbeb2c3b7	-0.34914944
53	0x3e9e99ca	0.30976707
54	0x3f34a4ec	0.7056415
55	0x3f22ddf2	0.6361991
56	0xbe9c8f65	-0.3057815
57	0xbecd8683	-0.40141687
58	0xbf2a6243	-0.66556185
59	0xbda84462	-0.08216168
60	0x3edb942d	0.42886487
61	0x3ebde3c2	0.37087828
62	0x3f2c5eb6	0.6733202
63	0xbe4f6975	-0.20255072

mlp_base.0.bias f4 [32]
0	0xbe95b7b6	-0.29241723
1	0x3e80b990	0.25141573
2	0x3cd0e18f	0.02549818
3	0xbe0c0c6e	-0.13676617
4	0x3ec8b71f	0.3920221
5	0x3e234ecd	0.15948029
6	0xbef3a8ed	-0.47589818
7	0x3e92149f	0.28531358
8	0x3dbb2b9a	0.09139176
9	0xbc089356	-0.008335909
10	0x3f0f555d	0.5598963
11	0x3f18db97	0.5971007
12	0x3d239624	0.039938107
13	0x3f287611	0.65805155
14	0x3d4faae8	0.0507001
15	0x3de42dcf	0.1114155
16	0x3eed0127	0.46289942
17	0xbecc9c58	-0.3996303
18	0x3ca7d330	0.020486444
19	0x3e07ff30	0.1328094
20	0x3edf4c68	0.4361298
21	0xbe983a54	-0.29732
22	0x3e649362	0.22321847
23	0xbf0682fe	-0.5254363
24	0x3f023195	0.50856906
25	0x3ec08587	0.37601873
26	0xbec7e424	-0.39041245
27	0xbeb38745	-0.3506414
28	0xbf2464f8	-0.64216566
29	0x3dbdf445	0.09275106
30	0x3f235203	0.63797015
31	0xbf142560	-0.5786953

mlp_base.2.weight f4 [32, 32]
0	0xbdf7c03a	-0.12097211
1	0xbc175a8f	-0.009237899
2	0xbade5a68	-0.0016964199
3	0x3bb77903	0.0055991425
4	0x3d391242	0.045183428
5	0x3e48dd55	0.19615681
6	0xbd2f66b2	-0.042822547
7	0xbdd88519	-0.10572261
8	0xbd5e23e7	-0.054233458
9	0x3d2efd9d	0.042722333
10	0x3bfcbaf4	0.0077127162
11	0x3d89b267	0.06723481
12	0x3d7a383a	0.061088778
13	0x3e4ded86	0.20110139
14	0x3c0ce10b	0.008598576
15	0xbe20ed4d	-0.15715523
16	0x3dec2136	0.11529772
17	0xbdedfd4e	-0.1162058
18	0xbe0a316c	-0.13495415
19	0x3da6cf0f	0.08144962
20	0xbe143ee0	-0.1447711
21	0x3db29ff1	0.08721913
22	0xbe0161ef	-0.12635015
23	0xbe0d019a	-0.13770142
24	0xbbc7f5c9	-0.006102298
25	0xbd7121b7	-0.058870044
26	0x3d948849	0.07252557
27	0xbd56a2f9	-0.052401517
28	0x3dcf3375	0.101172365
29	0x3dc2a559	0.09504194
30	0x3e465230	0.1936729
31	0x3d8b8280	0.06812
32	0xbd201957	-0.039086666
33	0xbd8e84c2	-0.06958915
34	0xbe2d2a64	-0.16910702
35	0xbc9181e9	-0.017762141
36	0x3d802c51	0.06258453
37	0x3df41e65	0.1191986
38	0x3e24fb9c	0.16111606
39	0xbd94ae86	-0.0725985
40	0x3d99b11c	0.07504484
41	0xbd6dc640	-0.058050394
42	0xbe21b14b	-0.15790288
43	0x3d09ed96	0.033673845
44	0xbd09deff	-0.03365993
45	0x3dfe0dbf	0.124049656
46	0xbe290834	-0.16507035
47	0x3bad2c17	0.005284797
48	0x3d3e2fc6	0.04643228
49	0xbe117cf0	-0.14207816
50	0x3e01d439	0.12678613
51	0x3e02357a	0.12715712
52	0xbd4c8748	-0.0499337
53	0xbca052b5	-0.019570688
54	0xbdaaab9c	-0.08333513
55	0xbdf9cea8	-0.1219762
56	0x3a8d0005	0.0010757452
57	0x3e20452b	0.15651385
58	0x3ca6bb44	0.020352967
59	0x3cfa8062	0.030578796
60	0xbe30126d	-0.17194529
61	0x3de0ce51	0.10976852
62	0xbe2a2c94	-0.16618568
63	0x3de730e6	0.112886235
64	0xbd18fdce	-0.037351422
65	0xbdfe5bb4	-0.12419835
66	0x3d87fe0d	0.06640253
67	0x3b37a280	0.0028020442
68	0x3dfb4d8b	0.122706495
69	0xbdaf2fb1	-0.08554018
70	0x3dcb6e14	0.09933105
71	0xbde7c3f7	-0.11316674
72	0x3db31fe1	0.08746315
73	0x3e23bc14	0.15989715
74	0x3db21572	0.086954966
75	0x3dd3abfd	0.103355385
76	0xbe0e78fc	-0.1391334
77	0xbd6729f7	-0.056436505
78	0xbd3262f6	-0.043551408
79	0x3c3204e1	0.010865421
80	0x3dc5bf1b	0.09655591
81	0xbd94f91f	-0.072740786
82	0x3e192b23	0.14957862
83	0xbe2fd69a	-0.17171708
84	0xbd4d471e	-0.05011665
85	0xbe200d9d	-0.15630193
86	0x3c56a193	0.013100046
87	0x3e1d1c4e	0.15342829
88	0x3df13a85	0.1177874
89	0x3e18613b	0.1488084
90	0x3db3807a	0.08764739
91	0x3c8003da	0.015626837
92	0x3d123b4e	0.03570109
93	0xbddfc0c0	-0.10925436
94	0x3dd92206	0.106021926
95	0x3e17460d	0.14772816
96	0x3c405079	0.011737936
97	0x3d44663d	0.047949065
98	0x3d028755	0.031867344
99	0x3dfddbcb	0.12395438
100	0x3de9ebf3	0.11421957
101	0x3e410fb7	0.18853651
102	0xbd6caa63	-0.05777968
103	0xbd562537	-0.052281585
104	0xbe223b3b	-0.15842907
105	0x3e098ed6	0.13433394
106	0xbdd4edee	-0.10396944
107	0x3e379fbf	0.17932032
108	0xbdc1817d	-0.09448526
109	0x3c57851d	0.013154295
110	0x3d3cb174	0.04606767
111	0x3d76d647	0.060262945
112	0xbd9eb1c8	-0.07748753
113	0xbd79fc66	-0.06103172
114	0xbd0d84ff	-0.034550663
115	0x3d25ce55	0.040479977
116	0xbdb984cb	-0.090585314
117	0xbd2d1da4	-0.042264596
118	0x3df5b5e5	0.11997584
119	0x3d1daf76	0.03849741
120	0x3e351d40	0.17686939
121	0x3dd3d5c0	0.10343504
122	0x3e301b33	0.17197876
123	0xbdea1fbe	-0.114318356
124	0x3c485532	0.012227343
125	0x3deb7709	0.114973135
126	0x3c99ed00	0.018789768
127	0x3d84cb0b	0.0648404
128	0xbddfdf7e	-0.109312996
129	0xbcf3d6dc	-0.029765539
130	0x3e075f99	0.13220061
131	0x3dcc3693	0.09971347
132	0xbd7c988e	-0.061668925
133	0xbc5b016d	-0.013367039
134	0xbdf7a640	-0.120922565
135	0xbd67e4f3	-0.056614827
136	0xbdbd3824	-0.092392236
137	0x3dda9bdb	0.10674258
138	0x3cc5a91f	0.024128495
139	0x3e2c84a4	0.16847473
140	0xbc2e3023	-0.010631594
141	0x3d668ad4	0.05628474
142	0x3e0b5c58	0.13609445
143	0x3d5eb9ee	0.054376535
144	0x3df1c6f8	0.118055284
145	0x3db84719	0.08997936
146	0xbcea5898	-0.028606698
147	0x3e331b47	0.17490874
148	0xbd07960b	-0.033102077
149	0xbc14d57a	-0.0090841
150	0x3d8f93e4	0.0701063
151	0xbdcd2217	-0.10016268
152	0xbb3f8d51	-0.0029228518
153	0x3e117af9	0.14207067
154	0x3df09ec9	0.11749036
155	0x3dac90e1	0.08426071
156	0xbd9e20e0	-0.07721114
157	0x3dece68e	0.11567412
158	0xbd6243b6	-0.055240355
159	0x3cfcc525	0.030855725
160	0x3c3f673d	0.011682329
161	0xbdd8871c	-0.10572645
162	0xbd7e0428	-0.062015682
163	0xbe05841a	-0.13038674
164	0x3e193e56	0.14965186
165	0xbcb07817	-0.021541638
166	0xbaf454e2	-0.001864102
167	0xbe0b79cf	-0.13620685
168	0x3e135deb	0.14391296
169	0x3db7b409	0.08969886
170	0xbd04d46a	-0.032429136
171	0x3d31d63d	0.043417204
172	0x3d369a92	0.044581003
173	0x3e345236	0.17609486
174	0xbd1516c3	-0.03639866
175	0x3dd8ab8a	0.105795935
176	0x3e45a9c9	0.19303049
177	0xbdd75807	-0.10514837
178	0xbe24afab	-0.16082637
179	0x3de7629c	0.11298105
180	0xbd566f8b	-0.05235247
181	0xbd82e9ca	-0.06392248
182	0x3df2d932	0.11857833
183	0x3d1abcad	0.03777759
184	0xbd9ae435	-0.07563058
185	0x3d83c7ed	0.06434617
186	0x3d91ec26	0.0712512
187	0x3dece3a5	0.11566857
188	0x3e4ffaa2	0.20310453
189	0x3bb0608d	0.0053826035
190	0x3d2e278f	0.042518195
191	0xbdec3dcc	-0.11535224
192	0xbd8dea4c	-0.06929454
193	0xbe06bae1	-0.13157226
194	0xbe249562	-0.1607261
195	0xbde2f05e	-0.11081003
196	0xbce0a16a	-0.027420718
197	0xbd6e3ead	-0.05816524
198	0x3dc7ef02	0.09762384
199	0x3d6ac4b2	0.05731649
200	0xbdb8b805	-0.09019474
201	0xbdc539bc	-0.096301526
202	0xbde29a52	-0.110645905
203	0x3d6ca71e	0.057776563
204	0xbd88f110	-0.06686604
205	0xbcd165da	-0.025561262
206	0x3cf26d59	0.029593157
207	0x3deb74eb	0.1149691
208	0x3c649b57	0.0139530515
209	0x3e0319a5	0.12802751
210	0xbdb48d95	-0.08816067
211	0x3d9eec73	0.07759943
212	0xbdd0ee4f	-0.10201704
213	0xbe08486f	-0.13308881
214	0x3dc80c1c	0.09767935
215	0xbe02244c	-0.12709159
216	0xbe33b217	-0.17548405
217	0xbe1236f6	-0.14278778
218	0xbe26539a	-0.16242829
219	0x3e32a4d1	0.17445685
220	0xbdbbce25	-0.09170178
221	0xbd85c5e3	-0.065318845
222	0x3c2f8e1e	0.010715036
223	0x3de7a51f	0.11310791
224	0xbbbb6548	-0.005718861
225	0x3dfe8cc1	0.124291904
226	0x3e2cd6c0	0.16878796
227	0x3db4d26a	0.08829196
228	0x3e03deb6	0.12877926
229	0xbdb30267	-0.087406926
230	0x3dcf2303	0.101141
231	0xbd6726be	-0.05643343
232	0xbd5b4892	-0.053536005
233	0x3de8aa06	0.113605544
234	0x3e27aed0	0.1637528
235	0xbdb955af	-0.09049546
236	0xbb8140ee	-0.003944508
237	0xbd5cd0eb	-0.053910177
238	0x3e28d5bd	0.16487785
239	0xbd804108	-0.06262404
240	0x3e227b53	0.15867357
241	0xbe078ed5	-0.1323808
242	0x3e01fcbe	0.1269407
243	0x3e1e45da	0.15456334
244	0x3de8b4fc	0.11362645
245	0x3ca2e9c1	0.019886853
246	0x3e0e2b9e	0.13883826
247	0x3c4d6428	0.012536086
248	0xbd43d071	-0.047806207
249	0xbe1a67a1	-0.15078594
250	0x3d813dab	0.0631059
251	0xbdfee23d	-0.12445495
252	0xbbb0e8c3	-0.005398841
253	0x3def9ab9	0.11699433
254	0x3c9eba6a	0.019375999
255	0xbe056c4e	-0.13029596

mlp_base.2.bias f4 [32]
0	0x3dbc2a4f	0.09187757
1	0x3d8c501d	0.06851218
2	0x3de394f1	0.11112393
3	0xbdc8d881	-0.0980692
4	0x3d07f033	0.033188056
5	0x3c3e9aca	0.011633584
6	0xbb9b3427	-0.0047364417
7	0xbdb48330	-0.088140845
8	0x3e059a03	0.13047032
9	0x3d61d08c	0.055130526
10	0x3dba3df8	0.09093851
11	0x3d4aa482	0.049473293
12	0x3d849010	0.0647279
13	0x3d525ecc	0.051359937
14	0xbe221657	-0.15828834
15	0xbd87c717	-0.0662977
16	0xbc7e4fd2	-0.01552196
17	0xbe3c55cf	-0.18392108
18	0xbe5258ac	-0.20541638
19	0xbe35ad28	-0.17741835
20	0x3d3a707c	0.04551743
21	0x3d5472ef	0.05186742
22	0xbe007642	-0.12545112
23	0xbcf805b9	-0.030276166
24	0x3e936160	0.2878523
25	0x3d17c0b8	0.037049025
26	0xbc40c8e2	-0.011766644
27	0xbe11d149	-0.14239992
28	0xbdf969a1	-0.1217835
29	0xbcd11815	-0.025524179
30	0x3d8ac4e5	0.06775836
31	0x3e5240ed	0.2053258

actor_head.0.weight f4 [64, 1600]
0	0x3c4a0c67	0.0123320585
1	0x3bdc4e8b	0.0067232302
2	0x3b3279a1	0.002723314
3	0xbc64e200	-0.013969898
4	0xbcdfb5b8	-0.02730833
5	0xbcab6776	-0.020923357
6	0x3c794e09	0.015216359
7	0xbc12b332	-0.008953856
8	0xba8e8e95	-0.0010876233
9	0x3c18ec89	0.009333738
10	0x3c4ef443	0.012631479
11	0xba756fdf	-0.00093626784
12	0xbc819ff6	-0.015823346
13	0xbb660ff2	-0.003510472
14	0xbc6d2f01	-0.014476539
15	0xbcb74683	-0.02237249
16	0x3cbec1b3	0.023285722
17	0xbb377a62	-0.002799653
18	0x3c132321	0.008980543
19	0x3b81fd85	0.0039669895
20	0x3c2329d1	0.0099587
21	0xbba78119	-0.005111825
22	0xbcc62fce	-0.024192717
23	0x3b963e50	0.004585065
24	0xba9be81d	-0.0011894737
25	0xbc4f1bbe	-0.012640892
26	0xbc15aa3c	-0.009134825
27	0x3ace5264	0.0015741107
28	0x3c408055	0.011749347
29	0xbc8a22ea	-0.016862351
30	0xbc851e93	-0.01624993
31	0xbcbcd0fc	-0.02304887
32	0x3caa8748	0.02081646
33	0xbccc75cf	-0.02495852
34	0xb9dddc77	-0.00042316664
35	0xbb4e5465	-0.0031483409
36	0x3c61bfbe	0.013778625
37	0xbc318eab	-0.010837237
38	0xbc8587dd	-0.016300136
39	0xbcde5457	-0.027139826
40	0x3caef49a	0.02135687
41	0xbab75e77	-0.0013989945
42	0x3ca73323	0.020410126
43	0xbc1e4b39	-0.009661489
44	0xbc5697f6	-0.013097754
45	0x3af8041e	0.0018922125
46	0x3c61866a	0.013764957
47	0xbc4dfe4d	-0.012572837
48	0x3c5fcd55	0.013659795
49	0x3b467b5a	0.0030285926
50	0xbcc3d3e2	-0.023904745
51	0x3b25bd73	0.0025289922
52	0x3c05150a	0.008122692
53	0x3a9734e7	0.0011536152
54	0x3a8021b3	0.0009775668
55	0xbcbef0e8	-0.023308232
56	0x3c457680	0.012052178
57	0x3b89d58e	0.004206366
58	0x3cb3bd78	0.021940932
59	0x3c37514b	0.011188815
60	0xbce48bbc	-0.027898662
61	0x3ca41a63	0.020032113
62	0xbc8647f7	-0.016391737
63	0xbc19a2b6	-0.009377172
64	0xbcb3f19a	-0.02196579
65	0xbbf32001	-0.0074195866
66	0xb8906aa2	-6.886317e-05
67	0x3ca3ed7a	0.020010699
68	0x3c5679b9	0.013090544
69	0x3c5d26a3	0.013497981
70	0x3c85097b	0.016239872
71	0xbc751652	-0.014958935
72	0xbc99f504	-0.01879359
73	0xbcc3d8a5	-0.023907015
74	0xbc7cea29	-0.0154366875
75	0x3b65fc79	0.0035093112
76	0xbc0042c0	-0.007828414
77	0xbcaf1ba7	-0.02137549
78	0xbba930e0	-0.005163297
79	0xbc848062	-0.016174499
80	0x3afc197a	0.0019233667
81	0x3c858e3c	0.016303174
82	0x3c89abe8	0.016805604
83	0xbb151bcd	-0.0022752166
84	0xbc38aa4d	-0.011271072
85	0x3c9ec69a	0.01938181
86	0xbcbba403	-0.022905355
87	0xbb74c778	-0.0037350338
88	0xbc8f2f53	-0.01747862
89	0x3ca62985	0.02028347
90	0xbc8e8792	-0.01739863
91	0x3c0fba23	0.008772406
92	0x3b669ae7	0.0035187544
93	0xbb43ac9a	-0.0029857517
94	0xbbbdd76e	-0.0057935035
95	0xbcb7a00e	-0.022415187
96	0x3ca72962	0.020405475
97	0x3c9773c7	0.018487824
98	0xbbcbdb8d	-0.006221241
99	0x3cb67c1b	0.022275975
100	0x3c2a6807	0.010400779
101	0xbb1d0973	-0.002396193
102	0x3ca80230	0.020508856
103	0x3b8b23e7	0.0042462233
104	0xbc81ba5b	-0.015835932
105	0x3c865fd2	0.016403113
106	0x3c88829f	0.016663847
107	0x3c13444a	0.008988449
108	0xbcb4f30f	-0.022088556
109	0xbc8816f3	-0.016612506
110	0xbcb678d8	-0.02227442
111	0x3cc3daed	0.023908103
112	0x3cc60fa7	0.024177385
113	0x3c819a38	0.015820608
114	0x3ca7f283	0.02050138
115	0xbb83c235	-0.004020954
116	0xbcbb77da	-0.022884298
117	0x3c2d97aa	0.010595242
118	0x3c0b6903	0.008508923
119	0xbba831f3	-0.0051329075
120	0x3cc1287d	0.023578877
121	0xbc8e901f	-0.017402707
122	0xbc86da92	-0.016461644
123	0x3c91e815	0.01781086
124	0x3b6cf70d	0.0036157996
125	0x3c4b6d60	0.012416214
126	0x3cca0fea	0.024665792
127	0x3c6f12dd	0.0145919
128	0xbc877093	-0.016533172
129	0xbc822259	-0.015885519
130	0x3cae2155	0.021256128
131	0x3cbfce8a	0.023413915
132	0xbc0e0dad	-0.008670253
133	0xbca2b8c0	-0.019863486
134	0x3a53a867	0.0008074105
135	0xbc236824	-0.0099735595
136	0xbca96e62	-0.020682517
137	0x3c91ac12	0.017782245
138	0x3bbf9e00	0.0058476925
139	0xba1b0633	-0.00059137045
140	0x3c0a5570	0.008443221
141	0x3b8d41c7	0.00431082
142	0x3ae360cd	0.0017347574
143	0x3baf23ea	0.0053448575
144	0x3b72751a	0.0036996068
145	0x3c9bd69b	0.01902323
146	0xbc946582	-0.018114809
147	0x3c7c9145	0.015415494
148	0x3ac0a895	0.0014698679
149	0xbbf9ec79	-0.0076270667
150	0xbb86a358	-0.0041088276
151	0x3cae5320	0.021279871
152	0x3a85c47b	0.001020565
153	0xbc2ee3e6	-0.010674452
154	0xbc921b2c	-0.017835222
155	0x3bc4afe4	0.006002413
156	0x3c0ea77a	0.008706922
157	0xbbcca3ff	-0.006245136
158	0xbcac72e6	-0.021050882
159	0xbc9dca2c	-0.019261442
160	0x3bff84e8	0.007797826
161	0x3b886fe5	0.0041637295
162	0xbaecb4ea	-0.0018059288
163	0xbcb23b6e	-0.021756854
164	0xbbd500bf	-0.006500333
165	0xbbbbf0be	-0.005735486
166	0x3bd6b9af	0.006552897
167	0xbcc59367	-0.024118138
168	0x3c686a11	0.014185444
169	0xbcbd9f68	-0.0231473
170	0x39bb5227	0.00035728628
171	0x3c567154	0.013088543
172	0x3c2fa3cf	0.010720207
173	0x3c75a806	0.014993673
174	0xbc2f4276	-0.010696998
175	0x3bb625c8	0.005558703
176	0xbca3190e	-0.019909408
177	0xbca9f43d	-0.020746345
178	0x3c19b674	0.009381879
179	0xbc90ecd0	-0.017691046
180	0xbb9da183	-0.0048105135
181	0x3c0b3342	0.0084961075
182	0xb90600f5	-0.00012779592
183	0x3c93ad2b	0.018026909
184	0x3c8dabe5	0.01729388
185	0x3bd93c25	0.0066294842
186	0xbcbb4217	-0.022858663
187	0x3c5c8b98	0.013461016
188	0xbcd5f41b	-0.026117375
189	0xbcdc44d7	-0.026888294
190	0x3abb3e2d	0.0014285498
191	0x3c5f0d02	0.013613941
192	0x3ca4799f	0.020077525
193	0xbc80d0f6	-0.01572464
194	0x3c6823e6	0.014168715
195	0xbc6f6a26	-0.01461271
196	0x3c3b4533	0.011430073
197	0x3c6ffaef	0.01464723
198	0xbc0a3a48	-0.008436747
199	0xbce41229	-0.02784069
200	0xbc87b3ec	-0.016565286
201	0xbbf4b881	-0.0074682836
202	0xbccf3e47	-0.02529825
203	0xbc607105	-0.013698821
204	0x3bd1fece	0.006408549
205	0x3c995ff7	0.018722517
206	0xbc8eda0e	-0.017437961
207	0xbc64a63b	-0.013955648
208	0xbc660367	-0.014038897
209	0x39bd3992	0.00036091782
210	0xbc17d1f8	-0.009266369
211	0xbb034aeb	-0.0020033668
212	0xbcd3f31b	-0.025872758
213	0xbbbcd4ef	-0.0057626883
214	0xbb93b726	-0.004507917
215	0x3c490b79	0.012270802
216	0x3b0ef591	0.002181385
217	0xbc34edd0	-0.011043027
218	0xb972cbd9	-0.00023154858
219	0x3c316b19	0.010828757
220	0xbcb5ec5f	-0.022207437
221	0xbcb57697	-0.022151275
222	0xbc942ff0	-0.018089265
223	0x3c9f494c	0.01944413
224	0x38b1a7be	8.471262e-05
225	0x3c86071e	0.016360816
226	0x3cc5cbfb	0.024145117
227	0xbb10ba65	-0.0022083756
228	0xbc9b5860	-0.018963039
229	0xbc72b673	-0.014814007
230	0x3b9d2ee5	0.00479685
231	0x3b660feb	0.0035104703
232	0xbc8782ee	-0.016541924
233	0xbc3ae8ff	-0.01140809
234	0xbcda50ea	-0.026649911
235	0x3b96bccc	0.004600143
236	0xbc8734fd	-0.016504759
237	0xbb32c2d8	-0.002727678
238	0x3c103b26	0.008803165
239	0x3c2b3c12	0.010451334
240	0xbc83f56b	-0.016108235
241	0xbc8caebb	-0.017173162
242	0xbc7036c3	-0.014661494
243	0xbc9a6cad	-0.018850649
244	0x3aa5bb7a	0.0012644373
245	0x3bcf731e	0.0063308617
246	0x3c94424b	0.018098017
247	0xbc284169	-0.010269501
248	0xbb9308d0	-0.0044871345
249	0x3b89c9cb	0.004204964
250	0x3c599125	0.013279234
251	0x3c7b5e87	0.015342361
252	0xbc561590	-0.013066664
253	0xbcbb498d	-0.02286222
254	0x3c0310c3	0.007999602
255	0xbc8d25bd	-0.01722991

actor_head.0.bias f4 [64]
0	0xbcb99cf5	-0.02265785
1	0x3bf0db41	0.007350356
2	0x3c3c403a	0.011489922
3	0xbc058615	-0.008149643
4	0x3c6e83e7	0.014557815
5	0x3bd9065f	0.006623074
6	0xb92fbd59	-0.00016759838
7	0x3c90bfbd	0.017669553
8	0x3cbe940e	0.023263957
9	0xbc169ff3	-0.009193408
10	0x3c893481	0.016748669
11	0xbba35b06	-0.004985216
12	0x3bbe7d60	0.0058132857
13	0x3c526b11	0.012842909
14	0x3cebda5e	0.028790649
15	0x3c00377c	0.0078257285
16	0xbc0294b8	-0.007970028
17	0xbc8ccd45	-0.017187724
18	0x3cb41462	0.021982376
19	0x3cb14ab2	0.021642063
20	0x3b81fba6	0.0039667664
21	0xbbb00d29	-0.0053726626
22	0x3c7a702e	0.015285535
23	0x3bcbde70	0.006221585
24	0x3c5bc134	0.013412762
25	0x3bdb23e3	0.0066876276
26	0x3c63c4d4	0.013901908
27	0x3bd82408	0.006596092
28	0xbcc33c3f	-0.023832439
29	0xbb878851	-0.004136123
30	0xb9d955b3	-0.00041453316
31	0x3bc134ae	0.0058961725
32	0x3bd43d41	0.0064770286
33	0x3d002d40	0.031293154
34	0x3ba5433c	0.0050434154
35	0x3a62e89f	0.0008655879
36	0x3c31c25c	0.010849562
37	0x3941b825	0.00018474513
38	0xbc4a505c	-0.012348261
39	0x3cf706ff	0.030154703
40	0x3c9c49c5	0.019078145
41	0x3d415de3	0.047208678
42	0x3c601b86	0.013678437
43	0x3a7a1208	0.000953943
44	0x3c84c1a9	0.016205626
45	0xbd03bc12	-0.03216178
46	0xbcbc7a7b	-0.023007622
47	0xb937fe16	-0.00017546894
48	0x3b97d225	0.0046332055
49	0x3c8c8891	0.017154964
50	0x3cc3a28d	0.023881221
51	0x3c6579fc	0.014006134
52	0xbc6d273f	-0.014474689
53	0x3c8e1531	0.01734409
54	0x3cbd3669	0.023097234
55	0xbcdf4f49	-0.027259486
56	0xbc31d771	-0.010854588
57	0x3a5b8f37	0.00083755277
58	0x3c3664c3	0.011132422
59	0x3c1f34a3	0.009717139
60	0xbcc553e8	-0.024087861
61	0xbc07545a	-0.008259857
62	0x3b9b43af	0.004738293
63	0xb935d86e	-0.00017342131

actor_head.2.weight f4 [2, 64]
0	0xbdb5a517	-0.08869379
1	0xbddf2d6b	-0.10897335
2	0xbd9cb3db	-0.07651492
3	0xbda0a853	-0.07844605
4	0xbdbf442a	-0.09339173
5	0xbd67b3dd	-0.056568015
6	0x3da52dea	0.08065398
7	0x3dbca117	0.09210413
8	0x3cb71287	0.022347702
9	0xbdcef86c	-0.101059765
10	0xbca1baac	-0.019742332
11	0x3d50469b	0.050848585
12	0x3d952a66	0.072834775
13	0x3e09d0d2	0.13458565
14	0x3e14061c	0.14455456
15	0x3bb64542	0.0055624554
16	0x3d14ea41	0.036356214
17	0x3cb3acf3	0.021933055
18	0x3d87f726	0.06638937
19	0x3d466653	0.048437428
20	0x3d9e91b8	0.077426374
21	0x3b813f16	0.003944288
22	0xbc57eab1	-0.013178513
23	0x3d8f6f51	0.07003654
24	0x3d5b2e35	0.053510863
25	0x3dcf1d2f	0.10112988
26	0x3c669346	0.014073199
27	0x3ccd331b	0.025048783
28	0x3dd961b9	0.10614342
29	0x3dba8207	0.09106832
30	0xbdef0b9b	-0.116721354
31	0xbc80231b	-0.01564174
32	0xbdccce07	-0.10000234
33	0x3e0d67dd	0.13809152
34	0x3c5061c8	0.012718625
35	0x3dcc57ad	0.0997766
36	0x3d45b55e	0.04826867
37	0xbd9dc8f1	-0.07704342
38	0x3de64c91	0.11245073
39	0xbd89487f	-0.06703281
40	0xbcdbd801	-0.026836397
41	0xbe1ddcad	-0.15416212
42	0x3e1331ee	0.14374515
43	0x3dd229a2	0.10261847
44	0x3ced6df8	0.028983101
45	0x3dd74d3a	0.10512777
46	0x3cb813e0	0.022470415
47	0xbdb70664	-0.08936766
48	0xbd18f89f	-0.03734648
49	0xbd541286	-0.051775478
50	0xbd252d27	-0.040326264
51	0x3e2fa640	0.17153263
52	0x3c5412ac	0.012943905
53	0xbdfc90d6	-0.12332313
54	0xbd6c36d6	-0.057669483
55	0x3dfee941	0.124468334
56	0xbc035d9f	-0.0080179265
57	0x3df534ea	0.11972983
58	0x3de88b1a	0.113546565
59	0x3d378909	0.04480842
60	0xbd155e7e	-0.036467068
61	0xbdeb2838	-0.114822805
62	0x3d366c81	0.04453707
63	0x3d9113eb	0.07083877
64	0xbdf64e5e	-0.12026666
65	0xbd3cbd6b	-0.04607908
66	0x3e01fda5	0.12694414
67	0xbe11846d	-0.14210673
68	0x3c865267	0.016396714
69	0xbd1e452d	-0.03864019
70	0x3da85c9f	0.08220791
71	0x3def6430	0.11689031
72	0xbdebbf27	-0.11511069
73	0xbd885c94	-0.06658283
74	0xbc122cd7	-0.008921823
75	0xbd928b9a	-0.07155533
76	0x3dcd8586	0.10035233
77	0xbda83d77	-0.082148485
78	0x3dc6d544	0.09708646
79	0x3db9570d	0.09049807
80	0xbce01ea7	-0.027358366
81	0xbc814668	-0.015780643
82	0x3ddb092c	0.10695109
83	0xbdcabde2	-0.098994985
84	0xbd66da68	-0.056360632
85	0xbdda8e28	-0.106716454
86	0xbd91c4d4	-0.0711762
87	0xbcc393de	-0.02387422
88	0x3c82f6e1	0.015986862
89	0x3c75c9de	0.015001742
90	0xbbeb8e1b	-0.007188571
91	0xbcb46698	-0.022021577
92	0xbde7ed3b	-0.11324545
93	0x3dadf96a	0.084948376
94	0xbc4472e1	-0.01199028
95	0xbd25d911	-0.040490214
96	0xbdd687c1	-0.10475112
97	0xbd497093	-0.049179625
98	0x3d6e47da	0.05817399
99	0x3dae128a	0.0849963
100	0xbd5eec10	-0.054424345
101	0x3d68f1a2	0.056871064
102	0xbdbffd0d	-0.093744375
103	0xbda81039	-0.08206219
104	0x3acaed5c	0.0015482116
105	0x3dbda185	0.09259323
106	0xbd93cc18	-0.07216662
107	0x3d62d647	0.055380132
108	0x3db2a0f5	0.08722106
109	0xbd900c0f	-0.0703355
110	0x3dcb9369	0.09940226
111	0x3d7698bb	0.06020425
112	0x3c118e76	0.008884063
113	0xbd835958	-0.06413525
114	0xbcb7e9df	-0.022450386
115	0xbcaa5bc5	-0.020795712
116	0xbd0f06e6	-0.03491869
117	0xbd8177e1	-0.06321693
118	0x3df5f921	0.12010408
119	0x3dc0dc1c	0.094169825
120	0x3dd0de4e	0.10198651
121	0xbd371204	-0.044694915
122	0x3cb17bcd	0.021665478
123	0x3c3cfd4a	0.011534998
124	0x3d5981e2	0.05310238
125	0xbd95b577	-0.07310002
126	0xbd88aad0	-0.06673205
127	0xbd3eb94b	-0.046563428

actor_head.2.bias f4 [2]
0	0xbc4c82a1	-0.012482316
1	0x3cd27be1	0.025693836

critic_head.0.weight f4 [64, 1600]
0	0xbc4afaed	-0.012388927
1	0xbbed1b42	-0.0072359154
2	0x3cd0871b	0.025455048
3	0xbc997032	-0.018730257
4	0xbc78f772	-0.015195714
5	0xbca82eb0	-0.020530075
6	0x3c9c0ea6	0.019049954
7	0xbba1a6e0	-0.004933223
8	0xbbbfd68b	-0.005854433
9	0x3c86bdd2	0.016447935
10	0xb9886ab4	-0.0002601944
11	0xbcec11ba	-0.028817046
12	0x3c5d6809	0.013513573
13	0x3b8c4adf	0.0042813863
14	0xbbd7ab3f	-0.0065816934
15	0x3c8245f6	0.0159025
16	0x3beaf1f7	0.0071699577
17	0xbd0bd4a2	-0.03413833
18	0xbc96f9c1	-0.018429639
19	0xbcb947fe	-0.022617336
20	0x3cd0a96f	0.025471417
21	0x3c0fa2d6	0.00876685
22	0xbc9c9542	-0.01911414
23	0xbd70363f	-0.058645483
24	0xbc41d1c8	-0.011829801
25	0xbcb99b1f	-0.022656975
26	0xbda2dda3	-0.0795243
27	0xbc8e1fbb	-0.017349115
28	0xbbe01f3d	-0.0068396614
29	0x3c770200	0.01507616
30	0x3c0d4bd4	0.008624036
31	0xbb14c731	-0.0022701735
32	0x3c97329b	0.018456748
33	0xbd69aa34	-0.057047084
34	0xbca790e1	-0.020454826
35	0xbad57248	-0.0016284669
36	0x3c08a824	0.008340869
37	0xbd6808cd	-0.056649018
38	0xbd161766	-0.03664341
39	0xbd42d028	-0.047561795
40	0xbc198300	-0.009369612
41	0x3c17be2d	0.00926165
42	0xbc92d32d	-0.017922962
43	0x3ab61ebb	0.0013894656
44	0xbc782d39	-0.015147501
45	0xbbbaaf27	-0.0056971493
46	0xbcb90292	-0.022584233
47	0x3ca63e07	0.020293249
48	0x3c17d3aa	0.009266773
49	0x3c6c69f3	0.014429557
50	0xbc573fa5	-0.013137733
51	0xbc7a8efe	-0.015292881
52	0xbc95f40c	-0.018304847
53	0x3c065344	0.008198563
54	0x3bff7fab	0.0077972016
55	0xbc0a4fa0	-0.008441836
56	0xbcd6e74d	-0.02623334
57	0x3c99d0f9	0.018776404
58	0xbcabdc33	-0.020979023
59	0xbbb7b7db	-0.005606634
60	0xbbd955f3	-0.0066325604
61	0xbc18e0ce	-0.009330941
62	0x3b68f9a7	0.0035549195
63	0x3c18a47a	0.009316558
64	0xbc14ff92	-0.009094136
65	0xbbbf2479	-0.0058332053
66	0xbcab7fe7	-0.020935012
67	0x3c152c67	0.009104825
68	0xbcfa6b7c	-0.03056883
69	0xbc610cc7	-0.0137359565
70	0xbb9ee04c	-0.0048485156
71	0xbd38ff00	-0.045165062
72	0xbbc32593	-0.005955407
73	0xbcd927bc	-0.026508205
74	0xbc0f07f4	-0.0087299235
75	0xbd494399	-0.04913673
76	0xbc8fc05a	-0.017547775
77	0x3b8f7a6b	0.004378607
78	0xbce8a980	-0.028401136
79	0xbd105d47	-0.035245206
80	0xbc87ccbc	-0.016577117
81	0x3cf27814	0.029598273
82	0xbd1e97c4	-0.038718954
83	0xbc3b5f07	-0.0114362305
84	0xbc909e3b	-0.017653575
85	0x3bad5f87	0.0052909288
86	0x3c5807dd	0.0131854685
87	0x3d217c45	0.039425153
88	0xbcabac9b	-0.020956328
89	0xbd063296	-0.032763086
90	0xbc89ab63	-0.016805356
91	0x3c93638c	0.017991804
92	0xbb504c73	-0.0031783849
93	0xbc71e100	-0.014763117
94	0x3b221946	0.0024734302
95	0xbc5c247a	-0.013436431
96	0x3c720e1a	0.01477387
97	0x3aa294f9	0.0012404016
98	0x3c10eac3	0.008845034
99	0x3a763667	0.0009392262
100	0x3c3f3300	0.011669874
101	0xbbcfd7e7	-0.0063428762
102	0x3c82abca	0.015951056
103	0x3c2b91e6	0.010471797
104	0x3c209803	0.009801867
105	0x3c7c0c90	0.0153838545
106	0xbc41825a	-0.011810863
107	0x3cb3967f	0.021922348
108	0x3c88125b	0.016610315
109	0x3cb83a5b	0.022488764
110	0xbc5bba57	-0.013411126
111	0x3b7c67c0	0.0038513988
112	0xbb3afe33	-0.0028532862
113	0x3c2d6cf0	0.010585055
114	0x3c99d095	0.018776217
115	0x3c92223a	0.017838586
116	0xbbed27e7	-0.0072374227
117	0x3cb7e57d	0.022448296
118	0x3caea683	0.021319633
119	0xbcb07f67	-0.021545125
120	0xbcafbfb7	-0.021453721
121	0x3c8b42d2	0.016999636
122	0xbbcc0641	-0.0062263315
123	0xbc8bb614	-0.017054595
124	0x3cc29bdb	0.023755958
125	0xbc62df17	-0.013847134
126	0xbbb3accf	-0.005483247
127	0xbc734ef3	-0.014850366
128	0xbcf4fdcb	-0.029906174
129	0x3cb95c40	0.022626996
130	0x3c93b1e8	0.018029168
131	0xbae9db67	-0.0017841876
132	0xbc171bc3	-0.0092229275
133	0x3c73c747	0.014879054
134	0x3c58ea57	0.013239465
135	0xbb4f882e	-0.0031666863
136	0xbc52af76	-0.012859216
137	0x3bf0ae60	0.007345006
138	0xba887367	-0.0010410369
139	0x3c7f2a53	0.015574056
140	0x3c9ab180	0.018883467
141	0xbc880e20	-0.016608298
142	0xbc1c864d	-0.009553504
143	0xbd32a40f	-0.04361349
144	0x3cc890f3	0.02448318
145	0x3c929218	0.017891929
146	0x3c3218d3	0.010870176
147	0xbd2dec01	-0.0424614
148	0xbb984a32	-0.0046475166
149	0xbcbb6725	-0.022876332
150	0xbd3d60fa	-0.046235062
151	0xbd2f3a92	-0.042780466
152	0xbca3cfa8	-0.01999648
153	0xbcbb4c92	-0.02286366
154	0xbc58a879	-0.013223761
155	0xbbaebf82	-0.005332888
156	0xbd4e63ae	-0.05038803
157	0xbce58d65	-0.028021524
158	0xbc61e978	-0.013788573
159	0xbaea5b63	-0.0017880019
160	0xb945cab8	-0.00018862903
161	0xbc3cc8fb	-0.011522527
162	0xbd36ed9b	-0.044660192
163	0xbb890327	-0.004181284
164	0xbc804fe7	-0.0156631
165	0xbd30d900	-0.043175697
166	0xbcfe50bb	-0.031044355
167	0xbd37d9c4	-0.04488541
168	0xbd02ea2f	-0.031961616
169	0xbd6118d0	-0.054955304
170	0x3c477619	0.012174153
171	0x3c4146ea	0.011796692
172	0x3c474f9d	0.012164977
173	0xbd416ee9	-0.047224913
174	0xbcd4a7a5	-0.025958845
175	0x3a1891ea	0.0005820083
176	0xbd02f485	-0.031971473
177	0xbc667d30	-0.014067933
178	0x3bc9cc40	0.0061583817
179	0x3aa5c830	0.0012648162
180	0xbd431030	-0.04762286
181	0xbcccdf67	-0.02500887
182	0xbccdaa08	-0.025105491
183	0xbcf3baae	-0.029752102
184	0xbd61dba3	-0.055141103
185	0xbd40ccf6	-0.047070466
186	0xbb5ae33c	-0.0033399602
187	0xbc277ef6	-0.010223141
188	0xbc9d99a7	-0.019238306
189	0xbcbe0657	-0.023196382
190	0xbcd15554	-0.025553383
191	0xbc787d3b	-0.015166576
192	0xbd0d9cca	-0.034573354
193	0xbc467720	-0.012113363
194	0xbbc5060e	-0.0060126847
195	0xbce4d27c	-0.027932398
196	0xbcfbfd4a	-0.030760426
197	0xbcfcc273	-0.03085444
198	0x3c49d6b7	0.012319258
199	0x3c677a31	0.014128254
200	0xbb9d19df	-0.004794344
201	0xbc9ba292	-0.018998418
202	0xbb7195ab	-0.003686289
203	0xbbed6324	-0.0072444845
204	0xbba97e0f	-0.005172498
205	0xbd4202e6	-0.047366045
206	0xbd083734	-0.03325577
207	0xbd41965f	-0.047262546
208	0xbcaeae82	-0.021323446
209	0xbcf4415f	-0.029816328
210	0xbcd7d2cf	-0.026345639
211	0xbd2e5024	-0.042556897
212	0xbd0f143c	-0.034931406
213	0x3cb6415d	0.022247965
214	0xbaa5ccb0	-0.0012649503
215	0xbd2c7ae8	-0.0421094
216	0xbd0c6412	-0.034275122
217	0x3a81e044	0.0009908755
218	0xbd198edc	-0.037489757
219	0xbc577ed8	-0.0131528005
220	0x3c8144ba	0.015779842
221	0xbc699061	-0.014255614
222	0xbcc44415	-0.023958245
223	0xbcbbcf54	-0.02292601
224	0xbd1dd566	-0.03853359
225	0xbc5468fc	-0.012964483
226	0xbc1e14f2	-0.009648548
227	0xbd4a7400	-0.049427032
228	0xbba3a8d3	-0.0049944906
229	0xbd64d2a3	-0.05586494
230	0xbccfc863	-0.025364107
231	0xbd256388	-0.040378124
232	0xbd1eec4b	-0.038799565
233	0xbd326847	-0.043556478
234	0xb92c40ac	-0.0001642729
235	0xbd4c56ab	-0.04988734
236	0xbd48ad5b	-0.04899345
237	0xbc7b5798	-0.015340708
238	0xbca6e0b9	-0.020370828
239	0x3a8d1f90	0.0010766853
240	0xbb4dfeaf	-0.003143232
241	0x39bab65a	0.00035612547
242	0xbcce4edc	-0.025184087
243	0xbd4aca72	-0.049509473
244	0xbc8d4ff0	-0.017250031
245	0x3c6b5eb2	0.014365839
246	0xbc28b372	-0.010296689
247	0x3c8b19ef	0.01698014
248	0x3ca6988a	0.020336408
249	0xbc60c576	-0.013718953
250	0xbca7f6f7	-0.020503504
251	0x3a9bc1b5	0.0011883291
252	0xbccc11a1	-0.02491075
253	0x3cb1715c	0.0216605
254	0x3a6c756d	0.00090201834
255	0xbd021ab9	-0.031763766

critic_head.0.bias f4 [64]
0	0x3c21f47e	0.009884952
1	0xbc265974	-0.010153163
2	0x3cf79ee7	0.030227138
3	0x3ddbb8da	0.10728617
4	0xbc783a8f	-0.01515068
5	0x3b646a34	0.003485334
6	0xba94831f	-0.0011330581
7	0x3a040721	0.00050364627
8	0xbcbfd1ae	-0.023415413
9	0xbc1ebe5b	-0.009688939
10	0xbcbaf36c	-0.02282115
11	0xbca9bd49	-0.020720141
12	0x3cc910b2	0.024544094
13	0x3cc10949	0.023563998
14	0xbc965306	-0.018350136
15	0xbc33b339	-0.010968023
16	0xbb6d3899	-0.0036197065
17	0x3c1ade08	0.00945235
18	0xbc54c9b6	-0.012987545
19	0xbd1ab896	-0.03777369
20	0x3c75b78a	0.014997372
21	0xbab2eeb6	-0.0013651464
22	0x3b6a4912	0.003574912
23	0xbc26d1f7	-0.010181895
24	0xba134695	-0.00056181225
25	0xbce644b8	-0.02810894
26	0x3c344c8d	0.011004579
27	0x3bfa52e6	0.007639277
28	0xbcfa63e1	-0.030565204
29	0x3cb1e83f	0.021717189
30	0xbd06e5b3	-0.032933902
31	0x3a3cfc2a	0.0007209206
32	0xbce3207f	-0.027725456
33	0x3c50013a	0.012695605
34	0x3ca98833	0.020694828
35	0x3c31c5cc	0.010850381
36	0xbcb0898f	-0.021549968
37	0xbcbe9d69	-0.023268418
38	0xbb8bb02b	-0.004262944
39	0x3c06ab44	0.008219544
40	0xbcc9a113	-0.024612939
41	0x3c7bebca	0.015376041
42	0xbce6b402	-0.028162006
43	0x3c33bae0	0.010969847
44	0xbc034ec9	-0.008014389
45	0x3c69dc3d	0.0142737
46	0x3b41a879	0.002954988
47	0x3d86a108	0.06573683
48	0xbcb10435	-0.021608451
49	0x3bc4011b	0.005981577
50	0xbc0ecc24	-0.008715663
51	0x3c588960	0.0132163465
52	0xbb928071	-0.004470878
53	0xbb06b465	-0.00205543
54	0xbccc456a	-0.024935443
55	0xbcf33b96	-0.029691499
56	0xbb86bb17	-0.0041116583
57	0xbd4a3f49	-0.04937676
58	0xbcbd9926	-0.023144316
59	0xbce7d0ce	-0.028297808
60	0xbd1a09ee	-0.037607126
61	0xbbb05bd0	-0.0053820387
62	0xbc125c29	-0.0089331055
63	0x3b20c8c0	0.0024533719

critic_head.2.weight f4 [1, 64]
0	0xbcd73575	-0.026270607
1	0xbd852e11	-0.06502927
2	0x3c0525b3	0.008126664
3	0x3e160807	0.146515
4	0xbd4868df	-0.048928138
5	0x3dc51b73	0.09624376
6	0xbdd899d4	-0.105762154
7	0x3cb0a3d8	0.021562502
8	0x3daee112	0.085390225
9	0xbc88507d	-0.016639942
10	0xbcfe1b7f	-0.03101897
11	0xbdb19a3d	-0.08671997
12	0x3c7d87bc	0.015474256
13	0x3d1cf3bc	0.03831838
14	0xbc87195c	-0.016491584
15	0xbdd08bfd	-0.10182951
16	0x3dd21764	0.10258368
17	0x3de38797	0.11109846
18	0xbb3c9ba0	-0.0028779283
19	0xbda41b75	-0.080130495
20	0xbc30ff58	-0.010803066
21	0x3dd61734	0.104536444
22	0xbd417e72	-0.04723973
23	0xbc9627b9	-0.018329488
24	0xbdaab1e7	-0.083347134
25	0x3d968d10	0.07351124
26	0xbd27c39e	-0.04095804
27	0xbddfbd2d	-0.10924754
28	0xbdd56b83	-0.10420897
29	0x3dfe6712	0.12422003
30	0x3ddf9bc1	0.109183796
31	0x3dac9099	0.08426017
32	0xbc9307a5	-0.017947981
33	0xbdc22b68	-0.09480935
34	0x3da8a410	0.082344174
35	0x3b279217	0.0025569254
36	0xbbae69c3	-0.0053226664
37	0xbd42cd12	-0.04755885
38	0x3dc8d3ea	0.098060444
39	0xba752845	-0.0009352009
40	0x3d6ccacc	0.05781059
41	0xbdaf6364	-0.08563879
42	0x3b7790e5	0.0037775573
43	0x3a8632aa	0.0010238488
44	0x3ddc3bb9	0.10753579
45	0xbd66f348	-0.056384355
46	0xbd72c42e	-0.059269123
47	0x3d963385	0.07334045
48	0xbdd3e6b5	-0.10346738
49	0xbc742c22	-0.0149031
50	0x3d9ade48	0.07561928
51	0x3dba6a34	0.09102288
52	0x3ddb8eb6	0.10720579
53	0xbd9ca6b9	-0.07648987
54	0xbddea402	-0.10871126
55	0xbd84c787	-0.06483369
56	0x3d60617c	0.05478047
57	0xbd59e7eb	-0.05319969
58	0x3cd1a421	0.025590958
59	0xbd971af8	-0.07378191
60	0xbda77e1f	-0.081783526
61	0x3d9a4c82	0.07534124
62	0xbcaf010c	-0.021362804
63	0x3dde750c	0.10862169
