project_files/runs/Sep11_10-25-29_kiveli.ics.forth.gr/ppo_policy_camera_cnn_whole_circle_to_test.pth (torch, 851381 bytes, 15 tensors)

cnn_base.0.weight f4 [16, 1, 3, 3]
0.054189857 0.240019 0.25283688 0.07397369 -0.30293962 0.08096665 0.19525069 0.26792383
0.00885648 -0.14117523 0.010893471 -0.10753165 0.17168583 -0.2071047 0.14446124 0.08454676
-0.05426275 0.32771394 -0.012036837 0.28918436 0.31449896 -0.30612674 -0.074089944 0.17401345
-0.20680341 -0.24319473 -0.06919563 -0.05937828 -0.15593448 0.2567744 0.034944214 -0.13109049
-0.06306898 -0.24869278 0.14010392 -0.05068271 0.06869497 0.007147517 0.019952824 -0.036962003
-0.027784063 0.18494014 -0.29876283 0.12663755 -0.30836517 -0.11778713 0.065713376 0.26255053
-0.009866336 0.039306503 -0.23742178 -0.14664717 -0.22869785 -0.3040271 0.007372062 0.23573038
-0.23734042 -0.17332172 -0.24093775 -0.2664155 0.32864633 -0.0072420062 -0.08353129 0.15082443
-0.32022417 0.21706195 -0.23483232 0.14260395 0.16950986 -0.2290252 -0.10823137 -0.23275913
0.1906257 0.16520965 0.2453869 0.122227654 0.1787724 0.025217881 -0.17052811 0.22838637
-0.05102445 0.262474 -0.013527164 -0.16857338 0.0067248926 0.30981466 0.08955138 0.10345455
0.13510439 -0.23150755 -0.09835302 -0.21452999 0.24107276 -0.122338176 0.17086408 -0.21617858
0.012833867 0.15964708 -0.07308481 0.110326044 0.2560774 0.12289479 0.07249722 -0.009768321
-0.15862975 0.07199967 -0.16616507 0.20176223 0.32712993 0.05702757 -0.1984416 -0.32820186
-0.024940716 -0.14005865 0.16307135 0.083148055 0.29934266 0.11346475 0.23276219 0.0943991
0.05753916 -0.0927435 0.25170135 0.10583811 0.12616979 0.32152364 0.28941163 -0.21326078
0.08580668 0.115608774 -0.0006562375 -0.21880983 0.14041367 -0.32939482 -0.3253253 -0.25130886
-0.21219818 0.107557796 0.24410732 0.1232135 -0.1056405 -0.13367054 0.07631718 -0.24155073
00000000: 2ff6 5d3d 8ac7 753e d673 813e 857f 973d
00000010: e71a 9bbe d8d1 a53d ccef 473e 502d 893e
00000020: c51a 113c 3d90 10be 877a 323c 8e39 dcbd
00000030: 69ce 2f3e 4113 54be a6ed 133e da26 ad3d
00000040: 9e42 5ebd 1fca a73e 2736 45bc f90f 943e
00000050: 0206 a13e a5bc 9cbe 78bc 97bd 9530 323e
00000060: 46c4 53be 0a08 79be 70b6 8dbd a436 73bd
00000070: 4aad 1fbe ef77 833e aa21 0f3d 963c 06be
00000080: 4f2a 81bd 52a9 7ebe 6777 0f3e ac98 4fbd
00000090: f3af 8c3d b835 ea3b 1b74 a33c 7865 17bd
000000a0: 679b e3bc f360 3d3e 71f7 98be 46ad 013e
000000b0: 0ae2 9dbe 613a f1bd bc94 863d 066d 863e
000000c0: 6aa6 21bc dbff 203d b21e 73be ad2a 16be
000000d0: c52f 6abe 71a9 9bbe 5791 f13b 4e63 713e
000000e0: 5e09 73be 407b 31be 63b8 76be 9d67 88be
000000f0: 5544 a83e 5a4e edbb 7412 abbd b871 1a3e
00000100: 6cf4 a3be 7d45 5e3e e277 70be c506 123e
00000110: fe93 2d3e 9585 6abe 69a8 ddbd 6958 6ebe
00000120: 6233 433e b82c 293e b446 7b3e 7e52 fa3d
00000130: 1d10 373e bb95 ce3c ec9e 2ebe 1ede 693e
00000140: 04ff 50bd fe62 863e 0aa1 5dbc 809e 2cbe
00000150: 7d5c dc3b 07a0 9e3e b766 b73d fbdf d33d
00000160: ce58 0a3e 5110 6dbe 4f6d c9bd c0ad 5bbe
00000170: c7db 763e 708c fabd fef6 2e3e eb5d 5dbe
00000180: 2445 523c 867a 233e 7dad 95bd 9ff2 e13d
00000190: 941c 833e 43b0 fb3d 6c79 943d 4f0b 20bc
000001a0: d66f 22be 9074 933d 2d27 2abe c29a 4e3e
000001b0: 937d a73e be95 693d 4634 4bbe 130a a8be
000001c0: 7950 ccbc 896b 0fbe 2dfc 263e 8749 aa3d
000001d0: 7143 993e 3560 e83d 3659 6e3e 5154 c13d
000001e0: 2fae 6b3d 4ef0 bdbd 00df 803e a7c1 d83d
000001f0: a732 013e bf9e a43e c32d 943e 0961 5abe
00000200: 6abb af3d 4bc4 ec3d 5a07 2cba af0f 60be
00000210: 9ac8 0f3e 70a6 a8be 0a91 a6be 8eab 80be
00000220: 7b4a 59be 4347 dc3d 45f7 793e 5c57 fc3d
00000230: 0c5a d8bd eee0 08be 2f4c 9c3d 1359 77be

cnn_base.0.bias f4 [16]
-0.27328813 0.055424687 -0.231596 0.06184709 -0.19304505 -0.3003057 0.24380505 -0.14350484
-0.31738657 0.14105223 0.32044598 -0.30186296 -0.13417643 0.30198666 0.26614475 -0.100789525
00000000: 6cec 8bbe ff04 633d 8027 6dbe 6053 7d3d
00000010: 9aad 45be abc1 99be 08a8 793e eff2 12be
00000020: 7e80 a2be ff6f 103e 7f11 a43e c88d 9abe
00000030: 8c65 09be ff9d 9a3e 2044 883e bd6a cebd

cnn_base.3.weight f4 [32, 16, 3, 3]
-0.011340934 -0.073279195 0.018676661 0.07893794 0.06032301 0.017404342 0.015061624 -0.05589665
-0.044169113 0.05878674 0.043954186 -0.041601274 0.007998982 0.07601354 0.00096383126 -0.04069292
-0.013158345 0.07349068 0.005257192 0.06031885 0.021061845 -0.06064855 -0.036676727 -0.00949535
-0.022896731 -0.00400258 -0.031871855 -0.07875385 -0.033063605 0.05962779 0.0046342593 0.02137066
-0.07887599 -0.022198657 -0.0010405608 -0.049299844 0.0524342 -0.050601985 -0.07911968 0.00058736635
0.054830544 0.08000746 0.05151257 -0.003374566 -0.008970606 -0.07161387 -0.046789393 -0.07430431
-0.08082048 0.008759174 -0.078107186 0.006625965 0.08142094 0.059372783 0.06287343 -0.0074174055
-0.07934724 0.013454081 -0.03541176 -0.023038447 -0.074409656 -0.02221275 0.026849762 0.028868841
0.0626552 -0.011609505 -0.07568807 0.05717434 -0.0033697293 -0.043601304 0.03276772 0.071560934
-0.06631656 0.078524485 -0.053123068 -0.055415116 -0.04799285 -0.0529624 -0.06658152 0.00051835895
0.014708065 -0.041148346 -0.027853025 0.05096655 -0.041561194 0.03913902 0.009144251 0.063392155
0.04690272 -0.071004055 -0.040211793 -0.0023300597 0.061234374 0.07755132 -0.058931388 -0.048947804
0.07114918 0.035462808 -0.0006878809 -0.04438192 0.04246663 0.054191984 -0.06989185 -0.052705023
-0.0007953995 -0.035200164 -0.07131482 -0.06389932 0.067610875 -0.05376244 0.066237025 0.04281144
0.051692296 0.07282126 0.052488934 0.032817744 -0.028743038 -0.04582048 0.015550621 -0.043248165
0.023841819 -0.07694557 0.045828525 -0.00762689 0.020653753 -0.071732156 -0.014801257 -0.06044885
-0.018362138 0.06925586 0.025026793 -0.045124486 -0.005663009 0.056977373 0.048685484 0.0047278553
-0.05692347 0.010087111 -0.012335342 0.055520646 -0.08216756 0.055028647 0.064458035 0.019826151
-0.060740862 -0.012473075 0.044400197 0.06170783 0.03373876 0.0005094662 -0.032274738 0.046126362
-0.030897137 -0.04662239 0.016847525 -0.027563334 0.052263297 0.046106268 -0.006231761 0.072231546
-0.008732807 0.0010746855 0.031853147 -0.069506906 0.07862373 -0.019602839 -0.0069408217 -0.0594682
-0.040569287 0.0022290158 -0.045845345 -0.0796457 -0.026905159 -0.04074203 -0.054362845 -0.02389652
-0.0009275345 0.05349338 -0.06884331 0.075859725 0.02277422 -0.06358043 0.062371753 0.019094521
-0.033582494 0.062578194 -0.021975452 0.028766003 -0.07503818 -0.061825775 -0.06812483 -0.060063142
0.043988 0.049406156 -0.0041902396 -0.023818176 -0.0050520147 0.014689517 -0.025906485 -0.043575063
-0.07797328 -0.03290135 0.04350439 -0.016110333 -0.06917515 -0.04266787 0.054700933 0.033516053
-0.041753262 -0.07483879 -0.03486485 -0.014390648 0.07189874 -0.0577762 -0.060907427 -0.031685762
0.0033548863 -0.056699134 0.0011072432 -0.029426565 -0.0489649 -0.031497274 0.04898654 -0.029886292
0.052619785 -0.04558921 0.05410089 -0.00036050464 -0.038880184 0.060516044 -0.007407581 -0.053333122
-0.013084238 -0.03105636 0.035409573 0.01865305 0.03825601 0.0074856402 0.05274648 0.038838573
-0.030709045 -0.012846771 0.06685206 -0.06657529 0.07529324 -0.04508194 0.058928397 0.078853324
0.06927904 0.06440765 0.07871659 -0.02525986 0.053830877 0.06668803 0.068382844 0.06248161
00000000: 53cf 39bc 6713 96bd ccff 983c 37aa a13d
00000010: 4315 773d 8d93 8e3c 08c5 763c e3f3 64bd
00000020: acea 34bd 5dca 703d 4e09 343d 1966 2abd
00000030: 2a0e 033c fdac 9b3d 9fa9 7c3a 9fad 26bd
00000040: 1996 57bc 4882 963d 8644 ac3b e610 773d
00000050: e489 ac3c 9d6a 78bd 563a 16bd 6292 1bbc
00000060: ed91 bbbc 1328 83bb 108c 02bd b349 a1bd
00000070: b46d 07bd 453c 743d fcda 973b 8611 af3c
00000080: bc89 a1bd f5d9 b5bc 6d63 88ba a2ee 49bd
00000090: 3ec5 563d 0744 4fbd 8009 a2bd 7df9 193a
000000a0: fe95 603d f4da a33d d8fe 523d d327 5dbb
000000b0: 73f9 12bc 4baa 92bd 3ca6 3fbd dc2c 98bd
000000c0: 3585 a5bd a382 0f3c a9f6 9fbd 9f1e d93b
000000d0: 06c0 a63d e030 733d c9c3 803d b50d f3bb
000000e0: ce80 a2bd 816e 5c3c ec0b 11bd 20bb bcbc
000000f0: 1764 98bd 83f7 b5bc 08f4 db3c 597e ec3c
00000100: 5f51 803d cb35 3ebc 5902 9bbd a42f 6a3d
00000110: add6 5cbb 4897 32bd 7237 063d 8a8e 923d
00000120: fad0 87bd 72d1 a03d 9397 59bd f6fa 62bd
00000130: 2794 44bd 1aef 58bd e45b 88bd 7be2 073a
00000140: 19fa 703c 2b8b 28bd 072c e4bc 4dc2 503d
00000150: 123c 2abd 3d50 203d c5d1 153c bfd3 813d
00000160: 111d 403d 936a 91bd 1fb5 24bd eab3 18bb
00000170: e5d0 7a3d 3ad3 9e3d 0a62 71bd 7e7d 48bd
00000180: a9b6 913d 7341 113d e852 34ba d1c9 35bd
00000190: 7df1 2d3d 6af8 5d3d 7523 8fbd 39e1 57bd
000001a0: 5b82 50ba 0c2e 10bd 810d 92bd a6dd 82bd
000001b0: 9277 8a3d 0136 5cbd 47a7 873d 0c5b 2f3d
000001c0: 4dbb 533d 5023 953d a3fe 563d e66b 063d
000001d0: 8576 ebbc 41ae 3bbd 08c8 7e3c fd24 31bd
000001e0: eb4f c33c a495 9dbd b1b6 3b3d feea f9bb
000001f0: 0f32 a93c 4fe8 92bd f980 72bc 3799 77bd
00000200: 326c 96bc 04d6 8d3d fd04 cd3c 74d4 38bd
00000210: c390 b9bb 1b61 693d 6e6a 473d 20ec 9a3b
00000220: 9628 69bd 6944 253c 2d1a 4abc 9e69 633d
00000230: 7747 a8bd b865 613d 9302 843d 746a a23c
00000240: 69cb 78bd de5b 4cbc fbdc 353d 59c1 7c3d
00000250: a731 0a3d b38d 053a 8432 04bd ffee 3c3d
00000260: fe1b fdbc 1ff7 3ebd d203 8a3c 80cc e1bc
00000270: 0a12 563d edd9 3c3d cd33 ccbb 22ee 933d
00000280: 0c14 0fbc 76dc 8c3a 7278 023d a359 8ebd
00000290: 7a05 a13d 2296 a0bc d56f e3bb ed94 73bd
000002a0: fb2b 26bd ae14 123b 54c8 3bbd 491d a3bd
000002b0: 3568 dcbc 1de1 26bd 93ab 5ebd a2c2 c3bc
000002c0: c925 73ba e01b 5b3d b9fd 8cbd 585c 9b3d
000002d0: 0091 ba3c 7536 82bd 8679 7f3d 1d6c 9c3c
000002e0: cc8d 09bd ff28 803d dd05 b4bc aea6 eb3c
000002f0: 9ead 99bd 063d 7dbd 0885 8bbd c504 76bd
00000300: c32c 343d 1c5e 4a3d 474e 89bb 561e c3bc
00000310: 5f8b a5bb 4dac 703c d639 d4bc c47b 32bd
00000320: 74b0 9fbd 91c3 06bd a931 323d d1f9 83bc
00000330: b3ab 8dbd 81c4 2ebd 160e 603d 2148 093d
00000340: 7805 2bbd 1445 99bd 72ce 0ebd c1c6 6bbc
00000350: a63f 933d bda6 6cbd 117a 79bd eec8 01bd
00000360: a7dd 5b3b 5a3d 68bd eb20 913a fb0f f1bc
00000370: 6b8f 48bd 4903 01bd 1ca6 483d 19d4 f4bc
00000380: d887 573d c0bb 3abd e598 5d3d 1d02 bdb9
00000390: d440 1fbd acdf 773d 4bbb f2bb d573 5abd
000003a0: 465f 56bc e869 febc a109 113d 48ce 983c
000003b0: 55b2 1c3d 1a4a f53b b10c 583d 3215 1f3d
000003c0: 8991 fbbc 437b 52bc bce9 883d a058 88bd
000003d0: 5833 9a3d d7a7 38bd e75e 713d da7d a13d
000003e0: 2be2 8d3d 28e8 833d 2a36 a13d c4ed cebc
000003f0: c47d 5c3d bc93 883d 4e0c 8c3d b7ec 7f3d

cnn_base.3.bias f4 [32]
0.0040426143 0.07785832 -0.025698695 -0.021704884 0.0061214515 0.07184909 -0.07360303 0.06199783
-0.016626477 -0.030703565 -0.075708024 -0.06063645 -0.019228527 0.014712776 0.071083285 0.008689327
-0.0061552986 0.046446152 0.014098644 -0.07428249 -0.07275494 -0.051501196 0.0033548048 0.015134967
0.0054585477 -0.024929732 0.018280685 -0.050068446 -0.008925627 -0.0181572 0.019147627 -0.02685057
00000000: e877 843b 2f74 9f3d 1286 d2bc 71ce b1bc
00000010: 7596 c83b 9e25 933d 2fbd 96bd 70f1 7d3d
00000020: 4034 88bc 0b86 fbbc cf0c 9bbd ed5d 78bd
00000030: 2585 9dbc db0d 713c 1d94 913d ae5d 0e3c
00000040: 63b2 c9bb 523e 3e3d 00fe 663c 6b21 98bd
00000050: 8b00 95bd ebf2 52bd 49dc 5b3b a7f8 773c
00000060: 9edd b23b 7039 ccbc 60c1 953c 9214 4dbd
00000070: cb3c 12bc 69be 94bc 7cdb 9c3c baf5 dbbc

mlp_base.0.weight f4 [32, 2]
-0.45308736 -0.69520915 0.6901077 0.19137989 -0.42780825 -0.70083874 0.70166343 0.21959756
0.3776145 0.5509541 -0.33192822 0.18090676 -0.39726856 0.24044207 -0.33773413 0.6904214
-0.123678215 -0.30704448 -0.2814811 -0.7040503 0.21545675 0.55249625 0.37844878 -0.022281678
-0.3028502 0.20327553 -0.42186302 0.12830581 0.21281426 -0.6464008 0.6202006 -0.26527423
0.6610211 -0.3230724 -0.62543654 -0.23557708 -0.026354942 0.17194472 -0.31478932 -0.21678238
-0.3356175 -0.41354772 -0.42817718 -0.1836219 0.06921131 -0.68164957 -0.3913673 -0.1664375
-0.09934501 0.5607659 0.27598298 0.5099073 -0.20738746 -0.361367 0.021061981 0.506223
-0.06303717 -0.38775802 -0.4696425 -0.37195224 -0.35808793 -0.5042644 0.5822233 -0.008501211
00000000: 11fb e7be 3af9 31bf e6aa 303f 17f9 433e
00000010: af09 dbbe 2b6a 33bf 37a0 333f 2fde 603e
00000020: b056 c13e 540b 0d3f 7ff2 a9be 9f3f 393e
00000030: c966 cbbe 7236 763e 7deb acbe 75bf 303f
00000040: 014b fdbd ef34 9dbe 4a1e 90be a43c 34bf
00000050: b2a0 5c3e 6570 0d3f 0ac4 c13e 1188 b6bc
00000060: 2e0f 9bbe 7627 503e 6efe d7be 9962 033e
00000070: fbeb 593e 867a 25bf 77c5 1e3f 06d2 87be
00000080: ae38 293f bf69 a5be 9c1c 20bf 1e3b 71be
00000090: 52e6 d7bc 4712 303e 112c a1be 33fc 5dbe
000000a0: 0fd6 abbe 87bc d3be 0a3a dbbe 6107 3cbe
000000b0: a9be 8d3d 9680 2ebf 4b61 c8be 986e 2abe
000000c0: 6675 cbbd 5b8e 0f3f a44d 8d3e 4989 023f
000000d0: 615d 54be 1805 b9be 2d8a ac3c d597 013f
000000e0: a219 81bd 3888 c6be fb74 f0be 8670 bebe
000000f0: 4d57 b7be 7917 01bf 960c 153f aa48 0bbc

mlp_base.0.bias f4 [32]
0.07066352 -0.3102821 0.6338395 0.074459225 0.32065865 0.64451313 0.4461169 -0.5025054
-0.13381413 0.37311897 -0.6269375 -0.4641705 -0.08669646 0.26837933 0.42589954 -0.29602903
0.6922006 -0.49153405 -0.49326593 0.3443868 -0.027961807 -0.16849448 0.22362892 -0.005801546
0.34387377 0.16990489 0.12165483 0.11303955 -0.35197026 -0.40343246 0.6461129 -0.625788
00000000: 09b8 903d 4cdd 9ebe 4e43 223f 147e 983d
00000010: 5f2d a43e d0fe 243f 6f69 e43e 32a4 00bf
00000020: 9206 09be 7309 bf3e fa7e 20bf c1a7 edbe
00000030: ea8d b1bd 0469 893e 810f da3e 1e91 97be
00000040: 0f34 313f 5aaa fbbe 5a8d fcbe 7753 b03e
00000050: 2910 e5bc d189 2cbe fbfe 643e e51a bebb
00000060: 3910 b03e 8cfb 2d3e 2b26 f93d 4881 e73d
00000070: 7235 b4be b38e cebe a867 253f a433 20bf

mlp_base.2.weight f4 [32, 32]
0.11762431 0.106930494 -0.04497697 -0.026239043 0.1711467 0.16227996 0.12489005 0.027443754
-0.014392693 0.0021905685 -0.122338235 -0.103385486 -0.15699019 -0.08807423 -0.096539974 0.04566508
-0.03946243 0.114686 0.028680125 -0.082940705 0.15661292 -0.1485382 -0.07023182 0.0012256592
0.022706818 0.058685094 -0.13710792 0.14334095 0.027356708 0.0080326935 -0.07785574 -0.0121756205
0.1346732 0.0061369184 0.15774532 -0.15479589 -0.12637326 0.14603928 -0.1254646 0.067392014
-0.061838698 -0.11545814 0.15330538 -0.026638234 0.15192689 -0.060936604 -0.036445238 -0.073492154
-0.076580755 -0.1523748 0.034812257 0.039140284 0.14152856 0.014853422 0.009854547 0.1191349
-0.10228638 0.092051364 0.014326249 0.030336734 -0.07065104 -0.0048531876 0.15485114 -0.1623411
-0.1509924 -0.14602391 0.106281325 0.037653144 -0.0027105913 0.028383872 0.13664742 0.053326607
0.016426152 0.051460665 -0.0744454 -0.096594825 0.055673804 0.14170739 0.124355435 0.026203802
-0.012223679 -0.026104867 0.15497261 0.117697306 -0.09271838 0.11958765 -0.040655933 -0.047838967
-0.16768812 -0.13936585 -0.092253864 0.0037067733 -0.024643073 0.095546946 0.04640262 0.057244737
-0.09596754 -0.08676174 0.037357226 0.13894477 -0.09746306 -0.0070634023 -0.12958819 0.112
-0.1505385 -0.09909204 -0.028700452 -0.0728723 -0.12845485 0.056875467 0.09258412 0.1107907
0.14942147 -0.057149004 0.10902108 0.09050476 -0.055889744 0.07503294 0.01018555 -0.011333022
-0.092366554 0.06161369 -0.13105367 -0.04944918 0.07129024 -0.04079755 0.13524398 -0.11048315
-0.042649806 0.029630765 0.17829923 -0.15911746 0.054366674 0.16331503 0.005080465 0.068817705
-0.070381 -0.10322228 0.015797393 -0.094193384 0.0054557337 0.178553 -0.12602323 -0.091135606
-0.12104036 -0.055496193 0.0388235 0.17880024 0.13559411 0.09153096 -0.059163723 0.0017524589
0.1659452 0.04455716 -0.05589849 0.16027941 -0.025361776 -0.14821489 -0.01753893 -0.03090195
-0.17465012 0.17278531 -0.11664794 0.0036919522 -0.08564058 -0.07842335 0.14903341 -0.12357859
-0.08968587 0.07508862 -0.024641486 0.010450913 0.098089054 -0.14062044 0.021638064 -0.059226416
0.12414594 0.100654475 0.15812784 -0.12746444 0.10723697 0.012925702 -0.09164678 0.16293418
0.049024258 0.14637321 0.15034729 -0.12577239 0.16641684 0.12839955 0.07686241 -0.15885316
-0.13564055 -0.13177413 -0.04529022 0.17458375 0.13283196 -0.032757055 -0.1066719 -0.09934749
-0.1744338 0.014811684 0.17128839 0.09724788 0.012092822 0.061160624 -0.09674924 0.1524542
-0.043813385 0.14736652 -0.098330244 0.03036761 0.10051109 -0.11174522 0.07427877 -0.08163153
-0.020224117 0.04613386 -0.038116153 0.093778245 -0.11440416 0.0027748328 0.13636068 0.14655314
0.10466368 0.07748621 0.05465389 -0.14806037 0.1469152 -0.12729527 -0.14953679 -0.02435289
-0.111943595 0.14261173 0.104662545 -0.060149733 0.086698905 0.04283407 -0.1497473 -0.1256396
0.051608644 0.05327635 0.16220024 -0.17624488 -0.11418607 -0.043922856 0.025219813 0.0775584
0.070988856 -0.1373385 -0.1369373 -0.03780907 0.1622814 0.07103891 -0.14991623 0.11663913
00000000: 04e5 f03d 60fe da3d c539 38bd 43f3 d6bc
00000010: 1541 2f3e b82c 263e 5bc6 ff3d b9d1 e03c
00000020: 54cf 6bbc a48f 0f3b 788c fabd c5bb d3bd
00000030: 09c2 20be 4360 b4bd c0b6 c5bd 4f0b 3b3d
00000040: 5ba3 21bd 7ee0 ea3d 95f2 ea3c d1dc a9bd
00000050: 235f 203e 661a 18be b3d5 8fbd 4ca6 a03a
00000060: a603 ba3c c85f 703d 0566 0cbe f8c7 123e
00000070: 2d1b e03c 8f9b 033c d572 9fbd 417c 47bc
00000080: c5e7 093e 3418 c93b fd87 213e d082 1ebe
00000090: fe67 01be 528b 153e cb79 00be d304 8a3d
000000a0: 934a 7dbd 5175 ecbd 16fc 1c3e 6d38 dabc
000000b0: b992 1b3e a998 79bd 9a47 15bd 0e83 96bd
000000c0: 5fd6 9cbd 2408 1cbe 4c97 0e3d 9051 203d
000000d0: ddec 103e c45b 733c f774 213c 00fd f33d
000000e0: 867b d1bd 6d85 bc3d a5b8 6a3c be84 f83c
000000f0: 7eb1 90bd 7d07 9fbb 4c91 1e3e bf3c 26be
00000100: c09d 1abe 4b87 15be 06aa d93d 2f3a 1a3d
00000110: 2da4 31bb 4b85 e83c 4ded 0b3e 006d 5a3d
00000120: 2390 863c 6bc8 523d d476 98bd 82d3 c5bd
00000130: 370a 643d be1b 113e 10ae fe3d 5ba9 d63c
00000140: d345 48bc e0d9 d5bc 24b1 1e3e 490b f13d
00000150: 22e3 bdbd 5fea f43d d686 26bd cbf2 43bd
00000160: 6fb6 2bbe ecb5 0ebe 98ef bcbd 56ed 723b
00000170: 45e0 c9bc 1eae c33d ac10 3e3d 7579 6a3d
00000180: a18a c4bd 24b0 b1bd e403 193d 8a47 0e3e
00000190: b69a c7bd 1d74 e7bb c4b2 04be 4260 e53d
000001a0: c426 1abe c4f0 cabd 361d ebbc 133e 95bd
000001b0: ab89 03be 40f6 683d be9c bd3d 3ce6 e23d
000001c0: f101 193e 1315 6abd 7246 df3d 8f5a b93d
000001d0: a5ec 64bd dfaa 993d 4be1 263c 24ae 39bc
000001e0: ad2a bdbd a35e 7c3d ef32 06be 398b 4abd
000001f0: 9e00 923d 551b 27bd 667d 0a3e fd44 e2bd
00000200: 90b1 2ebd 38bc f23c 1394 363e b0ef 22be
00000210: 97af 5e3d 0e3c 273e 087a a63b 4cf0 8c3d
00000220: ea23 90bd 3466 d3bd 8969 813c 76e8 c0bd
00000230: 03c6 b23b 99d6 363e 3c0c 01be 4ea5 babd
00000240: 02e4 f7bd fa4f 63bd 6405 1f3d 6917 373e
00000250: 2fd9 0a3e 9574 bb3d a955 72bd c3b2 e53a
00000260: 8aed 293e 9281 363d d1f5 64bd 4920 243e
00000270: 80c3 cfbc a5c5 17be cdad 8fbc 1626 fdbc
00000280: 7bd7 32be a2ee 303e 1de5 eebd aef4 713b
00000290: 5464 afbd 6c9c a0bd 379c 183e c616 fdbd
000002a0: 3aad b7bd 10c8 993d f1dc c9bc 4e3a 2b3c
000002b0: eae2 c83d cefe 0fbe 4f42 b13c 6697 72bd
000002c0: 3a40 fe3d ef23 ce3d 44ec 213e 0a86 02be
000002d0: 0e9f db3d 53c6 533c 4fb1 bbbd 38d8 263e
000002e0: a9cd 483d dce2 153e a4f4 193e 7aca 00be
000002f0: 2d69 2a3e 2c7b 033e 0a6a 9d3d 67aa 22be
00000300: 5be5 0abe ccef 06be 3d82 39bd 15c6 323e
00000310: 1a05 083e 432c 06bd cc76 dabd b276 cbbd
00000320: c69e 32be b5ac 723c 3966 2f3e e629 c73d
00000330: f920 463c 9083 7a3d 7724 c6bd f41c 1c3e
00000340: aa75 33bd 40e7 163e 5e61 c9bd 7ec5 f83c
00000350: c2d8 cd3d aeda e4bd 781f 983d 6e2e a7bd
00000360: 0cad a5bc dcf6 3c3d af1f 1cbd cf0e c03d
00000370: ba4c eabd f8d9 353b 22a2 0b3e 0712 163e
00000380: e959 d63d 17b1 9e3d c2dc 5f3d 239d 17be
00000390: f070 163e b159 02be 2c20 19be b67f c7bc
000003a0: af42 e5bd cf08 123e 5159 d63d 915f 76bd
000003b0: 328f b13d c772 2f3d 5b57 19be aba7 00be
000003c0: 9663 533d 4d38 5a3d d217 263e 8a79 34be
000003d0: 63da e9bd 74e8 33bd c899 ce3c f0d6 9e3d
000003e0: 9b62 913d 77a2 0cbe 4b39 0cbe afdd 1abd
000003f0: 182d 263e d97c 913d a483 19be 7fe0 ee3d

mlp_base.2.bias f4 [32]
-0.043615274 -0.09507846 0.09376795 0.005351994 0.0026495226 -0.0333838 -0.14030929 0.006778213
0.14741488 0.085127644 0.14898878 0.088617645 0.056942843 0.15635233 -0.12000287 -0.08819783
0.05369277 -0.024485216 -0.08228346 -0.10942368 0.16346636 0.027774135 0.07697082 0.14627032
-0.14540853 0.11989112 -0.035986096 -0.06697615 -0.11755218 -0.029949782 0.06781884 -0.019510271
00000000: eea5 32bd 7fb8 c2bd 6909 c03d c85f af3b
00000010: 9da3 2d3b 74bd 08bd 3dad 0fbe c61b de3b
00000020: edf3 163e 6757 ae3d 8490 183e 2b7d b53d
00000030: e63c 693d d31a 203e 11c4 f5bd 10a1 b4bd
00000040: f3ec 5b3d 3895 c8bc 3b84 a8bd 8619 e0bd
00000050: ba63 273e 9586 e33c e1a2 9d3d e3c7 153e
00000060: f9e5 14be 7a89 f53d 2866 13bd cb2a 89bd
00000070: 33bf f0bd 3f59 f5bc 9be4 8a3d 01d4 9fbc

actor_head.0.weight f4 [64, 1600]
0.01051174 -0.00070347014 0.01826294 -0.011695817 0.015046428 -0.020532323 0.020007761 -0.017596029
-0.0027883826 -0.0009652824 0.0034238347 0.019546462 0.0043979012 0.005302294 0.010485479 -0.013380695
0.0043696896 0.0060477573 -0.0068929098 -0.026155474 0.022281257 -0.00087529916 0.0033401265 -0.019857416
0.009503514 0.010683062 -0.0025302852 -0.00839405 -0.018753553 -0.02054221 0.018679827 0.02668791
0.0073330435 0.019370846 -0.022743817 0.024837555 -0.008022724 0.010775338 0.027267015 0.004316137
0.01723164 -0.0051381015 0.005062833 0.016133886 -0.007158247 -0.018083164 -0.0046489956 -0.025147054
0.016081363 0.024004664 0.013157619 0.009638764 -0.008937398 -0.02116066 -0.010352615 -0.016251735
0.0008466169 -0.00084913446 0.00078553316 -0.02379439 0.006771099 -0.007720978 0.01153453 0.0084157
0.00055367197 -0.02616238 0.0018631672 0.00203064 0.01252466 -0.007863269 -0.004334264 0.013540443
-0.023468694 0.0027797187 0.018246775 0.023322163 0.009782578 0.021727348 0.016732583 -0.005387431
0.021032354 0.027547996 0.0033629306 0.022112802 0.023864781 -0.0010297403 -0.016132403 0.023896215
-0.018312553 -0.024802001 0.02017918 -0.0024592727 0.0031055696 0.018993543 0.0012378289 0.016470902
0.011944047 -0.012498041 -0.013237985 -0.00039443324 -0.019216431 0.022957152 -0.0068884473 0.00042789767
0.016048884 0.0090075815 0.0062602246 -0.016386397 0.0053188237 0.018751543 0.00940294 -0.0072519016
-0.024680812 0.024537139 -0.0027377438 -0.0029399656 0.009015878 0.008630243 0.01958752 -0.013827747
-0.013800356 -0.0037614093 0.022725066 -0.0034348108 -0.010149644 -0.007413703 -0.0050833304 0.0067727715
0.02721939 0.024176916 -0.00887946 0.01563371 -0.005258593 -0.003212062 -0.01300284 -0.016601657
-0.004594671 0.0047550574 0.012952225 -0.011678953 -0.02080303 0.022098016 0.019391809 0.016927527
-0.01529838 0.022538517 -0.022800058 -0.015673852 0.0131497495 0.016113192 0.0032069634 -0.014544914
-0.009708712 0.0040289364 0.02104939 0.0014990489 -0.020886363 0.022996504 -0.024128392 -0.019278992
-0.012711986 0.018732121 0.00027993348 -0.019244557 0.0048339944 0.0055779647 -0.012883867 0.021584071
0.007536561 -0.020165913 0.021972036 -0.027683346 -0.017779462 0.02666273 0.00585808 -0.007657624
0.01647659 0.0061822804 -0.012126123 -0.013739203 -0.022281567 -0.0060132183 -0.02151085 0.008627988
-0.009057372 0.012276663 -0.016817862 0.015516823 0.015638463 0.015119627 0.010922791 -0.022064691
-0.0045816554 0.0158977 -0.021631597 -0.025193878 0.0033712455 -0.020454302 -0.011675587 0.023998024
-0.019639755 0.009264735 -0.01712382 0.020723242 0.020138217 0.016447267 -0.0018307803 0.014246148
-0.02099963 -0.008375717 -0.022252396 -0.023027776 -0.011385114 -0.010864468 -0.013119496 -0.0064151124
-0.019882185 0.0026770043 0.01970145 0.0075173164 -0.008533964 -0.0025880681 -0.02312765 -0.004055649
0.019076217 -0.0072942595 -0.0130833695 0.026284456 -0.0033619564 -0.019565431 0.019853886 0.0013524622
0.010761119 0.010223748 -0.0049720486 0.014039325 -0.019010372 0.018633898 0.016812557 -0.017615441
-0.016472572 0.0050761956 -0.01698296 0.019712595 0.0075619044 -0.024239197 0.0067784465 -0.015919056
0.010304632 0.021752324 0.022403607 0.017392818 -0.011809909 -0.012829532 0.006392836 0.015614469
00000000: 6f39 2c3c 1569 38ba 299c 953c d09f 3fbc
00000010: 4b85 763c 6733 a8bc 51e7 a33c 8c25 90bc
00000020: 4cbd 36bb 010b 7dba 6a62 603b e71f a03c
00000030: 451c 903b debe ad3b 49cb 2b3c b43a 5bbc
00000040: 9d2f 8f3b 442c c63b ebdd e1bb 0144 d6bc
00000050: 2f87 b63c 5574 65ba 06e6 5a3b 05ac a2bc
00000060: a0b4 1b3c 0208 2f3c 24d3 25bb 3387 09bc
00000070: 0da1 99bc 2348 a8bc 7006 993c 9ba0 da3c
00000080: 074a f03b 9caf 9e3c 3e51 babc 2178 cb3c
00000090: be71 03bc 0b8b 303c 135f df3c 626e 8d3b
000000a0: 5e29 8d3c 855d a8bb 1fe6 a53b 362b 843c
000000b0: ba8f eabb 2523 94bc 9a56 98bb 3201 cebc
000000c0: 10bd 833c 6ea5 c43c 0e93 573c e8eb 1d3c
000000d0: 2a6e 12bc 1f59 adbc 049e 29bc 5c22 85bc
000000e0: 80ef 5d3a 7398 5eba 3dec 4d3a 74ec c2bc
000000f0: 18e0 dd3b 4200 fdbb 53fb 3c3c 01e2 093c
00000100: 4c24 113a 7d52 d6bc 8435 f43a 7c14 053b
00000110: 3b34 4d3c f1d4 00bc 7106 8ebb bcd8 5d3c
00000120: 6b41 c0bc f12b 363b 437a 953c 1f0e bf3c
00000130: 1b47 203c 8dfd b13c c512 893c 0c89 b0bb
00000140: 0b4c ac3c 56ac e13c 9d64 5c3b e825 b53c
00000150: 1380 c33c 5af8 86ba 1a28 84bc ffc1 c33c
00000160: 3504 96bc 912d cbbc cf4e a53c c02b 21bb
00000170: d086 4b3b 5998 9b3c a53e a23a fced 863c
00000180: f7b0 433c 95c4 4cbc 22e4 58bc efcb ceb9
00000190: c76b 9dbc a310 bc3c 7cb8 e1bb 7457 e039
000001a0: f378 833c 8994 133c 9222 cd3b c43c 86bc
000001b0: 8749 ae3b d69c 993c ca0e 1a3c 5ca1 edbb
000001c0: 6a2f cabc 1c02 c93c b86b 33bb 70ac 40bb
000001d0: 55b7 133c dd65 0d3c 0276 a03c c68d 62bc
000001e0: e31a 62bc fa81 76bb eb29 ba3c 901a 61bb
000001f0: b14a 26bc a6ee f2bb 1192 a6bb 20ee dd3b
00000200: 33fb de3c ab0e c63c 287b 11bc 4412 803c
00000210: 4650 acbb 7581 52bb dd09 55bc 3300 88bc
00000220: e58e 96bb 50d0 9b3b 9235 543c 1459 3fbc
00000230: 1e6b aabc e606 b53c 92db 9e3c 99ab 8a3c
00000240: 0ea6 7abc b2a2 b83c 30c7 babc 7366 80bc
00000250: 0c72 573c d0ff 833c eb2b 523b ca4d 6ebc
00000260: 4a11 1fbc 2b05 843b c56f ac3c bc7b c43a
00000270: e119 abbc 2a63 bc3c e8a8 c5bc faee 9dbc
00000280: ef45 50bc 1b74 993c 09c4 9239 c3a6 9dbc
00000290: 7c66 9e3b 5cc7 b63b db16 53bc 14d1 b03c
000002a0: 42f5 f63b fc32 a5bc b3fe b33c 2fc8 e2bc
000002b0: 3ca6 91bc cc6b da3c 23f5 bf3b ceec fabb
000002c0: eaf9 863c ba94 ca3b a5ac 46bc 651a 61bc
000002d0: d587 b6bc 880a c5bb 8637 b0bc 685c 0d3c
000002e0: 5f65 14bc 0f24 493c 9dc5 89bc 463a 7e3c
000002f0: 3c1c 803c 50b8 773c 82f5 323c 03c1 b4bc
00000300: b621 96bb e53b 823c bf34 b1bc 6463 cebc
00000310: 1df0 5c3b c88f a7bc f64a 3fbc 8197 c43c
00000320: 8de3 a0bc 1dcb 173c 4147 8cbc cac3 a93c
00000330: e7f8 a43c 6bbc 863c cbf6 efba ad68 693c
00000340: 6b07 acbc 4e3a 09bc a84a b6bc bfa4 bcbc
00000350: a188 3abc e200 32bc 28f3 56bc dd35 d2bb
00000360: f7df a2bc ae70 2f3b ef64 a13c d253 f63b
00000370: 0ad2 0bbc 949c 29bb 3376 bdbc 40e5 84bb
00000380: ba45 9c3c af04 efbb a15b 56bc 8052 d73c
00000390: 4554 5cbb af47 a0bc 9ea4 a23c 1a45 b13a
000003a0: 684f 303c 8281 273c 91ec a2bb 3205 663c
000003b0: a4bb 9bbc 1ea6 983c 7dba 893c 424e 90bc
000003c0: 7df1 86bc 3756 a63b d91f 8bbc 4f7c a13c
000003d0: dac9 f73b 4891 c6bc bb1d de3b ae68 82bc
000003e0: c2d4 283c ee31 b23c c587 b73c 627b 8e3c
000003f0: 597e 41bc f532 52bc ff7a d13b d4d3 7f3c

actor_head.0.bias f4 [64]
-0.0014020662 0.0074352818 -0.0021610702 0.018706374 -0.0102416165 -0.023163004 0.0030880838 -0.0023992877
0.0057496023 -0.00071837904 -0.021973854 -0.0076592714 0.011062479 -0.015972491 -0.004841122 0.013351267
0.016866146 0.013493107 0.006069184 -0.002377233 0.013600448 -0.024560371 0.010623426 0.019309117
-0.013317798 -0.017983075 0.0069578597 -0.012417199 0.0004070173 -0.0046138726 0.020638058 0.0055816486
-0.004820917 -0.009017351 0.016222 -0.004158486 0.0008575408 -0.001673909 -0.0120599 0.021176156
-0.009914719 -0.022282396 -0.0038803222 -0.021470416 -0.018642304 -0.010433948 -0.013044268 0.005633049
-0.015388044 0.021341898 -0.00021617892 0.008014656 -0.015244542 0.009475322 -0.0041467072 0.023242194
0.014606578 -0.0036667257 -0.025066568 0.013723548 -0.012806187 -0.021344353 0.0033934275 0.015876664
00000000: 89c5 b7ba aaa3 f33b bea0 0dbb 1c3e 993c
00000010: 74cc 27bc 57c0 bdbc 7361 4a3b 5e3d 1dbb
00000020: 2967 bc3b 9a51 3cba 8302 b4bc a0fa fabb
00000030: 663f 353c bed8 82bc 46a2 9ebb 46bf 5a3c
00000040: df2a 8a3c 3112 5d3c 01e0 c63b 5acb 1bbb
00000050: 6ad4 5e3c d532 c9bc e10d 2e3c 272e 9e3c
00000060: e532 5abc 3e51 93bc c2fe e33b 8271 4bbc
00000070: f064 d539 f82f 97bb 2511 a93c 43e6 b63b
00000080: c8f8 9dbb 83bd 13bc 00e4 843c e943 88bb
00000090: 97cc 603a 1167 dbba e396 45bc 9e79 ad3c
000000a0: 5871 22bc 9289 b6bc 014d 7ebb bae2 afbc
000000b0: bfb7 98bc 26f3 2abc a0b7 55bc 7195 b83b
000000c0: 221e 7cbc 34d5 ae3c 16ae 62b9 e74f 033c
000000d0: 3ec4 79bc 623e 1b3c 1ae1 87bb 6a66 be3c
000000e0: 6e50 6f3c 734d 70bb 6758 cdbc bbd8 603c
000000f0: 0bd1 51bc 5ada aebc 4464 5e3b c70f 823c

actor_head.2.weight f4 [2, 64]
0.108071595 -0.11661976 0.097090654 -0.014822584 0.10098174 0.030999225 0.07851087 0.08607202
-0.034554183 0.10298607 -0.083859175 0.089430496 0.03554751 0.055439863 0.11559079 -0.008981925
-0.009118422 -0.06925458 0.082405545 -0.10820742 0.062446773 -0.00014035821 0.055689335 0.03694616
0.060934458 0.008977667 -0.08090329 0.0036187598 0.06990825 0.12505472 0.030778373 -0.012229769
-0.093811125 -0.041931864 0.120604366 -0.012324683 -0.011056066 -0.09624264 -0.0035522904 0.007856922
0.023546496 -0.040225822 0.105355024 0.0044954163 0.09868134 0.07045238 0.07527844 -0.007566875
-0.04759224 0.047946054 0.10306284 0.080420986 0.025412371 -0.10262319 -0.038632732 -0.08585833
0.077460594 0.021389917 0.015657695 -0.08906712 -0.12645023 -0.099410936 0.12700155 0.07473079
-0.05654604 -0.0406845 -0.058837526 -0.07585585 -0.095054746 0.099007174 -0.07846593 -0.08754477
-0.014335516 -0.057296857 -0.076672465 0.11259121 -0.08028896 -0.0032435255 0.020948807 0.049125362
-0.04710835 0.007926839 -0.109492816 0.12669538 0.0038234852 -0.017162846 0.12029241 0.0028237489
-0.0008780723 -0.10466218 -0.097677074 -0.09958787 -0.023392184 0.08189224 -0.03193439 -0.0121510085
0.108595476 -0.114112884 -0.08028507 -0.0345053 0.02985067 -0.055422716 -0.088444814 0.07075977
-0.048533987 -0.020594873 0.12669243 -0.09918672 -0.10779143 0.12116205 -0.10210837 -0.031852957
-0.114090316 -0.04549288 0.04549031 -0.008966111 0.10321558 -0.091879144 0.05756726 -0.040571515
-0.0025523629 -0.121994525 -0.10836783 -0.02361769 -0.069543034 -0.10029087 -0.048386134 -0.029995529
00000000: a454 dd3d 57d6 eebd 77d7 c63d 6cda 72bc
00000010: 84cf ce3d 16f2 fd3c 4fca a03d 8746 b03d
00000020: b088 0dbd 5cea d23d 5cbe abbd 5627 b73d
00000030: 449a 113d e914 633d ddba ec3d ed28 13bc
00000040: 6f65 15bc 58d5 8dbd 3dc4 a83d da9b ddbd
00000050: 30c8 7f3d 1f2d 13b9 801a 643d db54 173d
00000060: 6996 793d 1117 133c a0b0 a5bd b728 6d3b
00000070: 0e2c 8f3d 580e 003e ed22 fc3c 5e5f 48bc
00000080: 0c20 c0bd bfc0 2bbd 6cff f63d 78ed 49bc
00000090: 8024 35bc dc1a c5bd 8bcd 68bb 52ba 003c
000000a0: 95e4 c03c d5c3 24bd 60c4 d73d 494e 933b
000000b0: 7119 ca3d 5649 903d 952b 9a3d 8cf3 f7bb
000000c0: 15f0 42bd 1563 443d 9c12 d33d c2b3 a43d
000000d0: 9b2d d03c 1b2c d2bd 5b3d 1ebd 7ed6 afbd
000000e0: a9a3 9e3d e839 af3c 9144 803c d268 b6bd
000000f0: 2b7c 01be f697 cbbd b20c 023e 750c 993d
00000100: d29c 67bd caa4 26bd 9eff 70bd 505a 9bbd
00000110: 10ac c2bd 46c4 ca3d bfb2 a0bd ac4a b3bd
00000120: 83df 6abc 1cb0 6abd 7406 9dbd 3896 e63d
00000130: 8a6e a4bd 5491 54bb d59c ab3c ad37 493d
00000140: aff4 40bd 93df 013c c53d e0bd 6fbc 013e
00000150: 7093 7a3b 1999 8cbc de5b f63d a50e 393b
00000160: 6f2e 66ba 2059 d6bd eb0a c8bd baf4 cbbd
00000170: f7a0 bfbc 1eb7 a73d a3cd 02bd 0615 47bc
00000180: 4e67 de3d 04b4 e9bd 806c a4bd 6e55 0dbd
00000190: 6489 f43c ee02 63bd 8e22 b5bd 80ea 903d
000001a0: 93cb 46bd 94b6 a8bc a9bb 013e 6822 cbbd
000001b0: c1c1 dcbd cf23 f83d 311e d1bd 3f78 02bd
000001c0: 2fa8 e9bd be56 3abd 0c54 3a3d 98e6 12bc
000001d0: b162 d33d 222b bcbd a6cb 6b3d 512e 26bd
000001e0: 8b45 27bb 44d8 f9bd f4ef ddbd e379 c1bc
000001f0: 946c 8ebd 4d65 cdbd 8a30 46bd 2fb9 f5bc

actor_head.2.bias f4 [2]
-0.012936862 0.007325845
00000000: 22f5 53bc a40d f03b

critic_head.0.weight f4 [64, 1600]
-0.027213035 -0.009115822 -0.014544567 0.014852178 0.0005735029 0.001729678 -0.025204001 -0.021536691
-0.009304074 -0.027140137 -0.032787155 0.0068375645 0.019089831 -0.0009806961 -0.021869292 0.012114999
-0.061663274 -0.0318773 0.004423641 -0.025470901 -0.009187383 -0.01091707 -0.0007693261 0.024289306
0.0042961664 -0.005024351 -0.042781945 -0.003825125 -0.014623321 -0.046613205 -0.0041826507 0.01771941
0.0054753814 -0.020880135 0.02276337 0.023348186 -0.032215744 -0.024170272 -0.018721236 0.0031711676
-0.045156978 0.009797526 0.01078327 -0.02451599 0.0046500824 -0.0025617594 -0.012006602 0.01828802
-0.0067168833 -0.027844789 -0.021467682 0.0049341884 -0.0071594636 0.0007477846 -0.022119269 -0.0014698536
-0.0062882546 -0.016819034 0.0012163477 0.0070104827 -0.020159718 -0.010244425 -0.00544052 0.015998181
-0.0021235263 -0.0055483473 -0.010979251 -0.014651566 -0.0008064432 0.0062707625 0.009185466 0.0014008114
0.011120705 0.0002081366 -0.009707767 -0.003481383 0.007981079 -0.008556371 0.0132116005 -0.015965939
-0.013401627 -0.002726224 0.008522813 0.016633723 0.004317742 -0.004431553 0.005400351 0.013023083
0.00974325 0.010477232 -0.00018547941 0.008930689 0.006025053 0.009211263 -0.010195654 -0.01622744
-0.018445155 -0.030691389 -0.026467353 0.017746357 0.012186068 0.0167895 0.004362471 -0.004248724
0.005043921 -0.010030086 -0.007038414 0.012028204 0.016855154 -0.003170023 -0.013384103 -0.008910215
-0.019999176 -0.0183543 -0.021291848 0.004932525 0.010023834 0.008922396 -0.007344373 -0.00887554
-0.019515298 -0.016670534 0.00601506 0.016113304 0.008088648 -0.0065084393 -0.021060653 0.01009847
-0.027824348 0.0071961447 -0.017485859 0.015268259 -0.0046318285 0.002071854 -0.010722269 -0.010904443
-0.0029887913 -0.028036194 -0.002130023 -0.014088308 -0.018151052 -0.0068462454 -0.017888695 0.0031468382
-0.007988851 0.006798204 0.0026737936 0.0059377966 -0.02596445 -0.0065422244 -0.012793527 -0.0024957412
-0.028357178 0.008013578 -0.014747713 0.006517478 -0.00057780766 0.016150553 0.009438184 -0.014900737
-0.008546083 -0.027708674 -0.014254201 0.0051112943 0.00929716 -0.026548805 -0.019161535 0.0142356185
0.017372115 0.009543351 -0.02013981 -0.02634531 0.011632612 -0.01167329 -0.00035027 -0.012225316
-0.012772895 0.013382345 0.011323215 -0.011035305 -0.011826281 0.012117339 -0.019913843 -0.017052324
-0.023830114 -0.025259502 -0.0005017675 0.0022566111 0.014237064 -0.0062990254 0.009359061 0.008559028
0.0106625175 -0.010580741 0.0004662114 0.0019145363 0.012171669 -0.012564535 -0.027337868 -0.027504625
0.010004409 0.0018077957 -0.008129526 -0.00653147 -0.0077692233 -0.023007892 0.015000317 0.0060562966
0.009208854 0.015094229 -0.007621302 -0.017504293 0.016915375 -0.018705446 -0.019164257 -0.011923898
0.014894662 0.012266648 -0.030765548 0.0024039154 -0.004928467 0.01566887 -0.023297299 -0.016722975
-0.0032262758 0.0011724033 0.0072250767 -0.0019910482 -0.012352624 0.0046068695 -0.008763768 -0.011248473
0.0031234699 0.00781404 -0.03167537 -0.007483298 0.0038384886 -0.024692604 0.013592317 -0.003699686
-0.027678363 0.010593759 0.017053165 -0.012530099 -0.00017651293 -0.030259153 0.0027287991 0.003490827
0.0020144144 -0.02662378 0.0004044869 0.0046054153 0.012708741 -0.030499484 -0.0008290872 0.017567059
00000000: dfed debc 875a 15bc 564c 6ebc 8d56 733c
00000010: 2157 163a 5db6 e23a 9f78 cebc b76d b0bc
00000020: 1d70 18bc fe54 debc d34b 06bd a60d e03b
00000030: 4762 9c3c b38a 80ba 3b27 b3bc fd7d 463c
00000040: a192 7cbd c691 02bd 31f4 903b 5aa8 d0bc
00000050: ad86 16bc 83dd 32bc 9aac 49ba 5efa c63c
00000060: dbc6 8c3b 50a3 a4bb 1f3c 2fbd f3ae 7abb
00000070: a796 6fbc 7ded 3ebd 9e0e 89bb 4c28 913c
00000080: d46a b33b d10c abbc 3f7a ba3c b244 bf3c
00000090: a8f4 03bd bc00 c6bc 475d 99bc 5dd3 4f3b
000000a0: 86f6 38bd cd85 203c 50ac 303c c2d5 c8bc
000000b0: b85f 983b 31e3 27bb 57b7 44bc c2d0 953c
000000c0: 4d19 dcbb c11a e4bc fedc afbc f9ae a13b
000000d0: ef99 eabb fa06 443a 7833 b5bc 1aa8 c0ba
000000e0: b40d cebb 12c8 89bc db6d 9f3a 31b8 e53b
000000f0: fe25 a5bc 3cd8 27bc 6446 b2bb 9e0e 833c
00000100: dc2a 0bbb e9ce b5bb 51e2 33bc 1f0d 70bc
00000110: 7d67 53ba f87a cd3b a37e 163c 6e9b b73a
00000120: 9e33 363c 3e3f 5a39 530d 1fbc ea27 64bb
00000130: 12c3 023c 0530 0cbc 7875 583c 00cb 82bc
00000140: 7f92 5bbc 73aa 32bb 45a3 0b3c 7243 883c
00000150: d87b 8d3b 9036 91bb 6df5 b03b c55e 553c
00000160: 27a2 1f3c b2a8 2b3c 407d 42b9 0652 123c
00000170: cf6d c53b d6ea 163c ac0b 27bc 69ef 84bc
00000180: 4b1a 97bc 826c fbbc 10d2 d8bc cf60 913c
00000190: 13a8 473c 228a 893c 0ff3 8e3b e138 8bbb
000001a0: 7a47 a53b 3b55 24bc 7fa2 e6bb f211 453c
000001b0: d213 8a3c 29c0 4fbb ff48 5bbc 27fc 11bc
000001c0: 50d5 a3bc c25b 96bc 3e6c aebc 05a1 a13b
000001d0: 023b 243c 3e2f 123c 11a9 f0bb b76a 11bc
000001e0: 8cde 9fbc a590 88bc fb19 c53b 0c00 843c
000001f0: 4086 043c bf44 d5bb 6487 acbc 0e74 253c
00000200: e3ef e3bc a3cd eb3b 813e 8fbc b827 7a3c
00000210: 98c6 97bb f1c7 073b 75ac 2fbc 8da8 32bc
00000220: 99df 43bb 29ac e5bc db97 0bbb a6d2 66bc
00000230: 84b1 94bc 7856 e0bb 508b 92bc 2f3b 4e3b
00000240: abe3 02bc 78c3 de3b d03a 2f3b d991 c23b
00000250: 66b3 d4bc 2860 d6bb f19b 51bc 978f 23bb
00000260: 504d e8bc 624b 033c 64a0 71bc 9190 d53b
00000270: 0478 17ba 2a4e 843c 9da2 1a3c 3922 74bc
00000280: df04 0cbc 4dfd e2bc 748a 69bc a57c a73b
00000290: 1e53 183c e17c d9bc a7f8 9cbc 833c 693c
000002a0: f74f 8e3c b75b 1c3c 3efc a4bc 1fd2 d7bc
000002b0: b696 3e3c 5441 3fbc 72a4 b7b9 b14c 48bc
000002c0: 6845 51bc a041 5b3c 0285 393c 6dcd 34bc
000002d0: 05c3 41bc ce87 463c 5b22 a3bc 51b1 8bbc
000002e0: 5f37 c3bc 04ed cebc 0c89 03ba a7e3 133b
000002f0: 9342 693c 0e68 cebb bf56 193c 2a3b 0c3c
00000300: d7b1 2e3c d85a 2dbc d66d f439 2ef1 fa3a
00000310: ae6b 473c 7bdb 4dbc aaf3 dfbc 6151 e1bc
00000320: 88e9 233c 8ff3 ec3a b431 05bc f105 d6bb
00000330: f894 febb 0c7b bcbc e4c3 753c e673 c63b
00000340: bce0 163c c94d 773c 1dbc f9bb 2a65 8fbc
00000350: 1d92 8a3c 2a3c 99bc 5cfe 9cbc 745c 43bc
00000360: be08 743c 0dfa 483c 0808 fcbc 028b 1d3b
00000370: fa7e a1bb 015c 803c fad9 bebc 9ffe 88bc
00000380: ed6f 53bb 54ab 993a 56c0 ec3b 3f7c 02bb
00000390: a962 4abc 39f5 963b e895 0fbc 844b 38bc
000003a0: 21b3 4c3b 7606 003c 08be 01bd 7436 f5bb
000003b0: 278f 7b3b 2548 cabc 4fb2 5e3c 6e76 72bb
000003c0: bcbd e2bc 7291 2d3c 14b3 8b3c 0b4b 4dbc
000003d0: 5416 39b9 0be2 f7bc a7d5 323b 5cc6 643b
000003e0: 4404 043b 1d1a dabc 5011 d439 06e9 963b
000003f0: 5338 503c 0eda f9bc 1a57 59ba cbe8 8f3c

critic_head.0.bias f4 [64]
-0.0207991 0.017726516 0.0069370894 0.01147605 0.00063039415 -0.007942758 -0.012765872 -0.024732681
-0.010175428 0.0005290825 0.01599909 -0.020044602 -0.02025259 -0.0003385908 -0.01749753 8.488045e-06
0.018481541 0.01113176 -0.025491092 0.023191337 0.022851083 0.0030978988 -0.0034464325 0.0043043727
-0.0060822833 -0.015005241 0.0056588557 0.013274021 -0.017213892 -0.021173656 -0.0034583188 -0.0019871963
-0.013728571 -0.026156485 -0.010039352 0.01031906 -0.027534882 0.006846831 -0.027038151 -0.006360871
0.01857104 -0.008900142 -0.020705841 -0.012053883 -0.018047523 0.01343737 -0.015085065 -0.017692028
0.029268017 -0.0048661376 0.04150267 -0.0044311006 -0.010034744 -0.019743968 -0.02056461 0.002074468
-0.027627638 -0.0048763608 0.008030689 -0.024533905 0.0005523346 -0.009211999 -0.035917766 0.09815604
00000000: e062 aabc 3337 913c 8650 e33b 0b06 3c3c
00000010: 0941 253a 5722 02bc f327 51bc 319c cabc
00000020: d7b6 26bc 20b2 0a3a 8610 833c 9434 a4bc
00000030: c2e8 a5bc e384 b1b9 fb56 8fbc e067 0e37
00000040: 9a66 973c fc61 363c b2d2 d0bc c2fb bd3c
00000050: 3232 bb3c 1e06 4b3b 8bdd 61bb b20b 8d3b
00000060: e44d c7bb 8bd8 75bc ec6d b93b 487b 593c
00000070: 2604 8dbc 6074 adbc f6a4 62bb 9f3b 02bb
00000080: cded 60bc 2046 d6bc 187c 24bc 4611 293c
00000090: d590 e1bc 625b e03b 1d7f ddbc da6e d0bb
000000a0: 4b22 983c e7d1 11bc 4c9f a9bc a67d 45bc
000000b0: 66d8 93bc 6a28 5c3c 5927 77bc dfee 90bc
000000c0: 7bc3 ef3c 1f74 9fbb b4fe 293d c432 91bb
000000d0: c468 24bc 1abe a1bc 1d77 a8bc ccf3 073b
000000e0: 5b53 e2bc e1c9 9fbb 2793 033c 54fb c8bc
000000f0: 8cca 103a eded 16bc 821e 13bd 0906 c93d

critic_head.2.weight f4 [1, 64]
-0.11830419 -0.016043553 -0.0029769063 0.07314014 -0.00062715914 -0.11708195 -0.12091659 -0.001393776
-0.018336551 0.013122011 -0.00057804986 0.059308626 -0.038292985 0.014430589 0.07194366 -0.03461611
-0.08328985 0.009323446 -0.06873927 0.107548505 0.058275897 -0.010381012 -0.047123943 0.06675361
0.06347911 0.025899228 0.037942756 -0.10226845 0.06207596 -0.018232776 -0.105544396 0.06363082
-0.038882583 0.020643946 0.1050341 -0.0024073543 -0.10504558 -0.037392877 -0.06331136 -0.019770492
0.03439144 0.09316775 0.022706386 0.06132928 -0.022259817 0.05804533 -0.058530312 0.07257887
-0.10403693 -0.015321356 -0.06538553 -0.06211144 -0.11692363 0.06328137 0.10471734 -0.011075675
-0.10658087 -0.0958675 0.10321978 0.11205062 0.06662396 0.08645837 -0.036080945 -0.0551725
00000000: 7849 f2bd c56d 83bc 3318 43bb 7fca 953d
00000010: f067 24ba a9c8 efbd 1ea3 f7bd 5daf b6ba
00000020: 8936 96bc b4fd 563c 4588 17ba 9aed 723d
00000030: 1bd9 1cbd 476e 6c3c 3357 933d 9fc9 0dbd
00000040: de93 aabd 5ec1 183c 2dc7 8cbd 6442 dc3d
00000050: b5b2 6e3d 1f15 2abc 0905 41bd 1eb6 883d
00000060: 5601 823d 9e2a d43c dd69 1b3d 1f72 d1bd
00000070: 5d43 7e3d e75c 95bc a927 d8bd e050 823d
00000080: 5843 1fbd 7e1d a93c 1e1c d73d b4c4 1dbb
00000090: 2322 d7bd 4629 19bd 63a9 81bd baf5 a1bc
000000a0: 0ade 0c3d bcce be3d be02 ba3c 6934 7b3d
000000b0: 385a b6bc f1c0 6d3d 7bbd 6fbd 3ba4 943d
000000c0: 5011 d5bd 6d06 7bbc d9e8 85bd 9168 7ebd
000000d0: a875 efbd aa99 813d 0b76 d63d bf76 35bc
000000e0: 1247 dabd 2e56 c4bd e464 d33d cc7a e53d
000000f0: 2572 883d 1611 b13d 9dc9 13bd 8ffc 61bd
