project_files/runs/Sep09_14-17-57_kiveli.ics.forth.gr/ppo_policy_camera_cnn_whole_circle.pth (torch, 851205 bytes, 15 tensors)

cnn_base.0.weight f4 [16, 1, 3, 3]
0.2625554 0.13700034 -0.23674755 0.0659632 -0.16568696 0.12937954 -0.060313154 0.22342312
0.23449932 0.18910944 -0.040554225 -0.33249348 -0.027363637 0.05928265 0.045921195 0.019053772
0.25358754 0.2509622 -0.019798975 -0.21572211 0.061991166 0.30024993 0.06412281 -0.2751677
-0.3100786 -0.24347775 -0.16608946 0.24756093 -0.038400486 0.04546143 0.13657318 -0.0361358
0.27605194 -0.23116662 0.18953995 0.076158784 -0.08037535 0.25807023 0.0951028 -0.20776428
-0.022637315 -0.25768188 0.19150475 -0.095851965 0.24990903 -0.22876051 -0.14123048 0.0861867
-0.018634887 -0.1286625 0.19696166 -0.32863668 0.09414793 0.08206717 -0.25994918 -0.2534164
-0.29750365 0.027455134 0.0077806655 0.24285868 -0.16884889 -0.013723135 0.097176984 0.09660626
-0.18889748 0.12931623 0.21479587 -0.053269673 0.077734984 0.14244424 0.17312095 -0.1645563
-0.23731697 -0.026458386 -0.2190737 0.28147098 0.018853 -0.32979158 0.25738016 0.0869995
0.23382834 -0.22576079 -0.16379505 -0.31904575 -0.049917255 -0.1963953 0.07401701 0.14480495
0.24697322 0.05474555 0.27546102 0.19475022 -0.078544736 -0.24761061 0.18704067 0.014592752
-0.092121005 -0.09839588 -0.078370444 0.039383426 0.08736082 0.01383712 0.19507025 0.26064238
-0.13628721 0.22333862 0.08520328 0.19589725 0.24613768 0.1643326 -0.0760014 0.055685498
0.23000385 -0.23029613 -0.2169199 -0.29031086 0.2870098 0.29845336 -0.32135248 -0.29745287
-0.25263503 0.29815072 -0.16130275 0.059267335 -0.27234182 0.26759055 0.30359808 -0.036925483
0.04465817 0.19589725 -0.092377774 -0.23929194 -0.31438667 -0.23743555 -0.20001346 -0.0204017
-0.033836886 -0.14450666 -0.05874004 0.25021064 -0.03070534 0.054698322 0.05815702 -0.2523334
00000000: a96d 863e d149 0c3e f36d 72be b717 873d
00000010: d8a9 29be 127c 043e ed0a 77bd 08c9 643e
00000020: 9720 703e e8a5 413e 301c 26bd 963c aabe
00000030: b529 e0bc 5dd2 723d dd17 3c3d a816 9c3c
00000040: 3ad6 813e 1e7e 803e 7631 a2bc 42e6 5cbe
00000050: 73ea 7d3d 5cba 993e d252 833d c8e2 8cbe
00000060: 9fc2 9ebe 3b52 79be 5b13 2abe 9d80 7d3e
00000070: d449 1dbd c435 3a3d d7d9 0b3e 2203 14bd
00000080: ae56 8d3e f1b6 6cbe c316 423e 23f9 9b3d
00000090: d59b a4bd c821 843e 42c5 c23d 29c0 54be
000000a0: e471 b9bc e1ee 83be d219 443e 094e c4bd
000000b0: 27e8 7f3e 3240 6abe b99e 10be a782 b03d
000000c0: 31a8 98bc 1ac0 03be 51b0 493e 1143 a8be
000000d0: a1d0 c03d d512 a83d 0f18 85be cbbf 81be
000000e0: 6652 98be 97e9 e03c f4f4 fe3b f2af 783e
000000f0: b9e6 2cbe 00d7 60bc ba04 c73d 81d9 c53d
00000100: 576e 41be 796b 043e 73f3 5b3e 4d31 5abd
00000110: 8533 9f3d e7dc 113e 9e46 313e 7281 28be
00000120: 3803 73be 42bf d8bc db54 60be f71c 903e
00000130: 9b71 9a3c 71da a8be 55c7 833e cb2c b23d
00000140: b270 6f3e d62d 67be e4b9 27be f759 a3be
00000150: 0976 4cbd d91b 49be 3b96 973d c047 143e
00000160: 8ce6 7c3e df3c 603d 3a09 8d3e 9a6c 473e
00000170: 10dc a0bd a38d 7dbe 9787 3f3e 7016 6f3c
00000180: f0a9 bcbd c783 c9bd af80 a0bd 8450 213d
00000190: 3bea b23d 16b5 623c 7fc0 473e eb72 853e
000001a0: e08e 0bbe e1b2 643e 0f7f ae3d 4a99 483e
000001b0: 840b 7c3e ce46 283e 9fa6 9bbd 7a16 643d
000001c0: 2186 6b3e c0d2 6bbe 4020 5ebe a0a3 94be
000001d0: f3f2 923e e1ce 983e 5088 a4be be4b 98be
000001e0: 6159 81be 36a7 983e 8c2c 25be 4ec2 723d
000001f0: 6370 8bbe a101 893e 3571 9b3e 2d3f 17bd
00000200: 7ceb 363d 4a99 483e 8f30 bdbd f208 75be
00000210: 4af7 a0be 4e22 73be 54d0 4cbe 7721 a7bc
00000220: 8c98 0abd 8ef9 13be 6599 70bd 9c1b 803e
00000230: c489 fbbc 590b 603d 0e36 6e3d d831 81be

cnn_base.0.bias f4 [16]
0.22357601 -0.027402887 0.30833924 0.03556783 -0.29714644 0.05958322 0.005582884 0.16548695
-0.022824593 -0.07006831 0.0215069 -0.12532659 0.0736128 -0.09445028 0.2906557 0.17025174
00000000: 1cf1 643e 057c e0bc a4de 9d3e 93af 113d
00000010: 9423 98be 890d 743d a0f0 b63b 6975 293e
00000020: a4fa babc f97f 8fbd 3d2f b03c 9d55 00be
00000030: 4fc2 963d 266f c1bd d3d0 943e 7956 2e3e

cnn_base.3.weight f4 [32, 16, 3, 3]
-0.060180075 -0.06263205 -0.06491793 0.06285872 0.027343929 0.01740909 0.028929817 0.08021468
0.00656577 0.0006982437 0.042729642 -0.06756048 0.018042294 -0.04126619 0.04958723 0.009788078
-0.015988603 -0.062664285 -0.05813091 0.06812472 -0.0772401 -0.07462526 0.026563605 0.0703958
-0.016235344 0.010214372 -0.0034833134 0.042042438 0.079487376 -0.060318507 0.07089686 -0.033220008
0.022343723 0.040273517 0.02482106 -0.014281822 0.0016163798 -0.015977459 -0.05861478 0.026518557
0.045550257 -0.07849154 0.04476619 0.024999369 0.01357084 -0.07017895 -0.06853117 0.033282302
0.020325031 -0.05997455 0.0066547543 0.069744654 0.031651117 -0.023545137 -0.0688 0.016730856
0.057807274 -0.060693827 0.039083835 0.059757978 0.0032930083 -0.03254653 -0.08426424 0.0366304
0.043334123 -0.012411766 0.006157125 0.05824863 -0.051202204 0.023640277 0.01604257 0.047607172
0.058241367 0.07081491 0.006956918 -0.060402364 0.0057980875 -0.039503884 -0.044357 0.009748918
0.011047355 -0.04842354 4.4824505e-05 0.0013416016 0.05725312 0.07138932 -0.048984367 -0.03759632
0.018109774 -0.056932654 0.07913796 -0.020441586 0.00088050513 -0.04198798 0.010215439 0.03321457
-0.0024284695 0.028373485 -0.062616795 -0.0069758375 0.06748897 -0.020475814 -0.02322581 -0.0011408395
0.024404986 -0.029327253 0.049053602 -0.06798584 -0.07966689 0.03904427 -0.055820014 0.06938147
0.08095367 0.07069108 -0.006005563 0.06795143 -0.082499854 0.05561076 0.07089587 -0.0834532
-0.067564145 0.06177871 -0.009871804 0.042361654 -0.04266943 -0.017154206 0.01028549 -0.061310314
-0.05396395 0.008036365 0.022024238 -0.08342968 -0.078431346 -0.054781403 -0.042463828 0.071410276
0.08020063 -0.06388997 0.03153907 -0.038929757 -0.034724295 0.0698047 0.0038048523 0.031456895
-0.024303703 0.0064862743 -0.001976988 -0.068650454 0.061970234 -0.018049119 -0.048405837 -0.08132032
-0.060392763 0.0069871387 -0.079137504 -0.067966826 -0.02844754 -0.0422592 0.069998436 -0.028401624
0.0002919519 -0.08233375 0.06276731 -0.00041894446 0.01145078 -0.019172939 0.07912864 -0.028388469
0.050594065 0.05947798 0.0008251341 -0.027803473 -0.020352736 -0.035001203 -0.07411936 -0.06422963
-0.06515787 -0.021813814 -0.06915879 -0.017102998 0.050483536 0.02653306 0.017865341 -0.075108975
0.07145061 0.025995897 -0.030608015 -0.0439072 -0.0015357485 0.042389523 -0.0219405 0.037339907
-0.013745835 0.044187065 -0.047027726 -0.033685137 0.047136914 -0.058164258 -0.015671184 -0.036744755
-0.07694944 -0.038865235 -0.07744539 -0.003990555 0.04722226 0.031112993 0.0051773936 -0.07563034
0.006104173 0.06449893 -0.05473347 0.063966095 -0.059703637 0.005147312 -0.051255003 0.03962378
-0.022799766 0.052604217 0.017403204 -0.078451715 -0.014610163 -0.054450806 -0.03917592 -0.043280516
0.031858236 0.052606065 -0.056028057 0.021868028 -0.017888296 0.048076704 0.025059199 -0.057508267
-0.015919453 -0.033658322 -0.04474721 -0.07710897 -0.007189084 0.006169711 0.014997852 0.0048529766
0.0049676504 -0.04083488 0.05170756 0.07802645 0.049996734 0.029765712 -0.017269077 -0.025614737
0.07844748 -0.030849379 0.0054596695 -0.02001953 0.039206725 -0.07847355 -0.045314882 -0.018690046
00000000: 627f 76bd 3b45 80bd b1f3 84bd 13bc 803d
00000010: 6000 e03c 829d 8e3c 39fe ec3c 9847 a43d
00000020: ac25 d73b 570a 373a 4705 2f3d 265d 8abd
00000030: 6fcd 933c bd06 29bd fb1b 4b3d 2d5e 203c
00000040: 88fa 82bc 2256 80bd ad1a 6ebd f984 8b3d
00000050: 0f30 9ebd 21d5 98bd eb9b d93c ac2b 903d
00000060: fcff 84bc 2e5a 273c 4d48 64bb b134 2c3d
00000070: 47ca a23d 8a10 77bd 5f32 913d b411 08bd
00000080: 2f0a b73c d8f5 243d 8955 cb3c 4efe 69bc
00000090: b5dc d33a 29e3 82bc 0d16 70bd 723d d93c
000000a0: e892 3a3d 2cc0 a0bd c15c 373d 7acb cc3c
000000b0: 3a58 5e3c fbb9 8fbd 125a 8cbd 0653 083d
000000c0: ae80 a63c e0a7 75bd 2010 da3b 49d6 8e3d
000000d0: 9aa4 013d bbe1 c0bc 04e7 8cbd 260f 893c
000000e0: 52c7 6c3d 179a 78bd 5f16 203d c8c4 743d
000000f0: 83cf 573b 834f 05bd bb92 acbd c209 163d
00000100: 1f7f 313d b85a 4bbc b5c1 c93b 1e96 6e3d
00000110: 67b9 51bd 41a9 c13c b56b 833c bdff 423d
00000120: 808e 6e3d 6807 913d dcf6 e33b 7868 77bd
00000130: e2fd bd3b d3ce 21bd b0af 35bd edb9 1f3c
00000140: f7ff 343c c357 46bd f201 3c38 aed8 af3a
00000150: 3f82 6a3d 9034 923d d5a3 48bd 99fe 19bd
00000160: f35a 943c 3732 69bd 1513 a23d 1d75 a7bc
00000170: b3d1 663a 97fb 2bbd a85e 273c 000c 083d
00000180: f526 1fbb 836f e83c 3c3d 80bd 9195 e4bb
00000190: a837 8a3d e5bc a7bc 0e44 bebc 3988 95ba
000001a0: f7ec c73c b53f f0bc 6eec 483d 293c 8bbd
000001b0: 6528 a3bd e2ec 1f3d 87a3 64bd df17 8e3d
000001c0: 0acb a53d 7cc6 903d 50ca c4bb 1f2a 8b3d
000001d0: aff5 a8bd 1cc8 633d db31 913d 83e9 aabd
000001e0: 125f 8abd ac0b 7d3d 59bd 21bc 6a83 2d3d
000001f0: 24c6 2ebd fa86 8cbc 7984 283c 8620 7bbd
00000200: 4e09 5dbd f5aa 033c 2d6c b43c 2edd aabd
00000210: 9da0 a0bd 7762 60bd 8dee 2dbd 8d3f 923d
00000220: 3a40 a43d bfd8 82bd 1d2f 013d cf74 1fbd
00000230: 103b 0ebd c4f5 8e3d d45a 793b f2d8 003d
00000240: 8f18 c7bc d08a d43b 5b90 01bb 9c98 8cbd
00000250: 80d4 7d3d bfdb 93bc 3345 46bd 458b a6bd
00000260: 675e 77bd 5ef4 e43b d812 a2bd 3132 8bbd
00000270: d10a e9bc fc17 2dbd 575b 8f3d 86aa e8bc
00000280: 1f11 9939 999e a8bd 268c 803d c6a5 dbb9
00000290: 0d9c 3b3c 9110 9dbc 320e a23d ef8e e8bc
000002a0: b93b 4f3d 2f9f 733d d04d 583a 1cc4 e3bc
000002b0: c8ba a6bc 6c5d 0fbd e4cb 97bd d38a 83bd
000002c0: 7d71 85bd e2b2 b2bc 20a3 8dbd 961b 8cbc
000002d0: d3c7 4e3d dc5b d93c 565a 923c bcd2 99bd
000002e0: b354 923d 59f5 d43c a9bd fabc 09d8 33bd
000002f0: 2b4b c9ba a3a0 2d3d 90bc b3bc bbf1 183d
00000300: 3636 61bc 7ffd 343d 25a0 40bd 6df9 09bd
00000310: a312 413d a53d 6ebd db60 80bc ab81 16bd
00000320: ab97 9dbd 2731 1fbd b09b 9ebd 34c3 82bb
00000330: 216c 413d ade0 fe3c 20a7 a93b 14e4 9abd
00000340: 8405 c83b 0418 843d 3430 60bd a800 833d
00000350: cd8b 74bd c8aa a83b c4f0 51bd 8b4c 223d
00000360: 93c6 babc 8577 573d 2a91 8e3c 4bab a0bd
00000370: 775f 6fbc cf07 5fbd ee76 20bd e946 31bd
00000380: c87d 023d 7579 573d ad7d 65bd 9424 b33c
00000390: 7a8a 92bc 14ec 443d f348 cd3c ca8d 6bbd
000003a0: 8369 82bc 4fdd 09bd da48 37bd 4feb 9dbd
000003b0: 6892 ebbb 492b ca3b 8db9 753c b805 9f3b
000003c0: acc7 a23b 7a42 27bd 4ecb 533d 55cc 9f3d
000003d0: 60c9 4c3d 39d7 f33c e177 8dbc ffd5 d1bc
000003e0: 13a9 a03d d6b7 fcbc 07e7 b23b ffff a3bc
000003f0: 3b97 203d beb6 a0bd 199c 39bd de1b 99bc

cnn_base.3.bias f4 [32]
0.055614572 -0.03319669 0.05253865 -0.039496686 -0.07055528 -0.063616484 -0.0053308085 -0.020221397
0.0018703836 0.07185996 0.0626516 -0.047888257 -0.03808842 -0.027358703 0.07410415 0.057570532
0.0018792497 0.06671436 -0.0013550556 -0.005836072 0.07108657 -0.0068504424 -0.05699877 -0.07406533
-0.07367506 0.03318108 0.0052987156 -0.055699974 -0.013702479 -0.061050467 -0.03440427 -0.020340744
00000000: 1bcc 633d 41f9 07bd c432 573d 47c7 21bd
00000010: 497f 90bd 5c49 82bd 10ae aebb 58a7 a5bc
00000020: a927 f53a 512b 933d 7b4f 803d 7a26 44bd
00000030: 9a02 1cbd 5c1f e0bc ebc3 973d 14cf 6b3d
00000040: 2851 f63a 8aa1 883d 1f9c b1ba 853c bfbb
00000050: d695 913d ad79 e0bb 8b77 69bd 90af 97bd
00000060: f3e2 96bd e2e8 073d d9a0 ad3b a825 64bd
00000070: 5d80 60bc 0e10 7abd 7eeb 0cbd a2a1 a6bc

mlp_base.0.weight f4 [32, 2]
0.3666369 -0.38500264 -0.5088008 -0.5094438 -0.4343608 0.076874845 0.43879363 0.512063
0.5195402 -0.057997875 0.6989149 -0.19631185 0.7037601 -0.010327741 -0.015118606 -0.18102407
0.6383763 -0.087224565 0.11226843 0.66224223 0.45153823 -0.5744778 -0.6064019 0.08284929
0.6174781 0.02349954 -0.66343355 -0.5206321 -0.5761994 0.1238934 0.5052885 -0.24582869
0.1310124 -0.36912555 0.26106972 0.57775193 0.67391026 0.366223 0.34305105 0.4532211
0.35279688 0.19713175 0.12917705 -0.50543916 -0.21091786 -0.37702787 0.5578965 0.3983495
-0.28414693 0.10484041 0.5944255 -0.29952547 -0.27130488 -0.694402 0.17580646 0.7057262
0.101617694 -0.6281753 -0.3994446 -0.6047899 0.66126734 -0.1540781 -0.36518145 -0.5940253
00000000: d5b7 bb3e 111f c5be c540 02bf e96a 02bf
00000010: 8a64 debe 8f70 9d3d 8fa9 e03e 9016 033f
00000020: 9600 053f 2e8f 6dbd 16ec 323f f905 49be
00000030: 9f29 343f af35 29bc 08b4 77bc 605e 39be
00000040: a16c 233f cba2 b2bd feec e53d b588 293f
00000050: 0530 e73e fa10 13bf 283d 1bbf e3ac a93d
00000060: 0b13 1e3f 1b82 c03c c8d6 29bf 2548 05bf
00000070: ce81 13bf d3bb fd3d 965a 013f 84ba 7bbe
00000080: 1d28 063e 06fe bcbe eeaa 853e 8de7 133f
00000090: 6285 2c3f 9581 bb3e 63a4 af3e 990c e83e
000000a0: cba1 b43e e8dc 493e fd46 043e 7664 01bf
000000b0: dafa 57be cc09 c1be 4ed2 0e3f 77f4 cb3e
000000c0: b57b 91be 92b6 d63d 452c 183f 675b 99be
000000d0: 79e8 8abe 54c4 31bf 9c06 343e 79aa 343f
000000e0: f01c d03d 19d0 20bf 0184 ccbe 83d3 1abf
000000f0: d148 293f a6c6 1dbe 10f9 babe 0b12 18bf

mlp_base.0.bias f4 [32]
0.45914972 0.4776947 -0.5621332 -0.31351694 0.57904166 -0.14872141 -0.32407668 0.34958714
-0.031997792 -0.13779564 -0.050229784 0.69822556 0.18539755 0.18596135 0.66383874 -0.38681284
0.35166943 -0.50520724 -0.15996462 -0.51855904 0.52390254 -0.6207549 -0.6437027 -0.5336548
-0.06636046 -0.061456848 0.09724563 -0.19420505 0.44056883 -0.33615032 -0.06606831 0.033332154
00000000: ac15 eb3e 6694 f43e f6e7 0fbf 4b85 a0be
00000010: 133c 143f 6d4a 18be 61ed a5be 16fd b23e
00000020: 1e10 03bd 4d1a 0dbe bfbd 4dbd e9be 323f
00000030: dbd8 3d3e a76c 3e3e 56f1 293f 550c c6be
00000040: 040e b43e 4355 01bf c4cd 23be 49c0 04bf
00000050: 7a1e 063f cbe9 1ebf b3c9 24bf 9a9d 08bf
00000060: fee7 87bd 2dba 7bbd b828 c73d b0dd 46be
00000070: 3d92 e13e e51b acbe d24e 87bd 4c87 083d

mlp_base.2.weight f4 [32, 32]
-0.0021145018 0.056292634 -5.0759554e-06 -0.12576716 -0.15784357 0.130099 0.09924042 -0.13000166
-0.053366043 -0.11637264 -0.004256429 0.09903649 -0.027441457 -0.00906066 -0.07886188 -0.056202225
0.0604244 0.03516635 -0.14042632 0.01665491 0.13567476 0.11328325 -0.03045567 0.100747995
0.13961937 0.084243216 0.10937465 0.05439777 0.103294484 -0.12174865 0.12888919 0.055938106
-0.103558816 -0.11598021 0.09980211 0.14864549 -0.03633611 0.04902425 -0.03852417 -0.15369518
0.13356973 0.022490963 -0.06324744 0.08701744 0.049256068 -0.10370323 -0.12783864 -0.17588559
-0.110775106 0.06085646 -0.12557982 -0.05479347 0.0481096 -0.042458504 0.109528534 -0.10847591
0.07731769 0.03920603 -0.022623964 0.04351785 -0.08231216 -0.17027986 -0.023653619 0.053651318
-0.14493108 -0.08193134 0.07194722 -0.06181962 0.10926188 -0.17328495 -0.007074509 -0.021605829
-0.039357193 0.0580461 0.010353776 -0.14224985 0.11823431 0.11572934 0.1570157 0.17184979
-0.16810378 0.1502997 0.092038475 -0.14774561 0.037512094 -0.039503485 0.027719112 -0.010112221
-0.09737422 0.113763735 0.052161995 -0.07824377 0.023658246 -0.044397008 0.11078696 -0.13614196
0.15623224 0.12315915 -0.03297744 -0.09013554 0.013633759 0.0069215344 -0.05621075 0.15053421
-0.0644308 0.009912403 -0.060277045 0.09809133 0.08237978 -0.17426693 0.12177531 0.059336863
0.041059628 -0.15360859 0.13107754 0.16844866 0.051124804 0.11907864 0.0154429665 -0.0022701072
0.17123514 -0.063749276 -0.06508614 -0.032033432 0.061027206 0.08229349 0.15319945 -0.10096009
-0.101093255 -0.013289712 0.05586032 -0.011881903 -0.08649402 -0.031440113 0.16586423 0.12289711
0.15565684 0.086353555 -0.13818337 -0.1262596 -0.011007017 -0.0589772 0.080373965 -0.025798872
0.03451926 0.17516571 -0.004426048 -0.045148987 0.10878847 -0.1074263 0.14929992 -0.0011972397
0.10160693 0.022455424 0.0174416 -0.11966793 0.12244625 0.032780953 0.042556543 0.08329557
-0.015251681 0.07749631 0.05436345 0.17192481 0.081935756 -0.02053402 -0.06904774 -0.11074604
-0.029116753 0.14013962 -0.060234006 -0.050606888 0.0029570844 -0.00067525316 0.137983 0.04175472
-0.07293064 -0.15413034 0.08694147 -0.015187972 0.08677474 -0.044329748 -0.15699996 -0.07525241
0.0572283 -0.005353774 -0.06362103 -0.10271669 0.1424382 0.15064983 -0.024124136 0.08957769
0.1773132 0.056553327 -0.047319464 -0.07173016 0.047740493 0.110590816 0.019658739 -0.11873879
-0.06890259 -0.15049423 0.056731094 -0.04276618 -0.09122453 0.02935559 0.04575429 0.09108021
-0.030589502 0.054099772 -0.009716762 -0.10657889 -0.16679901 0.066577874 0.030182088 0.026633156
-0.13229339 -0.14462791 0.026765069 -0.17136762 0.06510712 0.1034369 0.028371358 -0.085985
0.11104831 -0.09082656 -0.11442181 0.014692273 -0.16913801 0.11412284 -0.14891438 -0.17052534
-0.036390327 0.16955553 -0.12151984 -0.039385427 -0.03832635 -0.16341679 -0.08516936 0.10051451
-0.14725606 -0.06760993 0.052527156 0.102620885 0.115764424 -0.09972754 -0.13827753 0.14807445
0.12889586 -0.1734219 -0.0070936936 0.025003698 -0.04673038 -0.0968283 -0.051329833 -0.0050730053
00000000: 7493 0abb 1b93 663d 2052 aab6 1bc9 00be
00000010: bfa1 21be ac38 053e 903e cb3d 281f 05be
00000020: 5a96 5abd c754 eebd 8479 8bbb a5d3 ca3d
00000030: e8cc e0bc 2a73 14bc 5682 a1bd 4e34 66bd
00000040: 937f 773d 970a 103d ebcb 0fbe e16f 883c
00000050: 53ee 0a3e 0c01 e83d 2b7e f9bc f754 ce3d
00000060: 61f8 0e3e b587 ac3d d1ff df3d 32d0 5e3d
00000070: 0f8c d33d 5b57 f9bd 87fb 033e 5b1f 653d
00000080: a516 d4bd 0887 edbd 0c65 cc3d 8636 183e
00000090: 2cd5 14bd a7cd 483d 85cb 1dbd 4562 1dbe
000000a0: 81c6 083e f83e b83c e087 81bd 3336 b23d
000000b0: bbc0 493d 5c62 d4bd 22e8 02be 5a1b 34be
000000c0: 0fde e2bd a044 793d ff97 00be 1e6f 60bd
000000d0: 920e 453d f8e8 2dbd 7f50 e03d 9e28 debd
000000e0: bd58 9e3d 8196 203d e455 b9bc c63f 323d
000000f0: 4793 a8bd d85d 2ebe 3cc5 c1bc 7cc1 5b3d
00000100: d068 14be 9ecb a7bd 1059 933d 9236 7dbd
00000110: b1c4 df3d 9c71 31be 48d1 e7bb b5fe b0bc
00000120: 0235 21bd bfc1 6d3d e2a2 293c f2a9 11be
00000130: d424 f23d 8103 ed3d b9c8 203e 64f9 2f3e
00000140: 6623 2cbe 2ae8 193e ab7e bc3d a04a 17be
00000150: 48a6 193d 68ce 21bd 3113 e33c bbad 25bc
00000160: 236c c7bd f6fc e83d d1a7 553d 453e a0bd
00000170: f0ce c13c a3d9 35bd 46e4 e23d cc68 0bbe
00000180: 58fb 1f3e dd3a fc3d 5a13 07bd fb98 b8bd
00000190: 2160 5f3c 0ace e23b 3e3d 66bd a425 1a3e
000001a0: 4cf4 83bd a267 223c 10e5 76bd 1be4 c83d
000001b0: bbb6 a83d 0873 32be 5565 f93d 360b 733d
000001c0: 242e 283d 924b 1dbe 3139 063e ce7d 2c3e
000001d0: 3e68 513d 81df f33d 7f04 7d3c 14c6 14bb
000001e0: 4458 2f3e fb8e 82bd e24b 85bd 7d35 03bd
000001f0: aaf7 793d 7d89 a83d 51e0 1c3e 2ac4 cebd
00000200: fb09 cfbd 18bd 59bc cacd 643d 50ac 42bc
00000210: c723 b1bd 59c7 00bd 50d8 293e 7bb1 fb3d
00000220: 8264 1f3e 22da b03d f17f 0dbe 324a 01be
00000230: c756 34bc 1492 71bd 1b9b a43d 2858 d3bc
00000240: 1164 0d3d a45e 333e 6208 91bb 25ee 38bd
00000250: 7dcc de3d 5202 dcbd 14e2 183e b3ec 9cba
00000260: 4b17 d03d 70f4 b73c b0e1 8e3c 7614 f5bd
00000270: 19c5 fa3d 5245 063d c54f 2e3d de96 aa3d
00000280: 30e2 79bc 63b6 9e3d 35ac 5e3d 0f0d 303e
00000290: efcd a73d f636 a8bc e768 8dbd d2ce e2bd
000002a0: 4286 eebc c380 0f3e efb7 76bd 2b49 4fbd
000002b0: a5cb 413b 7903 31ba 6a4b 0d3e ff06 2b3d
000002c0: a95c 95bd 58d4 1dbe 5f0e b23d f9d6 78bc
000002d0: f4b6 b13d 1c93 35bd 99c4 20be ef1d 9abd
000002e0: 3968 6a3d b66e afbb be4b 82bd 215d d2bd
000002f0: 52db 113e f343 1a3e fb9f c5bc 8274 b73d
00000300: 9791 353e 76a4 673d 0ed2 41bd 43e7 92bd
00000310: 898b 433d 707d e23d 5d0b a13c 532d f3bd
00000320: cd1c 8dbd 291b 1abe dd5e 683d 972b 2fbd
00000330: edd3 babd 227b f03c da68 3b3d 4388 ba3d
00000340: d696 fabc b997 5d3d 0e33 1fbc 0846 dabd
00000350: 5ccd 2abe fb59 883d 6d40 f73c c72d da3c
00000360: eb77 07be 5719 14be 6b42 db3c fe7a 2fbe
00000370: e256 853d bad6 d33d 0d6b e83c e718 b0bd
00000380: 4c6d e33d 4703 babd fb55 eabd dcb7 703c
00000390: 8432 2dbe 3cb9 e93d 037d 18be 329e 2ebe
000003a0: 060e 15bd f79f 2d3e 65df f8bd 9d52 21bd
000003b0: 17fc 1cbd bb56 27be 466d aebd 8dda cd3d
000003c0: 4bca 16be 1377 8abd b726 573d e62a d23d
000003d0: e615 ed3d f43d ccbd a098 0dbe d4a0 173e
000003e0: 47fd 033e 8395 31be 3772 e8bb 8ed4 cc3c
000003f0: 5b68 3fbd ea4d c6bd 3b3f 52bd 743b a6bb

mlp_base.2.bias f4 [32]
0.14482531 -0.0971525 -0.023207374 0.09855542 0.17321773 -0.13045147 -0.11281619 -0.027437488
0.17052619 -0.14770964 -0.12367649 -0.07701168 0.022137344 -0.07325608 -0.15544291 0.07261959
0.11413559 0.12534535 -0.010272345 0.04735504 -0.015488125 0.08078031 -0.048448034 -0.16154173
-0.009469449 -0.070057556 0.09324504 0.09454353 -0.0141012 -0.1403302 -0.14204209 -0.12148452
00000000: 164d 143e e4f7 c6bd 641d bebc 6dd7 c93d
00000010: fd5f 313e 1295 05be 2d0c e7bd 95c4 e0bc
00000020: 6b9e 2e3e 3241 17be 194a fdbd 4db8 9dbd
00000030: 6059 b53c 4907 96bd 6d2c 1fbe 94b9 943d
00000040: ecbf e93d 885a 003e 564d 28bc 5cf7 413d
00000050: e8c1 7dbc 2670 a53d 7271 46bd 326b 25be
00000060: bf25 1bbc 567a 8fbd 41f7 be3d 0aa0 c13d
00000070: b808 67bc b8b2 0fbe 7b73 11be e0cc f8bd

actor_head.0.weight f4 [64, 1600]
0.014407159 0.016738934 0.0010011273 0.0015835844 0.015714377 -0.011119874 0.025853463 0.017354121
-0.00014168616 -0.01007393 -0.022063825 0.010537208 -0.004908341 0.021909097 0.00045377537 0.022473812
0.01592467 -0.014137908 -0.0067586186 -0.023250723 0.023126239 -0.014343078 0.009469998 0.018411804
0.0003502553 -0.019766388 -0.012478982 0.00981175 0.004305966 0.0077710133 -0.014990474 0.014022066
-0.019272493 0.026768109 0.007468337 0.0062817503 0.009571957 0.014766231 -0.018317897 0.016621765
-0.009828473 -0.016435925 0.0026097149 0.013304943 -0.011506838 -0.011647943 0.0045135776 0.023804108
0.001620042 0.005473441 -0.02486681 0.002080837 -0.007948679 0.019127464 0.011409125 -0.008128742
0.00047153234 0.0074365796 -0.017861996 -0.0070818155 -0.008241487 -0.011477417 -0.0009818346 0.006811771
0.024098653 0.018888582 0.0071988045 0.0016255409 0.0062136203 -0.020365184 0.015109936 0.014471146
-0.0015886442 -0.022876522 0.01948197 -0.02009721 -0.012132919 0.014277828 -0.013521499 0.0028307065
-0.014016374 -0.017744541 -0.011093703 0.022208547 0.0032592656 -0.02336154 0.015224906 -0.018086972
-0.00030384958 -0.0039597065 -0.017939573 0.015031368 0.014330372 -0.015282342 -0.020264635 -0.0073485347
0.016666142 0.010474766 -0.02145905 0.001302738 0.022142231 -0.021392077 0.021769438 -0.015457917
0.006837215 -0.010329394 -0.01826987 -0.004024623 0.02455953 0.0052749333 0.025088366 0.00043319422
0.015149938 0.018992042 0.020710086 0.0010363113 -0.016856344 0.0063817715 0.0043114 -0.016958589
-0.011772691 0.012640018 0.011036832 0.015236948 -0.01347648 0.01804617 -0.015449411 -0.01360293
0.015899647 -0.0017347437 0.013281212 0.01974237 0.0037551047 0.007798021 -0.016299974 -0.014544619
0.016510267 0.0014132236 0.0017566669 -0.0198235 0.01872018 0.0015329206 -0.022821397 0.007039627
-0.012949614 0.020125214 0.002703875 -0.0018533468 -0.01919849 -0.018895034 0.0052409084 -0.0015854746
-0.013449318 0.015532452 0.0037955164 -0.008204306 -0.015389196 0.012004512 -0.0021006227 -0.0035882385
0.002723217 0.01819115 0.0061311307 0.010377449 -0.01571595 -0.003022099 -0.0058608237 -0.0058121653
-0.01489704 -0.010632775 0.011736355 -0.0065250983 0.010083302 0.002165249 -0.015623716 -0.012990045
0.0009958744 0.021760315 -0.02366264 0.0042673294 0.0239977 0.006938085 0.023354342 0.023999536
-0.010718228 0.011190073 -0.017539602 0.0030870081 -0.0011693895 0.0176136 0.02299653 -0.0008106351
0.013986665 0.01909477 -0.0056889593 -0.024859956 0.0021517754 -0.00429745 -0.01897077 0.004418239
0.016619846 0.0014391959 -0.005624372 0.024593813 -0.006217328 -0.024112308 -0.024333 0.008865452
-0.012736849 0.010821352 0.015654882 -0.009162337 -0.009082043 -0.020808045 0.002904584 -0.014180643
0.011709243 0.008922002 0.0061574997 0.017646773 -0.012670702 0.0067144404 0.0073755803 0.0021056922
-0.012464833 -0.017830405 -0.02046754 -0.012281135 0.0008963193 0.02499415 -0.024465231 0.013362718
-0.022052929 -0.013932013 0.023085443 0.006910607 0.012833036 0.019486327 0.0182046 -0.0049938024
-0.009827718 0.005132732 -0.007350284 -0.0035146715 0.012818378 0.006596607 -0.019624755 -0.0041953265
0.004216847 0.015013448 0.002184388 -0.020234866 -0.0066261115 -0.005133915 0.017505918 -0.0067684385
00000000: 010c 6c3c 1720 893c 4238 833a 4690 cf3a
00000010: 70bb 803c 2230 36bc a4ca d33c 3b2a 8e3c
00000020: 9791 14b9 200d 25bc 32bf b4bc 41a4 2c3c
00000030: 26d6 a0bb b57a b33c b3e8 ed39 001b b83c
00000040: 7474 823c afa2 67bc 6777 ddbb 4d78 bebc
00000050: 3d73 bd3c 3bff 6abc 0d28 1b3c 5ad4 963c
00000060: 78a2 b739 1fed a1bc a574 4cbc 76c1 203c
00000070: 1019 8d3b fca3 fe3b 9b9a 75bc cfbc 653c
00000080: 59e1 9dbc cb48 db3c f4b8 f43b 24d7 cd3b
00000090: b3d3 1c3c 10ee 713c 6a0f 96bc 5e2a 883c
000000a0: 9b07 21bc a2a4 86bc c007 2b3b fafc 593c
000000b0: 2d87 3cbc 04d7 3ebc a2e6 933b d500 c33c
000000c0: 9757 d43a 8d5a b33b 7bb5 cbbc a75e 083b
000000d0: 2d3b 02bc 33b1 9c3c 57ed 3a3c 6a2e 05bc
000000e0: 0038 f739 8dae f33b 5253 92bc 930e e8bb
000000f0: 4d07 07bc c70b 3cbc e7b0 80ba 4735 df3b
00000100: 8a6a c53c 3abc 9a3c f3e3 eb3b 1a10 d53a
00000110: a09b cb3b e3d4 a6bc aa8f 773c 6318 6d3c
00000120: 0e3a d0ba 8b67 bbbc a798 9f3c e7a2 a4bc
00000130: 27c9 46bc 8ded 693c 4789 5dbc 6083 393b
00000140: efa4 65bc 005d 91bc 5dc2 35bc b3ee b53c
00000150: 6799 553b b360 bfbc e271 793c 212b 94bc
00000160: 004e 9fb9 6dc0 81bb 03f6 92bc 2046 763c
00000170: f0c9 6a3c ca62 7abc 0502 a6bc facb f0bb
00000180: 6f87 883c 5a9e 2b3c e4ca afbc a2c0 aa3a
00000190: a063 b53c 703e afbc d255 b23c 3443 7dbc
000001a0: b70a e03b 9e3c 29bc b2aa 95bc fce0 83bb
000001b0: 1131 c93c 59d9 ac3b 1e86 cd3c 581e e339
000001c0: 7237 783c 3395 9b3c 33a8 a93c d6d4 873a
000001d0: 5116 8abc 2e1e d13b a546 8d3b bdec 8abc
000001e0: 3fe2 40bc 1418 4f3c d4d3 343c 64a4 793c
000001f0: 74cc 5cbc 90d5 933c 871f 7dbc d3de 5ebc
00000200: fa3f 823c 5760 e3ba 7199 593c c0ba a13c
00000210: 3418 763b 8b86 ff3b 8687 85bc 8e4c 6ebc
00000220: 8a40 873c ea3b b93a f63f e63a e564 a2bc
00000230: 105b 993c 48ec c83a f0f3 babc acac e63b
00000240: 9e2a 54bc a2dd a43c 7f33 313b 00ec f2ba
00000250: 2746 9dbc c2c9 9abc edbb ab3b b3cf cfba
00000260: 875a 5cbc d37b 7e3c 33be 783b 5a6b 06bc
00000270: f722 7cbc 93ae 443c 9aaa 09bb a728 6bbb
00000280: 0078 323b 9b05 953c a7e7 c83b 2d06 2a3c
00000290: bcbe 80bc 680e 46bb 270c c0bb fa73 bebb
000002a0: b712 74bc 1735 2ebc d749 403c 7ed0 d5bb
000002b0: 6f34 253c dae6 0d3b 9dfa 7fbc 33d4 54bc
000002c0: 0088 823a b042 b23c 27d8 c1bc f4d4 8b3b
000002d0: d396 c43c e058 e33b 9b51 bf3c ad9a c43c
000002e0: 829b 2fbc 9156 373c 36af 8fbc 674f 4a3b
000002f0: 3346 99ba 654a 903c 3863 bc3c cd80 54ba
00000300: 5328 653c a36c 9c3c 736a babb 1ba7 cbbc
00000310: cd04 0d3b a0d1 8cbb 9768 9bbc e0c6 903b
00000320: 5826 883c 67a3 bc3a a74c b8bb f778 c93c
00000330: baba cbbb 2d87 c5bc 0056 c7bc 6740 113c
00000340: 37ae 50bc 0a4c 313c ab3e 803c a01d 16bc
00000350: d9cc 14bc a275 aabc d55a 3e3b ed55 68bc
00000360: 20d8 3f3c 972d 123c dac4 c93b f78f 903c
00000370: c798 4fbc cf04 dc3b daae f13b a7ff 093b
00000380: 4d39 4cbc 1211 92bc 8bab a7bc d036 49bc
00000390: f8f6 6a3a 88c0 cc3c 4f6b c8bc 4def 5a3c
000003a0: 58a8 b4bc 1943 64bc af1d bd3c 6072 e23b
000003b0: a741 523c caa1 9f3c d021 953c 0da3 a3bb
000003c0: 7004 21bc 7a30 a83b a7da f0bb 6756 66bb
000003d0: 2d04 523c 5a28 d83b 18c4 a0bc f378 89bb
000003e0: 7a2d 8a3b f7fa 753c f327 0f3b 97c3 a5bc
000003f0: da1f d9bb 673a a8bb 9268 8f3c c7c9 ddbb

actor_head.0.bias f4 [64]
-0.013440494 0.022795625 0.0018247943 -0.004429565 0.011365819 -0.011769463 0.014633707 0.025123244
0.02000378 0.013215506 0.0015393627 -0.009585015 -0.016161779 0.0021277296 0.02252453 -0.022070825
0.0032281848 0.009594908 0.0038442092 0.020277277 -0.0068971314 0.018850839 -0.011050606 -0.028258413
-0.002474077 -0.015826417 0.015185677 -0.011212153 -0.014683564 -0.0071756216 -0.01528603 -0.009765707
-0.009378139 -0.025311647 -0.010769815 -0.021195628 -0.023265459 -0.020376686 -0.017423913 -0.0112427855
-0.016067566 0.0077916286 -0.001269971 0.014486541 0.016102236 -0.014055188 -0.016820883 0.015523224
-0.0012396461 -0.0074467934 0.0055954163 0.018995387 0.016488593 0.005737242 0.0022952436 0.019979311
-0.0059997006 -0.0004982382 -0.00039961454 0.011348302 -0.023825597 -0.0037155368 0.02000113 0.009149087
00000000: 8535 5cbc e4bd ba3c f02d ef3a e225 91bb
00000010: b337 3a3c b5d4 40bc 37c2 6f3c 43cf cd3c
00000020: f8de a33c da85 583c 71c4 c93a 770a 1dbc
00000030: b565 84bc 6171 0b3b 5d85 b83c e0cd b4bc
00000040: f48f 533b f633 1d3c 21ef 7b3b 881c a63c
00000050: 5501 e2bb 136d 9a3c 9a0d 35bc 307e e7bc
00000060: 2024 22bb 67a6 81bc 59cd 783c 2eb3 37bc
00000070: 5593 70bc 7a21 ebbb 4272 7abc 5800 20bc
00000080: c4a6 19bc 5f5a cfbc e173 30bc 74a2 adbc
00000090: 3497 bebc 02ed a6bc 98bc 8ebc a933 38bc
000000a0: 21a0 83bc eb50 ff3b 2875 a6ba f558 6d3c
000000b0: d6e8 833c bb47 66bc f3cb 89bc 1f55 7e3c
000000c0: 9f7b a2ba 3b04 f4bb c159 b73b 379c 9b3c
000000d0: 1613 873c 79ff bb3b cc6b 163b a7ab a33c
000000e0: 2399 c4bb 339c 02ba 5b83 d1b9 3aee 393c
000000f0: e62d c3bc 5d80 73bb 69d9 a33c 0de6 153c

actor_head.2.weight f4 [2, 64]
0.054632083 0.017811377 0.08632692 -0.04513721 0.01626575 -0.008867967 0.086495355 -0.070374936
0.014783393 -0.094004504 0.057206042 0.057234954 0.020044297 0.08809947 0.120948955 0.06547294
-0.054427035 -0.11599298 -0.103229135 0.03385755 -0.023620266 -0.0025371541 0.048116617 0.07723602
-0.080620535 0.026231585 0.056668945 -0.039671686 -0.082860276 -0.107240364 0.09947855 -0.005562121
-0.0474631 0.058641903 -0.033142604 0.01036889 -0.0015493718 0.11140265 0.06815854 -0.08153434
-0.010941246 0.12480175 0.07455825 -0.10580913 -0.0930263 -0.05924117 -0.031744335 -0.043123037
-0.059696473 0.019091206 -0.12687628 0.06897823 -0.059518382 -0.044260144 0.11215848 0.06017062
-0.11321431 -0.06198859 -0.029254012 0.08220227 0.079561196 -0.042346418 -0.050031602 -0.11692418
0.09994959 0.09376884 -0.08650393 0.091072306 -0.09689829 0.0063649053 0.037688076 -0.10041611
-0.07789791 0.034859963 0.0005860272 0.10138252 0.09668021 -0.050877422 -0.048677567 0.016948143
-0.056628738 0.08622618 0.065631226 -0.086633414 0.12236937 0.046060417 -0.085090876 0.05266541
-0.085767545 -0.0054437406 -0.06393804 0.0016088147 0.089237876 0.04676226 0.09953608 0.0047606123
-0.13021117 0.0468829 0.057252593 0.032029558 -0.014474892 0.034607124 0.014079124 -0.020648113
0.052485604 0.106234714 0.048828483 -0.05281136 0.094362944 0.0033176346 0.00078319333 -0.08267625
0.003864663 -0.060613688 0.061527506 0.1130502 0.123877384 -0.017726615 -0.054573473 -0.02457869
0.08892237 0.0110519705 0.12262884 -0.09923491 -0.08726806 -0.00955875 -0.12425699 0.0068709333
00000000: e4c5 5f3d 2ae9 913c 2bcc b03d cce1 38bd
00000010: c03f 853c f34a 11bc 7a24 b13d bc20 90bd
00000020: 0b36 723c 6f85 c0bd e250 6a3d 336f 6a3d
00000030: f033 a43c 7f6d b43d 16b4 f73d ad16 863d
00000040: e2ee 5ebd ba8d edbd cc69 d3bd 37ae 0a3d
00000050: 4a7f c1bc 6246 26bb ee15 453d eb2d 9e3d
00000060: 611c a5bd 9fe3 d63c b21d 683d c77e 22bd
00000070: a6b2 a9bd d6a0 dbbd 69bb cb3d 7442 b6bb
00000080: ab68 42bd 7e32 703d 8ac0 07bd 47e2 293c
00000090: 4a14 cbba 1327 e43d b496 8b3d 7afb a6bd
000000a0: e942 33bc 0f98 ff3d ffb1 983d 75b2 d8bd
000000b0: 9384 bebd dea6 72bd 5906 02bd c8a1 30bd
000000c0: 4a84 74bd 2965 9c3c dbeb 01be 7544 8d3d
000000d0: 8cc9 73bd 204a 35bd 58b3 e53d 7875 763d
000000e0: e7dc e7bd bfe7 7dbd 1ca6 efbc aa59 a83d
000000f0: fbf0 a23d 7073 2dbd f0ed 4cbd f275 efbd
00000100: 5fb2 cc3d e109 c03d f928 b1bd 1e84 ba3d
00000110: 9c72 c6bd b290 d03b d05e 1a3d f6a6 cdbd
00000120: f088 9fbd 52c9 0e3d 9f9f 193a a3a1 cf3d
00000130: 4600 c63d d864 50bd 2162 47bd d5d6 8a3c
00000140: 89f3 67bd 5a97 b03d aa69 863d dc6c b1bd
00000150: cb9c fa3d d9a9 3c3d 2044 aebd afb7 573d
00000160: e5a6 afbd 6861 b2bb f2f1 82bd ddde d23a
00000170: 59c2 b63d c989 3f3d 93d9 cb3d e9fe 9b3b
00000180: 1456 05be 4908 403d b281 6a3d 6d31 033d
00000190: 1928 6dbc 33c0 0d3d 20ac 663c 3b26 a9bc
000001a0: 25fb 563d 9691 d93d 6000 483d ba50 58bd
000001b0: 5c41 c13d ac6c 593b 374f 4d3a 2a52 a9bd
000001c0: 4946 7d3b 0f46 78bd 4404 7c3d dd86 e73d
000001d0: 6db3 fd3d 6837 91bc 6f88 5fbd 4059 c9bc
000001e0: ee1c b63d 5313 353c d424 fb3d ac3b cbbd
000001f0: 99b9 b2bd 4e9c 1cbc 737a febd 9125 e13b

actor_head.2.bias f4 [2]
0.055168528 -0.09100637
00000000: 65f8 613d 8c61 babd

critic_head.0.weight f4 [64, 1600]
-0.025232604 -0.024142494 -0.012676802 -0.0050601633 -0.011694507 -0.005205053 -0.003680072 -0.022818808
-0.027150411 -0.019699005 -0.008706684 0.004893116 -3.8046313e-05 -0.021545816 -0.0052431133 -0.020026553
0.0067215627 -0.014356781 -0.0064363326 -0.0017477019 -0.030770745 -0.0065740044 -0.018611941 0.00286549
-0.025364613 0.0036697087 -0.010615444 -0.024600854 -0.018025083 -0.0059994715 -0.0040558795 -0.021953776
0.0011597339 -0.027307544 -0.023372961 -0.025311975 -0.008160932 -0.0083076805 0.011164751 -0.001916249
0.009514998 0.00917708 -0.024309862 0.011328408 -0.010118258 -0.029208552 -0.0069115334 -0.013025568
0.0053952667 0.013098863 0.00542461 -0.001992762 0.0197656 0.009583801 0.00072722434 0.022382876
0.01223614 0.019641016 0.014942101 0.023229567 -0.010957352 0.0052180113 0.006945628 -0.018212765
-0.014583317 0.014475996 0.00018772781 -0.008555958 0.010418633 -0.010627195 0.003416118 0.02448461
-0.0011849873 -0.023483079 0.021404792 0.0131913815 0.0047058496 0.021747122 0.017975405 0.009630851
-0.0028775895 -0.029401688 -0.009956923 -2.9471517e-05 0.0067810537 -0.009609789 -0.0068640313 0.020075247
0.0041929367 -0.006036726 -0.0025936663 0.00613091 -0.006318757 0.021621643 -0.015266001 0.01877777
-0.01615322 0.007247782 -0.00034747145 -0.004487928 -0.026815003 -0.0156082 0.015153825 -0.029046968
0.00073744083 -0.00663748 -0.027796587 -0.028804664 -0.025715984 0.014312382 -0.018524235 -0.032361712
-0.016807636 -0.02995297 -0.018827071 0.0053231833 -0.02300669 0.0089627225 0.008539686 -0.032309275
0.0024817644 -0.0005215616 -0.028546324 -0.009145768 0.007400799 0.016247265 0.012219716 -0.021946186
0.012679231 -0.014526945 -0.020283675 0.011804478 0.0014492909 -0.011396 0.0035013172 0.013516368
-0.01266561 -0.020101063 0.0061026076 -0.030923342 -0.0032300858 -0.0103518 -0.025902305 -0.029851682
-0.019502634 -0.02808224 0.00074927486 -0.0089135645 -0.01990979 0.017518913 0.02262005 0.021267045
0.0011572719 0.022040838 0.013492599 -0.024435613 0.004159519 0.009373399 -0.021116003 -0.018035958
-0.0047144205 -0.020110492 0.015763968 0.009564864 -0.030331986 -0.010206375 -0.017768707 0.0005190462
0.021328246 0.015451265 0.0047728657 0.011584245 -0.008782103 -0.015688635 0.002805272 0.010684985
0.0008867234 -0.027422143 -0.0113363825 0.014479147 0.012192372 0.018856464 0.024210185 -0.0028652311
-0.02772868 -0.029974284 -0.008278119 -0.0070235613 0.013084376 0.009960264 -0.024455324 0.024841297
0.008217228 -0.02482528 0.019403163 0.02220332 0.00956679 -0.011243263 -0.0012251408 -0.014576144
0.023719458 -0.024570746 0.008811074 -0.0011309118 0.016318917 -0.0013795466 0.00020801426 -0.006577879
0.015712265 -0.006595141 -0.0039693206 -0.00754689 -0.0030738574 0.01685654 0.00698851 -0.023372848
-0.013575557 0.00023623407 -0.016016021 0.014031715 -0.023351721 -0.0009807362 0.01931115 -0.01815917
0.007971224 0.011259327 -0.00043054565 0.009212973 0.0010350703 -0.014878291 -0.0071522207 -0.009248731
0.017727941 -0.0042183963 0.005467766 0.0010509938 -0.010086126 -0.013155944 0.016017724 -0.02431387
-0.012449637 -0.004578328 -0.0034231038 0.012646812 0.01390788 0.016385421 0.019379897 0.0018119722
0.01034973 0.021386279 0.015002948 0.0038558783 -0.019496879 0.020383492 -0.016831785 -0.00023792089
00000000: 9bb4 cebc 7bc6 c5bc 5db2 4fbc bacf a5bb
00000010: 519a 3fbc 268f aabb 5d2d 71bb 82ee babc
00000020: 8a6a debc cf5f a1bc 7ba6 0ebc 6f56 a03b
00000030: eb93 1fb8 da80 b0bc 6cce abbb ba0e a4bc
00000040: 8e40 dc3b b438 6bbc dfe7 d2bb 2513 e5ba
00000050: ee12 fcbc bf6a d7bb 1278 98bc f2ca 3b3b
00000060: 73c9 cfbc 7f7f 703b 66ec 2dbc bb87 c9bc
00000070: 57a9 93bc 3797 c4bb 2fe7 84bb 68d8 b3bc
00000080: 3602 983a 12b4 dfbc a778 bfbc 0f5b cfbc
00000090: 6eb5 05bc f01c 08bc 5cec 363c a62a fbba
000000a0: cbe4 1b3c 775b 163c 7a25 c7bc c99a 393c
000000b0: 0dc7 25bc c646 efbc 257a e2bb 3169 55bc
000000c0: c7ca b03b 9d9c 563c edc0 b13b 0099 02bb
000000d0: 78eb a13c 6005 1d3c 33a3 3e3a 4b5c b73c
000000e0: 177a 483c 32e6 a03c b7cf 743c ef4b be3c
000000f0: 7786 33bc dafb aa3b 2798 e33b f032 95bc
00000100: ddee 6ebc ba2c 6d3c cdd8 4439 4a2e 0cbc
00000110: eab2 2a3c b01d 2ebc f3e0 5f3b f393 c83c
00000120: 9351 9bba 965f c0bc 1a59 af3c aa20 583c
00000130: 8733 9a3b 0527 b23c 2841 933c b8ca 1d3c
00000140: f195 3cbb cfdb f0bc 5d22 23bc 9a39 f7b7
00000150: 9a33 de3b 6072 1dbc abeb e0bb d874 a43c
00000160: e764 893b bacf c5bb 80fa 29bb cde5 c83b
00000170: 930d cfbb df1f b13c 401e 7abc d7d3 993c
00000180: c253 84bc cd7e ed3b d42c b6b9 780f 93bb
00000190: 23ab dbbc 89b9 7fbc c047 783c e8f3 edbc
000001a0: d150 413a 387f d9bb abb5 e3bc c2f7 ebbc
000001b0: 54aa d2bc 7b7e 6a3c 23c0 97bc b78d 04bd
000001c0: 2bb0 89bc ee5f f5bc 3b3b 9abc 196e ae3b
000001d0: 8778 bcbc 62d8 123c 0aea 0b3c bb56 04bd
000001e0: 19a5 223b 68b9 08ba fbd9 e9bc 22d8 15bc
000001f0: 6782 f23b fc18 853c 3435 483c 7dc8 b3bc
00000200: 8dbc 4f3c 6c02 6ebc f329 a6bc 9267 413c
00000210: 22f6 bd3a 4ab6 3abc 5b76 653b c273 5d3c
00000220: 6b83 4fbc fcaa a4bc 62f8 c73b f352 fdbc
00000230: d9af 53bb 999a 29bc 1231 d4bc 848b f4bc
00000240: fdc3 9fbc ba0c e6bc fc6a 443a 330a 12bc
00000250: db19 a3bc d383 8f3c af4d b93c 3a38 ae3c
00000260: 9aaf 973a fd8e b43c 1010 5d3c 322d c8bc
00000270: 934c 883b e392 193c 78fb acbc 25c0 93bc
00000280: 6d7b 9abb c2be a4bc 7023 813c f3b5 1c3c
00000290: c97a f8bc a438 27bc ae8f 91bc 9a10 083a
000002a0: 93b8 ae3c 4d27 7d3c b365 9c3b d8cb 3d3c
000002b0: cfe2 0fbc 7485 80bc a7d8 373b 1310 2f3c
000002c0: 0073 683a 67a4 e0bc 3cbc 39bc f239 6d3c
000002d0: 84c2 473c df78 9a3c 7054 c63c 9ac6 3bbb
000002e0: 4227 e3bc a18c f5bc f3a0 07bc e725 e6bb
000002f0: da5f 563c 6030 233c 8856 c8bc fa7f cb3c
00000300: 8da1 063c 635e cbbc 62f3 9e3c bde3 b53c
00000310: 07be 1c3c aa35 38bc e794 a0ba c7d0 6ebc
00000320: 4f4f c23c 9748 c9bc 535c 103c 1a3b 94ba
00000330: 40af 853c e7d1 b4ba 671e 5a39 408b d7bb
00000340: 02b7 803c 0d1c d8bb 1311 82bb e74b f7bb
00000350: c572 49bb ba16 8a3c dfff e43b 6a78 bfbc
00000360: 036c 5ebc 9ab5 7739 0834 83bc 47e5 653c
00000370: 1c4c bfbc 0c8c 80ba 6b32 9e3c 8ac2 94bc
00000380: bd99 023c 0a79 383c dcba e1b9 02f2 163c
00000390: 32ab 873a 13c4 73bc 2d5d eabb fd87 17bc
000003a0: 303a 913c 793a 8abb f22a b33b 80c1 893a
000003b0: 4740 25bc 078c 57bc 9a37 833c e22d c7bc
000003c0: 90f9 4bbc cd05 96bb 2756 60bb 9334 4f3c
000003d0: e0dd 633c b83a 863c 97c2 9e3c b37f ed3a
000003e0: ea91 293c 4732 af3c edce 753c e7b2 7c3b
000003f0: ebb7 9fbc 48fb a63c d0e2 89bc 677a 79b9

critic_head.0.bias f4 [64]
-0.02138524 -0.000996076 0.015292668 0.008718275 -0.02331195 -0.011071598 -0.02351816 -0.00783489
-0.005573982 0.024841025 -0.00076907966 -0.023765268 0.00060760963 -0.014863728 0.005319382 -0.0058546844
0.011009851 0.0004850282 -0.009488067 0.018789541 0.019493718 0.013083536 -0.012082843 -0.0067227217
-0.0013745989 -0.017153012 0.014221832 0.029836487 -0.027992316 0.012177208 -0.021548528 0.011487505
-0.00989237 -0.0048558447 0.01612279 0.008062207 -0.011383837 0.010492796 -0.027269803 -0.02512821
0.0015484085 0.00039842408 0.0015506252 -0.008573015 0.022230418 -0.026475256 -0.023358364 0.016822396
0.0030340687 -0.019470435 -0.02596111 -0.020222591 -0.004944842 -0.011682713 -0.010187376 -0.016217677
3.963703e-05 -0.027930846 0.017311782 0.009989542 -0.0051941955 0.01315932 -0.023838334 0.0076683518
00000000: 1930 afbc c48e 82ba 198e 7a3c 19d7 0e3c
00000010: b4f8 bebc a665 35bc 28a9 c0bc e95d 00bc
00000020: f3a5 b6bb 687f cb3c 109c 49ba 61af c2bc
00000030: fe47 1f3a fe86 73bc 364e ae3b a7d8 bfbb
00000040: a962 343c 624b fe39 d673 1bbc 86ec 993c
00000050: 4ab1 9f3c 545c 563c 1ef7 45bc 474a dcbb
00000060: e32b b4ba 7984 8cbc b002 693c a66b f43c
00000070: 2450 e5bc ea82 473c 8a86 b0bc 1736 3c3c
00000080: 9b13 22bc c71d 9fbb f113 843c 5917 043c
00000090: 4683 3abc fae9 2b3c ec64 dfbc add9 cdbc
000000a0: f8f3 ca3a 93e3 d039 593e cb3a d575 0cbc
000000b0: 911c b63c a3e2 d8bc 0a5a bfbc 1fcf 893c
000000c0: 3ad7 463b 7680 9fbc 65ac d4bc d9a9 a5bc
000000d0: 5708 a2bb da68 3fbc f4e8 26bc efda 84bc
000000e0: f03f 2638 3bcf e4bc 70d1 8d3c 2dab 233c
000000f0: 1234 aabb 309a 573c 9c48 c3bc cc46 fb3b

critic_head.2.weight f4 [1, 64]
0.0016633257 -0.0504668 0.08423771 -0.10735711 0.08659011 -0.088706516 0.01820877 -0.07426852
-0.041458886 0.114837185 0.08555169 0.027039675 -0.09831059 -0.056518 -0.0875242 -0.10373595
-0.06121833 -0.068148114 0.07122446 0.042867918 -0.041940935 -0.048708476 -0.06813669 -0.104022145
0.061954953 -0.10863463 -0.019965114 -0.09820295 0.10100934 0.06529487 -0.05027079 -0.10595731
0.043574017 0.07024051 0.00093007216 0.08614749 -0.10431602 0.05903721 -0.10282146 -0.10694908
0.08516127 0.023166282 -0.1042513 0.055815484 0.05007813 -0.009500166 0.019108368 -0.110596895
0.03567473 -0.021596553 -0.013083096 0.11722483 0.0077446653 -0.023826132 -0.11768291 -0.099384144
0.045992907 0.087806925 -0.09264339 0.10806547 -0.06371948 -0.0006936554 0.089700244 0.09628245
00000000: f303 da3a 46b6 4ebd d284 ac3d 0bde dbbd
00000010: 2856 b13d c3ab b5bd 8f2a 953c 181a 98bd
00000020: cbd0 29bd c22f eb3d b935 af3d 4f82 dd3c
00000030: 1057 c9bd 6b7f 67bd e33f b3bd 8473 d4bd
00000040: 12c0 7abd 3d91 8bbd 21de 913d 4596 2f3d
00000050: 42ca 2bbd 8a82 47bd 408b 8bbd 9009 d5bd
00000060: 7ac4 7d3d d57b debd e18d a3bc a11e c9bd
00000070: fcdd ce3d 51b9 853d bee8 4dbd 2500 d9bd
00000080: ab7a 323d 42da 8f3d 16d0 733a 186e b03d
00000090: a3a3 d5bd 00d1 713d 0f94 d2bd 1f08 dbbd
000000a0: 0869 ae3d 37c7 bd3c b581 d5bd c79e 643d
000000b0: ba1e 4d3d 96a6 1bbc 2789 9c3c a080 e2bd
000000c0: aa1f 123d 41eb b0bc 7b5a 56bc 9213 f03d
000000d0: f6c6 fd3b 052f c3bc bd03 f1bd ea89 cbbd
000000e0: 0f63 3c3d 1ed4 b33d d1bb bdbd 6e51 dd3d
000000f0: 5c7f 82bd 6dd6 35ba c3b4 b73d bc2f c53d
