project_files/runs/Sep10_10-40-34_kiveli.ics.forth.gr/ppo_policy_camera_cnn_whole_circle.pth (torch, 851205 bytes, 15 tensors)

cnn_base.0.weight f4 [16, 1, 3, 3]
0	0x3e56937a	0.20954695
1	0x3cd34678	0.025790438
2	0x3ddbcce7	0.107324414
3	0xbe950a0b	-0.29109225
4	0x3e14c398	0.14527738
5	0xbe866519	-0.26249006
6	0x3e5c841f	0.21534775
7	0x3dfab82a	0.12242158
8	0xbd493952	-0.04912693
9	0x3e852dea	0.26011592
10	0x3e714a01	0.23563386
11	0x3e79f444	0.24409586
12	0xbcdd7eb7	-0.027037961
13	0x3dbe6cf8	0.09298128
14	0xbe4bbd2d	-0.19896384
15	0xbe954e07	-0.29161093
16	0xbe3701fb	-0.17871849
17	0x3dada173	0.084780596
18	0xbd9062ad	-0.07050071
19	0x3e968c52	0.2940393
20	0x3ea7337f	0.32656476
21	0xbb96619d	-0.004589273
22	0xbe9472f7	-0.2899396
23	0xbe0816a1	-0.13289882
24	0xbea87c89	-0.32907513
25	0x3e48ee82	0.19622234
26	0x3ca42c20	0.020040572
27	0xbe9300ed	-0.28711644
28	0x3e460c09	0.19340529
29	0x3e539d46	0.20665464
30	0x3cdae29b	0.026719382
31	0xbde65728	-0.112470925
32	0xbe8880c1	-0.2666073
33	0x3e00c89e	0.1257653
34	0xbdc824e4	-0.09772661
35	0xbd87a595	-0.06623379
36	0xbe7a3267	-0.2443329
37	0x3e853c84	0.26022732
38	0xbe0c8b89	-0.13725103
39	0x3dd0a331	0.10187376
40	0x3ea0b706	0.31389636
41	0xbe83a05a	-0.25708276
42	0xbe82566e	-0.25456566
43	0x3e167310	0.1469233
44	0xbe73436c	-0.23756188
45	0x3dd267c9	0.10273702
46	0x3e7c73b1	0.24653508
47	0xbe07882c	-0.13235539
48	0x3c9c090e	0.019047286
49	0xbe5d81a3	-0.21631484
50	0xbd184fa7	-0.037185337
51	0x3e40b704	0.18819815
52	0xbd1ea41a	-0.03873072
53	0xbdd38d61	-0.103297
54	0xbdb474b6	-0.08811323
55	0xbe999589	-0.299969
56	0x3ea2b6e6	0.31780165
57	0x3d442f25	0.047896523
58	0x3e09c3c9	0.13453592
59	0x3ea8fbc9	0.33004597
60	0xbd38428e	-0.044985346
61	0x3e92470b	0.28569826
62	0xbe3ece3c	-0.1863336
63	0x3e84a897	0.25909874
64	0x3c64b075	0.013958086
65	0x3c7a77b4	0.0152873285
66	0x3e26b4cd	0.16279908
67	0x3e79e0b4	0.24402124
68	0x3e8b2443	0.27176103
69	0x3e79561e	0.24349257
70	0xbdaed625	-0.085369386
71	0xbce7f3df	-0.028314529
72	0x3d95c435	0.07312814
73	0xbdbe3be1	-0.09288765
74	0xbeabb4b3	-0.335363
75	0xbe2fbcda	-0.17161885
76	0x3db03dd2	0.08605541
77	0x3ea1329b	0.3148392
78	0x3d8b8939	0.068132825
79	0xbd178b2f	-0.03699797
80	0x3e1e5094	0.15460426
81	0x3e14b893	0.14523534
82	0x3e45c213	0.19312315
83	0x3e1470de	0.1449618
84	0x3e3f8d58	0.18706262
85	0x3ea710ea	0.32630092
86	0xbe8b216e	-0.27173942
87	0xbe3aa7c9	-0.18228067
88	0xbea517aa	-0.32244617
89	0x3c4c2259	0.012459361
90	0x3d414716	0.047186933
91	0x3e6232b2	0.22089651
92	0xbde6b6a0	-0.11265302
93	0xbe831f15	-0.2560965
94	0x3d179c28	0.037014157
95	0x3e49e2bf	0.19715403
96	0x3d8fe726	0.0702651
97	0x3ea6e297	0.3259475
98	0xbd599137	-0.053117003
99	0x3e348ceb	0.17631881
100	0xbc5f350c	-0.013623487
101	0x3d9eb0b1	0.07748545
102	0xbdd87352	-0.105688706
103	0xbea6ef40	-0.32604408
104	0xbd4b06d0	-0.049567044
105	0x3c9a2f30	0.018821329
106	0xbe84a2e8	-0.25905538
107	0x3e62f758	0.22164667
108	0xbe8adc7c	-0.2712134
109	0xbdd481fc	-0.10376355
110	0x3deaf4e8	0.114724934
111	0x3e917b8a	0.28414565
112	0x3e4d0bd4	0.20024043
113	0xbe4ee049	-0.20202745
114	0xbe501b89	-0.20323004
115	0x3e2117d2	0.15731743
116	0xbe3ee862	-0.18643335
117	0xbd3e1ecf	-0.0464161
118	0xbe11d8bd	-0.14242835
119	0xbde6e431	-0.11273993
120	0xbe1ba989	-0.15201391
121	0xbea3bf5a	-0.31981927
122	0xbe65d18f	-0.22443222
123	0xbdba9894	-0.09111133
124	0x3e73af86	0.23797426
125	0x3b2fdf77	0.0026836076
126	0xbe60637c	-0.2191295
127	0xbdbb590f	-0.09147846
128	0x3e33c7e2	0.17556718
129	0xbe5fa91e	-0.21841857
130	0x3e8a3b22	0.2699824
131	0x3e9ce050	0.30639887
132	0xbe8e7365	-0.27822414
133	0xbeab7684	-0.33488858
134	0x3e9cbcb0	0.30612707
135	0x3ddb11d3	0.10696759
136	0xbe491d29	-0.1964003
137	0x3e9cc3df	0.30618188
138	0xbe32ef8e	-0.17474195
139	0xbe7ce0e2	-0.24695161
140	0x3d6a4078	0.05719039
141	0x3e2b27c7	0.16714393
142	0x3e7aca50	0.24491239
143	0x3e83526c	0.2564882

cnn_base.0.bias f4 [16]
0	0x3da170bc	0.078828305
1	0x3eaa1a3c	0.3322314
2	0x3e377a3a	0.1791772
3	0x3e35401e	0.1770024
4	0x3dac1eb9	0.084042974
5	0x3e15791d	0.14596982
6	0xbdd9447e	-0.10608767
7	0x3e4c1b54	0.199323
8	0x3e4c62e3	0.19959597
9	0x3e355cdf	0.17711209
10	0xbe5ed712	-0.2176173
11	0xbe1f95d5	-0.155845
12	0x3e9785b5	0.29594198
13	0xbe616cbe	-0.22014138
14	0x3e2ccb35	0.16874392
15	0x3e31ccdf	0.17363308

cnn_base.3.weight f4 [32, 16, 3, 3]
0	0xbda2631a	-0.079290584
1	0xbd9ce0ea	-0.076600865
2	0xbd262f5d	-0.040572513
3	0xbda0ced9	-0.07851953
4	0xbd81b5f3	-0.06333532
5	0xbda7fa17	-0.08201998
6	0x3d942b53	0.07234826
7	0x3cbc073e	0.022952672
8	0xbd8af5bc	-0.06785151
9	0x3ca3d5c8	0.0199994
10	0xbcf14407	-0.029451383
11	0xbd01b556	-0.031667076
12	0x3d2c78f9	0.042107556
13	0xbc31d368	-0.010853626
14	0x3d9ae78b	0.075636946
15	0x3d98b69b	0.07456704
16	0xbd90dfaa	-0.070739105
17	0xbd3305ae	-0.04370659
18	0xbcd4d396	-0.025979798
19	0xbd5e998d	-0.054345656
20	0xbd621979	-0.055200074
21	0x3d0a9eb4	0.033842757
22	0xbd3b6461	-0.045750026
23	0x3d2ed5ae	0.04268425
24	0xbd24f0e7	-0.040268805
25	0xbd97e134	-0.07416001
26	0x3d1f330f	0.038867053
27	0xbd83a0bd	-0.06427143
28	0x3d90e02b	0.07074007
29	0x3c8c4d72	0.017126773
30	0x3cf04cef	0.02933356
31	0xbc1d7da2	-0.009612473
32	0xbda454db	-0.080239974
33	0x3d401968	0.04689923
34	0x3d85109e	0.0649731
35	0xbd2a6e33	-0.041609
36	0xbd96d813	-0.07365432
37	0x3d71ef94	0.05906637
38	0x3b80f05c	0.003934903
39	0xbcfd09e8	-0.030888513
40	0x3d056783	0.03256942
41	0x3d9d57c3	0.07682755
42	0x3d5dded0	0.05416757
43	0xbc8b5f01	-0.017013075
44	0xbbf63452	-0.0075135613
45	0xbd2aa586	-0.04166176
46	0xbc929049	-0.017891066
47	0xbd60c8ef	-0.054879125
48	0xbb973164	-0.004614042
49	0xbca76e1e	-0.02043825
50	0x3d315f7c	0.04330395
51	0x3d95e196	0.07318418
52	0x3da6ca98	0.081441104
53	0xbd869469	-0.06571276
54	0xbc2e4681	-0.010636927
55	0x3d4d2837	0.05008718
56	0x3c803725	0.015651295
57	0x3bb52556	0.0055281324
58	0x3d389045	0.04505946
59	0xbcbcc761	-0.02304429
60	0x3ca01087	0.01953913
61	0x3c47b680	0.0121895075
62	0x3d5a3853	0.05327637
63	0xbc0bd4f9	-0.008534663
64	0xbd94b019	-0.072601505
65	0x3c67153d	0.014104185
66	0x3d4fd53b	0.05074046
67	0xbd31b8f7	-0.043389287
68	0xbcb861d6	-0.02250759
69	0x3c3cada3	0.011516008
70	0x3d021eae	0.03176754
71	0xbd8c647c	-0.068551034
72	0x3d5d06de	0.053961627
73	0xbda1e831	-0.07905615
74	0x3d383c6d	0.0449795
75	0x3d24a487	0.040195968
76	0x3da2e1b3	0.07953205
77	0xbd2f63c4	-0.042819753
78	0x3c8049a7	0.01566012
79	0x3c0e95d1	0.008702711
80	0xbcb6a626	-0.022296023
81	0x3d966e84	0.07345298
82	0x3c875b1e	0.01652294
83	0xbda86952	-0.08223213
84	0x3d25a8a7	0.040444043
85	0x3d6b64e5	0.057469267
86	0x3d2c1635	0.042013366
87	0x3b36011a	0.0027771653
88	0xbd800ff5	-0.062530436
89	0x3d947546	0.07248931
90	0xbd43e9a6	-0.047830246
91	0xbd327dde	-0.043577068
92	0x3da18dda	0.07888384
93	0x3c748fea	0.01492689
94	0xbd2b4c76	-0.041820966
95	0x3d0abe05	0.033872623
96	0x3d6229ff	0.05521583
97	0x3d6bf783	0.057609092
98	0xbc23336c	-0.00996099
99	0x3cbcad69	0.023031907
100	0x3d4c0cad	0.049816776
101	0xbd8208ba	-0.06349321
102	0x3a25895b	0.0006314718
103	0x3d92506c	0.071442455
104	0xbd9f9295	-0.0779163
105	0xbc5b7f59	-0.013397061
106	0xbda79d16	-0.08184259
107	0x3d852ea9	0.0650304
108	0x3bd4df07	0.0064963135
109	0x3d9a7339	0.07541508
110	0x3d8bf57f	0.06833934
111	0xbc16923e	-0.00919014
112	0xbd984792	-0.07435526
113	0xbda11855	-0.07865969
114	0xbd9298db	-0.07158061
115	0x3d213912	0.039361067
116	0x3c0d29b4	0.0086159
117	0xbcd1d3c5	-0.025613675
118	0xbc9b7cf0	-0.018980473
119	0x3d3e72ea	0.04649631
120	0xbd068d92	-0.032849856
121	0x3d87b5b2	0.066264525
122	0x3d9917f2	0.0747527
123	0x3d1523bf	0.036411043
124	0x3d887b5b	0.06664153
125	0xbd9238fe	-0.07139777
126	0xbd9c21d0	-0.07623637
127	0x3d8fe070	0.0702523
128	0xbd96733e	-0.073461995
129	0x3d3d799b	0.04625855
130	0xbd502a5f	-0.05082166
131	0xbd84245c	-0.064522475
132	0x3da1863a	0.0788693
133	0x3cefa65f	0.029254137
134	0x3d06c91a	0.03290663
135	0xbcee985d	-0.029125387
136	0xbcf260a5	-0.0295871
137	0x3d73ff95	0.059569914
138	0xbce13d35	-0.027495006
139	0xbbaba7b1	-0.005238496
140	0xbd91b3a0	-0.07114339
141	0x3d947e04	0.07250598
142	0xbda8d049	-0.08242852
143	0x3c6dc7da	0.01451298
144	0xbc3b4938	-0.011431031
145	0x3d5e6dba	0.054303862
146	0x3d290720	0.04126656
147	0xbd1e56b0	-0.03865689
148	0x3daa1f3e	0.0830674
149	0x3d2711b3	0.040788364
150	0xbb04dd49	-0.0020273498
151	0xbd3a2dd1	-0.04545385
152	0x3d64083c	0.055671915
153	0x3c3df302	0.011593582
154	0xbd23279e	-0.039832704
155	0xbd7780f4	-0.060425714
156	0x3be1848b	0.0068822554
157	0x3c53727f	0.012905716
158	0x3ce367b8	0.027759418
159	0xbd2f6e95	-0.04283007
160	0xbd8ac281	-0.0677538
161	0xbc0775b4	-0.008267809
162	0x3d99c949	0.07509095
163	0xbda08f99	-0.07839889
164	0xbd1a03d6	-0.037601314
165	0x3d76e349	0.06027535
166	0x3d275e7f	0.040861603
167	0x3bfe55bd	0.0077616856
168	0x3ca12d0e	0.019674804
169	0x3cdd93cf	0.02704802
170	0x3d95d225	0.073154725
171	0xbcae5c4c	-0.021284245
172	0xbd562c43	-0.052288305
173	0x3d2aa098	0.04165706
174	0x3d7c0360	0.061526656
175	0xbd82d329	-0.06387932
176	0xbc659505	-0.01401258
177	0xbcbc154f	-0.02295938
178	0x3c931955	0.017956415
179	0xbd85af5e	-0.06527589
180	0x3d5b4e5a	0.05354152
181	0xbbcd0761	-0.006256983
182	0x3d410542	0.047124155
183	0xbd1d463d	-0.038397063
184	0x3d9d8cf7	0.076929025
185	0xbd61c1ac	-0.05511634
186	0x3d651229	0.055925522
187	0x3d9eb30e	0.07748996
188	0x3d88f362	0.066870466
189	0x3d3fd089	0.046829734
190	0xbc8b333b	-0.016992202
191	0xbd48e57e	-0.049046986
192	0x3d675d95	0.05648573
193	0xba0db78b	-0.0005406073
194	0xbd709d96	-0.058744036
195	0x3cb570fa	0.022148598
196	0x3b10f191	0.002211664
197	0xbb87797d	-0.0041343556
198	0xbd8919e6	-0.06694393
199	0x3d172bae	0.03690689
200	0xbda5ae79	-0.08089919
201	0x3c20e66c	0.009820562
202	0x3c25e0ff	0.010124444
203	0x3d83ba93	0.064320706
204	0xbd8df057	-0.06930607
205	0xbd520fe5	-0.05128469
206	0xbce8ea93	-0.028432166
207	0xbbec1b53	-0.0072054057
208	0x3d2f0353	0.04272778
209	0xbd08d40e	-0.033405356
210	0x3cd86da9	0.026419478
211	0x3d2409b5	0.04004832
212	0xbd6f1412	-0.05836875
213	0x3d43faa2	0.047846444
214	0xbd273ae4	-0.040827647
215	0xb94faa78	-0.00019804563
216	0xbcce7880	-0.025203943
217	0x3b7fd6f3	0.0039038032
218	0xbcac3880	-0.021023035
219	0xbd9de0c7	-0.077088885
220	0xbda0d9ca	-0.0785404
221	0xbda2306d	-0.07919393
222	0x3c966b18	0.018361613
223	0xbc5cbd7d	-0.013472912
224	0x3d6ed23b	0.05830596
225	0x3a170468	0.00057608495
226	0x3cdec0e5	0.027191589
227	0x3b92ab43	0.0044759824
228	0xbcf5691a	-0.029957343
229	0xbcaf54f0	-0.021402806
230	0x3d6a2f91	0.05717427
231	0xbb790f34	-0.0038003447
232	0x3d39d7dc	0.045371875
233	0x3ce1fa50	0.027585179
234	0x3b92944b	0.0044732443
235	0x3c2813da	0.010258639
236	0x3d38eb2f	0.045146164
237	0x3d076ea0	0.033064485
238	0xbd345977	-0.044030633
239	0xbd859761	-0.06523014
240	0x3d1e8fb8	0.03871128
241	0xbd01ee8c	-0.031721637
242	0xbd6fded2	-0.058562107
243	0x3d8806f0	0.06641948
244	0x3d3a0c60	0.045421958
245	0xbd477c0d	-0.04870229
246	0xbd33570b	-0.043784183
247	0xbd7e4ebb	-0.062086802
248	0x3d7af9cd	0.061273385
249	0xbc25a98e	-0.010111226
250	0x3c8a376c	0.01687213
251	0x3d2f5488	0.042805225
252	0x3d98101c	0.074249476
253	0x3cdf43ce	0.027254011
254	0x3bb7089c	0.005585743
255	0xbd9182ad	-0.071050026

cnn_base.3.bias f4 [32]
0	0x3cdee5b6	0.027209144
1	0x3d1bb940	0.038018465
2	0x3d937c18	0.072014034
3	0xbaa9a6c9	-0.0012943383
4	0xbd80dfda	-0.06292696
5	0x3ca61361	0.020272912
6	0xbc07c59b	-0.008286859
7	0xbd3ca1fe	-0.046052925
8	0x3da2049c	0.079110354
9	0x3c4437fc	0.011976238
10	0xbd3c9d27	-0.04604831
11	0x3c948941	0.018131854
12	0xbd3e7133	-0.046494674
13	0x3d5e2354	0.05423291
14	0x3cbcb025	0.023033211
15	0x3d39db4e	0.04537516
16	0xbca76235	-0.020432571
17	0x3d33bf7d	0.04388379
18	0xbc7b04ee	-0.015321
19	0xbc265943	-0.010153118
20	0xbd10dd20	-0.03536713
21	0xbd8aff82	-0.067870155
22	0xbbb7ef32	-0.005613231
23	0xbd2726b5	-0.0408084
24	0x3be3a095	0.006946633
25	0x3d9c05bc	0.07618281
26	0xbbd8fd66	-0.0066220043
27	0xbd564eed	-0.052321363
28	0x3d9085a1	0.07056738
29	0xbd4336b4	-0.04765959
30	0xbd01128d	-0.031511832
31	0x3d99d9c6	0.0751224

mlp_base.0.weight f4 [32, 2]
0	0x3f1a34c1	0.60236746
1	0x3eb86c4d	0.36020127
2	0x3d1fbbcc	0.038997456
3	0x3ef5a440	0.47976875
4	0xbeaca609	-0.33720425
5	0x3f2ff082	0.6872636
6	0xbd834971	-0.06410492
7	0xbf15bbfd	-0.5848997
8	0xbf2cb646	-0.6746563
9	0x3dfa2bad	0.12215362
10	0x3c7f0282	0.015564563
11	0xbeab3263	-0.3343688
12	0xbe8ee746	-0.27910823
13	0x3cff999f	0.031201182
14	0x3eac3b62	0.33639055
15	0xbe2d0691	-0.16897036
16	0x3e9ce973	0.30646858
17	0xbee892f1	-0.45424607
18	0xbe8ccb9c	-0.27499092
19	0x3ef94648	0.48686433
20	0xbeef3e3e	-0.46727175
21	0x3eff6df2	0.4988857
22	0x3f2b2b3e	0.6686286
23	0xbf1a041d	-0.60162526
24	0x3f3188ac	0.6934917
25	0xbbc24787	-0.005928937
26	0x3f364ba4	0.7120917
27	0xbe2ce771	-0.16885163
28	0xbe982bb8	-0.29720855
29	0xbe01a424	-0.12660271
30	0xbf1fedea	-0.62472403
31	0x3d7e5c30	0.062099636
32	0xbeb39abe	-0.35078996
33	0x3f30a033	0.68994445
34	0xbea1cfc3	-0.31603822
35	0xbf15261e	-0.5826129
36	0xbd342924	-0.043984547
37	0xbe30c49b	-0.17262499
38	0x3cead0cb	0.028664013
39	0xbf1ab38c	-0.60430217
40	0xbe97eaa6	-0.2967121
41	0x3e6d988c	0.23202723
42	0xbecdfb4a	-0.4023078
43	0x3f239021	0.638918
44	0xbee35011	-0.44397023
45	0xbc36a772	-0.0111483205
46	0xbe16713b	-0.14691631
47	0x3f348c9c	0.7052705
48	0xbee34bb0	-0.44393682
49	0xbe26d7e5	-0.16293295
50	0x3f164203	0.58694476
51	0x3db255d1	0.087077744
52	0x3eb5442c	0.35403574
53	0xbcae0e9a	-0.021247197
54	0xbe07dadb	-0.1326708
55	0xbe558102	-0.20849994
56	0xbd412ee9	-0.047163878
57	0xbf126e1b	-0.5719926
58	0x3e019cb6	0.12657437
59	0xbe099f02	-0.13439563
60	0xbf247a2b	-0.64248914
61	0x3f1263ee	0.5718373
62	0xbf101623	-0.5628378
63	0x3ee34df2	0.44395405

mlp_base.0.bias f4 [32]
0	0xbea0e5bc	-0.31425273
1	0xbf10f3a4	-0.56621766
2	0xbf076709	-0.52891594
3	0xbe78378a	-0.24239936
4	0x3f156c2e	0.58368194
5	0xbf0bb570	-0.54573727
6	0x3e0cb359	0.1374029
7	0x3da8563c	0.08219573
8	0xbea9bb9e	-0.33150953
9	0xbdbef44d	-0.093239404
10	0xbf1fd202	-0.6242982
11	0xbedc4d0b	-0.4302753
12	0x3e80ba69	0.2514222
13	0xbd676ac3	-0.0564983
14	0x3f23d32d	0.63994104
15	0xbe579e7b	-0.21056549
16	0xbd90ac63	-0.0706413
17	0x3e4f9f8d	0.20275708
18	0xbebe5a52	-0.37178284
19	0xbf1b5f83	-0.60692614
20	0xbe4d7640	-0.2006464
21	0x3e36c641	0.17849065
22	0x3f2b669a	0.6695343
23	0x3e8b4265	0.27199093
24	0x3f1c6153	0.61086005
25	0xbeed315a	-0.46326715
26	0x3f06e8f3	0.526992
27	0x3eae1f77	0.3400838
28	0x3d5ba587	0.053624656
29	0xbf2f9948	-0.68593264
30	0x3efd62c1	0.49489406
31	0xbe0d9c1d	-0.13829084

mlp_base.2.weight f4 [32, 32]
0	0xbd940705	-0.07227901
1	0x3ba24e20	0.004953161
2	0x3deaa4f8	0.114572465
3	0xbe002962	-0.12515786
4	0xbcfae0d4	-0.030624785
5	0x3dc62132	0.096743
6	0x3e0c79bf	0.13718317
7	0xbe001c2c	-0.12510747
8	0xbc1c8bda	-0.009554828
9	0x3e3547bc	0.17703146
10	0xbda56b15	-0.08077065
11	0xbd1b1e5c	-0.03787075
12	0x3e186ff8	0.14886463
13	0xbd4f5462	-0.050617583
14	0x3db52bbc	0.08846232
15	0x3d85b713	0.06529059
16	0x3b7ad505	0.0038273942
17	0xbd5fe25e	-0.05465924
18	0x3e0000b0	0.12500262
19	0xbddd2155	-0.10797373
20	0xbd1b7d0b	-0.037961047
21	0x3d3a5b4e	0.04549723
22	0x3d08b108	0.033371955
23	0xbe16509c	-0.14679188
24	0xbd1c8987	-0.038217094
25	0xbdefc2c7	-0.11707073
26	0x3dbc9417	0.092079334
27	0x3e2afdbd	0.16698356
28	0x3e058114	0.1303752
29	0xbe2e4077	-0.17016779
30	0xbd5df0b3	-0.054184627
31	0xbe324162	-0.17407754
32	0x3b6cd549	0.003613787
33	0xbdbd7063	-0.09249952
34	0x3e05a6e1	0.1305194
35	0xbc0631d8	-0.008190595
36	0x3e1ef3ed	0.15522738
37	0x3e066bc7	0.13127051
38	0xbe1ca311	-0.1529658
39	0x3dff5872	0.124680415
40	0xbd2180d9	-0.03942952
41	0xbca3acb1	-0.019979807
42	0x3da975a2	0.0827439
43	0xbd6293f4	-0.05531688
44	0xbc35705a	-0.01107415
45	0x3d91d58a	0.071208075
46	0x3e04fcc2	0.12987044
47	0x3e06cbfe	0.13163754
48	0xbd353bbc	-0.04424642
49	0xbd545996	-0.05184325
50	0x3e240615	0.16017945
51	0x3e12a39d	0.14320226
52	0xbcdf1ef4	-0.02723644
53	0xbe2857fa	-0.1643981
54	0x3b594b71	0.003315654
55	0x3e1a069c	0.15041584
56	0x3d1ebc6d	0.038753916
57	0xbdf67c6f	-0.120354526
58	0xbe2e3003	-0.17010503
59	0xbb6a1456	-0.0035717688
60	0x3d772c7a	0.06034515
61	0xbe073968	-0.13205492
62	0x3e30a367	0.17249833
63	0x3cbc6c72	0.02300093
64	0xbd1bfceb	-0.038083
65	0xbdf472ea	-0.119359806
66	0xbda1929c	-0.07889292
67	0x3d998a7d	0.07497118
68	0x3e28709d	0.16449209
69	0x3de2d3a7	0.11075526
70	0x3cce16fe	0.025157448
71	0x3dc11467	0.094277196
72	0xbd88ba37	-0.06676143
73	0x3e2c9ea1	0.16857387
74	0xbdf603bf	-0.12012433
75	0x3c962aa5	0.018330881
76	0xbdacb0ae	-0.084321365
77	0x3d327a97	0.043573942
78	0xbda2793b	-0.07933279
79	0x3e2d0b01	0.16898729
80	0x3e2de033	0.16980056
81	0xbcde474c	-0.027133606
82	0x3d4a4f1b	0.049391847
83	0xbd971c22	-0.07378413
84	0xbe0fa72c	-0.14028615
85	0x3e324411	0.17408778
86	0x3d91a482	0.071114555
87	0xbe13424a	-0.14380756
88	0x3d80692e	0.062700614
89	0xbdc5c5f6	-0.09656899
90	0xbe0f41f2	-0.1399
91	0xbd61c7c6	-0.05512216
92	0x3e1a6a39	0.15079583
93	0x3d95f958	0.07322949
94	0xbc72bd1d	-0.014815596
95	0xbdd1aa77	-0.10237592
96	0xbdffee65	-0.12496642
97	0x3d3ca8ed	0.046059538
98	0x3e1b2890	0.15152192
99	0xbe1693ac	-0.1470477
100	0xbd377169	-0.04478589
101	0x3dc0e3ad	0.09418426
102	0x3dbd09d2	0.09230389
103	0xbcd663e3	-0.026170677
104	0xbdd861e8	-0.10565549
105	0x3db8bed1	0.0902077
106	0x3e135e00	0.14391327
107	0xbb760377	-0.0037538686
108	0x3e1952ff	0.14973067
109	0x3e105ee7	0.14098702
110	0xbd8da910	-0.06917012
111	0xbdab3c0d	-0.08361063
112	0x3bc6fa18	0.006072294
113	0xbc6394a2	-0.013890417
114	0xbd7d8008	-0.06188968
115	0x3d86f3f8	0.06589502
116	0xbcdc4637	-0.02688895
117	0xbe0ed09b	-0.13946764
118	0xbe2f2bc2	-0.17106536
119	0x3d1b4f3d	0.037917364
120	0x3d17ab99	0.037028883
121	0xbc385a1e	-0.011251954
122	0x3de49006	0.11160283
123	0xbdbae858	-0.09126347
124	0xbd87388b	-0.066025816
125	0xbe175441	-0.14778234
126	0xbde926b0	-0.11384332
127	0x3d9b6a91	0.07588685
128	0x3cfc00bd	0.03076207
129	0xba72741a	-0.0009248868
130	0xbd50cbd6	-0.050975643
131	0xbd6c5c72	-0.05770535
132	0x3c147c0d	0.009062779
133	0x3d9b857b	0.07593819
134	0xbe152552	-0.14565018
135	0x3decba1f	0.11558937
136	0x3e0b04f8	0.13576114
137	0xbdc29b4a	-0.09502275
138	0x3d7ac320	0.061221242
139	0x3d85b85b	0.06529304
140	0xbd90bdb0	-0.0706743
141	0x3dc180c8	0.09448391
142	0x3e2b1e55	0.1671079
143	0x3d99a5f4	0.07502356
144	0xbe3088b4	-0.17239648
145	0xbdbc8e6f	-0.092068546
146	0xbb7a4787	-0.0038189606
147	0xbc795386	-0.015217667
148	0x3e1d9432	0.15388563
149	0xbd9f8053	-0.07788148
150	0x3e014fec	0.12628144
151	0x3dc4510a	0.095857695
152	0xbdac8e01	-0.084255226
153	0x3e03e9dc	0.12882179
154	0xbddb7819	-0.10716266
155	0x3e334db1	0.17510106
156	0xbda55979	-0.08073706
157	0xbd8ae74a	-0.06782396
158	0xbbb182c3	-0.0054171993
159	0xbe0bd3e9	-0.13655056
160	0xbe274ba0	-0.16337442
161	0x3c785a8c	0.015158307
162	0xbe21645d	-0.15760942
163	0x3d119060	0.035538077
164	0xbd07209b	-0.03299008
165	0xbe2ae234	-0.16687852
166	0xbdb1169f	-0.08646893
167	0x3dce5ded	0.10076509
168	0xbdd750f5	-0.10513488
169	0xbd97990a	-0.07402237
170	0xbd286d0a	-0.041119613
171	0x3e03190f	0.12802528
172	0x3dabaa0d	0.08382044
173	0xba562817	-0.0008169426
174	0x3d668ed1	0.056288544
175	0x3e1a69b7	0.1507939
176	0x3e1fabe4	0.15592915
177	0x3db155d9	0.08658952
178	0x3dea62d2	0.1144463
179	0x3e1d7ff5	0.15380843
180	0xbc3a4f27	-0.01137141
181	0x3daa263d	0.083080746
182	0xbab191cb	-0.0013547478
183	0x3da21723	0.07914569
184	0x3d3722d8	0.044710964
185	0xbdacb21c	-0.08432409
186	0x3ce15f4e	0.027511265
187	0xbdfe191b	-0.12407132
188	0x3e01165a	0.12606183
189	0xba4e5820	-0.0007871408
190	0x3bdde13d	0.0067712353
191	0xbc993830	-0.01870355
192	0x3dfacf05	0.12246517
193	0x3e0bc93b	0.13650982
194	0xbcd51310	-0.026010066
195	0xbdc4bbfd	-0.096061684
196	0xbbd6a84a	-0.0065508233
197	0xbd9f1e23	-0.0776942
198	0xbdeed127	-0.116609864
199	0xbdf46296	-0.11932866
200	0x3c8680e1	0.016418876
201	0x3dca2b7e	0.09871577
202	0x3d36742d	0.044544388
203	0x3e35c28b	0.17749994
204	0xbe082619	-0.13295783
205	0xbe0297ab	-0.12753169
206	0x3df73284	0.12070182
207	0x3d31de29	0.04342476
208	0xbc24e00d	-0.0100631835
209	0xbe1999a2	-0.15000013
210	0x3e274b97	0.16337429
211	0x3bd40307	0.0064700874
212	0xbd9a9ca3	-0.07549407
213	0x3e286b5d	0.16447206
214	0x3e0f2894	0.13980323
215	0xbc891ccb	-0.016737362
216	0xbd99a3fa	-0.07501979
217	0xbdf48a90	-0.11940491
218	0xbe1250cf	-0.14288639
219	0xbc8c104d	-0.017097617
220	0x3e34947f	0.17634772
221	0x3dbd1c41	0.09233905
222	0x3e2d8ea5	0.16948946
223	0x3c414644	0.011796538
224	0x3d477d23	0.048703324
225	0xbc7b5957	-0.0153411245
226	0x3b2cd9ba	0.0026374892
227	0xbddc34c3	-0.10752251
228	0xbc9751f6	-0.0184717
229	0x3e0c4af5	0.13700469
230	0xbe2815bb	-0.1641454
231	0xbcf4c5d9	-0.029879497
232	0x3c222175	0.009895672
233	0x3c447cb4	0.011992622
234	0x3e0ce9bf	0.13761042
235	0xbe279fbc	-0.16369528
236	0xbca31e02	-0.01991177
237	0xbdf7d4ee	-0.1210116
238	0x3dc6da59	0.09709615
239	0xbd4473d6	-0.047962032
240	0x3e2efb63	0.17088084
241	0x3de9065d	0.11378167
242	0xbe1e85d1	-0.15480734
243	0x3e13b388	0.14423954
244	0x3db3b9b0	0.087756515
245	0xbe24b776	-0.1608561
246	0x3e113e30	0.14183879
247	0xbbc0eef4	-0.0058878604
248	0x3bddf0ef	0.0067731063
249	0x3dbc80ee	0.09204279
250	0x3bf958dd	0.0076094703
251	0xbdf40d7e	-0.11916636
252	0xbe258e43	-0.1616755
253	0x3d793ea3	0.06085075
254	0xbdb7eb89	-0.08980472
255	0x3c3287c2	0.010896625

mlp_base.2.bias f4 [32]
0	0xbd8bc688	-0.06824976
1	0x3da9f678	0.08298963
2	0x3dc85c3d	0.09783218
3	0x3d967289	0.073460646
4	0x3d758432	0.059940524
5	0x3d0fe33b	0.035128813
6	0x3c1b2358	0.009468876
7	0xbddd2c9f	-0.107995264
8	0xbd0c74d7	-0.034291115
9	0x3d2c8e03	0.04212762
10	0xbbd3b84a	-0.006461178
11	0x3e08ed3c	0.13371748
12	0xbe13fd6e	-0.14452145
13	0xbdcf36ff	-0.101179115
14	0x3d1c271f	0.038123246
15	0x3ce3a325	0.027787754
16	0xbdd602e6	-0.104497716
17	0xbe1148c1	-0.1418791
18	0xbd03c8ba	-0.03217385
19	0xbd954b3b	-0.0728974
20	0x3deb3d52	0.11486305
21	0xbe25ce36	-0.16191944
22	0x3df9f9ee	0.122058734
23	0xbdc3b43a	-0.0955586
24	0xbd05fd95	-0.032712538
25	0xbccf2b15	-0.025289098
26	0xbd976fe9	-0.07394392
27	0x3e1c61b7	0.1527165
28	0xbe361acd	-0.17783661
29	0xbcaadc74	-0.020857073
30	0x3e2815f4	0.16414624
31	0xbdd88e92	-0.10574068

actor_head.0.weight f4 [64, 1600]
0	0xbbce5ee0	-0.006297931
1	0x38aa85b5	8.1311366e-05
2	0x3ca0fcc6	0.019651782
3	0xbb1f7b91	-0.0024335126
4	0x3ca9b52f	0.020716278
5	0xbc2a36ef	-0.010389074
6	0x3c126b00	0.008936644
7	0x3ba71503	0.0050989403
8	0x3ce0fcaa	0.02746423
9	0x3c3f0f79	0.011661404
10	0xbc8ed378	-0.01743482
11	0xbb8674e6	-0.004103291
12	0xbc032c10	-0.008006111
13	0x3ae78a2b	0.0017665079
14	0x3c3a8aa8	0.011385597
15	0x3ca2c422	0.019868914
16	0x3b3a1779	0.0028395338
17	0x3b8bb46b	0.004263451
18	0x3c36d9b3	0.011160302
19	0x3c4bdb3d	0.012442407
20	0x3cac76f5	0.021052817
21	0x3ccabc3a	0.024747957
22	0xbc4d19ba	-0.012518341
23	0xbb15ff81	-0.0022887888
24	0x3cc6fb61	0.024289789
25	0x3c56e13d	0.013115224
26	0x3c1d917b	0.009617205
27	0x3b7a5bd5	0.0038201709
28	0xbb3e19cf	-0.0029007082
29	0xbc311073	-0.010807144
30	0x3c77e11c	0.015129354
31	0xbc99e15f	-0.018784223
32	0x3a034429	0.000500741
33	0xbcc618c2	-0.024181727
34	0xbc6852e9	-0.014179924
35	0xbb7cdab2	-0.00385825
36	0x3cd662a6	0.026170086
37	0xbbd39e61	-0.006458089
38	0xbc7e8ef7	-0.015537015
39	0xbba6398c	-0.005072778
40	0xbc506200	-0.0127186775
41	0x3c9773d5	0.01848785
42	0xbb3a0b4f	-0.0028388088
43	0xbb96c40e	-0.0046010083
44	0x3ccda424	0.025102682
45	0x3bf4b80f	0.0074682306
46	0x3b726f1c	0.0036992496
47	0x3cca340f	0.024683027
48	0x3afa9d19	0.0019120305
49	0x3cb8dc06	0.022565853
50	0xbcb4048f	-0.02197483
51	0x3bea5837	0.0071516293
52	0xbc87a15f	-0.01655644
53	0xbc06d106	-0.008228546
54	0xbbadbe41	-0.005302221
55	0xbc892e85	-0.016745815
56	0xbbb2345e	-0.0054383716
57	0x3c0f74e2	0.008755894
58	0xbc5f7662	-0.0136390645
59	0xbc0c9000	-0.008579254
60	0xbc991b6a	-0.01868983
61	0x3cfbdb7e	0.03074431
62	0xbc61fbb3	-0.01379292
63	0x3cfa2ba9	0.030538397
64	0xbcdfeecc	-0.027335547
65	0x3ca43479	0.020044552
66	0x3c3fe736	0.01171284
67	0x3bd532e3	0.0065063103
68	0x3b9fc1b4	0.004875386
69	0xbbb2d524	-0.0054575372
70	0x3c5cd70d	0.0134790065
71	0x3c7b9edf	0.015357702
72	0xbc91d64f	-0.017802386
73	0x3c766e21	0.015040905
74	0x3a8a24b9	0.0010539509
75	0xbc873ce2	-0.016508523
76	0xbcc4defd	-0.02403211
77	0xbca00e38	-0.01953803
78	0x3c60cfad	0.013721389
79	0xbcd5c092	-0.026092801
80	0x3a2f5cdf	0.0006689559
81	0xbcb3952b	-0.021921715
82	0xbc7aef32	-0.015315818
83	0xbc95ee1d	-0.018302018
84	0x3c926c2a	0.017873842
85	0x3cad6c8a	0.02116992
86	0xbcaa6be1	-0.020803394
87	0x3c43b93c	0.011946019
88	0xbc72b44a	-0.014813492
89	0x3c8d35c1	0.017237546
90	0xbb7bd234	-0.0038424851
91	0x3ca1bd8d	0.019743705
92	0xbca0efb3	-0.019645547
93	0xbc9f606c	-0.019455157
94	0xbb7ba067	-0.0038395168
95	0x3c82fcae	0.015989628
96	0xbc987413	-0.018610036
97	0x3b0bc90d	0.0021329552
98	0xbc9f006c	-0.01940938
99	0x3b5d42d0	0.0033761747
100	0x3c05ed33	0.0081742285
101	0x3c6b9444	0.014378611
102	0x3c06287a	0.008188361
103	0xbc3de140	-0.011589348
104	0xbc7b7ee6	-0.015350079
105	0xbc2965c4	-0.010339204
106	0xbc9f2dc1	-0.019430997
107	0x3718667a	9.083766e-06
108	0x3cbc204e	0.022964623
109	0xbc29fe24	-0.010375533
110	0xbbceea98	-0.006314587
111	0xbcb5269f	-0.022113143
112	0x3cbfe583	0.02342487
113	0x3b87b05f	0.004140898
114	0xbb9968aa	-0.0046816664
115	0xbbc9cbfe	-0.006158351
116	0xbc2acd1a	-0.010424877
117	0x3c895fa7	0.016769243
118	0xbc728efe	-0.0148046
119	0x3bd40a00	0.0064709187
120	0xbbafe1b9	-0.0053674844
121	0xbb2567a8	-0.0025238786
122	0xbc2b12c6	-0.010441488
123	0x3c98baeb	0.018643817
124	0x3ca22559	0.0197932
125	0x3c85ddff	0.016341208
126	0x3caad3c4	0.02085293
127	0x3b9a403e	0.0047073653
128	0x3a104014	0.00055027124
129	0xbb6bec3d	-0.0035998963
130	0x3c47c069	0.01219187
131	0xbc97292f	-0.018452255
132	0xbcb7f3dc	-0.022455148
133	0xbc9365fb	-0.017992964
134	0x3b688907	0.0035482065
135	0x3cae27cb	0.02125921
136	0xbc0bab40	-0.008524716
137	0x3c548d75	0.012973179
138	0x3ca97302	0.020684723
139	0xbcc6f589	-0.024287002
140	0x3c18048d	0.009278429
141	0x3bfbd1e3	0.0076849326
142	0x3a860820	0.001022581
143	0x3b7130dd	0.0036802806
144	0x3c662e97	0.014049194
145	0xbc3a44d0	-0.011368945
146	0x3cd021fd	0.025406832
147	0xbc430b74	-0.011904586
148	0xba648def	-0.00087186595
149	0x3a59357f	0.00082858646
150	0xbc0a7c8f	-0.008452549
151	0x3b62b8bd	0.0034594976
152	0x3c933dab	0.017973742
153	0x3b2967cf	0.0025849228
154	0xbcc78270	-0.02435419
155	0x3c99bafa	0.018765915
156	0x3a803cc2	0.0009783732
157	0x3c58c800	0.0132312775
158	0xb95e813c	-0.00021219713
159	0xba4556f4	-0.00075279106
160	0x3c9deabf	0.019276975
161	0x3c51fa91	0.012816087
162	0x3cbc69e6	0.022999715
163	0x3c5a5098	0.013324879
164	0x3c245d67	0.0100320345
165	0xbcb47085	-0.02202631
166	0x3b9b33b1	0.0047363867
167	0xbc9cbab6	-0.019132
168	0x3c8eaa33	0.017415142
169	0xbcc8d4f6	-0.02451561
170	0x3ca0bbe6	0.019620847
171	0xbb40d63f	-0.0029424576
172	0xbc0a0131	-0.008423136
173	0xbca53ee8	-0.020171598
174	0xbca7da7a	-0.02048992
175	0xbca83854	-0.020534672
176	0xbc635f9e	-0.013877777
177	0x3c9c1774	0.019054152
178	0xbc009c32	-0.00784974
179	0xbc082dc8	-0.008311696
180	0xbaa067a9	-0.0012237924
181	0xbb963f35	-0.0045851716
182	0xbc5ff1f1	-0.013668523
183	0x3c5f9e75	0.013648619
184	0xbb80cdb9	-0.003930774
185	0x3c1508b2	0.009096311
186	0x3ccc393f	0.02492964
187	0x3c63e051	0.013908462
188	0x3c96a96c	0.018391334
189	0x3b3ed703	0.0029119856
190	0xbbada0b3	-0.005298698
191	0xbc3b7981	-0.011442543
192	0x3ac8c8c8	0.0015318627
193	0x3c9cbb2d	0.019132221
194	0xbc2e4ffc	-0.010639187
195	0x3c223cc0	0.009902179
196	0x3c5f91c5	0.013645594
197	0xba77873e	-0.0009442455
198	0x3b7db156	0.0038710437
199	0x3c1db19b	0.009624864
200	0x3a1fee79	0.0006100904
201	0xba7f6fb7	-0.0009744125
202	0x3be973ee	0.0071244156
203	0x3c2c212a	0.010505954
204	0xbc6eb055	-0.014568408
205	0x3b2ed4cd	0.0026677132
206	0xbc3f0cfa	-0.011660809
207	0xbc06a488	-0.008217938
208	0x3c4d91b1	0.012546943
209	0xbc4fda35	-0.012686302
210	0x3cc21794	0.023692884
211	0x3cc97020	0.024589598
212	0x3cbc926b	0.023019036
213	0x3c324813	0.010881442
214	0x3cc4af1f	0.024009285
215	0x3c6750f2	0.01411842
216	0x3c1ccb6c	0.009569984
217	0xbc488ee1	-0.012241096
218	0xbc851f09	-0.01625015
219	0xbc01dbb3	-0.0079259155
220	0x3c91099d	0.01770478
221	0xbbf304ad	-0.007416329
222	0xbcab1aa9	-0.020886736
223	0x3c4349e8	0.011919476
224	0x3b874917	0.004128586
225	0x3c9d1635	0.019175628
226	0x3ae83833	0.0017716944
227	0xbc9775df	-0.018488823
228	0xbc984a51	-0.018590124
229	0xbbbad604	-0.005701782
230	0xbbea71b2	-0.007154667
231	0x3c0f19a9	0.008734145
232	0xbc6dddc1	-0.014518202
233	0xbb1b9409	-0.002373936
234	0x3bde7475	0.006788785
235	0x3aa77a32	0.0012777506
236	0x3c296440	0.010338843
237	0xbc945d0c	-0.018110774
238	0x3892a14b	6.991866e-05
239	0xbc83b00f	-0.016075162
240	0x3c25ec5c	0.010127153
241	0x3c8aae66	0.016928863
242	0xbc8a9872	-0.016918395
243	0x3c3a9e32	0.011390256
244	0x3a8fe038	0.0010976857
245	0xbc82e6c3	-0.015979176
246	0xbbb8504f	-0.005624808
247	0x3bd03786	0.006354275
248	0x3cab7401	0.020929338
249	0x3c1fe481	0.009759069
250	0xbcba73ca	-0.02276029
251	0xbb301672	-0.0026868847
252	0xbc16079d	-0.009157089
253	0x3c831ab1	0.016003938
254	0x3be8f898	0.007109713
255	0x3cc116e9	0.023570495

actor_head.0.bias f4 [64]
0	0xbca21cdc	-0.019789152
1	0x3ce03a92	0.027371679
2	0x3a8568ff	0.0010178386
3	0xbccc8af7	-0.024968607
4	0xbc733daa	-0.014846245
5	0x3c399505	0.011327033
6	0x3c2a7017	0.010402701
7	0x399bf742	0.00029748125
8	0x3ccf1dfa	0.025282849
9	0x3cb09ef6	0.021560173
10	0xbcc0e0af	-0.023544637
11	0x3c8c361f	0.01711565
12	0x3b2468a0	0.0025086775
13	0xbc74d563	-0.0149434535
14	0xbbc4764a	-0.0059955465
15	0x3cc0e673	0.023547387
16	0xbc8890d4	-0.016670622
17	0x3bb2a6e3	0.0054520234
18	0xbcd35b06	-0.02580024
19	0xbc850d36	-0.016241651
20	0xbbe2ccfe	-0.0069214096
21	0x3c4563f4	0.012047756
22	0x3b13fa53	0.0022579625
23	0xbc3f94e9	-0.011693218
24	0x3ac206f0	0.0014803093
25	0xbc33ea69	-0.010981181
26	0x3bfaf790	0.0076589063
27	0x3c580573	0.013184893
28	0xbc0817bd	-0.008306441
29	0x3c16ae28	0.0091967955
30	0x3c0453fa	0.008076662
31	0xbcb14d4c	-0.021643303
32	0x3cc31b24	0.023816653
33	0x3c762f00	0.015025854
34	0x3ad58a7d	0.0016291883
35	0x3b0685de	0.0020526568
36	0xbb95a209	-0.0045664352
37	0xbc34de35	-0.011039306
38	0xbc6f0852	-0.014589386
39	0x3c19cf05	0.009387736
40	0xbcade606	-0.021227848
41	0xbc9c9647	-0.019114627
42	0x3b8dabdb	0.0043234653
43	0xb909eabd	-0.00013152785
44	0x3c1e031d	0.009644297
45	0x3b3b84ed	0.0028613165
46	0x3a355c80	0.00069183856
47	0xbb277710	-0.0025553145
48	0x3aa6e2fe	0.0012732444
49	0xbc883643	-0.016627437
50	0xbc97ce7f	-0.018531082
51	0x3c1b1dd2	0.009467559
52	0xbc915849	-0.017742293
53	0x3b0b82ad	0.0021287606
54	0xbc0279cc	-0.007963609
55	0x3baf0cdc	0.005342109
56	0x3b37d133	0.0028048276
57	0x3aa63bb2	0.0012682586
58	0xb9da7269	-0.00041665442
59	0x3c2e90b4	0.010654617
60	0xbcd53258	-0.026024982
61	0x3b8f86fc	0.004380105
62	0xbc952c18	-0.018209502
63	0x3c2b8b3c	0.010470208

actor_head.2.weight f4 [2, 64]
0	0xbd42e9ba	-0.04758618
1	0x3de8a1dc	0.11358997
2	0xbc6a7362	-0.014309736
3	0xbbeab0bf	-0.007162183
4	0x3d4aed1a	0.049542524
5	0x3bd8fa48	0.0066216327
6	0xbddcdf2e	-0.10784756
7	0x3db3139c	0.087439746
8	0xbc80d1e2	-0.01572508
9	0xbb482bdc	-0.003054372
10	0x3d8aba6d	0.06773839
11	0x3d9914f6	0.07474701
12	0x3c9cadd0	0.019125849
13	0xbdf5ded4	-0.12005392
14	0x3d518bf3	0.051158857
15	0x3df33866	0.118759915
16	0xbcaebecc	-0.021331213
17	0x3d605ea6	0.054777764
18	0x3dc8c2a6	0.09802751
19	0xbd95d257	-0.0731551
20	0xbd3229c5	-0.043496866
21	0xbd773df7	-0.06036183
22	0x3df5aea3	0.119962
23	0x3cf611d7	0.030037804
24	0xbd9adf1d	-0.07562087
25	0xbdc09aa8	-0.09404498
26	0x3db53366	0.08847694
27	0xbd816a32	-0.06319083
28	0xbd3bb95c	-0.04583107
29	0xbdc74212	-0.09729399
30	0xbd9b279a	-0.07575913
31	0xbd30a8d5	-0.04312976
32	0x3db074b4	0.08616009
33	0xbd86896a	-0.065691784
34	0xbd94d170	-0.072665095
35	0xbdcff1b4	-0.10153523
36	0x3d7a6c3d	0.06113838
37	0x3c485b37	0.012228779
38	0xbdc5145e	-0.09623025
39	0xbd83de3c	-0.06438872
40	0xbda57b0b	-0.08080109
41	0x3c882a24	0.016621657
42	0xbda5c5e3	-0.080943845
43	0x3ddd339e	0.10800861
44	0x3ca871a1	0.020561995
45	0x3da0b19e	0.07846378
46	0xbd52754d	-0.051381398
47	0xbd34f17c	-0.04417561
48	0x3df9f294	0.12204471
49	0x3c7f3ca4	0.015578423
50	0xbce0254d	-0.027361536
51	0x3d6f88b5	0.058479983
52	0x3d356cb7	0.04429313
53	0xbbdfe082	-0.0068321833
54	0x3ddbd344	0.10733655
55	0x3bd4196a	0.006472756
56	0x3db4de79	0.08831496
57	0xbd68bb74	-0.056819394
58	0xbd9e5bc3	-0.07732346
59	0xbd49bcb0	-0.049252212
60	0xba9a7755	-0.0011784831
61	0xbc8e09bc	-0.017338626
62	0x3d5a3e68	0.05328217
63	0x3d871ceb	0.065973125
64	0xbdef90fc	-0.116975754
65	0xbde05c14	-0.109550625
66	0xbe08be2d	-0.13353796
67	0x3dcd4afb	0.10024067
68	0xbd811d42	-0.063044086
69	0xbb8910f5	-0.0041829296
70	0x3dc79e4c	0.097469896
71	0x3ba68392	0.0050816024
72	0xbd216770	-0.039405286
73	0x3d41b3c0	0.047290564
74	0x3c7c6d6d	0.0154069485
75	0xbc95ed6e	-0.018301692
76	0xbd496089	-0.04916433
77	0xbdcfd6bf	-0.101483814
78	0x3d5fdcca	0.05465392
79	0xbdb8271f	-0.08991837
80	0xbdd3ccd4	-0.10341802
81	0xbd9c209c	-0.07623407
82	0x3d800366	0.06250648
83	0x3be76453	0.00706152
84	0x3cc6fccb	0.024290463
85	0xbcdac655	-0.0267059
86	0x3dade884	0.084916145
87	0x3cc4a7b7	0.024005754
88	0x3df45d1e	0.11931823
89	0xbc482563	-0.012215945
90	0x3d6a31e1	0.057176474
91	0x3de3b081	0.1111765
92	0x3d7f15ca	0.06227664
93	0x3c81505f	0.015785394
94	0x3d8efe80	0.06982136
95	0x3c12ef28	0.008968152
96	0x3d266487	0.040623214
97	0xbd3b2403	-0.04568864
98	0xbcf5603f	-0.02995312
99	0xbcb54785	-0.02212883
100	0x3cb2b205	0.021813402
101	0xbdbd2611	-0.09235776
102	0x3cfd0986	0.03088833
103	0xbdc27cc2	-0.09496452
104	0xbde99dfe	-0.11407088
105	0x3dfecaee	0.124410495
106	0xbe00492f	-0.12527917
107	0x3d8f87d4	0.07008329
108	0xbd5b36ff	-0.053519245
109	0xbce46f56	-0.02788512
110	0x3d925ed2	0.07146992
111	0xbdb1230a	-0.08649261
112	0x3d960a96	0.07326238
113	0x3d92febf	0.07177495
114	0xbd7f95a8	-0.062398583
115	0x3d971ef5	0.073789515
116	0x3dba7525	0.09104375
117	0xbd053ab1	-0.032526676
118	0x3de87d95	0.11352078
119	0x3e018c38	0.12651145
120	0xbdb44ac4	-0.08803323
121	0xbd4342e2	-0.047671206
122	0x3dfe756a	0.12424739
123	0x3d2c48e6	0.04206171
124	0x3d0ac0c4	0.033875242
125	0xbdd4cb24	-0.103903085
126	0x3d84fd2b	0.064936005
127	0x3ddc0132	0.107424155

actor_head.2.bias f4 [2]
0	0x3d202a9d	0.03910314
1	0x3c959354	0.018258728

critic_head.0.weight f4 [64, 1600]
0	0xbc449c31	-0.01200013
1	0x3c8dcde6	0.017310094
2	0xbb16bf64	-0.0023002261
3	0x3c5a45ab	0.013322274
4	0x3bdf665e	0.006817623
5	0xbc9f448d	-0.019441867
6	0x3c95122a	0.018197138
7	0xbc891902	-0.016735557
8	0xbbcf03e2	-0.0063176015
9	0x3c7791f5	0.015110482
10	0x3cfae07a	0.030624617
11	0xbc49b7ee	-0.012311919
12	0xbc0dc374	-0.008652557
13	0x3cf3eb1b	0.029775193
14	0x3b754180	0.0037423074
15	0xbc07ced3	-0.008289057
16	0xbc886d67	-0.01665373
17	0xbc61345a	-0.013745392
18	0xbbb014c7	-0.0053735706
19	0x3c7a3233	0.0152707575
20	0x3c85bf59	0.016326593
21	0x3c2def37	0.010616115
22	0x3aebf666	0.001800251
23	0x3c96aa46	0.01839174
24	0x3aeedb2d	0.0018223278
25	0x3a7feccc	0.00097627635
26	0xbc11001d	-0.008850125
27	0x3c2172b5	0.009854008
28	0xbc1eb3ca	-0.00968642
29	0x3d010af5	0.03150459
30	0x3c453ad1	0.012037949
31	0x3c3d9841	0.011571945
32	0x3be5b250	0.007009782
33	0x3a5eb523	0.00084956194
34	0x3c74e25c	0.014946546
35	0x3c04666a	0.008081058
36	0xbbb80053	-0.005615273
37	0xbc83ee9b	-0.016104987
38	0xbc6a1d6a	-0.014289239
39	0xbb60ff76	-0.0034331954
40	0xbb87f275	-0.004148776
41	0x3c9a4d00	0.018835545
42	0xbc19c870	-0.009386167
43	0x3cbdcdcf	0.023169426
44	0xbc45e1e8	-0.012077786
45	0x3c35d180	0.011097312
46	0x3c32fc27	0.010924376
47	0x3c8f8bf9	0.017522799
48	0x3babdf3a	0.0052451165
49	0x3bdfa0b4	0.006824577
50	0xba7593bc	-0.00093680224
51	0xbc92b210	-0.017907172
52	0x3c987bd3	0.018613731
53	0x3ad22463	0.0016032573
54	0x3c73dfd4	0.014884908
55	0xbc9c0945	-0.019047389
56	0xbbc2761a	-0.005934489
57	0x3c6e6ecd	0.014552784
58	0xbae07489	-0.0017124574
59	0xbbe6fb0a	-0.007048969
60	0x3c58f0da	0.013241017
61	0x3d023baa	0.03179518
62	0xbb3fb224	-0.0029250467
63	0xbc1a293d	-0.009409246
64	0xb965ab15	-0.00021902875
65	0xbcc0ef50	-0.023551613
66	0x3c23389d	0.009962228
67	0xbc5f621a	-0.013634229
68	0xbbeff11a	-0.0073224427
69	0x3d07e762	0.03317965
70	0x3b90d2d3	0.0044196635
71	0x3c571c48	0.013129301
72	0xbca79d9a	-0.020460892
73	0xbc57e310	-0.0131766945
74	0xbca95aa6	-0.020673107
75	0xbbece0d6	-0.007228951
76	0xbc67db5c	-0.01415142
77	0x3ab7ce67	0.0014023305
78	0xbcf568ed	-0.02995726
79	0xbc90a33c	-0.017655961
80	0xbcd6219c	-0.026139073
81	0xbbd70f6d	-0.006563118
82	0x3cbac15e	0.022797283
83	0x3ceb47bb	0.028720727
84	0x3ca288f0	0.019840688
85	0x3c8c7dab	0.017149767
86	0x3aaf2088	0.0013361135
87	0x3ca2cb62	0.019872371
88	0xbc4f763b	-0.012662466
89	0x3d00f3bb	0.03148244
90	0xbc6ca398	-0.014443301
91	0xbc44891d	-0.011995581
92	0xbcc6c835	-0.024265388
93	0x3cd77790	0.026302129
94	0x3cf7981f	0.030223904
95	0xba3fc50f	-0.0007315436
96	0x3bbfcfbe	0.005853622
97	0x3bcd0233	0.0062563657
98	0xbc8cfce5	-0.017210433
99	0xbc241dd9	-0.010016882
100	0xbab130f5	-0.0013518619
101	0x39888d26	0.00026045105
102	0xbc07ee80	-0.008296609
103	0x3c1baf5e	0.00950226
104	0xbc316a99	-0.0108286375
105	0xbc6b4f10	-0.014362112
106	0x3c5b38f0	0.013380274
107	0xbcc3710e	-0.02385762
108	0xbc0fd6ac	-0.008779209
109	0xbce2e1f5	-0.027695635
110	0x3c9d105b	0.019172838
111	0xbc914072	-0.017730925
112	0x3c62b051	0.013835982
113	0xbbc074ec	-0.005873313
114	0x3ca47667	0.02007599
115	0xbc8e0e4e	-0.017340805
116	0xbc121d5c	-0.008918133
117	0x39f31d61	0.0004637046
118	0x3c40155a	0.011723841
119	0xbc887da4	-0.016661473
120	0xbce5a4fc	-0.028032772
121	0xbcb7ddc6	-0.022444617
122	0x3b8ce28e	0.0042994684
123	0x3c58aa92	0.013224261
124	0xbca127b1	-0.019672247
125	0xbae12096	-0.0017175849
126	0x3ae4ee4c	0.0017466038
127	0x3ca97a66	0.020688247
128	0xbcb58a28	-0.022160605
129	0xbcca9755	-0.024730364
130	0xbc2a1638	-0.010381274
131	0xbbb470f2	-0.005506628
132	0x3c1f67e6	0.009729361
133	0x3bda80e3	0.0066681965
134	0xbc99de35	-0.018782714
135	0x3bdb851b	0.006699217
136	0xbb82f691	-0.003996678
137	0xbbd292dc	-0.0064261984
138	0xbcc4a05b	-0.024002245
139	0x3c7313ca	0.014836261
140	0xbc594690	-0.013261452
141	0x3b0fca42	0.0021940623
142	0x3a9e35d5	0.0012070487
143	0x3ccae8d0	0.024769217
144	0x3c7a8caa	0.015292326
145	0x3c8a2c74	0.0168669
146	0xbcd9d8d3	-0.026592648
147	0xbcd5ce27	-0.026099278
148	0x3c3df269	0.01159344
149	0x3ca7a36e	0.020463672
150	0xbc28f2ee	-0.010311825
151	0xbc4d9957	-0.012548766
152	0xbb8c35de	-0.0042788824
153	0xbcbc365f	-0.022975145
154	0xbcc1e2a8	-0.023667648
155	0xbcd91d73	-0.0265033
156	0xbc3fafca	-0.011699626
157	0xbccc7e76	-0.024962645
158	0xbbb8f297	-0.0056441533
159	0x3bd9b03f	0.0066433246
160	0xbc8f3a4c	-0.017483853
161	0x3c83334c	0.016015671
162	0xbc98316d	-0.018578256
163	0x3c9381de	0.018006261
164	0x3ca88545	0.02057136
165	0x3bff6d90	0.0077950433
166	0xbbc3b1b9	-0.005972114
167	0xbcc8e8e9	-0.024525123
168	0xbc0d3fa0	-0.008621126
169	0xbc889640	-0.016673207
170	0xbccbd433	-0.024881458
171	0xbca67931	-0.02032146
172	0x3c36d315	0.011158724
173	0x3bfdf106	0.0077496795
174	0xb9659bcb	-0.00021897179
175	0x3bbac70d	0.0056999982
176	0x3b112bc9	0.0022151342
177	0x3cb91235	0.02259169
178	0x3be2b9c4	0.0069191176
179	0xbbdadb89	-0.0066790027
180	0xbcade473	-0.021227097
181	0xbc6f5f46	-0.014610117
182	0xbb9bdd08	-0.0047565736
183	0x3bf9e43b	0.007626084
184	0x3bd7c837	0.0065851468
185	0xbcb82032	-0.02247629
186	0xbbae787b	-0.005324421
187	0x3cb1ba09	0.021695154
188	0xbba6e815	-0.0050935843
189	0xbc822504	-0.015886791
190	0x3b222289	0.0024739823
191	0xbca8477e	-0.020541903
192	0x3c86dc6e	0.016462531
193	0xbc923d34	-0.01785145
194	0xbc0c25fc	-0.008553978
195	0xbac3d8c4	-0.001494192
196	0xbcb669a7	-0.022267176
197	0x3c5663ae	0.013085289
198	0xbcbea16b	-0.02327033
199	0xbc15e9a9	-0.009149947
200	0x3bc3a78b	0.0059709004
201	0xbc7d9f28	-0.01547984
202	0x3bc82b3d	0.00610867
203	0x3a711cf5	0.00091977353
204	0xbce8d70e	-0.028422859
205	0xbbe49e31	-0.0069768657
206	0x3c852417	0.01625256
207	0xbce71ad4	-0.028211035
208	0xbc955406	-0.018228542
209	0xbbc848d4	-0.0061121974
210	0x3bbec92e	0.0058223223
211	0xbc7a13b3	-0.015263486
212	0x3c802bb0	0.015645832
213	0xbca7fb2e	-0.020505514
214	0xbac7eaf4	-0.0015252517
215	0xbc9c75ab	-0.019099077
216	0xbce0cd40	-0.02744162
217	0x3c1df4cd	0.009640885
218	0xbacf1e37	-0.0015801851
219	0x3bada14f	0.0052987705
220	0xbc5a1f25	-0.0133130895
221	0x399243a9	0.000278977
222	0x3c64f959	0.013975465
223	0xbb99d154	-0.0046941433
224	0x3c0061e3	0.007835838
225	0x3c3cfb07	0.011534459
226	0x3b19899e	0.0023427974
227	0x3c251448	0.010075636
228	0xba6e215d	-0.0009083951
229	0xbc3e98fa	-0.011633152
230	0xb93fa020	-0.0001827483
231	0xbba79ea9	-0.0051153493
232	0x3bfd6e8b	0.007734125
233	0xbce0d44a	-0.027444977
234	0x3cae74ee	0.02129599
235	0xbcb45899	-0.022014903
236	0xbc840cd6	-0.016119402
237	0xbc9b85ba	-0.018984664
238	0x3c34945d	0.011021701
239	0xbce588c2	-0.028019313
240	0x3c6aff8c	0.014343154
241	0x3c2c04e2	0.010499211
242	0xbbe18ca4	-0.0068832207
243	0xbc933e5a	-0.017974067
244	0x3c21bb3c	0.0098713
245	0xbc104572	-0.00880562
246	0x3bc32ae0	0.005956039
247	0xbccab52f	-0.024744598
248	0xbbfa49ad	-0.0076381774
249	0x3c159f9c	0.009132292
250	0xbcbf0ffa	-0.023323048
251	0x3c9e1449	0.019296782
252	0x3c80bc73	0.01571486
253	0x3aaa8b39	0.0013011462
254	0x3c2984ce	0.0103466045
255	0xbb39d09e	-0.0028353105

critic_head.0.bias f4 [64]
0	0xbb48fe2a	-0.0030669072
1	0xbb940765	-0.004517483
2	0xbb21405e	-0.0024605016
3	0xbc77ff75	-0.015136589
4	0x3c434821	0.011919052
5	0x3c79ed9d	0.015254405
6	0xbafc335e	-0.0019241383
7	0xbc35df1d	-0.011100558
8	0xbb2acf8e	-0.0026063654
9	0xbcee2bfa	-0.029073704
10	0xbcd33679	-0.02578281
11	0xbc2bc2d9	-0.010483467
12	0xbca7cddf	-0.02048391
13	0x3b085e37	0.002080811
14	0xbbbc8b2b	-0.005753895
15	0xbc2cb29f	-0.010540633
16	0x3c58b383	0.013226393
17	0x3ba55d9f	0.005046561
18	0x3c18e74f	0.009332492
19	0xbc91c444	-0.017793782
20	0x3b004af6	0.001957593
21	0x3c202895	0.0097753005
22	0x3bb29fe6	0.0054511903
23	0x3cb9b8cb	0.022671124
24	0xbc4e5a2a	-0.012594739
25	0xbb068b91	-0.0020529965
26	0x3c8a8208	0.016907707
27	0xbccb77d1	-0.024837406
28	0x3cb6ab08	0.02229835
29	0xbced27da	-0.028949667
30	0xbcb2092e	-0.021732893
31	0xbae09031	-0.0017132816
32	0xbb989a61	-0.0046570753
33	0x3cfda5ac	0.030962788
34	0x3c949ef6	0.018142205
35	0x3b8ad6a5	0.0042370134
36	0xbbf2b89a	-0.00740726
37	0x3c06731c	0.008206155
38	0x3cc602bd	0.024171228
39	0xbbefd6f8	-0.0073193274
40	0xbcc552c6	-0.024087321
41	0x3c87875f	0.016544042
42	0x3c2c4b35	0.010515978
43	0xbcb5a98c	-0.022175573
44	0xbc39b8c0	-0.011335552
45	0xbbb8c657	-0.0056388783
46	0xbb061d75	-0.0020464335
47	0x3cb0a6ae	0.021563854
48	0x3cfd669d	0.030932719
49	0x3bc17ba1	0.0059046303
50	0x3c0bc6dc	0.0085312985
51	0xbc745d60	-0.01491484
52	0x3d6ceda9	0.057843838
53	0xbcc4f0a1	-0.024040522
54	0xbc10c795	-0.008836647
55	0x3cdefd8d	0.027220512
56	0xbc3e2a57	-0.011606774
57	0xbc2a3bf6	-0.010390272
58	0xbcb61d74	-0.022230841
59	0x3a5d6158	0.00084449863
60	0x3c1d9eeb	0.0096204085
61	0x3bfd2944	0.0077258665
62	0x3cb8e80e	0.02257159
63	0xbc2584df	-0.01010248

critic_head.2.weight f4 [1, 64]
0	0x3cb541f2	0.022126172
1	0xbc849dcd	-0.016188527
2	0x3d2a1a3d	0.04152893
3	0x3d5cc37d	0.05389737
4	0xbcc7d485	-0.02439333
5	0xbc6a4f04	-0.014301065
6	0x3d155965	0.036462206
7	0x3de1ce58	0.11025685
8	0x3d73a1e4	0.059480563
9	0x3d38b17d	0.04509114
10	0xbde01776	-0.10941975
11	0xbd4abd1f	-0.049496766
12	0xbbdb4293	-0.006691286
13	0xbd1f7fd2	-0.03894026
14	0xbce0de94	-0.027449884
15	0xbd424075	-0.047424752
16	0x3cfaf43c	0.030634038
17	0x3dd3fd72	0.10351075
18	0xbd4b79ed	-0.049676824
19	0x3c5d080b	0.013490687
20	0xbd954559	-0.07288618
21	0xbd677a0c	-0.056512877
22	0xbd65a67f	-0.056066986
23	0xbdda2c5f	-0.10652994
24	0xbd09d298	-0.033648103
25	0xbd7b4c1f	-0.06135189
26	0xbc3112e9	-0.010807731
27	0x3dcf18a2	0.1011212
28	0x3d24d07a	0.04023788
29	0xbcedf608	-0.02904798
30	0xbd64335f	-0.055713054
31	0x3b3e077b	0.0028996158
32	0x3d8b4dde	0.06801961
33	0xbc2355e8	-0.009969212
34	0xbcef97dd	-0.029247219
35	0x3cdc979d	0.026927764
36	0xbc7d71b8	-0.015469007
37	0xbd4a2556	-0.049352013
38	0xbdcffe7c	-0.10155961
39	0xbcb2f27f	-0.021844147
40	0x3d74c463	0.0597576
41	0xbdf68a15	-0.12038056
42	0xbd85cbea	-0.06533034
43	0xbc6217fe	-0.0137996655
44	0x3b6f433c	0.003650858
45	0x3d3a2d70	0.04545349
46	0x3ca0dd3e	0.019636746
47	0x3dde09d5	0.10841719
48	0xbcb0c888	-0.021579996
49	0x3d244591	0.040105406
50	0x3d801513	0.062540196
51	0xbdbd1a8d	-0.0923358
52	0xbdfa4463	-0.12220075
53	0x3d855035	0.06509439
54	0x3da8c987	0.08241563
55	0x3d80dab3	0.062917136
56	0xbd452d80	-0.048139095
57	0xbb975f72	-0.0046195323
58	0x3a50b96e	0.00079622015
59	0xbdb4c3d7	-0.08826416
60	0x3dd3091a	0.1030447
61	0xbdbccb37	-0.09218448
62	0xbd8dc57a	-0.06922431
63	0xbd672954	-0.056435898
